{"config": [{"config": {"trainable": true, "W_regularizer": null, "output_dim": 52, "activity_regularizer": null, "batch_input_shape": [null, 140], "mask_zero": false, "input_length": 140, "dropout": 0.2, "init": "uniform", "input_dim": 2950660, "name": "embedding_1", "W_constraint": null, "input_dtype": "int32"}, "class_name": "Embedding"}, {"config": {"trainable": true, "name": "zeropadding1d_1", "padding": 5}, "class_name": "ZeroPadding1D"}, {"config": {"b_constraint": null, "trainable": true, "nb_filter": 200, "activity_regularizer": null, "b_regularizer": null, "activation": "relu", "bias": true, "input_length": null, "name": "convolution1d_1", "filter_length": 6, "init": "uniform", "W_constraint": null, "input_dim": null, "subsample_length": 1, "W_regularizer": null, "border_mode": "valid"}, "class_name": "Convolution1D"}, {"config": {"stride": 2, "trainable": true, "name": "maxpooling1d_1", "border_mode": "valid", "pool_length": 4}, "class_name": "MaxPooling1D"}, {"config": {"b_constraint": null, "trainable": true, "nb_filter": 200, "activity_regularizer": null, "b_regularizer": null, "activation": "relu", "bias": true, "input_length": null, "name": "convolution1d_2", "filter_length": 6, "init": "uniform", "W_constraint": null, "input_dim": null, "subsample_length": 1, "W_regularizer": null, "border_mode": "valid"}, "class_name": "Convolution1D"}, {"config": {"stride": 66, "trainable": true, "name": "maxpooling1d_2", "border_mode": "valid", "pool_length": 66}, "class_name": "MaxPooling1D"}, {"config": {"trainable": true, "name": "flatten_1"}, "class_name": "Flatten"}, {"config": {"b_constraint": null, "trainable": true, "output_dim": 200, "activity_regularizer": null, "b_regularizer": null, "activation": "linear", "bias": true, "W_regularizer": null, "name": "dense_1", "init": "glorot_uniform", "input_dim": null, "W_constraint": null}, "class_name": "Dense"}, {"config": {"p": 0.2, "trainable": true, "name": "dropout_1"}, "class_name": "Dropout"}, {"config": {"trainable": true, "name": "activation_1", "activation": "relu"}, "class_name": "Activation"}, {"config": {"b_constraint": null, "trainable": true, "output_dim": 3, "activity_regularizer": null, "b_regularizer": null, "activation": "softmax", "bias": true, "W_regularizer": null, "name": "dense_2", "init": "glorot_uniform", "input_dim": null, "W_constraint": null}, "class_name": "Dense"}], "keras_version": "1.1.0", "class_name": "Sequential"}