{"class_name": "Sequential", "config": [{"class_name": "Merge", "config": {"output_shape": null, "mode": "concat", "concat_axis": -1, "output_shape_type": "raw", "mode_type": "raw", "layers": [{"class_name": "Sequential", "config": [{"class_name": "Embedding", "config": {"W_regularizer": null, "batch_input_shape": [null, 140], "input_length": 140, "output_dim": 52, "input_dim": 1576890, "W_constraint": null, "mask_zero": false, "activity_regularizer": null, "init": "uniform", "dropout": 0.2, "trainable": true, "name": "embedding_1_dai_model", "input_dtype": "int32"}}, {"class_name": "ZeroPadding1D", "config": {"trainable": true, "name": "zeropadding1d_1_dai_model", "padding": 5}}, {"class_name": "Convolution1D", "config": {"b_constraint": null, "W_regularizer": null, "subsample_length": 1, "nb_filter": 200, "input_dim": null, "input_length": null, "bias": true, "filter_length": 6, "b_regularizer": null, "W_constraint": null, "init": "uniform", "activity_regularizer": null, "trainable": true, "border_mode": "valid", "name": "convolution1d_1_dai_model", "activation": "relu"}}, {"class_name": "MaxPooling1D", "config": {"trainable": true, "pool_length": 4, "stride": 2, "name": "maxpooling1d_1_dai_model", "border_mode": "valid"}}, {"class_name": "Convolution1D", "config": {"b_constraint": null, "W_regularizer": null, "subsample_length": 1, "nb_filter": 200, "input_dim": null, "input_length": null, "bias": true, "filter_length": 6, "b_regularizer": null, "W_constraint": null, "init": "uniform", "activity_regularizer": null, "trainable": true, "border_mode": "valid", "name": "convolution1d_2_dai_model", "activation": "relu"}}, {"class_name": "MaxPooling1D", "config": {"trainable": true, "pool_length": 66, "stride": 66, "name": "maxpooling1d_2_dai_model", "border_mode": "valid"}}, {"class_name": "Flatten", "config": {"trainable": true, "name": "flatten_1_dai_model"}}]}, {"class_name": "Sequential", "config": [{"class_name": "Embedding", "config": {"W_regularizer": null, "batch_input_shape": [null, 140], "input_length": 140, "output_dim": 52, "input_dim": 1576890, "W_constraint": null, "mask_zero": false, "activity_regularizer": null, "init": "uniform", "dropout": 0.2, "trainable": true, "name": "embedding_1_dil_model", "input_dtype": "int32"}}, {"class_name": "ZeroPadding1D", "config": {"trainable": true, "name": "zeropadding1d_1_dil_model", "padding": 5}}, {"class_name": "Convolution1D", "config": {"b_constraint": null, "W_regularizer": null, "subsample_length": 1, "nb_filter": 200, "input_dim": null, "input_length": null, "bias": true, "filter_length": 6, "b_regularizer": null, "W_constraint": null, "init": "uniform", "activity_regularizer": null, "trainable": true, "border_mode": "valid", "name": "convolution1d_1_dil_model", "activation": "relu"}}, {"class_name": "MaxPooling1D", "config": {"trainable": true, "pool_length": 4, "stride": 2, "name": "maxpooling1d_1_dil_model", "border_mode": "valid"}}, {"class_name": "Convolution1D", "config": {"b_constraint": null, "W_regularizer": null, "subsample_length": 1, "nb_filter": 200, "input_dim": null, "input_length": null, "bias": true, "filter_length": 6, "b_regularizer": null, "W_constraint": null, "init": "uniform", "activity_regularizer": null, "trainable": true, "border_mode": "valid", "name": "convolution1d_2_dil_model", "activation": "relu"}}, {"class_name": "MaxPooling1D", "config": {"trainable": true, "pool_length": 66, "stride": 66, "name": "maxpooling1d_2_dil_model", "border_mode": "valid"}}, {"class_name": "Flatten", "config": {"trainable": true, "name": "flatten_1_dil_model"}}]}, {"class_name": "Sequential", "config": [{"class_name": "Embedding", "config": {"W_regularizer": null, "batch_input_shape": [null, 140], "input_length": 140, "output_dim": 52, "input_dim": 1062158, "W_constraint": null, "mask_zero": false, "activity_regularizer": null, "init": "uniform", "dropout": 0.2, "trainable": true, "name": "embedding_1_hul_model", "input_dtype": "int32"}}, {"class_name": "ZeroPadding1D", "config": {"trainable": true, "name": "zeropadding1d_1_hul_model", "padding": 5}}, {"class_name": "Convolution1D", "config": {"b_constraint": null, "W_regularizer": null, "subsample_length": 1, "nb_filter": 200, "input_dim": null, "input_length": null, "bias": true, "filter_length": 6, "b_regularizer": null, "W_constraint": null, "init": "uniform", "activity_regularizer": null, "trainable": true, "border_mode": "valid", "name": "convolution1d_1_hul_model", "activation": "relu"}}, {"class_name": "MaxPooling1D", "config": {"trainable": true, "pool_length": 4, "stride": 2, "name": "maxpooling1d_1_hul_model", "border_mode": "valid"}}, {"class_name": "Convolution1D", "config": {"b_constraint": null, "W_regularizer": null, "subsample_length": 1, "nb_filter": 200, "input_dim": null, "input_length": null, "bias": true, "filter_length": 6, "b_regularizer": null, "W_constraint": null, "init": "uniform", "activity_regularizer": null, "trainable": true, "border_mode": "valid", "name": "convolution1d_2_hul_model", "activation": "relu"}}, {"class_name": "MaxPooling1D", "config": {"trainable": true, "pool_length": 66, "stride": 66, "name": "maxpooling1d_2_hul_model", "border_mode": "valid"}}, {"class_name": "Flatten", "config": {"trainable": true, "name": "flatten_1_hul_model"}}]}, {"class_name": "Sequential", "config": [{"class_name": "Embedding", "config": {"W_regularizer": null, "batch_input_shape": [null, 140], "input_length": 140, "output_dim": 52, "input_dim": 428669, "W_constraint": null, "mask_zero": false, "activity_regularizer": null, "init": "uniform", "dropout": 0.2, "trainable": true, "name": "embedding_17_mpq_model", "input_dtype": "int32"}}, {"class_name": "ZeroPadding1D", "config": {"trainable": true, "name": "zeropadding1d_17_mpq_model", "padding": 5}}, {"class_name": "Convolution1D", "config": {"b_constraint": null, "W_regularizer": null, "subsample_length": 1, "nb_filter": 200, "input_dim": null, "input_length": null, "bias": true, "filter_length": 6, "b_regularizer": null, "W_constraint": null, "init": "uniform", "activity_regularizer": null, "trainable": true, "border_mode": "valid", "name": "convolution1d_33_mpq_model", "activation": "relu"}}, {"class_name": "MaxPooling1D", "config": {"trainable": true, "pool_length": 4, "stride": 2, "name": "maxpooling1d_33_mpq_model", "border_mode": "valid"}}, {"class_name": "Convolution1D", "config": {"b_constraint": null, "W_regularizer": null, "subsample_length": 1, "nb_filter": 200, "input_dim": null, "input_length": null, "bias": true, "filter_length": 6, "b_regularizer": null, "W_constraint": null, "init": "uniform", "activity_regularizer": null, "trainable": true, "border_mode": "valid", "name": "convolution1d_34_mpq_model", "activation": "relu"}}, {"class_name": "MaxPooling1D", "config": {"trainable": true, "pool_length": 66, "stride": 66, "name": "maxpooling1d_34_mpq_model", "border_mode": "valid"}}, {"class_name": "Flatten", "config": {"trainable": true, "name": "flatten_17_mpq_model"}}]}, {"class_name": "Sequential", "config": [{"class_name": "Embedding", "config": {"W_regularizer": null, "batch_input_shape": [null, 140], "input_length": 140, "output_dim": 52, "input_dim": 428669, "W_constraint": null, "mask_zero": false, "activity_regularizer": null, "init": "uniform", "dropout": 0.2, "trainable": true, "name": "embedding_1_tac_model", "input_dtype": "int32"}}, {"class_name": "ZeroPadding1D", "config": {"trainable": true, "name": "zeropadding1d_1_tac_model", "padding": 5}}, {"class_name": "Convolution1D", "config": {"b_constraint": null, "W_regularizer": null, "subsample_length": 1, "nb_filter": 200, "input_dim": null, "input_length": null, "bias": true, "filter_length": 6, "b_regularizer": null, "W_constraint": null, "init": "uniform", "activity_regularizer": null, "trainable": true, "border_mode": "valid", "name": "convolution1d_1_tac_model", "activation": "relu"}}, {"class_name": "MaxPooling1D", "config": {"trainable": true, "pool_length": 4, "stride": 2, "name": "maxpooling1d_1_tac_model", "border_mode": "valid"}}, {"class_name": "Convolution1D", "config": {"b_constraint": null, "W_regularizer": null, "subsample_length": 1, "nb_filter": 200, "input_dim": null, "input_length": null, "bias": true, "filter_length": 6, "b_regularizer": null, "W_constraint": null, "init": "uniform", "activity_regularizer": null, "trainable": true, "border_mode": "valid", "name": "convolution1d_2_tac_model", "activation": "relu"}}, {"class_name": "MaxPooling1D", "config": {"trainable": true, "pool_length": 66, "stride": 66, "name": "maxpooling1d_2_tac_model", "border_mode": "valid"}}, {"class_name": "Flatten", "config": {"trainable": true, "name": "flatten_1_tac_model"}}]}, {"class_name": "Sequential", "config": [{"class_name": "Embedding", "config": {"W_regularizer": null, "batch_input_shape": [null, 140], "input_length": 140, "output_dim": 52, "input_dim": 428669, "W_constraint": null, "mask_zero": false, "activity_regularizer": null, "init": "uniform", "dropout": 0.2, "trainable": true, "name": "embedding_1_semeval_model", "input_dtype": "int32"}}, {"class_name": "ZeroPadding1D", "config": {"trainable": true, "name": "zeropadding1d_1_semeval_model", "padding": 5}}, {"class_name": "Convolution1D", "config": {"b_constraint": null, "W_regularizer": null, "subsample_length": 1, "nb_filter": 200, "input_dim": null, "input_length": null, "bias": true, "filter_length": 6, "b_regularizer": null, "W_constraint": null, "init": "uniform", "activity_regularizer": null, "trainable": true, "border_mode": "valid", "name": "convolution1d_1_semeval_model", "activation": "relu"}}, {"class_name": "MaxPooling1D", "config": {"trainable": true, "pool_length": 4, "stride": 2, "name": "maxpooling1d_1_semeval_model", "border_mode": "valid"}}, {"class_name": "Convolution1D", "config": {"b_constraint": null, "W_regularizer": null, "subsample_length": 1, "nb_filter": 200, "input_dim": null, "input_length": null, "bias": true, "filter_length": 6, "b_regularizer": null, "W_constraint": null, "init": "uniform", "activity_regularizer": null, "trainable": true, "border_mode": "valid", "name": "convolution1d_2_semeval_model", "activation": "relu"}}, {"class_name": "MaxPooling1D", "config": {"trainable": true, "pool_length": 66, "stride": 66, "name": "maxpooling1d_2_semeval_model", "border_mode": "valid"}}, {"class_name": "Flatten", "config": {"trainable": true, "name": "flatten_1_semeval_model"}}]}], "dot_axes": -1, "name": "merge_1"}}, {"class_name": "Dense", "config": {"b_constraint": null, "W_regularizer": null, "activation": "linear", "bias": true, "output_dim": 1028, "input_dim": null, "b_regularizer": null, "W_constraint": null, "init": "glorot_uniform", "activity_regularizer": null, "trainable": true, "name": "dense_1"}}, {"class_name": "Activation", "config": {"trainable": true, "name": "activation_1", "activation": "relu"}}, {"class_name": "Dense", "config": {"b_constraint": null, "W_regularizer": null, "activation": "softmax", "bias": true, "output_dim": 3, "input_dim": null, "b_regularizer": null, "W_constraint": null, "init": "glorot_uniform", "activity_regularizer": null, "trainable": true, "name": "dense_2"}}], "keras_version": "1.1.1"}