{"config": [{"config": {"mode_type": "raw", "mode": "concat", "name": "merge_1", "concat_axis": -1, "output_shape": null, "output_shape_type": "raw", "layers": [{"config": [{"config": {"input_length": 140, "mask_zero": false, "W_regularizer": null, "W_constraint": null, "output_dim": 52, "input_dim": 1576890, "activity_regularizer": null, "init": "uniform", "batch_input_shape": [null, 140], "dropout": 0.2, "name": "embedding_1_dai_model", "input_dtype": "int32", "trainable": false}, "class_name": "Embedding"}, {"config": {"padding": 5, "name": "zeropadding1d_1_dai_model", "trainable": false}, "class_name": "ZeroPadding1D"}, {"config": {"input_length": null, "W_regularizer": null, "W_constraint": null, "border_mode": "valid", "b_regularizer": null, "input_dim": null, "subsample_length": 1, "activity_regularizer": null, "init": "uniform", "b_constraint": null, "name": "convolution1d_1_dai_model", "bias": true, "nb_filter": 200, "filter_length": 6, "trainable": false, "activation": "relu"}, "class_name": "Convolution1D"}, {"config": {"border_mode": "valid", "stride": 2, "name": "maxpooling1d_1_dai_model", "trainable": false, "pool_length": 4}, "class_name": "MaxPooling1D"}, {"config": {"input_length": null, "W_regularizer": null, "W_constraint": null, "border_mode": "valid", "b_regularizer": null, "input_dim": null, "subsample_length": 1, "activity_regularizer": null, "init": "uniform", "b_constraint": null, "name": "convolution1d_2_dai_model", "bias": true, "nb_filter": 200, "filter_length": 6, "trainable": false, "activation": "relu"}, "class_name": "Convolution1D"}, {"config": {"border_mode": "valid", "stride": 66, "name": "maxpooling1d_2_dai_model", "trainable": false, "pool_length": 66}, "class_name": "MaxPooling1D"}, {"config": {"name": "flatten_1_dai_model", "trainable": false}, "class_name": "Flatten"}, {"config": {"W_regularizer": null, "W_constraint": null, "output_dim": 200, "input_dim": null, "activity_regularizer": null, "init": "glorot_uniform", "b_regularizer": null, "b_constraint": null, "name": "dense_1_dai_model", "bias": true, "trainable": false, "activation": "linear"}, "class_name": "Dense"}, {"config": {"p": 0.2, "name": "dropout_1_dai_model", "trainable": false}, "class_name": "Dropout"}, {"config": {"name": "activation_1_dai_model", "trainable": false, "activation": "relu"}, "class_name": "Activation"}, {"config": {"W_regularizer": null, "W_constraint": null, "output_dim": 3, "input_dim": null, "activity_regularizer": null, "init": "glorot_uniform", "b_regularizer": null, "b_constraint": null, "name": "dense_2_dai_model", "bias": true, "trainable": false, "activation": "softmax"}, "class_name": "Dense"}], "class_name": "Sequential"}, {"config": [{"config": {"input_length": 140, "mask_zero": false, "W_regularizer": null, "W_constraint": null, "output_dim": 52, "input_dim": 428669, "activity_regularizer": null, "init": "uniform", "batch_input_shape": [null, 140], "dropout": 0.2, "name": "embedding_17_mpq_model", "input_dtype": "int32", "trainable": false}, "class_name": "Embedding"}, {"config": {"padding": 5, "name": "zeropadding1d_17_mpq_model", "trainable": false}, "class_name": "ZeroPadding1D"}, {"config": {"input_length": null, "W_regularizer": null, "W_constraint": null, "border_mode": "valid", "b_regularizer": null, "input_dim": null, "subsample_length": 1, "activity_regularizer": null, "init": "uniform", "b_constraint": null, "name": "convolution1d_33_mpq_model", "bias": true, "nb_filter": 200, "filter_length": 6, "trainable": false, "activation": "relu"}, "class_name": "Convolution1D"}, {"config": {"border_mode": "valid", "stride": 2, "name": "maxpooling1d_33_mpq_model", "trainable": false, "pool_length": 4}, "class_name": "MaxPooling1D"}, {"config": {"input_length": null, "W_regularizer": null, "W_constraint": null, "border_mode": "valid", "b_regularizer": null, "input_dim": null, "subsample_length": 1, "activity_regularizer": null, "init": "uniform", "b_constraint": null, "name": "convolution1d_34_mpq_model", "bias": true, "nb_filter": 200, "filter_length": 6, "trainable": false, "activation": "relu"}, "class_name": "Convolution1D"}, {"config": {"border_mode": "valid", "stride": 66, "name": "maxpooling1d_34_mpq_model", "trainable": false, "pool_length": 66}, "class_name": "MaxPooling1D"}, {"config": {"name": "flatten_17_mpq_model", "trainable": false}, "class_name": "Flatten"}, {"config": {"W_regularizer": null, "W_constraint": null, "output_dim": 200, "input_dim": null, "activity_regularizer": null, "init": "glorot_uniform", "b_regularizer": null, "b_constraint": null, "name": "dense_33_mpq_model", "bias": true, "trainable": false, "activation": "linear"}, "class_name": "Dense"}, {"config": {"p": 0.2, "name": "dropout_17_mpq_model", "trainable": false}, "class_name": "Dropout"}, {"config": {"name": "activation_17_mpq_model", "trainable": false, "activation": "relu"}, "class_name": "Activation"}, {"config": {"W_regularizer": null, "W_constraint": null, "output_dim": 3, "input_dim": null, "activity_regularizer": null, "init": "glorot_uniform", "b_regularizer": null, "b_constraint": null, "name": "dense_34_mpq_model", "bias": true, "trainable": false, "activation": "softmax"}, "class_name": "Dense"}], "class_name": "Sequential"}, {"config": [{"config": {"input_length": 140, "mask_zero": false, "W_regularizer": null, "W_constraint": null, "output_dim": 52, "input_dim": 428669, "activity_regularizer": null, "init": "uniform", "batch_input_shape": [null, 140], "dropout": 0.2, "name": "embedding_1_tac_model", "input_dtype": "int32", "trainable": false}, "class_name": "Embedding"}, {"config": {"padding": 5, "name": "zeropadding1d_1_tac_model", "trainable": false}, "class_name": "ZeroPadding1D"}, {"config": {"input_length": null, "W_regularizer": null, "W_constraint": null, "border_mode": "valid", "b_regularizer": null, "input_dim": null, "subsample_length": 1, "activity_regularizer": null, "init": "uniform", "b_constraint": null, "name": "convolution1d_1_tac_model", "bias": true, "nb_filter": 200, "filter_length": 6, "trainable": false, "activation": "relu"}, "class_name": "Convolution1D"}, {"config": {"border_mode": "valid", "stride": 2, "name": "maxpooling1d_1_tac_model", "trainable": false, "pool_length": 4}, "class_name": "MaxPooling1D"}, {"config": {"input_length": null, "W_regularizer": null, "W_constraint": null, "border_mode": "valid", "b_regularizer": null, "input_dim": null, "subsample_length": 1, "activity_regularizer": null, "init": "uniform", "b_constraint": null, "name": "convolution1d_2_tac_model", "bias": true, "nb_filter": 200, "filter_length": 6, "trainable": false, "activation": "relu"}, "class_name": "Convolution1D"}, {"config": {"border_mode": "valid", "stride": 66, "name": "maxpooling1d_2_tac_model", "trainable": false, "pool_length": 66}, "class_name": "MaxPooling1D"}, {"config": {"name": "flatten_1_tac_model", "trainable": false}, "class_name": "Flatten"}, {"config": {"W_regularizer": null, "W_constraint": null, "output_dim": 200, "input_dim": null, "activity_regularizer": null, "init": "glorot_uniform", "b_regularizer": null, "b_constraint": null, "name": "dense_1_tac_model", "bias": true, "trainable": false, "activation": "linear"}, "class_name": "Dense"}, {"config": {"p": 0.2, "name": "dropout_1_tac_model", "trainable": false}, "class_name": "Dropout"}, {"config": {"name": "activation_1_tac_model", "trainable": false, "activation": "relu"}, "class_name": "Activation"}, {"config": {"W_regularizer": null, "W_constraint": null, "output_dim": 3, "input_dim": null, "activity_regularizer": null, "init": "glorot_uniform", "b_regularizer": null, "b_constraint": null, "name": "dense_2_tac_model", "bias": true, "trainable": false, "activation": "softmax"}, "class_name": "Dense"}], "class_name": "Sequential"}, {"config": [{"config": {"input_length": 140, "mask_zero": false, "W_regularizer": null, "W_constraint": null, "output_dim": 52, "input_dim": 428669, "activity_regularizer": null, "init": "uniform", "batch_input_shape": [null, 140], "dropout": 0.2, "name": "embedding_1_semeval_model", "input_dtype": "int32", "trainable": false}, "class_name": "Embedding"}, {"config": {"padding": 5, "name": "zeropadding1d_1_semeval_model", "trainable": false}, "class_name": "ZeroPadding1D"}, {"config": {"input_length": null, "W_regularizer": null, "W_constraint": null, "border_mode": "valid", "b_regularizer": null, "input_dim": null, "subsample_length": 1, "activity_regularizer": null, "init": "uniform", "b_constraint": null, "name": "convolution1d_1_semeval_model", "bias": true, "nb_filter": 200, "filter_length": 6, "trainable": false, "activation": "relu"}, "class_name": "Convolution1D"}, {"config": {"border_mode": "valid", "stride": 2, "name": "maxpooling1d_1_semeval_model", "trainable": false, "pool_length": 4}, "class_name": "MaxPooling1D"}, {"config": {"input_length": null, "W_regularizer": null, "W_constraint": null, "border_mode": "valid", "b_regularizer": null, "input_dim": null, "subsample_length": 1, "activity_regularizer": null, "init": "uniform", "b_constraint": null, "name": "convolution1d_2_semeval_model", "bias": true, "nb_filter": 200, "filter_length": 6, "trainable": false, "activation": "relu"}, "class_name": "Convolution1D"}, {"config": {"border_mode": "valid", "stride": 66, "name": "maxpooling1d_2_semeval_model", "trainable": false, "pool_length": 66}, "class_name": "MaxPooling1D"}, {"config": {"name": "flatten_1_semeval_model", "trainable": false}, "class_name": "Flatten"}, {"config": {"W_regularizer": null, "W_constraint": null, "output_dim": 200, "input_dim": null, "activity_regularizer": null, "init": "glorot_uniform", "b_regularizer": null, "b_constraint": null, "name": "dense_1_semeval_model", "bias": true, "trainable": false, "activation": "linear"}, "class_name": "Dense"}, {"config": {"p": 0.2, "name": "dropout_1_semeval_model", "trainable": false}, "class_name": "Dropout"}, {"config": {"name": "activation_1_semeval_model", "trainable": false, "activation": "relu"}, "class_name": "Activation"}, {"config": {"W_regularizer": null, "W_constraint": null, "output_dim": 3, "input_dim": null, "activity_regularizer": null, "init": "glorot_uniform", "b_regularizer": null, "b_constraint": null, "name": "dense_2_semeval_model", "bias": true, "trainable": false, "activation": "softmax"}, "class_name": "Dense"}], "class_name": "Sequential"}, {"config": [{"config": {"input_length": 140, "mask_zero": false, "W_regularizer": null, "W_constraint": null, "output_dim": 52, "input_dim": 1062158, "activity_regularizer": null, "init": "uniform", "batch_input_shape": [null, 140], "dropout": 0.2, "name": "embedding_1_hul_model", "input_dtype": "int32", "trainable": false}, "class_name": "Embedding"}, {"config": {"padding": 5, "name": "zeropadding1d_1_hul_model", "trainable": false}, "class_name": "ZeroPadding1D"}, {"config": {"input_length": null, "W_regularizer": null, "W_constraint": null, "border_mode": "valid", "b_regularizer": null, "input_dim": null, "subsample_length": 1, "activity_regularizer": null, "init": "uniform", "b_constraint": null, "name": "convolution1d_1_hul_model", "bias": true, "nb_filter": 200, "filter_length": 6, "trainable": false, "activation": "relu"}, "class_name": "Convolution1D"}, {"config": {"border_mode": "valid", "stride": 2, "name": "maxpooling1d_1_hul_model", "trainable": false, "pool_length": 4}, "class_name": "MaxPooling1D"}, {"config": {"input_length": null, "W_regularizer": null, "W_constraint": null, "border_mode": "valid", "b_regularizer": null, "input_dim": null, "subsample_length": 1, "activity_regularizer": null, "init": "uniform", "b_constraint": null, "name": "convolution1d_2_hul_model", "bias": true, "nb_filter": 200, "filter_length": 6, "trainable": false, "activation": "relu"}, "class_name": "Convolution1D"}, {"config": {"border_mode": "valid", "stride": 66, "name": "maxpooling1d_2_hul_model", "trainable": false, "pool_length": 66}, "class_name": "MaxPooling1D"}, {"config": {"name": "flatten_1_hul_model", "trainable": false}, "class_name": "Flatten"}, {"config": {"W_regularizer": null, "W_constraint": null, "output_dim": 200, "input_dim": null, "activity_regularizer": null, "init": "glorot_uniform", "b_regularizer": null, "b_constraint": null, "name": "dense_1_hul_model", "bias": true, "trainable": false, "activation": "linear"}, "class_name": "Dense"}, {"config": {"p": 0.2, "name": "dropout_1_hul_model", "trainable": false}, "class_name": "Dropout"}, {"config": {"name": "activation_1_hul_model", "trainable": false, "activation": "relu"}, "class_name": "Activation"}, {"config": {"W_regularizer": null, "W_constraint": null, "output_dim": 3, "input_dim": null, "activity_regularizer": null, "init": "glorot_uniform", "b_regularizer": null, "b_constraint": null, "name": "dense_2_hul_model", "bias": true, "trainable": false, "activation": "softmax"}, "class_name": "Dense"}], "class_name": "Sequential"}, {"config": [{"config": {"input_length": 140, "mask_zero": false, "W_regularizer": null, "W_constraint": null, "output_dim": 52, "input_dim": 1576890, "activity_regularizer": null, "init": "uniform", "batch_input_shape": [null, 140], "dropout": 0.2, "name": "embedding_1_dil_model", "input_dtype": "int32", "trainable": false}, "class_name": "Embedding"}, {"config": {"padding": 5, "name": "zeropadding1d_1_dil_model", "trainable": false}, "class_name": "ZeroPadding1D"}, {"config": {"input_length": null, "W_regularizer": null, "W_constraint": null, "border_mode": "valid", "b_regularizer": null, "input_dim": null, "subsample_length": 1, "activity_regularizer": null, "init": "uniform", "b_constraint": null, "name": "convolution1d_1_dil_model", "bias": true, "nb_filter": 200, "filter_length": 6, "trainable": false, "activation": "relu"}, "class_name": "Convolution1D"}, {"config": {"border_mode": "valid", "stride": 2, "name": "maxpooling1d_1_dil_model", "trainable": false, "pool_length": 4}, "class_name": "MaxPooling1D"}, {"config": {"input_length": null, "W_regularizer": null, "W_constraint": null, "border_mode": "valid", "b_regularizer": null, "input_dim": null, "subsample_length": 1, "activity_regularizer": null, "init": "uniform", "b_constraint": null, "name": "convolution1d_2_dil_model", "bias": true, "nb_filter": 200, "filter_length": 6, "trainable": false, "activation": "relu"}, "class_name": "Convolution1D"}, {"config": {"border_mode": "valid", "stride": 66, "name": "maxpooling1d_2_dil_model", "trainable": false, "pool_length": 66}, "class_name": "MaxPooling1D"}, {"config": {"name": "flatten_1_dil_model", "trainable": false}, "class_name": "Flatten"}, {"config": {"W_regularizer": null, "W_constraint": null, "output_dim": 200, "input_dim": null, "activity_regularizer": null, "init": "glorot_uniform", "b_regularizer": null, "b_constraint": null, "name": "dense_1_dil_model", "bias": true, "trainable": false, "activation": "linear"}, "class_name": "Dense"}, {"config": {"p": 0.2, "name": "dropout_1_dil_model", "trainable": false}, "class_name": "Dropout"}, {"config": {"name": "activation_1_dil_model", "trainable": false, "activation": "relu"}, "class_name": "Activation"}, {"config": {"W_regularizer": null, "W_constraint": null, "output_dim": 3, "input_dim": null, "activity_regularizer": null, "init": "glorot_uniform", "b_regularizer": null, "b_constraint": null, "name": "dense_2_dil_model", "bias": true, "trainable": false, "activation": "softmax"}, "class_name": "Dense"}], "class_name": "Sequential"}], "dot_axes": -1}, "class_name": "Merge"}, {"config": {"W_regularizer": null, "W_constraint": null, "b_regularizer": null, "input_dim": null, "activity_regularizer": null, "init": "glorot_uniform", "output_dim": 256, "b_constraint": null, "name": "dense_1", "bias": true, "trainable": true, "activation": "linear"}, "class_name": "Dense"}, {"config": {"name": "activation_1", "trainable": true, "activation": "relu"}, "class_name": "Activation"}, {"config": {"W_regularizer": null, "W_constraint": null, "b_regularizer": null, "input_dim": null, "activity_regularizer": null, "init": "glorot_uniform", "output_dim": 3, "b_constraint": null, "name": "dense_2", "bias": true, "trainable": true, "activation": "softmax"}, "class_name": "Dense"}], "keras_version": "1.1.1", "class_name": "Sequential"}