{"class_name": "Sequential", "keras_version": "1.1.1", "config": [{"class_name": "Merge", "config": {"concat_axis": -1, "output_shape": null, "dot_axes": -1, "name": "merge_1", "mode": "concat", "layers": [{"class_name": "Sequential", "config": [{"class_name": "Embedding", "config": {"activity_regularizer": null, "input_length": 140, "input_dtype": "int32", "name": "embedding_1_dai_model", "W_regularizer": null, "W_constraint": null, "mask_zero": false, "dropout": 0.2, "output_dim": 52, "input_dim": 1576890, "trainable": true, "init": "uniform", "batch_input_shape": [null, 140]}}, {"class_name": "ZeroPadding1D", "config": {"padding": 5, "name": "zeropadding1d_1_dai_model", "trainable": true}}, {"class_name": "Convolution1D", "config": {"activity_regularizer": null, "bias": true, "border_mode": "valid", "name": "convolution1d_1_dai_model", "W_regularizer": null, "W_constraint": null, "nb_filter": 200, "input_length": null, "filter_length": 6, "input_dim": null, "b_regularizer": null, "trainable": true, "b_constraint": null, "init": "uniform", "activation": "relu", "subsample_length": 1}}, {"class_name": "MaxPooling1D", "config": {"stride": 2, "border_mode": "valid", "pool_length": 4, "name": "maxpooling1d_1_dai_model", "trainable": true}}, {"class_name": "Convolution1D", "config": {"activity_regularizer": null, "bias": true, "border_mode": "valid", "name": "convolution1d_2_dai_model", "W_regularizer": null, "W_constraint": null, "nb_filter": 200, "input_length": null, "filter_length": 6, "input_dim": null, "b_regularizer": null, "trainable": true, "b_constraint": null, "init": "uniform", "activation": "relu", "subsample_length": 1}}]}, {"class_name": "Sequential", "config": [{"class_name": "Embedding", "config": {"activity_regularizer": null, "input_length": 140, "input_dtype": "int32", "name": "embedding_1_dil_model", "W_regularizer": null, "W_constraint": null, "mask_zero": false, "dropout": 0.2, "output_dim": 52, "input_dim": 1576890, "trainable": true, "init": "uniform", "batch_input_shape": [null, 140]}}, {"class_name": "ZeroPadding1D", "config": {"padding": 5, "name": "zeropadding1d_1_dil_model", "trainable": true}}, {"class_name": "Convolution1D", "config": {"activity_regularizer": null, "bias": true, "border_mode": "valid", "name": "convolution1d_1_dil_model", "W_regularizer": null, "W_constraint": null, "nb_filter": 200, "input_length": null, "filter_length": 6, "input_dim": null, "b_regularizer": null, "trainable": true, "b_constraint": null, "init": "uniform", "activation": "relu", "subsample_length": 1}}, {"class_name": "MaxPooling1D", "config": {"stride": 2, "border_mode": "valid", "pool_length": 4, "name": "maxpooling1d_1_dil_model", "trainable": true}}, {"class_name": "Convolution1D", "config": {"activity_regularizer": null, "bias": true, "border_mode": "valid", "name": "convolution1d_2_dil_model", "W_regularizer": null, "W_constraint": null, "nb_filter": 200, "input_length": null, "filter_length": 6, "input_dim": null, "b_regularizer": null, "trainable": true, "b_constraint": null, "init": "uniform", "activation": "relu", "subsample_length": 1}}]}, {"class_name": "Sequential", "config": [{"class_name": "Embedding", "config": {"activity_regularizer": null, "input_length": 140, "input_dtype": "int32", "name": "embedding_17_mpq_model", "W_regularizer": null, "W_constraint": null, "mask_zero": false, "dropout": 0.2, "output_dim": 52, "input_dim": 428669, "trainable": true, "init": "uniform", "batch_input_shape": [null, 140]}}, {"class_name": "ZeroPadding1D", "config": {"padding": 5, "name": "zeropadding1d_17_mpq_model", "trainable": true}}, {"class_name": "Convolution1D", "config": {"activity_regularizer": null, "bias": true, "border_mode": "valid", "name": "convolution1d_33_mpq_model", "W_regularizer": null, "W_constraint": null, "nb_filter": 200, "input_length": null, "filter_length": 6, "input_dim": null, "b_regularizer": null, "trainable": true, "b_constraint": null, "init": "uniform", "activation": "relu", "subsample_length": 1}}, {"class_name": "MaxPooling1D", "config": {"stride": 2, "border_mode": "valid", "pool_length": 4, "name": "maxpooling1d_33_mpq_model", "trainable": true}}, {"class_name": "Convolution1D", "config": {"activity_regularizer": null, "bias": true, "border_mode": "valid", "name": "convolution1d_34_mpq_model", "W_regularizer": null, "W_constraint": null, "nb_filter": 200, "input_length": null, "filter_length": 6, "input_dim": null, "b_regularizer": null, "trainable": true, "b_constraint": null, "init": "uniform", "activation": "relu", "subsample_length": 1}}]}, {"class_name": "Sequential", "config": [{"class_name": "Embedding", "config": {"activity_regularizer": null, "input_length": 140, "input_dtype": "int32", "name": "embedding_1_semeval_model", "W_regularizer": null, "W_constraint": null, "mask_zero": false, "dropout": 0.2, "output_dim": 52, "input_dim": 428669, "trainable": true, "init": "uniform", "batch_input_shape": [null, 140]}}, {"class_name": "ZeroPadding1D", "config": {"padding": 5, "name": "zeropadding1d_1_semeval_model", "trainable": true}}, {"class_name": "Convolution1D", "config": {"activity_regularizer": null, "bias": true, "border_mode": "valid", "name": "convolution1d_1_semeval_model", "W_regularizer": null, "W_constraint": null, "nb_filter": 200, "input_length": null, "filter_length": 6, "input_dim": null, "b_regularizer": null, "trainable": true, "b_constraint": null, "init": "uniform", "activation": "relu", "subsample_length": 1}}, {"class_name": "MaxPooling1D", "config": {"stride": 2, "border_mode": "valid", "pool_length": 4, "name": "maxpooling1d_1_semeval_model", "trainable": true}}, {"class_name": "Convolution1D", "config": {"activity_regularizer": null, "bias": true, "border_mode": "valid", "name": "convolution1d_2_semeval_model", "W_regularizer": null, "W_constraint": null, "nb_filter": 200, "input_length": null, "filter_length": 6, "input_dim": null, "b_regularizer": null, "trainable": true, "b_constraint": null, "init": "uniform", "activation": "relu", "subsample_length": 1}}]}, {"class_name": "Sequential", "config": [{"class_name": "Embedding", "config": {"activity_regularizer": null, "input_length": 140, "input_dtype": "int32", "name": "embedding_1_tac_model", "W_regularizer": null, "W_constraint": null, "mask_zero": false, "dropout": 0.2, "output_dim": 52, "input_dim": 428669, "trainable": true, "init": "uniform", "batch_input_shape": [null, 140]}}, {"class_name": "ZeroPadding1D", "config": {"padding": 5, "name": "zeropadding1d_1_tac_model", "trainable": true}}, {"class_name": "Convolution1D", "config": {"activity_regularizer": null, "bias": true, "border_mode": "valid", "name": "convolution1d_1_tac_model", "W_regularizer": null, "W_constraint": null, "nb_filter": 200, "input_length": null, "filter_length": 6, "input_dim": null, "b_regularizer": null, "trainable": true, "b_constraint": null, "init": "uniform", "activation": "relu", "subsample_length": 1}}, {"class_name": "MaxPooling1D", "config": {"stride": 2, "border_mode": "valid", "pool_length": 4, "name": "maxpooling1d_1_tac_model", "trainable": true}}, {"class_name": "Convolution1D", "config": {"activity_regularizer": null, "bias": true, "border_mode": "valid", "name": "convolution1d_2_tac_model", "W_regularizer": null, "W_constraint": null, "nb_filter": 200, "input_length": null, "filter_length": 6, "input_dim": null, "b_regularizer": null, "trainable": true, "b_constraint": null, "init": "uniform", "activation": "relu", "subsample_length": 1}}]}], "output_shape_type": "raw", "mode_type": "raw"}}, {"class_name": "Flatten", "config": {"name": "flatten_1", "trainable": true}}, {"class_name": "Dense", "config": {"W_regularizer": null, "bias": true, "name": "dense_1", "activity_regularizer": null, "W_constraint": null, "output_dim": 200, "input_dim": null, "b_regularizer": null, "trainable": true, "b_constraint": null, "init": "glorot_uniform", "activation": "linear"}}, {"class_name": "Dropout", "config": {"p": 0.2, "trainable": true, "name": "dropout_1"}}, {"class_name": "Activation", "config": {"activation": "relu", "trainable": true, "name": "activation_1"}}, {"class_name": "Dense", "config": {"W_regularizer": null, "bias": true, "name": "dense_2", "activity_regularizer": null, "W_constraint": null, "output_dim": 3, "input_dim": null, "b_regularizer": null, "trainable": true, "b_constraint": null, "init": "glorot_uniform", "activation": "softmax"}}]}