{"class_name": "Sequential", "config": [{"class_name": "Embedding", "config": {"batch_input_shape": [null, 140], "mask_zero": false, "output_dim": 52, "dropout": 0.2, "W_regularizer": null, "trainable": true, "activity_regularizer": null, "input_dtype": "int32", "W_constraint": null, "input_length": 140, "init": "uniform", "input_dim": 428669, "name": "embedding_1"}}, {"class_name": "ZeroPadding1D", "config": {"padding": 5, "trainable": true, "name": "zeropadding1d_1"}}, {"class_name": "Convolution1D", "config": {"nb_filter": 200, "name": "convolution1d_1", "border_mode": "valid", "subsample_length": 1, "bias": true, "b_regularizer": null, "W_regularizer": null, "activation": "relu", "trainable": true, "activity_regularizer": null, "filter_length": 6, "W_constraint": null, "input_length": null, "init": "uniform", "input_dim": null, "b_constraint": null}}, {"class_name": "MaxPooling1D", "config": {"pool_length": 4, "name": "maxpooling1d_1", "stride": 2, "border_mode": "valid", "trainable": true}}, {"class_name": "Convolution1D", "config": {"nb_filter": 200, "name": "convolution1d_2", "border_mode": "valid", "subsample_length": 1, "bias": true, "b_regularizer": null, "W_regularizer": null, "activation": "relu", "trainable": true, "activity_regularizer": null, "filter_length": 6, "W_constraint": null, "input_length": null, "init": "uniform", "input_dim": null, "b_constraint": null}}, {"class_name": "MaxPooling1D", "config": {"pool_length": 66, "name": "maxpooling1d_2", "stride": 66, "border_mode": "valid", "trainable": true}}, {"class_name": "Flatten", "config": {"trainable": true, "name": "flatten_1"}}, {"class_name": "Dense", "config": {"b_constraint": null, "output_dim": 200, "bias": true, "b_regularizer": null, "W_regularizer": null, "activation": "linear", "trainable": true, "activity_regularizer": null, "W_constraint": null, "init": "glorot_uniform", "input_dim": null, "name": "dense_1"}}, {"class_name": "Dropout", "config": {"p": 0.2, "trainable": true, "name": "dropout_1"}}, {"class_name": "Activation", "config": {"activation": "relu", "trainable": true, "name": "activation_1"}}, {"class_name": "Dense", "config": {"b_constraint": null, "output_dim": 3, "bias": true, "b_regularizer": null, "W_regularizer": null, "activation": "softmax", "trainable": true, "activity_regularizer": null, "W_constraint": null, "init": "glorot_uniform", "input_dim": null, "name": "dense_2"}}], "keras_version": "1.1.1"}