{"keras_version": "1.1.1", "config": [{"config": {"name": "merge_1", "layers": [{"config": [{"config": {"input_dim": 1576890, "name": "embedding_1_dai_model", "batch_input_shape": [null, 140], "W_constraint": null, "init": "uniform", "output_dim": 52, "input_dtype": "int32", "trainable": true, "input_length": 140, "W_regularizer": null, "mask_zero": false, "activity_regularizer": null, "dropout": 0.2}, "class_name": "Embedding"}, {"config": {"padding": 5, "trainable": true, "name": "zeropadding1d_1_dai_model"}, "class_name": "ZeroPadding1D"}, {"config": {"activation": "relu", "input_dim": null, "name": "convolution1d_1_dai_model", "border_mode": "valid", "nb_filter": 200, "init": "uniform", "subsample_length": 1, "b_regularizer": null, "trainable": true, "input_length": null, "W_regularizer": null, "W_constraint": null, "b_constraint": null, "activity_regularizer": null, "filter_length": 6, "bias": true}, "class_name": "Convolution1D"}, {"config": {"stride": 2, "trainable": true, "name": "maxpooling1d_1_dai_model", "pool_length": 4, "border_mode": "valid"}, "class_name": "MaxPooling1D"}, {"config": {"activation": "relu", "input_dim": null, "name": "convolution1d_2_dai_model", "border_mode": "valid", "nb_filter": 200, "init": "uniform", "subsample_length": 1, "b_regularizer": null, "trainable": true, "input_length": null, "W_regularizer": null, "W_constraint": null, "b_constraint": null, "activity_regularizer": null, "filter_length": 6, "bias": true}, "class_name": "Convolution1D"}], "class_name": "Sequential"}, {"config": [{"config": {"input_dim": 1576890, "name": "embedding_1_dil_model", "batch_input_shape": [null, 140], "W_constraint": null, "init": "uniform", "output_dim": 52, "input_dtype": "int32", "trainable": true, "input_length": 140, "W_regularizer": null, "mask_zero": false, "activity_regularizer": null, "dropout": 0.2}, "class_name": "Embedding"}, {"config": {"padding": 5, "trainable": true, "name": "zeropadding1d_1_dil_model"}, "class_name": "ZeroPadding1D"}, {"config": {"activation": "relu", "input_dim": null, "name": "convolution1d_1_dil_model", "border_mode": "valid", "nb_filter": 200, "init": "uniform", "subsample_length": 1, "b_regularizer": null, "trainable": true, "input_length": null, "W_regularizer": null, "W_constraint": null, "b_constraint": null, "activity_regularizer": null, "filter_length": 6, "bias": true}, "class_name": "Convolution1D"}, {"config": {"stride": 2, "trainable": true, "name": "maxpooling1d_1_dil_model", "pool_length": 4, "border_mode": "valid"}, "class_name": "MaxPooling1D"}, {"config": {"activation": "relu", "input_dim": null, "name": "convolution1d_2_dil_model", "border_mode": "valid", "nb_filter": 200, "init": "uniform", "subsample_length": 1, "b_regularizer": null, "trainable": true, "input_length": null, "W_regularizer": null, "W_constraint": null, "b_constraint": null, "activity_regularizer": null, "filter_length": 6, "bias": true}, "class_name": "Convolution1D"}], "class_name": "Sequential"}, {"config": [{"config": {"input_dim": 1062158, "name": "embedding_1_hul_model", "batch_input_shape": [null, 140], "W_constraint": null, "init": "uniform", "output_dim": 52, "input_dtype": "int32", "trainable": true, "input_length": 140, "W_regularizer": null, "mask_zero": false, "activity_regularizer": null, "dropout": 0.2}, "class_name": "Embedding"}, {"config": {"padding": 5, "trainable": true, "name": "zeropadding1d_1_hul_model"}, "class_name": "ZeroPadding1D"}, {"config": {"activation": "relu", "input_dim": null, "name": "convolution1d_1_hul_model", "border_mode": "valid", "nb_filter": 200, "init": "uniform", "subsample_length": 1, "b_regularizer": null, "trainable": true, "input_length": null, "W_regularizer": null, "W_constraint": null, "b_constraint": null, "activity_regularizer": null, "filter_length": 6, "bias": true}, "class_name": "Convolution1D"}, {"config": {"stride": 2, "trainable": true, "name": "maxpooling1d_1_hul_model", "pool_length": 4, "border_mode": "valid"}, "class_name": "MaxPooling1D"}, {"config": {"activation": "relu", "input_dim": null, "name": "convolution1d_2_hul_model", "border_mode": "valid", "nb_filter": 200, "init": "uniform", "subsample_length": 1, "b_regularizer": null, "trainable": true, "input_length": null, "W_regularizer": null, "W_constraint": null, "b_constraint": null, "activity_regularizer": null, "filter_length": 6, "bias": true}, "class_name": "Convolution1D"}], "class_name": "Sequential"}, {"config": [{"config": {"input_dim": 428669, "name": "embedding_1_semeval_model", "batch_input_shape": [null, 140], "W_constraint": null, "init": "uniform", "output_dim": 52, "input_dtype": "int32", "trainable": true, "input_length": 140, "W_regularizer": null, "mask_zero": false, "activity_regularizer": null, "dropout": 0.2}, "class_name": "Embedding"}, {"config": {"padding": 5, "trainable": true, "name": "zeropadding1d_1_semeval_model"}, "class_name": "ZeroPadding1D"}, {"config": {"activation": "relu", "input_dim": null, "name": "convolution1d_1_semeval_model", "border_mode": "valid", "nb_filter": 200, "init": "uniform", "subsample_length": 1, "b_regularizer": null, "trainable": true, "input_length": null, "W_regularizer": null, "W_constraint": null, "b_constraint": null, "activity_regularizer": null, "filter_length": 6, "bias": true}, "class_name": "Convolution1D"}, {"config": {"stride": 2, "trainable": true, "name": "maxpooling1d_1_semeval_model", "pool_length": 4, "border_mode": "valid"}, "class_name": "MaxPooling1D"}, {"config": {"activation": "relu", "input_dim": null, "name": "convolution1d_2_semeval_model", "border_mode": "valid", "nb_filter": 200, "init": "uniform", "subsample_length": 1, "b_regularizer": null, "trainable": true, "input_length": null, "W_regularizer": null, "W_constraint": null, "b_constraint": null, "activity_regularizer": null, "filter_length": 6, "bias": true}, "class_name": "Convolution1D"}], "class_name": "Sequential"}, {"config": [{"config": {"input_dim": 428669, "name": "embedding_1_tac_model", "batch_input_shape": [null, 140], "W_constraint": null, "init": "uniform", "output_dim": 52, "input_dtype": "int32", "trainable": true, "input_length": 140, "W_regularizer": null, "mask_zero": false, "activity_regularizer": null, "dropout": 0.2}, "class_name": "Embedding"}, {"config": {"padding": 5, "trainable": true, "name": "zeropadding1d_1_tac_model"}, "class_name": "ZeroPadding1D"}, {"config": {"activation": "relu", "input_dim": null, "name": "convolution1d_1_tac_model", "border_mode": "valid", "nb_filter": 200, "init": "uniform", "subsample_length": 1, "b_regularizer": null, "trainable": true, "input_length": null, "W_regularizer": null, "W_constraint": null, "b_constraint": null, "activity_regularizer": null, "filter_length": 6, "bias": true}, "class_name": "Convolution1D"}, {"config": {"stride": 2, "trainable": true, "name": "maxpooling1d_1_tac_model", "pool_length": 4, "border_mode": "valid"}, "class_name": "MaxPooling1D"}, {"config": {"activation": "relu", "input_dim": null, "name": "convolution1d_2_tac_model", "border_mode": "valid", "nb_filter": 200, "init": "uniform", "subsample_length": 1, "b_regularizer": null, "trainable": true, "input_length": null, "W_regularizer": null, "W_constraint": null, "b_constraint": null, "activity_regularizer": null, "filter_length": 6, "bias": true}, "class_name": "Convolution1D"}], "class_name": "Sequential"}], "output_shape": null, "output_shape_type": "raw", "dot_axes": -1, "concat_axis": -1, "mode_type": "raw", "mode": "concat"}, "class_name": "Merge"}, {"config": {"trainable": true, "name": "flatten_1"}, "class_name": "Flatten"}, {"config": {"activation": "linear", "input_dim": null, "name": "dense_1", "bias": true, "W_constraint": null, "init": "glorot_uniform", "output_dim": 200, "b_regularizer": null, "trainable": true, "W_regularizer": null, "b_constraint": null, "activity_regularizer": null}, "class_name": "Dense"}, {"config": {"trainable": true, "name": "dropout_1", "p": 0.2}, "class_name": "Dropout"}, {"config": {"activation": "relu", "trainable": true, "name": "activation_1"}, "class_name": "Activation"}, {"config": {"activation": "softmax", "input_dim": null, "name": "dense_2", "bias": true, "W_constraint": null, "init": "glorot_uniform", "output_dim": 3, "b_regularizer": null, "trainable": true, "W_regularizer": null, "b_constraint": null, "activity_regularizer": null}, "class_name": "Dense"}], "class_name": "Sequential"}