{"config": [{"config": {"layers": [{"config": [{"config": {"activity_regularizer": null, "mask_zero": false, "trainable": true, "init": "uniform", "input_dtype": "int32", "W_constraint": null, "input_dim": 1576890, "W_regularizer": null, "batch_input_shape": [null, 140], "input_length": 140, "output_dim": 52, "name": "embedding_1_dai_model", "dropout": 0.2}, "class_name": "Embedding"}, {"config": {"trainable": true, "padding": 5, "name": "zeropadding1d_1_dai_model"}, "class_name": "ZeroPadding1D"}, {"config": {"bias": true, "activity_regularizer": null, "nb_filter": 200, "trainable": true, "init": "uniform", "W_regularizer": null, "subsample_length": 1, "border_mode": "valid", "b_constraint": null, "W_constraint": null, "input_dim": null, "activation": "relu", "input_length": null, "filter_length": 6, "name": "convolution1d_1_dai_model", "b_regularizer": null}, "class_name": "Convolution1D"}, {"config": {"trainable": true, "stride": 2, "name": "maxpooling1d_1_dai_model", "pool_length": 4, "border_mode": "valid"}, "class_name": "MaxPooling1D"}, {"config": {"bias": true, "activity_regularizer": null, "nb_filter": 200, "trainable": true, "init": "uniform", "W_regularizer": null, "subsample_length": 1, "border_mode": "valid", "b_constraint": null, "W_constraint": null, "input_dim": null, "activation": "relu", "input_length": null, "filter_length": 6, "name": "convolution1d_2_dai_model", "b_regularizer": null}, "class_name": "Convolution1D"}], "class_name": "Sequential"}, {"config": [{"config": {"activity_regularizer": null, "mask_zero": false, "trainable": true, "init": "uniform", "input_dtype": "int32", "W_constraint": null, "input_dim": 1062158, "W_regularizer": null, "batch_input_shape": [null, 140], "input_length": 140, "output_dim": 52, "name": "embedding_1_hul_model", "dropout": 0.2}, "class_name": "Embedding"}, {"config": {"trainable": true, "padding": 5, "name": "zeropadding1d_1_hul_model"}, "class_name": "ZeroPadding1D"}, {"config": {"bias": true, "activity_regularizer": null, "nb_filter": 200, "trainable": true, "init": "uniform", "W_regularizer": null, "subsample_length": 1, "border_mode": "valid", "b_constraint": null, "W_constraint": null, "input_dim": null, "activation": "relu", "input_length": null, "filter_length": 6, "name": "convolution1d_1_hul_model", "b_regularizer": null}, "class_name": "Convolution1D"}, {"config": {"trainable": true, "stride": 2, "name": "maxpooling1d_1_hul_model", "pool_length": 4, "border_mode": "valid"}, "class_name": "MaxPooling1D"}, {"config": {"bias": true, "activity_regularizer": null, "nb_filter": 200, "trainable": true, "init": "uniform", "W_regularizer": null, "subsample_length": 1, "border_mode": "valid", "b_constraint": null, "W_constraint": null, "input_dim": null, "activation": "relu", "input_length": null, "filter_length": 6, "name": "convolution1d_2_hul_model", "b_regularizer": null}, "class_name": "Convolution1D"}], "class_name": "Sequential"}, {"config": [{"config": {"activity_regularizer": null, "mask_zero": false, "trainable": true, "init": "uniform", "input_dtype": "int32", "W_constraint": null, "input_dim": 428669, "W_regularizer": null, "batch_input_shape": [null, 140], "input_length": 140, "output_dim": 52, "name": "embedding_17_mpq_model", "dropout": 0.2}, "class_name": "Embedding"}, {"config": {"trainable": true, "padding": 5, "name": "zeropadding1d_17_mpq_model"}, "class_name": "ZeroPadding1D"}, {"config": {"bias": true, "activity_regularizer": null, "nb_filter": 200, "trainable": true, "init": "uniform", "W_regularizer": null, "subsample_length": 1, "border_mode": "valid", "b_constraint": null, "W_constraint": null, "input_dim": null, "activation": "relu", "input_length": null, "filter_length": 6, "name": "convolution1d_33_mpq_model", "b_regularizer": null}, "class_name": "Convolution1D"}, {"config": {"trainable": true, "stride": 2, "name": "maxpooling1d_33_mpq_model", "pool_length": 4, "border_mode": "valid"}, "class_name": "MaxPooling1D"}, {"config": {"bias": true, "activity_regularizer": null, "nb_filter": 200, "trainable": true, "init": "uniform", "W_regularizer": null, "subsample_length": 1, "border_mode": "valid", "b_constraint": null, "W_constraint": null, "input_dim": null, "activation": "relu", "input_length": null, "filter_length": 6, "name": "convolution1d_34_mpq_model", "b_regularizer": null}, "class_name": "Convolution1D"}], "class_name": "Sequential"}, {"config": [{"config": {"activity_regularizer": null, "mask_zero": false, "trainable": true, "init": "uniform", "input_dtype": "int32", "W_constraint": null, "input_dim": 428669, "W_regularizer": null, "batch_input_shape": [null, 140], "input_length": 140, "output_dim": 52, "name": "embedding_1_semeval_model", "dropout": 0.2}, "class_name": "Embedding"}, {"config": {"trainable": true, "padding": 5, "name": "zeropadding1d_1_semeval_model"}, "class_name": "ZeroPadding1D"}, {"config": {"bias": true, "activity_regularizer": null, "nb_filter": 200, "trainable": true, "init": "uniform", "W_regularizer": null, "subsample_length": 1, "border_mode": "valid", "b_constraint": null, "W_constraint": null, "input_dim": null, "activation": "relu", "input_length": null, "filter_length": 6, "name": "convolution1d_1_semeval_model", "b_regularizer": null}, "class_name": "Convolution1D"}, {"config": {"trainable": true, "stride": 2, "name": "maxpooling1d_1_semeval_model", "pool_length": 4, "border_mode": "valid"}, "class_name": "MaxPooling1D"}, {"config": {"bias": true, "activity_regularizer": null, "nb_filter": 200, "trainable": true, "init": "uniform", "W_regularizer": null, "subsample_length": 1, "border_mode": "valid", "b_constraint": null, "W_constraint": null, "input_dim": null, "activation": "relu", "input_length": null, "filter_length": 6, "name": "convolution1d_2_semeval_model", "b_regularizer": null}, "class_name": "Convolution1D"}], "class_name": "Sequential"}, {"config": [{"config": {"activity_regularizer": null, "mask_zero": false, "trainable": true, "init": "uniform", "input_dtype": "int32", "W_constraint": null, "input_dim": 428669, "W_regularizer": null, "batch_input_shape": [null, 140], "input_length": 140, "output_dim": 52, "name": "embedding_1_tac_model", "dropout": 0.2}, "class_name": "Embedding"}, {"config": {"trainable": true, "padding": 5, "name": "zeropadding1d_1_tac_model"}, "class_name": "ZeroPadding1D"}, {"config": {"bias": true, "activity_regularizer": null, "nb_filter": 200, "trainable": true, "init": "uniform", "W_regularizer": null, "subsample_length": 1, "border_mode": "valid", "b_constraint": null, "W_constraint": null, "input_dim": null, "activation": "relu", "input_length": null, "filter_length": 6, "name": "convolution1d_1_tac_model", "b_regularizer": null}, "class_name": "Convolution1D"}, {"config": {"trainable": true, "stride": 2, "name": "maxpooling1d_1_tac_model", "pool_length": 4, "border_mode": "valid"}, "class_name": "MaxPooling1D"}, {"config": {"bias": true, "activity_regularizer": null, "nb_filter": 200, "trainable": true, "init": "uniform", "W_regularizer": null, "subsample_length": 1, "border_mode": "valid", "b_constraint": null, "W_constraint": null, "input_dim": null, "activation": "relu", "input_length": null, "filter_length": 6, "name": "convolution1d_2_tac_model", "b_regularizer": null}, "class_name": "Convolution1D"}], "class_name": "Sequential"}], "name": "merge_1", "mode_type": "raw", "output_shape": null, "output_shape_type": "raw", "dot_axes": -1, "concat_axis": -1, "mode": "concat"}, "class_name": "Merge"}, {"config": {"trainable": true, "name": "flatten_1"}, "class_name": "Flatten"}, {"config": {"bias": true, "activity_regularizer": null, "trainable": true, "b_regularizer": null, "W_regularizer": null, "input_dim": null, "b_constraint": null, "W_constraint": null, "activation": "linear", "output_dim": 200, "name": "dense_1", "init": "glorot_uniform"}, "class_name": "Dense"}, {"config": {"trainable": true, "p": 0.2, "name": "dropout_1"}, "class_name": "Dropout"}, {"config": {"trainable": true, "name": "activation_1", "activation": "relu"}, "class_name": "Activation"}, {"config": {"bias": true, "activity_regularizer": null, "trainable": true, "b_regularizer": null, "W_regularizer": null, "input_dim": null, "b_constraint": null, "W_constraint": null, "activation": "softmax", "output_dim": 3, "name": "dense_2", "init": "glorot_uniform"}, "class_name": "Dense"}], "keras_version": "1.1.1", "class_name": "Sequential"}