{"class_name": "Sequential", "config": [{"class_name": "Merge", "config": {"concat_axis": -1, "mode_type": "raw", "mode": "concat", "layers": [{"class_name": "Sequential", "config": [{"class_name": "Embedding", "config": {"init": "uniform", "input_dim": 1576890, "W_regularizer": null, "dropout": 0.2, "W_constraint": null, "input_dtype": "int32", "name": "embedding_1_dai_model", "mask_zero": false, "batch_input_shape": [null, 140], "activity_regularizer": null, "output_dim": 52, "input_length": 140, "trainable": true}}, {"class_name": "ZeroPadding1D", "config": {"padding": 5, "name": "zeropadding1d_1_dai_model", "trainable": true}}, {"class_name": "Convolution1D", "config": {"W_regularizer": null, "filter_length": 6, "border_mode": "valid", "input_dim": null, "name": "convolution1d_1_dai_model", "subsample_length": 1, "bias": true, "nb_filter": 200, "b_regularizer": null, "activity_regularizer": null, "W_constraint": null, "init": "uniform", "activation": "relu", "b_constraint": null, "input_length": null, "trainable": true}}, {"class_name": "MaxPooling1D", "config": {"stride": 2, "border_mode": "valid", "pool_length": 4, "name": "maxpooling1d_1_dai_model", "trainable": true}}, {"class_name": "Convolution1D", "config": {"W_regularizer": null, "filter_length": 6, "border_mode": "valid", "input_dim": null, "name": "convolution1d_2_dai_model", "subsample_length": 1, "bias": true, "nb_filter": 200, "b_regularizer": null, "activity_regularizer": null, "W_constraint": null, "init": "uniform", "activation": "relu", "b_constraint": null, "input_length": null, "trainable": true}}]}, {"class_name": "Sequential", "config": [{"class_name": "Embedding", "config": {"init": "uniform", "input_dim": 1576890, "W_regularizer": null, "dropout": 0.2, "W_constraint": null, "input_dtype": "int32", "name": "embedding_1_dil_model", "mask_zero": false, "batch_input_shape": [null, 140], "activity_regularizer": null, "output_dim": 52, "input_length": 140, "trainable": true}}, {"class_name": "ZeroPadding1D", "config": {"padding": 5, "name": "zeropadding1d_1_dil_model", "trainable": true}}, {"class_name": "Convolution1D", "config": {"W_regularizer": null, "filter_length": 6, "border_mode": "valid", "input_dim": null, "name": "convolution1d_1_dil_model", "subsample_length": 1, "bias": true, "nb_filter": 200, "b_regularizer": null, "activity_regularizer": null, "W_constraint": null, "init": "uniform", "activation": "relu", "b_constraint": null, "input_length": null, "trainable": true}}, {"class_name": "MaxPooling1D", "config": {"stride": 2, "border_mode": "valid", "pool_length": 4, "name": "maxpooling1d_1_dil_model", "trainable": true}}, {"class_name": "Convolution1D", "config": {"W_regularizer": null, "filter_length": 6, "border_mode": "valid", "input_dim": null, "name": "convolution1d_2_dil_model", "subsample_length": 1, "bias": true, "nb_filter": 200, "b_regularizer": null, "activity_regularizer": null, "W_constraint": null, "init": "uniform", "activation": "relu", "b_constraint": null, "input_length": null, "trainable": true}}]}, {"class_name": "Sequential", "config": [{"class_name": "Embedding", "config": {"init": "uniform", "input_dim": 1062158, "W_regularizer": null, "dropout": 0.2, "W_constraint": null, "input_dtype": "int32", "name": "embedding_1_hul_model", "mask_zero": false, "batch_input_shape": [null, 140], "activity_regularizer": null, "output_dim": 52, "input_length": 140, "trainable": true}}, {"class_name": "ZeroPadding1D", "config": {"padding": 5, "name": "zeropadding1d_1_hul_model", "trainable": true}}, {"class_name": "Convolution1D", "config": {"W_regularizer": null, "filter_length": 6, "border_mode": "valid", "input_dim": null, "name": "convolution1d_1_hul_model", "subsample_length": 1, "bias": true, "nb_filter": 200, "b_regularizer": null, "activity_regularizer": null, "W_constraint": null, "init": "uniform", "activation": "relu", "b_constraint": null, "input_length": null, "trainable": true}}, {"class_name": "MaxPooling1D", "config": {"stride": 2, "border_mode": "valid", "pool_length": 4, "name": "maxpooling1d_1_hul_model", "trainable": true}}, {"class_name": "Convolution1D", "config": {"W_regularizer": null, "filter_length": 6, "border_mode": "valid", "input_dim": null, "name": "convolution1d_2_hul_model", "subsample_length": 1, "bias": true, "nb_filter": 200, "b_regularizer": null, "activity_regularizer": null, "W_constraint": null, "init": "uniform", "activation": "relu", "b_constraint": null, "input_length": null, "trainable": true}}]}, {"class_name": "Sequential", "config": [{"class_name": "Embedding", "config": {"init": "uniform", "input_dim": 428669, "W_regularizer": null, "dropout": 0.2, "W_constraint": null, "input_dtype": "int32", "name": "embedding_17_mpq_model", "mask_zero": false, "batch_input_shape": [null, 140], "activity_regularizer": null, "output_dim": 52, "input_length": 140, "trainable": true}}, {"class_name": "ZeroPadding1D", "config": {"padding": 5, "name": "zeropadding1d_17_mpq_model", "trainable": true}}, {"class_name": "Convolution1D", "config": {"W_regularizer": null, "filter_length": 6, "border_mode": "valid", "input_dim": null, "name": "convolution1d_33_mpq_model", "subsample_length": 1, "bias": true, "nb_filter": 200, "b_regularizer": null, "activity_regularizer": null, "W_constraint": null, "init": "uniform", "activation": "relu", "b_constraint": null, "input_length": null, "trainable": true}}, {"class_name": "MaxPooling1D", "config": {"stride": 2, "border_mode": "valid", "pool_length": 4, "name": "maxpooling1d_33_mpq_model", "trainable": true}}, {"class_name": "Convolution1D", "config": {"W_regularizer": null, "filter_length": 6, "border_mode": "valid", "input_dim": null, "name": "convolution1d_34_mpq_model", "subsample_length": 1, "bias": true, "nb_filter": 200, "b_regularizer": null, "activity_regularizer": null, "W_constraint": null, "init": "uniform", "activation": "relu", "b_constraint": null, "input_length": null, "trainable": true}}]}, {"class_name": "Sequential", "config": [{"class_name": "Embedding", "config": {"init": "uniform", "input_dim": 1576890, "W_regularizer": null, "dropout": 0.2, "W_constraint": null, "input_dtype": "int32", "name": "embedding_1_semeval_model", "mask_zero": false, "batch_input_shape": [null, 140], "activity_regularizer": null, "output_dim": 52, "input_length": 140, "trainable": true}}, {"class_name": "ZeroPadding1D", "config": {"padding": 5, "name": "zeropadding1d_1_semeval_model", "trainable": true}}, {"class_name": "Convolution1D", "config": {"W_regularizer": null, "filter_length": 6, "border_mode": "valid", "input_dim": null, "name": "convolution1d_1_semeval_model", "subsample_length": 1, "bias": true, "nb_filter": 200, "b_regularizer": null, "activity_regularizer": null, "W_constraint": null, "init": "uniform", "activation": "relu", "b_constraint": null, "input_length": null, "trainable": true}}, {"class_name": "MaxPooling1D", "config": {"stride": 2, "border_mode": "valid", "pool_length": 4, "name": "maxpooling1d_1_semeval_model", "trainable": true}}, {"class_name": "Convolution1D", "config": {"W_regularizer": null, "filter_length": 6, "border_mode": "valid", "input_dim": null, "name": "convolution1d_2_semeval_model", "subsample_length": 1, "bias": true, "nb_filter": 200, "b_regularizer": null, "activity_regularizer": null, "W_constraint": null, "init": "uniform", "activation": "relu", "b_constraint": null, "input_length": null, "trainable": true}}]}, {"class_name": "Sequential", "config": [{"class_name": "Embedding", "config": {"init": "uniform", "input_dim": 428669, "W_regularizer": null, "dropout": 0.2, "W_constraint": null, "input_dtype": "int32", "name": "embedding_1_tac_model", "mask_zero": false, "batch_input_shape": [null, 140], "activity_regularizer": null, "output_dim": 52, "input_length": 140, "trainable": true}}, {"class_name": "ZeroPadding1D", "config": {"padding": 5, "name": "zeropadding1d_1_tac_model", "trainable": true}}, {"class_name": "Convolution1D", "config": {"W_regularizer": null, "filter_length": 6, "border_mode": "valid", "input_dim": null, "name": "convolution1d_1_tac_model", "subsample_length": 1, "bias": true, "nb_filter": 200, "b_regularizer": null, "activity_regularizer": null, "W_constraint": null, "init": "uniform", "activation": "relu", "b_constraint": null, "input_length": null, "trainable": true}}, {"class_name": "MaxPooling1D", "config": {"stride": 2, "border_mode": "valid", "pool_length": 4, "name": "maxpooling1d_1_tac_model", "trainable": true}}, {"class_name": "Convolution1D", "config": {"W_regularizer": null, "filter_length": 6, "border_mode": "valid", "input_dim": null, "name": "convolution1d_2_tac_model", "subsample_length": 1, "bias": true, "nb_filter": 200, "b_regularizer": null, "activity_regularizer": null, "W_constraint": null, "init": "uniform", "activation": "relu", "b_constraint": null, "input_length": null, "trainable": true}}]}], "name": "merge_1", "output_shape_type": "raw", "dot_axes": -1, "output_shape": null}}, {"class_name": "MaxPooling1D", "config": {"trainable": true, "border_mode": "valid", "pool_length": 4, "name": "maxpooling1d_1", "stride": 2}}, {"class_name": "Convolution1D", "config": {"filter_length": 6, "init": "uniform", "input_dim": null, "W_regularizer": null, "W_constraint": null, "subsample_length": 1, "nb_filter": 200, "border_mode": "valid", "b_regularizer": null, "name": "convolution1d_1", "bias": true, "activity_regularizer": null, "trainable": true, "b_constraint": null, "input_length": null, "activation": "relu"}}, {"class_name": "MaxPooling1D", "config": {"trainable": true, "border_mode": "valid", "pool_length": 4, "name": "maxpooling1d_2", "stride": 2}}, {"class_name": "Flatten", "config": {"name": "flatten_1", "trainable": true}}, {"class_name": "Dense", "config": {"init": "glorot_uniform", "input_dim": null, "W_regularizer": null, "W_constraint": null, "bias": true, "b_regularizer": null, "name": "dense_1", "output_dim": 200, "activity_regularizer": null, "trainable": true, "b_constraint": null, "activation": "linear"}}, {"class_name": "Dropout", "config": {"p": 0.2, "name": "dropout_1", "trainable": true}}, {"class_name": "Activation", "config": {"trainable": true, "name": "activation_1", "activation": "relu"}}, {"class_name": "Dense", "config": {"init": "glorot_uniform", "input_dim": null, "W_regularizer": null, "W_constraint": null, "bias": true, "b_regularizer": null, "name": "dense_2", "output_dim": 3, "activity_regularizer": null, "trainable": true, "b_constraint": null, "activation": "softmax"}}], "keras_version": "1.1.1"}