{"config": [{"config": {"concat_axis": -1, "output_shape_type": "raw", "dot_axes": -1, "name": "merge_1", "output_shape": null, "layers": [{"config": [{"config": {"W_constraint": null, "trainable": true, "input_length": 140, "name": "embedding_1_tac_model", "W_regularizer": null, "input_dim": 428669, "mask_zero": false, "dropout": 0.2, "input_dtype": "int32", "batch_input_shape": [null, 140], "activity_regularizer": null, "output_dim": 52, "init": "uniform"}, "class_name": "Embedding"}, {"config": {"name": "zeropadding1d_1_tac_model", "trainable": true, "padding": 5}, "class_name": "ZeroPadding1D"}, {"config": {"b_regularizer": null, "nb_filter": 200, "bias": true, "W_constraint": null, "trainable": true, "input_length": null, "name": "convolution1d_1_tac_model", "W_regularizer": null, "input_dim": null, "activity_regularizer": null, "filter_length": 6, "border_mode": "valid", "subsample_length": 1, "init": "uniform", "activation": "relu", "b_constraint": null}, "class_name": "Convolution1D"}, {"config": {"name": "maxpooling1d_1_tac_model", "trainable": true, "stride": 2, "pool_length": 4, "border_mode": "valid"}, "class_name": "MaxPooling1D"}, {"config": {"b_regularizer": null, "nb_filter": 200, "bias": true, "W_constraint": null, "trainable": true, "input_length": null, "name": "convolution1d_2_tac_model", "W_regularizer": null, "input_dim": null, "activity_regularizer": null, "filter_length": 6, "border_mode": "valid", "subsample_length": 1, "init": "uniform", "activation": "relu", "b_constraint": null}, "class_name": "Convolution1D"}], "class_name": "Sequential"}, {"config": [{"config": {"W_constraint": null, "trainable": true, "input_length": 140, "name": "embedding_1_hul_model", "W_regularizer": null, "input_dim": 1062158, "mask_zero": false, "dropout": 0.2, "input_dtype": "int32", "batch_input_shape": [null, 140], "activity_regularizer": null, "output_dim": 52, "init": "uniform"}, "class_name": "Embedding"}, {"config": {"name": "zeropadding1d_1_hul_model", "trainable": true, "padding": 5}, "class_name": "ZeroPadding1D"}, {"config": {"b_regularizer": null, "nb_filter": 200, "bias": true, "W_constraint": null, "trainable": true, "input_length": null, "name": "convolution1d_1_hul_model", "W_regularizer": null, "input_dim": null, "activity_regularizer": null, "filter_length": 6, "border_mode": "valid", "subsample_length": 1, "init": "uniform", "activation": "relu", "b_constraint": null}, "class_name": "Convolution1D"}, {"config": {"name": "maxpooling1d_1_hul_model", "trainable": true, "stride": 2, "pool_length": 4, "border_mode": "valid"}, "class_name": "MaxPooling1D"}, {"config": {"b_regularizer": null, "nb_filter": 200, "bias": true, "W_constraint": null, "trainable": true, "input_length": null, "name": "convolution1d_2_hul_model", "W_regularizer": null, "input_dim": null, "activity_regularizer": null, "filter_length": 6, "border_mode": "valid", "subsample_length": 1, "init": "uniform", "activation": "relu", "b_constraint": null}, "class_name": "Convolution1D"}], "class_name": "Sequential"}, {"config": [{"config": {"W_constraint": null, "trainable": true, "input_length": 140, "name": "embedding_17_mpq_model", "W_regularizer": null, "input_dim": 428669, "mask_zero": false, "dropout": 0.2, "input_dtype": "int32", "batch_input_shape": [null, 140], "activity_regularizer": null, "output_dim": 52, "init": "uniform"}, "class_name": "Embedding"}, {"config": {"name": "zeropadding1d_17_mpq_model", "trainable": true, "padding": 5}, "class_name": "ZeroPadding1D"}, {"config": {"b_regularizer": null, "nb_filter": 200, "bias": true, "W_constraint": null, "trainable": true, "input_length": null, "name": "convolution1d_33_mpq_model", "W_regularizer": null, "input_dim": null, "activity_regularizer": null, "filter_length": 6, "border_mode": "valid", "subsample_length": 1, "init": "uniform", "activation": "relu", "b_constraint": null}, "class_name": "Convolution1D"}, {"config": {"name": "maxpooling1d_33_mpq_model", "trainable": true, "stride": 2, "pool_length": 4, "border_mode": "valid"}, "class_name": "MaxPooling1D"}, {"config": {"b_regularizer": null, "nb_filter": 200, "bias": true, "W_constraint": null, "trainable": true, "input_length": null, "name": "convolution1d_34_mpq_model", "W_regularizer": null, "input_dim": null, "activity_regularizer": null, "filter_length": 6, "border_mode": "valid", "subsample_length": 1, "init": "uniform", "activation": "relu", "b_constraint": null}, "class_name": "Convolution1D"}], "class_name": "Sequential"}, {"config": [{"config": {"W_constraint": null, "trainable": true, "input_length": 140, "name": "embedding_1_semeval_model", "W_regularizer": null, "input_dim": 428669, "mask_zero": false, "dropout": 0.2, "input_dtype": "int32", "batch_input_shape": [null, 140], "activity_regularizer": null, "output_dim": 52, "init": "uniform"}, "class_name": "Embedding"}, {"config": {"name": "zeropadding1d_1_semeval_model", "trainable": true, "padding": 5}, "class_name": "ZeroPadding1D"}, {"config": {"b_regularizer": null, "nb_filter": 200, "bias": true, "W_constraint": null, "trainable": true, "input_length": null, "name": "convolution1d_1_semeval_model", "W_regularizer": null, "input_dim": null, "activity_regularizer": null, "filter_length": 6, "border_mode": "valid", "subsample_length": 1, "init": "uniform", "activation": "relu", "b_constraint": null}, "class_name": "Convolution1D"}, {"config": {"name": "maxpooling1d_1_semeval_model", "trainable": true, "stride": 2, "pool_length": 4, "border_mode": "valid"}, "class_name": "MaxPooling1D"}, {"config": {"b_regularizer": null, "nb_filter": 200, "bias": true, "W_constraint": null, "trainable": true, "input_length": null, "name": "convolution1d_2_semeval_model", "W_regularizer": null, "input_dim": null, "activity_regularizer": null, "filter_length": 6, "border_mode": "valid", "subsample_length": 1, "init": "uniform", "activation": "relu", "b_constraint": null}, "class_name": "Convolution1D"}], "class_name": "Sequential"}, {"config": [{"config": {"W_constraint": null, "trainable": true, "input_length": 140, "name": "embedding_1_dai_model", "W_regularizer": null, "input_dim": 1576890, "mask_zero": false, "dropout": 0.2, "input_dtype": "int32", "batch_input_shape": [null, 140], "activity_regularizer": null, "output_dim": 52, "init": "uniform"}, "class_name": "Embedding"}, {"config": {"name": "zeropadding1d_1_dai_model", "trainable": true, "padding": 5}, "class_name": "ZeroPadding1D"}, {"config": {"b_regularizer": null, "nb_filter": 200, "bias": true, "W_constraint": null, "trainable": true, "input_length": null, "name": "convolution1d_1_dai_model", "W_regularizer": null, "input_dim": null, "activity_regularizer": null, "filter_length": 6, "border_mode": "valid", "subsample_length": 1, "init": "uniform", "activation": "relu", "b_constraint": null}, "class_name": "Convolution1D"}, {"config": {"name": "maxpooling1d_1_dai_model", "trainable": true, "stride": 2, "pool_length": 4, "border_mode": "valid"}, "class_name": "MaxPooling1D"}, {"config": {"b_regularizer": null, "nb_filter": 200, "bias": true, "W_constraint": null, "trainable": true, "input_length": null, "name": "convolution1d_2_dai_model", "W_regularizer": null, "input_dim": null, "activity_regularizer": null, "filter_length": 6, "border_mode": "valid", "subsample_length": 1, "init": "uniform", "activation": "relu", "b_constraint": null}, "class_name": "Convolution1D"}], "class_name": "Sequential"}, {"config": [{"config": {"W_constraint": null, "trainable": true, "input_length": 140, "name": "embedding_1_dil_model", "W_regularizer": null, "input_dim": 1576890, "mask_zero": false, "dropout": 0.2, "input_dtype": "int32", "batch_input_shape": [null, 140], "activity_regularizer": null, "output_dim": 52, "init": "uniform"}, "class_name": "Embedding"}, {"config": {"name": "zeropadding1d_1_dil_model", "trainable": true, "padding": 5}, "class_name": "ZeroPadding1D"}, {"config": {"b_regularizer": null, "nb_filter": 200, "bias": true, "W_constraint": null, "trainable": true, "input_length": null, "name": "convolution1d_1_dil_model", "W_regularizer": null, "input_dim": null, "activity_regularizer": null, "filter_length": 6, "border_mode": "valid", "subsample_length": 1, "init": "uniform", "activation": "relu", "b_constraint": null}, "class_name": "Convolution1D"}, {"config": {"name": "maxpooling1d_1_dil_model", "trainable": true, "stride": 2, "pool_length": 4, "border_mode": "valid"}, "class_name": "MaxPooling1D"}, {"config": {"b_regularizer": null, "nb_filter": 200, "bias": true, "W_constraint": null, "trainable": true, "input_length": null, "name": "convolution1d_2_dil_model", "W_regularizer": null, "input_dim": null, "activity_regularizer": null, "filter_length": 6, "border_mode": "valid", "subsample_length": 1, "init": "uniform", "activation": "relu", "b_constraint": null}, "class_name": "Convolution1D"}], "class_name": "Sequential"}], "mode_type": "raw", "mode": "concat"}, "class_name": "Merge"}, {"config": {"name": "flatten_1", "trainable": true}, "class_name": "Flatten"}, {"config": {"b_regularizer": null, "bias": true, "W_constraint": null, "trainable": true, "output_dim": 200, "W_regularizer": null, "input_dim": null, "b_constraint": null, "activity_regularizer": null, "activation": "linear", "name": "dense_1", "init": "glorot_uniform"}, "class_name": "Dense"}, {"config": {"p": 0.2, "name": "dropout_1", "trainable": true}, "class_name": "Dropout"}, {"config": {"name": "activation_1", "activation": "relu", "trainable": true}, "class_name": "Activation"}, {"config": {"b_regularizer": null, "bias": true, "W_constraint": null, "trainable": true, "output_dim": 3, "W_regularizer": null, "input_dim": null, "b_constraint": null, "activity_regularizer": null, "activation": "softmax", "name": "dense_2", "init": "glorot_uniform"}, "class_name": "Dense"}], "keras_version": "1.1.1", "class_name": "Sequential"}