{"keras_version": "1.1.1", "class_name": "Sequential", "config": [{"class_name": "Merge", "config": {"name": "merge_1", "mode_type": "raw", "mode": "concat", "layers": [{"class_name": "Sequential", "config": [{"class_name": "Embedding", "config": {"activity_regularizer": null, "trainable": true, "dropout": 0.2, "mask_zero": false, "name": "embedding_1_dil_model", "init": "uniform", "W_constraint": null, "input_length": 140, "output_dim": 52, "input_dtype": "int32", "batch_input_shape": [null, 140], "W_regularizer": null, "input_dim": 1576890}}, {"class_name": "ZeroPadding1D", "config": {"name": "zeropadding1d_1_dil_model", "trainable": true, "padding": 5}}, {"class_name": "Convolution1D", "config": {"b_constraint": null, "trainable": true, "nb_filter": 200, "border_mode": "valid", "bias": true, "activity_regularizer": null, "name": "convolution1d_1_dil_model", "init": "uniform", "subsample_length": 1, "W_constraint": null, "b_regularizer": null, "W_regularizer": null, "input_length": null, "input_dim": null, "activation": "relu", "filter_length": 6}}, {"class_name": "MaxPooling1D", "config": {"name": "maxpooling1d_1_dil_model", "trainable": true, "border_mode": "valid", "pool_length": 4, "stride": 2}}, {"class_name": "Convolution1D", "config": {"b_constraint": null, "trainable": true, "nb_filter": 200, "border_mode": "valid", "bias": true, "activity_regularizer": null, "name": "convolution1d_2_dil_model", "init": "uniform", "subsample_length": 1, "W_constraint": null, "b_regularizer": null, "W_regularizer": null, "input_length": null, "input_dim": null, "activation": "relu", "filter_length": 6}}]}, {"class_name": "Sequential", "config": [{"class_name": "Embedding", "config": {"activity_regularizer": null, "trainable": true, "dropout": 0.2, "mask_zero": false, "name": "embedding_1_hul_model", "init": "uniform", "W_constraint": null, "input_length": 140, "output_dim": 52, "input_dtype": "int32", "batch_input_shape": [null, 140], "W_regularizer": null, "input_dim": 1062158}}, {"class_name": "ZeroPadding1D", "config": {"name": "zeropadding1d_1_hul_model", "trainable": true, "padding": 5}}, {"class_name": "Convolution1D", "config": {"b_constraint": null, "trainable": true, "nb_filter": 200, "border_mode": "valid", "bias": true, "activity_regularizer": null, "name": "convolution1d_1_hul_model", "init": "uniform", "subsample_length": 1, "W_constraint": null, "b_regularizer": null, "W_regularizer": null, "input_length": null, "input_dim": null, "activation": "relu", "filter_length": 6}}, {"class_name": "MaxPooling1D", "config": {"name": "maxpooling1d_1_hul_model", "trainable": true, "border_mode": "valid", "pool_length": 4, "stride": 2}}, {"class_name": "Convolution1D", "config": {"b_constraint": null, "trainable": true, "nb_filter": 200, "border_mode": "valid", "bias": true, "activity_regularizer": null, "name": "convolution1d_2_hul_model", "init": "uniform", "subsample_length": 1, "W_constraint": null, "b_regularizer": null, "W_regularizer": null, "input_length": null, "input_dim": null, "activation": "relu", "filter_length": 6}}]}, {"class_name": "Sequential", "config": [{"class_name": "Embedding", "config": {"activity_regularizer": null, "trainable": true, "dropout": 0.2, "mask_zero": false, "name": "embedding_1_semeval_model", "init": "uniform", "W_constraint": null, "input_length": 140, "output_dim": 52, "input_dtype": "int32", "batch_input_shape": [null, 140], "W_regularizer": null, "input_dim": 1576890}}, {"class_name": "ZeroPadding1D", "config": {"name": "zeropadding1d_1_semeval_model", "trainable": true, "padding": 5}}, {"class_name": "Convolution1D", "config": {"b_constraint": null, "trainable": true, "nb_filter": 200, "border_mode": "valid", "bias": true, "activity_regularizer": null, "name": "convolution1d_1_semeval_model", "init": "uniform", "subsample_length": 1, "W_constraint": null, "b_regularizer": null, "W_regularizer": null, "input_length": null, "input_dim": null, "activation": "relu", "filter_length": 6}}, {"class_name": "MaxPooling1D", "config": {"name": "maxpooling1d_1_semeval_model", "trainable": true, "border_mode": "valid", "pool_length": 4, "stride": 2}}, {"class_name": "Convolution1D", "config": {"b_constraint": null, "trainable": true, "nb_filter": 200, "border_mode": "valid", "bias": true, "activity_regularizer": null, "name": "convolution1d_2_semeval_model", "init": "uniform", "subsample_length": 1, "W_constraint": null, "b_regularizer": null, "W_regularizer": null, "input_length": null, "input_dim": null, "activation": "relu", "filter_length": 6}}]}, {"class_name": "Sequential", "config": [{"class_name": "Embedding", "config": {"activity_regularizer": null, "trainable": true, "dropout": 0.2, "mask_zero": false, "name": "embedding_1_tac_model", "init": "uniform", "W_constraint": null, "input_length": 140, "output_dim": 52, "input_dtype": "int32", "batch_input_shape": [null, 140], "W_regularizer": null, "input_dim": 428669}}, {"class_name": "ZeroPadding1D", "config": {"name": "zeropadding1d_1_tac_model", "trainable": true, "padding": 5}}, {"class_name": "Convolution1D", "config": {"b_constraint": null, "trainable": true, "nb_filter": 200, "border_mode": "valid", "bias": true, "activity_regularizer": null, "name": "convolution1d_1_tac_model", "init": "uniform", "subsample_length": 1, "W_constraint": null, "b_regularizer": null, "W_regularizer": null, "input_length": null, "input_dim": null, "activation": "relu", "filter_length": 6}}, {"class_name": "MaxPooling1D", "config": {"name": "maxpooling1d_1_tac_model", "trainable": true, "border_mode": "valid", "pool_length": 4, "stride": 2}}, {"class_name": "Convolution1D", "config": {"b_constraint": null, "trainable": true, "nb_filter": 200, "border_mode": "valid", "bias": true, "activity_regularizer": null, "name": "convolution1d_2_tac_model", "init": "uniform", "subsample_length": 1, "W_constraint": null, "b_regularizer": null, "W_regularizer": null, "input_length": null, "input_dim": null, "activation": "relu", "filter_length": 6}}]}], "output_shape_type": "raw", "dot_axes": -1, "concat_axis": -1, "output_shape": null}}, {"class_name": "MaxPooling1D", "config": {"name": "maxpooling1d_1", "trainable": true, "border_mode": "valid", "pool_length": 4, "stride": 2}}, {"class_name": "Convolution1D", "config": {"b_constraint": null, "trainable": true, "nb_filter": 200, "border_mode": "valid", "bias": true, "activity_regularizer": null, "name": "convolution1d_1", "init": "uniform", "subsample_length": 1, "W_constraint": null, "b_regularizer": null, "W_regularizer": null, "input_length": null, "input_dim": null, "activation": "relu", "filter_length": 6}}, {"class_name": "MaxPooling1D", "config": {"name": "maxpooling1d_2", "trainable": true, "border_mode": "valid", "pool_length": 4, "stride": 2}}, {"class_name": "Flatten", "config": {"name": "flatten_1", "trainable": true}}, {"class_name": "Dense", "config": {"b_constraint": null, "trainable": true, "bias": true, "activity_regularizer": null, "name": "dense_1", "init": "glorot_uniform", "W_constraint": null, "b_regularizer": null, "output_dim": 200, "W_regularizer": null, "input_dim": null, "activation": "linear"}}, {"class_name": "Dropout", "config": {"name": "dropout_1", "trainable": true, "p": 0.2}}, {"class_name": "Activation", "config": {"name": "activation_1", "trainable": true, "activation": "relu"}}, {"class_name": "Dense", "config": {"b_constraint": null, "trainable": true, "bias": true, "activity_regularizer": null, "name": "dense_2", "init": "glorot_uniform", "W_constraint": null, "b_regularizer": null, "output_dim": 3, "W_regularizer": null, "input_dim": null, "activation": "softmax"}}]}