{"config": [{"config": {"name": "merge_1", "output_shape_type": "raw", "layers": [{"config": [{"config": {"name": "embedding_1_dai_model", "W_constraint": null, "dropout": 0.2, "activity_regularizer": null, "init": "uniform", "trainable": true, "output_dim": 52, "input_dtype": "int32", "mask_zero": false, "input_length": 140, "input_dim": 1576890, "batch_input_shape": [null, 140], "W_regularizer": null}, "class_name": "Embedding"}, {"config": {"padding": 5, "name": "zeropadding1d_1_dai_model", "trainable": true}, "class_name": "ZeroPadding1D"}, {"config": {"name": "convolution1d_1_dai_model", "W_constraint": null, "W_regularizer": null, "border_mode": "valid", "init": "uniform", "subsample_length": 1, "filter_length": 6, "activity_regularizer": null, "nb_filter": 200, "bias": true, "trainable": true, "input_length": null, "activation": "relu", "input_dim": null, "b_regularizer": null, "b_constraint": null}, "class_name": "Convolution1D"}, {"config": {"pool_length": 4, "name": "maxpooling1d_1_dai_model", "trainable": true, "stride": 2, "border_mode": "valid"}, "class_name": "MaxPooling1D"}, {"config": {"name": "convolution1d_2_dai_model", "W_constraint": null, "W_regularizer": null, "border_mode": "valid", "init": "uniform", "subsample_length": 1, "filter_length": 6, "activity_regularizer": null, "nb_filter": 200, "bias": true, "trainable": true, "input_length": null, "activation": "relu", "input_dim": null, "b_regularizer": null, "b_constraint": null}, "class_name": "Convolution1D"}], "class_name": "Sequential"}, {"config": [{"config": {"name": "embedding_1_hul_model", "W_constraint": null, "dropout": 0.2, "activity_regularizer": null, "init": "uniform", "trainable": true, "output_dim": 52, "input_dtype": "int32", "mask_zero": false, "input_length": 140, "input_dim": 1062158, "batch_input_shape": [null, 140], "W_regularizer": null}, "class_name": "Embedding"}, {"config": {"padding": 5, "name": "zeropadding1d_1_hul_model", "trainable": true}, "class_name": "ZeroPadding1D"}, {"config": {"name": "convolution1d_1_hul_model", "W_constraint": null, "W_regularizer": null, "border_mode": "valid", "init": "uniform", "subsample_length": 1, "filter_length": 6, "activity_regularizer": null, "nb_filter": 200, "bias": true, "trainable": true, "input_length": null, "activation": "relu", "input_dim": null, "b_regularizer": null, "b_constraint": null}, "class_name": "Convolution1D"}, {"config": {"pool_length": 4, "name": "maxpooling1d_1_hul_model", "trainable": true, "stride": 2, "border_mode": "valid"}, "class_name": "MaxPooling1D"}, {"config": {"name": "convolution1d_2_hul_model", "W_constraint": null, "W_regularizer": null, "border_mode": "valid", "init": "uniform", "subsample_length": 1, "filter_length": 6, "activity_regularizer": null, "nb_filter": 200, "bias": true, "trainable": true, "input_length": null, "activation": "relu", "input_dim": null, "b_regularizer": null, "b_constraint": null}, "class_name": "Convolution1D"}], "class_name": "Sequential"}, {"config": [{"config": {"name": "embedding_17_mpq_model", "W_constraint": null, "dropout": 0.2, "activity_regularizer": null, "init": "uniform", "trainable": true, "output_dim": 52, "input_dtype": "int32", "mask_zero": false, "input_length": 140, "input_dim": 428669, "batch_input_shape": [null, 140], "W_regularizer": null}, "class_name": "Embedding"}, {"config": {"padding": 5, "name": "zeropadding1d_17_mpq_model", "trainable": true}, "class_name": "ZeroPadding1D"}, {"config": {"name": "convolution1d_33_mpq_model", "W_constraint": null, "W_regularizer": null, "border_mode": "valid", "init": "uniform", "subsample_length": 1, "filter_length": 6, "activity_regularizer": null, "nb_filter": 200, "bias": true, "trainable": true, "input_length": null, "activation": "relu", "input_dim": null, "b_regularizer": null, "b_constraint": null}, "class_name": "Convolution1D"}, {"config": {"pool_length": 4, "name": "maxpooling1d_33_mpq_model", "trainable": true, "stride": 2, "border_mode": "valid"}, "class_name": "MaxPooling1D"}, {"config": {"name": "convolution1d_34_mpq_model", "W_constraint": null, "W_regularizer": null, "border_mode": "valid", "init": "uniform", "subsample_length": 1, "filter_length": 6, "activity_regularizer": null, "nb_filter": 200, "bias": true, "trainable": true, "input_length": null, "activation": "relu", "input_dim": null, "b_regularizer": null, "b_constraint": null}, "class_name": "Convolution1D"}], "class_name": "Sequential"}, {"config": [{"config": {"name": "embedding_1_semeval_model", "W_constraint": null, "dropout": 0.2, "activity_regularizer": null, "init": "uniform", "trainable": true, "output_dim": 52, "input_dtype": "int32", "mask_zero": false, "input_length": 140, "input_dim": 428669, "batch_input_shape": [null, 140], "W_regularizer": null}, "class_name": "Embedding"}, {"config": {"padding": 5, "name": "zeropadding1d_1_semeval_model", "trainable": true}, "class_name": "ZeroPadding1D"}, {"config": {"name": "convolution1d_1_semeval_model", "W_constraint": null, "W_regularizer": null, "border_mode": "valid", "init": "uniform", "subsample_length": 1, "filter_length": 6, "activity_regularizer": null, "nb_filter": 200, "bias": true, "trainable": true, "input_length": null, "activation": "relu", "input_dim": null, "b_regularizer": null, "b_constraint": null}, "class_name": "Convolution1D"}, {"config": {"pool_length": 4, "name": "maxpooling1d_1_semeval_model", "trainable": true, "stride": 2, "border_mode": "valid"}, "class_name": "MaxPooling1D"}, {"config": {"name": "convolution1d_2_semeval_model", "W_constraint": null, "W_regularizer": null, "border_mode": "valid", "init": "uniform", "subsample_length": 1, "filter_length": 6, "activity_regularizer": null, "nb_filter": 200, "bias": true, "trainable": true, "input_length": null, "activation": "relu", "input_dim": null, "b_regularizer": null, "b_constraint": null}, "class_name": "Convolution1D"}], "class_name": "Sequential"}, {"config": [{"config": {"name": "embedding_1_tac_model", "W_constraint": null, "dropout": 0.2, "activity_regularizer": null, "init": "uniform", "trainable": true, "output_dim": 52, "input_dtype": "int32", "mask_zero": false, "input_length": 140, "input_dim": 428669, "batch_input_shape": [null, 140], "W_regularizer": null}, "class_name": "Embedding"}, {"config": {"padding": 5, "name": "zeropadding1d_1_tac_model", "trainable": true}, "class_name": "ZeroPadding1D"}, {"config": {"name": "convolution1d_1_tac_model", "W_constraint": null, "W_regularizer": null, "border_mode": "valid", "init": "uniform", "subsample_length": 1, "filter_length": 6, "activity_regularizer": null, "nb_filter": 200, "bias": true, "trainable": true, "input_length": null, "activation": "relu", "input_dim": null, "b_regularizer": null, "b_constraint": null}, "class_name": "Convolution1D"}, {"config": {"pool_length": 4, "name": "maxpooling1d_1_tac_model", "trainable": true, "stride": 2, "border_mode": "valid"}, "class_name": "MaxPooling1D"}, {"config": {"name": "convolution1d_2_tac_model", "W_constraint": null, "W_regularizer": null, "border_mode": "valid", "init": "uniform", "subsample_length": 1, "filter_length": 6, "activity_regularizer": null, "nb_filter": 200, "bias": true, "trainable": true, "input_length": null, "activation": "relu", "input_dim": null, "b_regularizer": null, "b_constraint": null}, "class_name": "Convolution1D"}], "class_name": "Sequential"}], "dot_axes": -1, "output_shape": null, "concat_axis": -1, "mode_type": "raw", "mode": "concat"}, "class_name": "Merge"}, {"config": {"name": "flatten_1", "trainable": true}, "class_name": "Flatten"}, {"config": {"name": "dense_1", "W_constraint": null, "W_regularizer": null, "init": "glorot_uniform", "activity_regularizer": null, "output_dim": 200, "bias": true, "trainable": true, "b_constraint": null, "activation": "linear", "input_dim": null, "b_regularizer": null}, "class_name": "Dense"}, {"config": {"name": "dropout_1", "p": 0.2, "trainable": true}, "class_name": "Dropout"}, {"config": {"activation": "relu", "name": "activation_1", "trainable": true}, "class_name": "Activation"}, {"config": {"name": "dense_2", "W_constraint": null, "W_regularizer": null, "init": "glorot_uniform", "activity_regularizer": null, "output_dim": 3, "bias": true, "trainable": true, "b_constraint": null, "activation": "softmax", "input_dim": null, "b_regularizer": null}, "class_name": "Dense"}], "class_name": "Sequential", "keras_version": "1.1.1"}