{"config": [{"config": {"dot_axes": -1, "mode_type": "raw", "name": "merge_1", "output_shape_type": "raw", "mode": "concat", "concat_axis": -1, "layers": [{"config": [{"config": {"trainable": true, "W_regularizer": null, "input_dtype": "int32", "W_constraint": null, "input_length": 140, "dropout": 0.2, "batch_input_shape": [null, 140], "name": "embedding_1_dai_model", "mask_zero": false, "activity_regularizer": null, "input_dim": 1576890, "output_dim": 52, "init": "uniform"}, "class_name": "Embedding"}, {"config": {"trainable": true, "padding": 5, "name": "zeropadding1d_1_dai_model"}, "class_name": "ZeroPadding1D"}, {"config": {"b_constraint": null, "W_regularizer": null, "activation": "relu", "input_dim": null, "W_constraint": null, "filter_length": 6, "bias": true, "name": "convolution1d_1_dai_model", "activity_regularizer": null, "nb_filter": 200, "subsample_length": 1, "trainable": true, "input_length": null, "init": "uniform", "b_regularizer": null, "border_mode": "valid"}, "class_name": "Convolution1D"}, {"config": {"trainable": true, "pool_length": 4, "name": "maxpooling1d_1_dai_model", "stride": 2, "border_mode": "valid"}, "class_name": "MaxPooling1D"}, {"config": {"b_constraint": null, "W_regularizer": null, "activation": "relu", "input_dim": null, "W_constraint": null, "filter_length": 6, "bias": true, "name": "convolution1d_2_dai_model", "activity_regularizer": null, "nb_filter": 200, "subsample_length": 1, "trainable": true, "input_length": null, "init": "uniform", "b_regularizer": null, "border_mode": "valid"}, "class_name": "Convolution1D"}], "class_name": "Sequential"}, {"config": [{"config": {"trainable": true, "W_regularizer": null, "input_dtype": "int32", "W_constraint": null, "input_length": 140, "dropout": 0.2, "batch_input_shape": [null, 140], "name": "embedding_1_tac_model", "mask_zero": false, "activity_regularizer": null, "input_dim": 428669, "output_dim": 52, "init": "uniform"}, "class_name": "Embedding"}, {"config": {"trainable": true, "padding": 5, "name": "zeropadding1d_1_tac_model"}, "class_name": "ZeroPadding1D"}, {"config": {"b_constraint": null, "W_regularizer": null, "activation": "relu", "input_dim": null, "W_constraint": null, "filter_length": 6, "bias": true, "name": "convolution1d_1_tac_model", "activity_regularizer": null, "nb_filter": 200, "subsample_length": 1, "trainable": true, "input_length": null, "init": "uniform", "b_regularizer": null, "border_mode": "valid"}, "class_name": "Convolution1D"}, {"config": {"trainable": true, "pool_length": 4, "name": "maxpooling1d_1_tac_model", "stride": 2, "border_mode": "valid"}, "class_name": "MaxPooling1D"}, {"config": {"b_constraint": null, "W_regularizer": null, "activation": "relu", "input_dim": null, "W_constraint": null, "filter_length": 6, "bias": true, "name": "convolution1d_2_tac_model", "activity_regularizer": null, "nb_filter": 200, "subsample_length": 1, "trainable": true, "input_length": null, "init": "uniform", "b_regularizer": null, "border_mode": "valid"}, "class_name": "Convolution1D"}], "class_name": "Sequential"}, {"config": [{"config": {"trainable": true, "W_regularizer": null, "input_dtype": "int32", "W_constraint": null, "input_length": 140, "dropout": 0.2, "batch_input_shape": [null, 140], "name": "embedding_1_hul_model", "mask_zero": false, "activity_regularizer": null, "input_dim": 1062158, "output_dim": 52, "init": "uniform"}, "class_name": "Embedding"}, {"config": {"trainable": true, "padding": 5, "name": "zeropadding1d_1_hul_model"}, "class_name": "ZeroPadding1D"}, {"config": {"b_constraint": null, "W_regularizer": null, "activation": "relu", "input_dim": null, "W_constraint": null, "filter_length": 6, "bias": true, "name": "convolution1d_1_hul_model", "activity_regularizer": null, "nb_filter": 200, "subsample_length": 1, "trainable": true, "input_length": null, "init": "uniform", "b_regularizer": null, "border_mode": "valid"}, "class_name": "Convolution1D"}, {"config": {"trainable": true, "pool_length": 4, "name": "maxpooling1d_1_hul_model", "stride": 2, "border_mode": "valid"}, "class_name": "MaxPooling1D"}, {"config": {"b_constraint": null, "W_regularizer": null, "activation": "relu", "input_dim": null, "W_constraint": null, "filter_length": 6, "bias": true, "name": "convolution1d_2_hul_model", "activity_regularizer": null, "nb_filter": 200, "subsample_length": 1, "trainable": true, "input_length": null, "init": "uniform", "b_regularizer": null, "border_mode": "valid"}, "class_name": "Convolution1D"}], "class_name": "Sequential"}, {"config": [{"config": {"trainable": true, "W_regularizer": null, "input_dtype": "int32", "W_constraint": null, "input_length": 140, "dropout": 0.2, "batch_input_shape": [null, 140], "name": "embedding_1_semeval_model", "mask_zero": false, "activity_regularizer": null, "input_dim": 428669, "output_dim": 52, "init": "uniform"}, "class_name": "Embedding"}, {"config": {"trainable": true, "padding": 5, "name": "zeropadding1d_1_semeval_model"}, "class_name": "ZeroPadding1D"}, {"config": {"b_constraint": null, "W_regularizer": null, "activation": "relu", "input_dim": null, "W_constraint": null, "filter_length": 6, "bias": true, "name": "convolution1d_1_semeval_model", "activity_regularizer": null, "nb_filter": 200, "subsample_length": 1, "trainable": true, "input_length": null, "init": "uniform", "b_regularizer": null, "border_mode": "valid"}, "class_name": "Convolution1D"}, {"config": {"trainable": true, "pool_length": 4, "name": "maxpooling1d_1_semeval_model", "stride": 2, "border_mode": "valid"}, "class_name": "MaxPooling1D"}, {"config": {"b_constraint": null, "W_regularizer": null, "activation": "relu", "input_dim": null, "W_constraint": null, "filter_length": 6, "bias": true, "name": "convolution1d_2_semeval_model", "activity_regularizer": null, "nb_filter": 200, "subsample_length": 1, "trainable": true, "input_length": null, "init": "uniform", "b_regularizer": null, "border_mode": "valid"}, "class_name": "Convolution1D"}], "class_name": "Sequential"}, {"config": [{"config": {"trainable": true, "W_regularizer": null, "input_dtype": "int32", "W_constraint": null, "input_length": 140, "dropout": 0.2, "batch_input_shape": [null, 140], "name": "embedding_17_mpq_model", "mask_zero": false, "activity_regularizer": null, "input_dim": 428669, "output_dim": 52, "init": "uniform"}, "class_name": "Embedding"}, {"config": {"trainable": true, "padding": 5, "name": "zeropadding1d_17_mpq_model"}, "class_name": "ZeroPadding1D"}, {"config": {"b_constraint": null, "W_regularizer": null, "activation": "relu", "input_dim": null, "W_constraint": null, "filter_length": 6, "bias": true, "name": "convolution1d_33_mpq_model", "activity_regularizer": null, "nb_filter": 200, "subsample_length": 1, "trainable": true, "input_length": null, "init": "uniform", "b_regularizer": null, "border_mode": "valid"}, "class_name": "Convolution1D"}, {"config": {"trainable": true, "pool_length": 4, "name": "maxpooling1d_33_mpq_model", "stride": 2, "border_mode": "valid"}, "class_name": "MaxPooling1D"}, {"config": {"b_constraint": null, "W_regularizer": null, "activation": "relu", "input_dim": null, "W_constraint": null, "filter_length": 6, "bias": true, "name": "convolution1d_34_mpq_model", "activity_regularizer": null, "nb_filter": 200, "subsample_length": 1, "trainable": true, "input_length": null, "init": "uniform", "b_regularizer": null, "border_mode": "valid"}, "class_name": "Convolution1D"}], "class_name": "Sequential"}, {"config": [{"config": {"trainable": true, "W_regularizer": null, "input_dtype": "int32", "W_constraint": null, "input_length": 140, "dropout": 0.2, "batch_input_shape": [null, 140], "name": "embedding_1_dil_model", "mask_zero": false, "activity_regularizer": null, "input_dim": 1576890, "output_dim": 52, "init": "uniform"}, "class_name": "Embedding"}, {"config": {"trainable": true, "padding": 5, "name": "zeropadding1d_1_dil_model"}, "class_name": "ZeroPadding1D"}, {"config": {"b_constraint": null, "W_regularizer": null, "activation": "relu", "input_dim": null, "W_constraint": null, "filter_length": 6, "bias": true, "name": "convolution1d_1_dil_model", "activity_regularizer": null, "nb_filter": 200, "subsample_length": 1, "trainable": true, "input_length": null, "init": "uniform", "b_regularizer": null, "border_mode": "valid"}, "class_name": "Convolution1D"}, {"config": {"trainable": true, "pool_length": 4, "name": "maxpooling1d_1_dil_model", "stride": 2, "border_mode": "valid"}, "class_name": "MaxPooling1D"}, {"config": {"b_constraint": null, "W_regularizer": null, "activation": "relu", "input_dim": null, "W_constraint": null, "filter_length": 6, "bias": true, "name": "convolution1d_2_dil_model", "activity_regularizer": null, "nb_filter": 200, "subsample_length": 1, "trainable": true, "input_length": null, "init": "uniform", "b_regularizer": null, "border_mode": "valid"}, "class_name": "Convolution1D"}], "class_name": "Sequential"}], "output_shape": null}, "class_name": "Merge"}, {"config": {"trainable": true, "name": "flatten_1"}, "class_name": "Flatten"}, {"config": {"trainable": true, "b_constraint": null, "W_regularizer": null, "activation": "linear", "W_constraint": null, "bias": true, "name": "dense_1", "activity_regularizer": null, "input_dim": null, "output_dim": 200, "init": "glorot_uniform", "b_regularizer": null}, "class_name": "Dense"}, {"config": {"trainable": true, "name": "dropout_1", "p": 0.2}, "class_name": "Dropout"}, {"config": {"trainable": true, "activation": "relu", "name": "activation_1"}, "class_name": "Activation"}, {"config": {"trainable": true, "b_constraint": null, "W_regularizer": null, "activation": "softmax", "W_constraint": null, "bias": true, "name": "dense_2", "activity_regularizer": null, "input_dim": null, "output_dim": 3, "init": "glorot_uniform", "b_regularizer": null}, "class_name": "Dense"}], "class_name": "Sequential", "keras_version": "1.1.1"}