{"config": [{"config": {"batch_input_shape": [null, 140], "init": "uniform", "W_regularizer": null, "name": "embedding_10", "input_length": 140, "input_dim": 2950660, "input_dtype": "int32", "mask_zero": false, "dropout": 0.2, "trainable": true, "output_dim": 52, "activity_regularizer": null, "W_constraint": null}, "class_name": "Embedding"}, {"config": {"name": "zeropadding1d_10", "padding": 5, "trainable": true}, "class_name": "ZeroPadding1D"}, {"config": {"border_mode": "valid", "W_regularizer": null, "filter_length": 6, "b_regularizer": null, "bias": true, "input_length": null, "input_dim": null, "W_constraint": null, "name": "convolution1d_19", "trainable": true, "activation": "relu", "nb_filter": 200, "activity_regularizer": null, "b_constraint": null, "init": "uniform", "subsample_length": 1}, "class_name": "Convolution1D"}, {"config": {"pool_length": 4, "name": "maxpooling1d_19", "trainable": true, "stride": 2, "border_mode": "valid"}, "class_name": "MaxPooling1D"}, {"config": {"border_mode": "valid", "W_regularizer": null, "filter_length": 6, "b_regularizer": null, "bias": true, "input_length": null, "input_dim": null, "W_constraint": null, "name": "convolution1d_20", "trainable": true, "activation": "relu", "nb_filter": 200, "activity_regularizer": null, "b_constraint": null, "init": "uniform", "subsample_length": 1}, "class_name": "Convolution1D"}, {"config": {"pool_length": 66, "name": "maxpooling1d_20", "trainable": true, "stride": 66, "border_mode": "valid"}, "class_name": "MaxPooling1D"}, {"config": {"name": "flatten_10", "trainable": true}, "class_name": "Flatten"}, {"config": {"init": "glorot_uniform", "W_regularizer": null, "b_regularizer": null, "name": "dense_19", "input_dim": null, "b_constraint": null, "bias": true, "trainable": true, "output_dim": 200, "activity_regularizer": null, "activation": "linear", "W_constraint": null}, "class_name": "Dense"}, {"config": {"name": "dropout_10", "trainable": true, "p": 0.2}, "class_name": "Dropout"}, {"config": {"name": "activation_10", "activation": "relu", "trainable": true}, "class_name": "Activation"}, {"config": {"init": "glorot_uniform", "W_regularizer": null, "b_regularizer": null, "name": "dense_20", "input_dim": null, "b_constraint": null, "bias": true, "trainable": true, "output_dim": 3, "activity_regularizer": null, "activation": "softmax", "W_constraint": null}, "class_name": "Dense"}], "keras_version": "1.1.0", "class_name": "Sequential"}