{"config": [{"config": {"concat_axis": -1, "mode_type": "raw", "name": "merge_1", "mode": "concat", "dot_axes": -1, "output_shape": null, "layers": [{"config": [{"config": {"input_length": 140, "trainable": true, "batch_input_shape": [null, 140], "init": "uniform", "dropout": 0.2, "input_dim": 1062158, "W_constraint": null, "name": "embedding_1_hul_model", "W_regularizer": null, "activity_regularizer": null, "output_dim": 52, "mask_zero": false, "input_dtype": "int32"}, "class_name": "Embedding"}, {"config": {"padding": 5, "trainable": true, "name": "zeropadding1d_1_hul_model"}, "class_name": "ZeroPadding1D"}, {"config": {"input_length": null, "bias": true, "b_regularizer": null, "nb_filter": 200, "activity_regularizer": null, "b_constraint": null, "activation": "relu", "trainable": true, "border_mode": "valid", "init": "uniform", "input_dim": null, "W_constraint": null, "name": "convolution1d_1_hul_model", "filter_length": 6, "subsample_length": 1, "W_regularizer": null}, "class_name": "Convolution1D"}, {"config": {"stride": 2, "trainable": true, "name": "maxpooling1d_1_hul_model", "border_mode": "valid", "pool_length": 4}, "class_name": "MaxPooling1D"}, {"config": {"input_length": null, "bias": true, "b_regularizer": null, "nb_filter": 200, "activity_regularizer": null, "b_constraint": null, "activation": "relu", "trainable": true, "border_mode": "valid", "init": "uniform", "input_dim": null, "W_constraint": null, "name": "convolution1d_2_hul_model", "filter_length": 6, "subsample_length": 1, "W_regularizer": null}, "class_name": "Convolution1D"}, {"config": {"stride": 66, "trainable": true, "name": "maxpooling1d_2_hul_model", "border_mode": "valid", "pool_length": 66}, "class_name": "MaxPooling1D"}, {"config": {"trainable": true, "name": "flatten_1_hul_model"}, "class_name": "Flatten"}], "class_name": "Sequential"}, {"config": [{"config": {"input_length": 140, "trainable": true, "batch_input_shape": [null, 140], "init": "uniform", "dropout": 0.2, "input_dim": 1576890, "W_constraint": null, "name": "embedding_1_dai_model", "W_regularizer": null, "activity_regularizer": null, "output_dim": 52, "mask_zero": false, "input_dtype": "int32"}, "class_name": "Embedding"}, {"config": {"padding": 5, "trainable": true, "name": "zeropadding1d_1_dai_model"}, "class_name": "ZeroPadding1D"}, {"config": {"input_length": null, "bias": true, "b_regularizer": null, "nb_filter": 200, "activity_regularizer": null, "b_constraint": null, "activation": "relu", "trainable": true, "border_mode": "valid", "init": "uniform", "input_dim": null, "W_constraint": null, "name": "convolution1d_1_dai_model", "filter_length": 6, "subsample_length": 1, "W_regularizer": null}, "class_name": "Convolution1D"}, {"config": {"stride": 2, "trainable": true, "name": "maxpooling1d_1_dai_model", "border_mode": "valid", "pool_length": 4}, "class_name": "MaxPooling1D"}, {"config": {"input_length": null, "bias": true, "b_regularizer": null, "nb_filter": 200, "activity_regularizer": null, "b_constraint": null, "activation": "relu", "trainable": true, "border_mode": "valid", "init": "uniform", "input_dim": null, "W_constraint": null, "name": "convolution1d_2_dai_model", "filter_length": 6, "subsample_length": 1, "W_regularizer": null}, "class_name": "Convolution1D"}, {"config": {"stride": 66, "trainable": true, "name": "maxpooling1d_2_dai_model", "border_mode": "valid", "pool_length": 66}, "class_name": "MaxPooling1D"}, {"config": {"trainable": true, "name": "flatten_1_dai_model"}, "class_name": "Flatten"}], "class_name": "Sequential"}, {"config": [{"config": {"input_length": 140, "trainable": true, "batch_input_shape": [null, 140], "init": "uniform", "dropout": 0.2, "input_dim": 428669, "W_constraint": null, "name": "embedding_1_tac_model", "W_regularizer": null, "activity_regularizer": null, "output_dim": 52, "mask_zero": false, "input_dtype": "int32"}, "class_name": "Embedding"}, {"config": {"padding": 5, "trainable": true, "name": "zeropadding1d_1_tac_model"}, "class_name": "ZeroPadding1D"}, {"config": {"input_length": null, "bias": true, "b_regularizer": null, "nb_filter": 200, "activity_regularizer": null, "b_constraint": null, "activation": "relu", "trainable": true, "border_mode": "valid", "init": "uniform", "input_dim": null, "W_constraint": null, "name": "convolution1d_1_tac_model", "filter_length": 6, "subsample_length": 1, "W_regularizer": null}, "class_name": "Convolution1D"}, {"config": {"stride": 2, "trainable": true, "name": "maxpooling1d_1_tac_model", "border_mode": "valid", "pool_length": 4}, "class_name": "MaxPooling1D"}, {"config": {"input_length": null, "bias": true, "b_regularizer": null, "nb_filter": 200, "activity_regularizer": null, "b_constraint": null, "activation": "relu", "trainable": true, "border_mode": "valid", "init": "uniform", "input_dim": null, "W_constraint": null, "name": "convolution1d_2_tac_model", "filter_length": 6, "subsample_length": 1, "W_regularizer": null}, "class_name": "Convolution1D"}, {"config": {"stride": 66, "trainable": true, "name": "maxpooling1d_2_tac_model", "border_mode": "valid", "pool_length": 66}, "class_name": "MaxPooling1D"}, {"config": {"trainable": true, "name": "flatten_1_tac_model"}, "class_name": "Flatten"}], "class_name": "Sequential"}, {"config": [{"config": {"input_length": 140, "trainable": true, "batch_input_shape": [null, 140], "init": "uniform", "dropout": 0.2, "input_dim": 428669, "W_constraint": null, "name": "embedding_17_mpq_model", "W_regularizer": null, "activity_regularizer": null, "output_dim": 52, "mask_zero": false, "input_dtype": "int32"}, "class_name": "Embedding"}, {"config": {"padding": 5, "trainable": true, "name": "zeropadding1d_17_mpq_model"}, "class_name": "ZeroPadding1D"}, {"config": {"input_length": null, "bias": true, "b_regularizer": null, "nb_filter": 200, "activity_regularizer": null, "b_constraint": null, "activation": "relu", "trainable": true, "border_mode": "valid", "init": "uniform", "input_dim": null, "W_constraint": null, "name": "convolution1d_33_mpq_model", "filter_length": 6, "subsample_length": 1, "W_regularizer": null}, "class_name": "Convolution1D"}, {"config": {"stride": 2, "trainable": true, "name": "maxpooling1d_33_mpq_model", "border_mode": "valid", "pool_length": 4}, "class_name": "MaxPooling1D"}, {"config": {"input_length": null, "bias": true, "b_regularizer": null, "nb_filter": 200, "activity_regularizer": null, "b_constraint": null, "activation": "relu", "trainable": true, "border_mode": "valid", "init": "uniform", "input_dim": null, "W_constraint": null, "name": "convolution1d_34_mpq_model", "filter_length": 6, "subsample_length": 1, "W_regularizer": null}, "class_name": "Convolution1D"}, {"config": {"stride": 66, "trainable": true, "name": "maxpooling1d_34_mpq_model", "border_mode": "valid", "pool_length": 66}, "class_name": "MaxPooling1D"}, {"config": {"trainable": true, "name": "flatten_17_mpq_model"}, "class_name": "Flatten"}], "class_name": "Sequential"}, {"config": [{"config": {"input_length": 140, "trainable": true, "batch_input_shape": [null, 140], "init": "uniform", "dropout": 0.2, "input_dim": 1576890, "W_constraint": null, "name": "embedding_1_dil_model", "W_regularizer": null, "activity_regularizer": null, "output_dim": 52, "mask_zero": false, "input_dtype": "int32"}, "class_name": "Embedding"}, {"config": {"padding": 5, "trainable": true, "name": "zeropadding1d_1_dil_model"}, "class_name": "ZeroPadding1D"}, {"config": {"input_length": null, "bias": true, "b_regularizer": null, "nb_filter": 200, "activity_regularizer": null, "b_constraint": null, "activation": "relu", "trainable": true, "border_mode": "valid", "init": "uniform", "input_dim": null, "W_constraint": null, "name": "convolution1d_1_dil_model", "filter_length": 6, "subsample_length": 1, "W_regularizer": null}, "class_name": "Convolution1D"}, {"config": {"stride": 2, "trainable": true, "name": "maxpooling1d_1_dil_model", "border_mode": "valid", "pool_length": 4}, "class_name": "MaxPooling1D"}, {"config": {"input_length": null, "bias": true, "b_regularizer": null, "nb_filter": 200, "activity_regularizer": null, "b_constraint": null, "activation": "relu", "trainable": true, "border_mode": "valid", "init": "uniform", "input_dim": null, "W_constraint": null, "name": "convolution1d_2_dil_model", "filter_length": 6, "subsample_length": 1, "W_regularizer": null}, "class_name": "Convolution1D"}, {"config": {"stride": 66, "trainable": true, "name": "maxpooling1d_2_dil_model", "border_mode": "valid", "pool_length": 66}, "class_name": "MaxPooling1D"}, {"config": {"trainable": true, "name": "flatten_1_dil_model"}, "class_name": "Flatten"}], "class_name": "Sequential"}, {"config": [{"config": {"input_length": 140, "trainable": true, "batch_input_shape": [null, 140], "init": "uniform", "dropout": 0.2, "input_dim": 428669, "W_constraint": null, "name": "embedding_1_semeval_model", "W_regularizer": null, "activity_regularizer": null, "output_dim": 52, "mask_zero": false, "input_dtype": "int32"}, "class_name": "Embedding"}, {"config": {"padding": 5, "trainable": true, "name": "zeropadding1d_1_semeval_model"}, "class_name": "ZeroPadding1D"}, {"config": {"input_length": null, "bias": true, "b_regularizer": null, "nb_filter": 200, "activity_regularizer": null, "b_constraint": null, "activation": "relu", "trainable": true, "border_mode": "valid", "init": "uniform", "input_dim": null, "W_constraint": null, "name": "convolution1d_1_semeval_model", "filter_length": 6, "subsample_length": 1, "W_regularizer": null}, "class_name": "Convolution1D"}, {"config": {"stride": 2, "trainable": true, "name": "maxpooling1d_1_semeval_model", "border_mode": "valid", "pool_length": 4}, "class_name": "MaxPooling1D"}, {"config": {"input_length": null, "bias": true, "b_regularizer": null, "nb_filter": 200, "activity_regularizer": null, "b_constraint": null, "activation": "relu", "trainable": true, "border_mode": "valid", "init": "uniform", "input_dim": null, "W_constraint": null, "name": "convolution1d_2_semeval_model", "filter_length": 6, "subsample_length": 1, "W_regularizer": null}, "class_name": "Convolution1D"}, {"config": {"stride": 66, "trainable": true, "name": "maxpooling1d_2_semeval_model", "border_mode": "valid", "pool_length": 66}, "class_name": "MaxPooling1D"}, {"config": {"trainable": true, "name": "flatten_1_semeval_model"}, "class_name": "Flatten"}], "class_name": "Sequential"}], "output_shape_type": "raw"}, "class_name": "Merge"}, {"config": {"bias": true, "b_regularizer": null, "activation": "linear", "trainable": true, "W_constraint": null, "init": "glorot_uniform", "input_dim": null, "b_constraint": null, "output_dim": 1028, "activity_regularizer": null, "name": "dense_1", "W_regularizer": null}, "class_name": "Dense"}, {"config": {"activation": "relu", "trainable": true, "name": "activation_1"}, "class_name": "Activation"}, {"config": {"bias": true, "b_regularizer": null, "activation": "softmax", "trainable": true, "W_constraint": null, "init": "glorot_uniform", "input_dim": null, "b_constraint": null, "output_dim": 3, "activity_regularizer": null, "name": "dense_2", "W_regularizer": null}, "class_name": "Dense"}], "class_name": "Sequential", "keras_version": "1.1.1"}