{"config": [{"class_name": "Embedding", "config": {"W_regularizer": null, "mask_zero": false, "trainable": true, "W_constraint": null, "activity_regularizer": null, "input_length": 140, "input_dtype": "int32", "input_dim": 1576890, "name": "embedding_22", "batch_input_shape": [null, 140], "init": "uniform", "dropout": 0.2, "output_dim": 52}}, {"class_name": "ZeroPadding1D", "config": {"padding": 5, "name": "zeropadding1d_22", "trainable": true}}, {"class_name": "Convolution1D", "config": {"W_regularizer": null, "border_mode": "valid", "trainable": true, "W_constraint": null, "subsample_length": 1, "input_length": null, "activation": "relu", "input_dim": null, "activity_regularizer": null, "name": "convolution1d_43", "bias": true, "b_regularizer": null, "init": "uniform", "nb_filter": 200, "b_constraint": null, "filter_length": 6}}, {"class_name": "MaxPooling1D", "config": {"stride": 2, "border_mode": "valid", "name": "maxpooling1d_43", "trainable": true, "pool_length": 4}}, {"class_name": "Convolution1D", "config": {"W_regularizer": null, "border_mode": "valid", "trainable": true, "W_constraint": null, "subsample_length": 1, "input_length": null, "activation": "relu", "input_dim": null, "activity_regularizer": null, "name": "convolution1d_44", "bias": true, "b_regularizer": null, "init": "uniform", "nb_filter": 200, "b_constraint": null, "filter_length": 6}}, {"class_name": "MaxPooling1D", "config": {"stride": 66, "border_mode": "valid", "name": "maxpooling1d_44", "trainable": true, "pool_length": 66}}, {"class_name": "Flatten", "config": {"name": "flatten_22", "trainable": true}}, {"class_name": "Dense", "config": {"W_regularizer": null, "trainable": true, "W_constraint": null, "activity_regularizer": null, "activation": "linear", "input_dim": null, "bias": true, "name": "dense_43", "b_regularizer": null, "init": "glorot_uniform", "b_constraint": null, "output_dim": 200}}, {"class_name": "Dropout", "config": {"name": "dropout_22", "trainable": true, "p": 0.2}}, {"class_name": "Activation", "config": {"activation": "relu", "name": "activation_22", "trainable": true}}, {"class_name": "Dense", "config": {"W_regularizer": null, "trainable": true, "W_constraint": null, "activity_regularizer": null, "activation": "softmax", "input_dim": null, "bias": true, "name": "dense_44", "b_regularizer": null, "init": "glorot_uniform", "b_constraint": null, "output_dim": 3}}], "keras_version": "1.1.1", "class_name": "Sequential"}