{"class_name": "Sequential", "keras_version": "1.1.1", "config": [{"class_name": "Merge", "config": {"concat_axis": -1, "output_shape_type": "raw", "mode_type": "raw", "name": "merge_1", "dot_axes": -1, "mode": "concat", "output_shape": null, "layers": [{"class_name": "Sequential", "config": [{"class_name": "Embedding", "config": {"batch_input_shape": [null, 140], "init": "uniform", "W_constraint": null, "W_regularizer": null, "input_dim": 1576890, "input_length": 140, "activity_regularizer": null, "trainable": true, "mask_zero": false, "dropout": 0.2, "output_dim": 52, "input_dtype": "int32", "name": "embedding_1_dil_model"}}, {"class_name": "ZeroPadding1D", "config": {"trainable": true, "padding": 5, "name": "zeropadding1d_1_dil_model"}}, {"class_name": "Convolution1D", "config": {"activation": "relu", "init": "uniform", "W_constraint": null, "W_regularizer": null, "input_dim": null, "input_length": null, "border_mode": "valid", "subsample_length": 1, "activity_regularizer": null, "trainable": true, "bias": true, "nb_filter": 200, "b_constraint": null, "filter_length": 6, "b_regularizer": null, "name": "convolution1d_1_dil_model"}}, {"class_name": "MaxPooling1D", "config": {"trainable": true, "border_mode": "valid", "pool_length": 4, "name": "maxpooling1d_1_dil_model", "stride": 2}}, {"class_name": "Convolution1D", "config": {"activation": "relu", "init": "uniform", "W_constraint": null, "W_regularizer": null, "input_dim": null, "input_length": null, "border_mode": "valid", "subsample_length": 1, "activity_regularizer": null, "trainable": true, "bias": true, "nb_filter": 200, "b_constraint": null, "filter_length": 6, "b_regularizer": null, "name": "convolution1d_2_dil_model"}}]}, {"class_name": "Sequential", "config": [{"class_name": "Embedding", "config": {"batch_input_shape": [null, 140], "init": "uniform", "W_constraint": null, "W_regularizer": null, "input_dim": 428669, "input_length": 140, "activity_regularizer": null, "trainable": true, "mask_zero": false, "dropout": 0.2, "output_dim": 52, "input_dtype": "int32", "name": "embedding_17_mpq_model"}}, {"class_name": "ZeroPadding1D", "config": {"trainable": true, "padding": 5, "name": "zeropadding1d_17_mpq_model"}}, {"class_name": "Convolution1D", "config": {"activation": "relu", "init": "uniform", "W_constraint": null, "W_regularizer": null, "input_dim": null, "input_length": null, "border_mode": "valid", "subsample_length": 1, "activity_regularizer": null, "trainable": true, "bias": true, "nb_filter": 200, "b_constraint": null, "filter_length": 6, "b_regularizer": null, "name": "convolution1d_33_mpq_model"}}, {"class_name": "MaxPooling1D", "config": {"trainable": true, "border_mode": "valid", "pool_length": 4, "name": "maxpooling1d_33_mpq_model", "stride": 2}}, {"class_name": "Convolution1D", "config": {"activation": "relu", "init": "uniform", "W_constraint": null, "W_regularizer": null, "input_dim": null, "input_length": null, "border_mode": "valid", "subsample_length": 1, "activity_regularizer": null, "trainable": true, "bias": true, "nb_filter": 200, "b_constraint": null, "filter_length": 6, "b_regularizer": null, "name": "convolution1d_34_mpq_model"}}]}, {"class_name": "Sequential", "config": [{"class_name": "Embedding", "config": {"batch_input_shape": [null, 140], "init": "uniform", "W_constraint": null, "W_regularizer": null, "input_dim": 1576890, "input_length": 140, "activity_regularizer": null, "trainable": true, "mask_zero": false, "dropout": 0.2, "output_dim": 52, "input_dtype": "int32", "name": "embedding_1_dai_model"}}, {"class_name": "ZeroPadding1D", "config": {"trainable": true, "padding": 5, "name": "zeropadding1d_1_dai_model"}}, {"class_name": "Convolution1D", "config": {"activation": "relu", "init": "uniform", "W_constraint": null, "W_regularizer": null, "input_dim": null, "input_length": null, "border_mode": "valid", "subsample_length": 1, "activity_regularizer": null, "trainable": true, "bias": true, "nb_filter": 200, "b_constraint": null, "filter_length": 6, "b_regularizer": null, "name": "convolution1d_1_dai_model"}}, {"class_name": "MaxPooling1D", "config": {"trainable": true, "border_mode": "valid", "pool_length": 4, "name": "maxpooling1d_1_dai_model", "stride": 2}}, {"class_name": "Convolution1D", "config": {"activation": "relu", "init": "uniform", "W_constraint": null, "W_regularizer": null, "input_dim": null, "input_length": null, "border_mode": "valid", "subsample_length": 1, "activity_regularizer": null, "trainable": true, "bias": true, "nb_filter": 200, "b_constraint": null, "filter_length": 6, "b_regularizer": null, "name": "convolution1d_2_dai_model"}}]}, {"class_name": "Sequential", "config": [{"class_name": "Embedding", "config": {"batch_input_shape": [null, 140], "init": "uniform", "W_constraint": null, "W_regularizer": null, "input_dim": 428669, "input_length": 140, "activity_regularizer": null, "trainable": true, "mask_zero": false, "dropout": 0.2, "output_dim": 52, "input_dtype": "int32", "name": "embedding_1_semeval_model"}}, {"class_name": "ZeroPadding1D", "config": {"trainable": true, "padding": 5, "name": "zeropadding1d_1_semeval_model"}}, {"class_name": "Convolution1D", "config": {"activation": "relu", "init": "uniform", "W_constraint": null, "W_regularizer": null, "input_dim": null, "input_length": null, "border_mode": "valid", "subsample_length": 1, "activity_regularizer": null, "trainable": true, "bias": true, "nb_filter": 200, "b_constraint": null, "filter_length": 6, "b_regularizer": null, "name": "convolution1d_1_semeval_model"}}, {"class_name": "MaxPooling1D", "config": {"trainable": true, "border_mode": "valid", "pool_length": 4, "name": "maxpooling1d_1_semeval_model", "stride": 2}}, {"class_name": "Convolution1D", "config": {"activation": "relu", "init": "uniform", "W_constraint": null, "W_regularizer": null, "input_dim": null, "input_length": null, "border_mode": "valid", "subsample_length": 1, "activity_regularizer": null, "trainable": true, "bias": true, "nb_filter": 200, "b_constraint": null, "filter_length": 6, "b_regularizer": null, "name": "convolution1d_2_semeval_model"}}]}, {"class_name": "Sequential", "config": [{"class_name": "Embedding", "config": {"batch_input_shape": [null, 140], "init": "uniform", "W_constraint": null, "W_regularizer": null, "input_dim": 428669, "input_length": 140, "activity_regularizer": null, "trainable": true, "mask_zero": false, "dropout": 0.2, "output_dim": 52, "input_dtype": "int32", "name": "embedding_1_tac_model"}}, {"class_name": "ZeroPadding1D", "config": {"trainable": true, "padding": 5, "name": "zeropadding1d_1_tac_model"}}, {"class_name": "Convolution1D", "config": {"activation": "relu", "init": "uniform", "W_constraint": null, "W_regularizer": null, "input_dim": null, "input_length": null, "border_mode": "valid", "subsample_length": 1, "activity_regularizer": null, "trainable": true, "bias": true, "nb_filter": 200, "b_constraint": null, "filter_length": 6, "b_regularizer": null, "name": "convolution1d_1_tac_model"}}, {"class_name": "MaxPooling1D", "config": {"trainable": true, "border_mode": "valid", "pool_length": 4, "name": "maxpooling1d_1_tac_model", "stride": 2}}, {"class_name": "Convolution1D", "config": {"activation": "relu", "init": "uniform", "W_constraint": null, "W_regularizer": null, "input_dim": null, "input_length": null, "border_mode": "valid", "subsample_length": 1, "activity_regularizer": null, "trainable": true, "bias": true, "nb_filter": 200, "b_constraint": null, "filter_length": 6, "b_regularizer": null, "name": "convolution1d_2_tac_model"}}]}, {"class_name": "Sequential", "config": [{"class_name": "Embedding", "config": {"batch_input_shape": [null, 140], "init": "uniform", "W_constraint": null, "W_regularizer": null, "input_dim": 1062158, "input_length": 140, "activity_regularizer": null, "trainable": true, "mask_zero": false, "dropout": 0.2, "output_dim": 52, "input_dtype": "int32", "name": "embedding_1_hul_model"}}, {"class_name": "ZeroPadding1D", "config": {"trainable": true, "padding": 5, "name": "zeropadding1d_1_hul_model"}}, {"class_name": "Convolution1D", "config": {"activation": "relu", "init": "uniform", "W_constraint": null, "W_regularizer": null, "input_dim": null, "input_length": null, "border_mode": "valid", "subsample_length": 1, "activity_regularizer": null, "trainable": true, "bias": true, "nb_filter": 200, "b_constraint": null, "filter_length": 6, "b_regularizer": null, "name": "convolution1d_1_hul_model"}}, {"class_name": "MaxPooling1D", "config": {"trainable": true, "border_mode": "valid", "pool_length": 4, "name": "maxpooling1d_1_hul_model", "stride": 2}}, {"class_name": "Convolution1D", "config": {"activation": "relu", "init": "uniform", "W_constraint": null, "W_regularizer": null, "input_dim": null, "input_length": null, "border_mode": "valid", "subsample_length": 1, "activity_regularizer": null, "trainable": true, "bias": true, "nb_filter": 200, "b_constraint": null, "filter_length": 6, "b_regularizer": null, "name": "convolution1d_2_hul_model"}}]}]}}, {"class_name": "Flatten", "config": {"trainable": true, "name": "flatten_1"}}, {"class_name": "Dense", "config": {"activation": "linear", "init": "glorot_uniform", "W_constraint": null, "W_regularizer": null, "input_dim": null, "activity_regularizer": null, "trainable": true, "bias": true, "b_constraint": null, "output_dim": 200, "b_regularizer": null, "name": "dense_1"}}, {"class_name": "Dropout", "config": {"trainable": true, "p": 0.2, "name": "dropout_1"}}, {"class_name": "Activation", "config": {"trainable": true, "activation": "relu", "name": "activation_1"}}, {"class_name": "Dense", "config": {"activation": "softmax", "init": "glorot_uniform", "W_constraint": null, "W_regularizer": null, "input_dim": null, "activity_regularizer": null, "trainable": true, "bias": true, "b_constraint": null, "output_dim": 3, "b_regularizer": null, "name": "dense_2"}}]}