{"keras_version": "1.1.1", "class_name": "Sequential", "config": [{"class_name": "Merge", "config": {"layers": [{"class_name": "Sequential", "config": [{"class_name": "Embedding", "config": {"input_dim": 1062158, "dropout": 0.2, "output_dim": 52, "W_regularizer": null, "W_constraint": null, "activity_regularizer": null, "init": "uniform", "batch_input_shape": [null, 140], "input_dtype": "int32", "mask_zero": false, "trainable": true, "name": "embedding_1_hul_model", "input_length": 140}}, {"class_name": "ZeroPadding1D", "config": {"name": "zeropadding1d_1_hul_model", "padding": 5, "trainable": true}}, {"class_name": "Convolution1D", "config": {"input_dim": null, "b_regularizer": null, "activation": "relu", "W_regularizer": null, "W_constraint": null, "b_constraint": null, "activity_regularizer": null, "init": "uniform", "nb_filter": 200, "subsample_length": 1, "trainable": true, "bias": true, "border_mode": "valid", "name": "convolution1d_1_hul_model", "input_length": null, "filter_length": 6}}, {"class_name": "MaxPooling1D", "config": {"stride": 2, "border_mode": "valid", "name": "maxpooling1d_1_hul_model", "pool_length": 4, "trainable": true}}, {"class_name": "Convolution1D", "config": {"input_dim": null, "b_regularizer": null, "activation": "relu", "W_regularizer": null, "W_constraint": null, "b_constraint": null, "activity_regularizer": null, "init": "uniform", "nb_filter": 200, "subsample_length": 1, "trainable": true, "bias": true, "border_mode": "valid", "name": "convolution1d_2_hul_model", "input_length": null, "filter_length": 6}}, {"class_name": "MaxPooling1D", "config": {"stride": 66, "border_mode": "valid", "name": "maxpooling1d_2_hul_model", "pool_length": 66, "trainable": true}}, {"class_name": "Flatten", "config": {"name": "flatten_1_hul_model", "trainable": true}}]}, {"class_name": "Sequential", "config": [{"class_name": "Embedding", "config": {"input_dim": 1576890, "dropout": 0.2, "output_dim": 52, "W_regularizer": null, "W_constraint": null, "activity_regularizer": null, "init": "uniform", "batch_input_shape": [null, 140], "input_dtype": "int32", "mask_zero": false, "trainable": true, "name": "embedding_1_dil_model", "input_length": 140}}, {"class_name": "ZeroPadding1D", "config": {"name": "zeropadding1d_1_dil_model", "padding": 5, "trainable": true}}, {"class_name": "Convolution1D", "config": {"input_dim": null, "b_regularizer": null, "activation": "relu", "W_regularizer": null, "W_constraint": null, "b_constraint": null, "activity_regularizer": null, "init": "uniform", "nb_filter": 200, "subsample_length": 1, "trainable": true, "bias": true, "border_mode": "valid", "name": "convolution1d_1_dil_model", "input_length": null, "filter_length": 6}}, {"class_name": "MaxPooling1D", "config": {"stride": 2, "border_mode": "valid", "name": "maxpooling1d_1_dil_model", "pool_length": 4, "trainable": true}}, {"class_name": "Convolution1D", "config": {"input_dim": null, "b_regularizer": null, "activation": "relu", "W_regularizer": null, "W_constraint": null, "b_constraint": null, "activity_regularizer": null, "init": "uniform", "nb_filter": 200, "subsample_length": 1, "trainable": true, "bias": true, "border_mode": "valid", "name": "convolution1d_2_dil_model", "input_length": null, "filter_length": 6}}, {"class_name": "MaxPooling1D", "config": {"stride": 66, "border_mode": "valid", "name": "maxpooling1d_2_dil_model", "pool_length": 66, "trainable": true}}, {"class_name": "Flatten", "config": {"name": "flatten_1_dil_model", "trainable": true}}]}, {"class_name": "Sequential", "config": [{"class_name": "Embedding", "config": {"input_dim": 428669, "dropout": 0.2, "output_dim": 52, "W_regularizer": null, "W_constraint": null, "activity_regularizer": null, "init": "uniform", "batch_input_shape": [null, 140], "input_dtype": "int32", "mask_zero": false, "trainable": true, "name": "embedding_17_mpq_model", "input_length": 140}}, {"class_name": "ZeroPadding1D", "config": {"name": "zeropadding1d_17_mpq_model", "padding": 5, "trainable": true}}, {"class_name": "Convolution1D", "config": {"input_dim": null, "b_regularizer": null, "activation": "relu", "W_regularizer": null, "W_constraint": null, "b_constraint": null, "activity_regularizer": null, "init": "uniform", "nb_filter": 200, "subsample_length": 1, "trainable": true, "bias": true, "border_mode": "valid", "name": "convolution1d_33_mpq_model", "input_length": null, "filter_length": 6}}, {"class_name": "MaxPooling1D", "config": {"stride": 2, "border_mode": "valid", "name": "maxpooling1d_33_mpq_model", "pool_length": 4, "trainable": true}}, {"class_name": "Convolution1D", "config": {"input_dim": null, "b_regularizer": null, "activation": "relu", "W_regularizer": null, "W_constraint": null, "b_constraint": null, "activity_regularizer": null, "init": "uniform", "nb_filter": 200, "subsample_length": 1, "trainable": true, "bias": true, "border_mode": "valid", "name": "convolution1d_34_mpq_model", "input_length": null, "filter_length": 6}}, {"class_name": "MaxPooling1D", "config": {"stride": 66, "border_mode": "valid", "name": "maxpooling1d_34_mpq_model", "pool_length": 66, "trainable": true}}, {"class_name": "Flatten", "config": {"name": "flatten_17_mpq_model", "trainable": true}}]}, {"class_name": "Sequential", "config": [{"class_name": "Embedding", "config": {"input_dim": 428669, "dropout": 0.2, "output_dim": 52, "W_regularizer": null, "W_constraint": null, "activity_regularizer": null, "init": "uniform", "batch_input_shape": [null, 140], "input_dtype": "int32", "mask_zero": false, "trainable": true, "name": "embedding_1_tac_model", "input_length": 140}}, {"class_name": "ZeroPadding1D", "config": {"name": "zeropadding1d_1_tac_model", "padding": 5, "trainable": true}}, {"class_name": "Convolution1D", "config": {"input_dim": null, "b_regularizer": null, "activation": "relu", "W_regularizer": null, "W_constraint": null, "b_constraint": null, "activity_regularizer": null, "init": "uniform", "nb_filter": 200, "subsample_length": 1, "trainable": true, "bias": true, "border_mode": "valid", "name": "convolution1d_1_tac_model", "input_length": null, "filter_length": 6}}, {"class_name": "MaxPooling1D", "config": {"stride": 2, "border_mode": "valid", "name": "maxpooling1d_1_tac_model", "pool_length": 4, "trainable": true}}, {"class_name": "Convolution1D", "config": {"input_dim": null, "b_regularizer": null, "activation": "relu", "W_regularizer": null, "W_constraint": null, "b_constraint": null, "activity_regularizer": null, "init": "uniform", "nb_filter": 200, "subsample_length": 1, "trainable": true, "bias": true, "border_mode": "valid", "name": "convolution1d_2_tac_model", "input_length": null, "filter_length": 6}}, {"class_name": "MaxPooling1D", "config": {"stride": 66, "border_mode": "valid", "name": "maxpooling1d_2_tac_model", "pool_length": 66, "trainable": true}}, {"class_name": "Flatten", "config": {"name": "flatten_1_tac_model", "trainable": true}}]}, {"class_name": "Sequential", "config": [{"class_name": "Embedding", "config": {"input_dim": 428669, "dropout": 0.2, "output_dim": 52, "W_regularizer": null, "W_constraint": null, "activity_regularizer": null, "init": "uniform", "batch_input_shape": [null, 140], "input_dtype": "int32", "mask_zero": false, "trainable": true, "name": "embedding_1_semeval_model", "input_length": 140}}, {"class_name": "ZeroPadding1D", "config": {"name": "zeropadding1d_1_semeval_model", "padding": 5, "trainable": true}}, {"class_name": "Convolution1D", "config": {"input_dim": null, "b_regularizer": null, "activation": "relu", "W_regularizer": null, "W_constraint": null, "b_constraint": null, "activity_regularizer": null, "init": "uniform", "nb_filter": 200, "subsample_length": 1, "trainable": true, "bias": true, "border_mode": "valid", "name": "convolution1d_1_semeval_model", "input_length": null, "filter_length": 6}}, {"class_name": "MaxPooling1D", "config": {"stride": 2, "border_mode": "valid", "name": "maxpooling1d_1_semeval_model", "pool_length": 4, "trainable": true}}, {"class_name": "Convolution1D", "config": {"input_dim": null, "b_regularizer": null, "activation": "relu", "W_regularizer": null, "W_constraint": null, "b_constraint": null, "activity_regularizer": null, "init": "uniform", "nb_filter": 200, "subsample_length": 1, "trainable": true, "bias": true, "border_mode": "valid", "name": "convolution1d_2_semeval_model", "input_length": null, "filter_length": 6}}, {"class_name": "MaxPooling1D", "config": {"stride": 66, "border_mode": "valid", "name": "maxpooling1d_2_semeval_model", "pool_length": 66, "trainable": true}}, {"class_name": "Flatten", "config": {"name": "flatten_1_semeval_model", "trainable": true}}]}, {"class_name": "Sequential", "config": [{"class_name": "Embedding", "config": {"input_dim": 1576890, "dropout": 0.2, "output_dim": 52, "W_regularizer": null, "W_constraint": null, "activity_regularizer": null, "init": "uniform", "batch_input_shape": [null, 140], "input_dtype": "int32", "mask_zero": false, "trainable": true, "name": "embedding_1_dai_model", "input_length": 140}}, {"class_name": "ZeroPadding1D", "config": {"name": "zeropadding1d_1_dai_model", "padding": 5, "trainable": true}}, {"class_name": "Convolution1D", "config": {"input_dim": null, "b_regularizer": null, "activation": "relu", "W_regularizer": null, "W_constraint": null, "b_constraint": null, "activity_regularizer": null, "init": "uniform", "nb_filter": 200, "subsample_length": 1, "trainable": true, "bias": true, "border_mode": "valid", "name": "convolution1d_1_dai_model", "input_length": null, "filter_length": 6}}, {"class_name": "MaxPooling1D", "config": {"stride": 2, "border_mode": "valid", "name": "maxpooling1d_1_dai_model", "pool_length": 4, "trainable": true}}, {"class_name": "Convolution1D", "config": {"input_dim": null, "b_regularizer": null, "activation": "relu", "W_regularizer": null, "W_constraint": null, "b_constraint": null, "activity_regularizer": null, "init": "uniform", "nb_filter": 200, "subsample_length": 1, "trainable": true, "bias": true, "border_mode": "valid", "name": "convolution1d_2_dai_model", "input_length": null, "filter_length": 6}}, {"class_name": "MaxPooling1D", "config": {"stride": 66, "border_mode": "valid", "name": "maxpooling1d_2_dai_model", "pool_length": 66, "trainable": true}}, {"class_name": "Flatten", "config": {"name": "flatten_1_dai_model", "trainable": true}}]}], "name": "merge_1", "mode_type": "raw", "dot_axes": -1, "concat_axis": -1, "output_shape_type": "raw", "mode": "concat", "output_shape": null}}, {"class_name": "Dense", "config": {"input_dim": null, "b_regularizer": null, "output_dim": 1028, "W_regularizer": null, "W_constraint": null, "b_constraint": null, "activity_regularizer": null, "init": "glorot_uniform", "activation": "linear", "trainable": true, "bias": true, "name": "dense_1"}}, {"class_name": "Activation", "config": {"activation": "relu", "name": "activation_1", "trainable": true}}, {"class_name": "Dense", "config": {"input_dim": null, "b_regularizer": null, "output_dim": 3, "W_regularizer": null, "W_constraint": null, "b_constraint": null, "activity_regularizer": null, "init": "glorot_uniform", "activation": "softmax", "trainable": true, "bias": true, "name": "dense_2"}}]}