{"config": [{"config": {"output_shape": null, "output_shape_type": "raw", "mode_type": "raw", "dot_axes": -1, "name": "merge_1", "layers": [{"config": [{"config": {"input_dtype": "int32", "trainable": true, "batch_input_shape": [null, 140], "W_constraint": null, "W_regularizer": null, "activity_regularizer": null, "init": "uniform", "mask_zero": false, "input_length": 140, "input_dim": 1576890, "name": "embedding_1_dil_model", "output_dim": 52, "dropout": 0.2}, "class_name": "Embedding"}, {"config": {"name": "zeropadding1d_1_dil_model", "padding": 5, "trainable": true}, "class_name": "ZeroPadding1D"}, {"config": {"b_regularizer": null, "bias": true, "trainable": true, "nb_filter": 200, "activation": "relu", "subsample_length": 1, "W_constraint": null, "W_regularizer": null, "b_constraint": null, "init": "uniform", "border_mode": "valid", "input_length": null, "input_dim": null, "name": "convolution1d_1_dil_model", "activity_regularizer": null, "filter_length": 6}, "class_name": "Convolution1D"}, {"config": {"pool_length": 4, "name": "maxpooling1d_1_dil_model", "border_mode": "valid", "stride": 2, "trainable": true}, "class_name": "MaxPooling1D"}, {"config": {"b_regularizer": null, "bias": true, "trainable": true, "nb_filter": 200, "activation": "relu", "subsample_length": 1, "W_constraint": null, "W_regularizer": null, "b_constraint": null, "init": "uniform", "border_mode": "valid", "input_length": null, "input_dim": null, "name": "convolution1d_2_dil_model", "activity_regularizer": null, "filter_length": 6}, "class_name": "Convolution1D"}], "class_name": "Sequential"}, {"config": [{"config": {"input_dtype": "int32", "trainable": true, "batch_input_shape": [null, 140], "W_constraint": null, "W_regularizer": null, "activity_regularizer": null, "init": "uniform", "mask_zero": false, "input_length": 140, "input_dim": 428669, "name": "embedding_17_mpq_model", "output_dim": 52, "dropout": 0.2}, "class_name": "Embedding"}, {"config": {"name": "zeropadding1d_17_mpq_model", "padding": 5, "trainable": true}, "class_name": "ZeroPadding1D"}, {"config": {"b_regularizer": null, "bias": true, "trainable": true, "nb_filter": 200, "activation": "relu", "subsample_length": 1, "W_constraint": null, "W_regularizer": null, "b_constraint": null, "init": "uniform", "border_mode": "valid", "input_length": null, "input_dim": null, "name": "convolution1d_33_mpq_model", "activity_regularizer": null, "filter_length": 6}, "class_name": "Convolution1D"}, {"config": {"pool_length": 4, "name": "maxpooling1d_33_mpq_model", "border_mode": "valid", "stride": 2, "trainable": true}, "class_name": "MaxPooling1D"}, {"config": {"b_regularizer": null, "bias": true, "trainable": true, "nb_filter": 200, "activation": "relu", "subsample_length": 1, "W_constraint": null, "W_regularizer": null, "b_constraint": null, "init": "uniform", "border_mode": "valid", "input_length": null, "input_dim": null, "name": "convolution1d_34_mpq_model", "activity_regularizer": null, "filter_length": 6}, "class_name": "Convolution1D"}], "class_name": "Sequential"}, {"config": [{"config": {"input_dtype": "int32", "trainable": true, "batch_input_shape": [null, 140], "W_constraint": null, "W_regularizer": null, "activity_regularizer": null, "init": "uniform", "mask_zero": false, "input_length": 140, "input_dim": 1576890, "name": "embedding_1_semeval_model", "output_dim": 52, "dropout": 0.2}, "class_name": "Embedding"}, {"config": {"name": "zeropadding1d_1_semeval_model", "padding": 5, "trainable": true}, "class_name": "ZeroPadding1D"}, {"config": {"b_regularizer": null, "bias": true, "trainable": true, "nb_filter": 200, "activation": "relu", "subsample_length": 1, "W_constraint": null, "W_regularizer": null, "b_constraint": null, "init": "uniform", "border_mode": "valid", "input_length": null, "input_dim": null, "name": "convolution1d_1_semeval_model", "activity_regularizer": null, "filter_length": 6}, "class_name": "Convolution1D"}, {"config": {"pool_length": 4, "name": "maxpooling1d_1_semeval_model", "border_mode": "valid", "stride": 2, "trainable": true}, "class_name": "MaxPooling1D"}, {"config": {"b_regularizer": null, "bias": true, "trainable": true, "nb_filter": 200, "activation": "relu", "subsample_length": 1, "W_constraint": null, "W_regularizer": null, "b_constraint": null, "init": "uniform", "border_mode": "valid", "input_length": null, "input_dim": null, "name": "convolution1d_2_semeval_model", "activity_regularizer": null, "filter_length": 6}, "class_name": "Convolution1D"}], "class_name": "Sequential"}, {"config": [{"config": {"input_dtype": "int32", "trainable": true, "batch_input_shape": [null, 140], "W_constraint": null, "W_regularizer": null, "activity_regularizer": null, "init": "uniform", "mask_zero": false, "input_length": 140, "input_dim": 428669, "name": "embedding_1_tac_model", "output_dim": 52, "dropout": 0.2}, "class_name": "Embedding"}, {"config": {"name": "zeropadding1d_1_tac_model", "padding": 5, "trainable": true}, "class_name": "ZeroPadding1D"}, {"config": {"b_regularizer": null, "bias": true, "trainable": true, "nb_filter": 200, "activation": "relu", "subsample_length": 1, "W_constraint": null, "W_regularizer": null, "b_constraint": null, "init": "uniform", "border_mode": "valid", "input_length": null, "input_dim": null, "name": "convolution1d_1_tac_model", "activity_regularizer": null, "filter_length": 6}, "class_name": "Convolution1D"}, {"config": {"pool_length": 4, "name": "maxpooling1d_1_tac_model", "border_mode": "valid", "stride": 2, "trainable": true}, "class_name": "MaxPooling1D"}, {"config": {"b_regularizer": null, "bias": true, "trainable": true, "nb_filter": 200, "activation": "relu", "subsample_length": 1, "W_constraint": null, "W_regularizer": null, "b_constraint": null, "init": "uniform", "border_mode": "valid", "input_length": null, "input_dim": null, "name": "convolution1d_2_tac_model", "activity_regularizer": null, "filter_length": 6}, "class_name": "Convolution1D"}], "class_name": "Sequential"}], "mode": "concat", "concat_axis": -1}, "class_name": "Merge"}, {"config": {"pool_length": 4, "name": "maxpooling1d_1", "border_mode": "valid", "stride": 2, "trainable": true}, "class_name": "MaxPooling1D"}, {"config": {"b_regularizer": null, "border_mode": "valid", "trainable": true, "activation": "relu", "subsample_length": 1, "init": "uniform", "W_regularizer": null, "b_constraint": null, "W_constraint": null, "nb_filter": 200, "filter_length": 6, "input_length": null, "input_dim": null, "name": "convolution1d_1", "activity_regularizer": null, "bias": true}, "class_name": "Convolution1D"}, {"config": {"pool_length": 4, "name": "maxpooling1d_2", "border_mode": "valid", "stride": 2, "trainable": true}, "class_name": "MaxPooling1D"}, {"config": {"name": "flatten_1", "trainable": true}, "class_name": "Flatten"}, {"config": {"b_regularizer": null, "trainable": true, "activation": "linear", "bias": true, "init": "glorot_uniform", "W_regularizer": null, "output_dim": 200, "W_constraint": null, "input_dim": null, "name": "dense_1", "activity_regularizer": null, "b_constraint": null}, "class_name": "Dense"}, {"config": {"name": "dropout_1", "trainable": true, "p": 0.2}, "class_name": "Dropout"}, {"config": {"name": "activation_1", "activation": "relu", "trainable": true}, "class_name": "Activation"}, {"config": {"b_regularizer": null, "trainable": true, "activation": "softmax", "bias": true, "init": "glorot_uniform", "W_regularizer": null, "output_dim": 3, "W_constraint": null, "input_dim": null, "name": "dense_2", "activity_regularizer": null, "b_constraint": null}, "class_name": "Dense"}], "keras_version": "1.1.1", "class_name": "Sequential"}