{"class_name": "Sequential", "config": [{"class_name": "Embedding", "config": {"batch_input_shape": [null, 140], "input_length": 140, "trainable": true, "activity_regularizer": null, "mask_zero": false, "W_constraint": null, "init": "uniform", "input_dim": 1576890, "input_dtype": "int32", "name": "embedding_21", "dropout": 0.2, "output_dim": 52, "W_regularizer": null}}, {"class_name": "ZeroPadding1D", "config": {"trainable": true, "name": "zeropadding1d_21", "padding": 5}}, {"class_name": "Convolution1D", "config": {"b_constraint": null, "W_regularizer": null, "input_length": null, "subsample_length": 1, "activity_regularizer": null, "filter_length": 6, "W_constraint": null, "init": "uniform", "name": "convolution1d_41", "nb_filter": 200, "border_mode": "valid", "bias": true, "activation": "relu", "b_regularizer": null, "input_dim": null, "trainable": true}}, {"class_name": "MaxPooling1D", "config": {"trainable": true, "name": "maxpooling1d_41", "pool_length": 4, "stride": 2, "border_mode": "valid"}}, {"class_name": "Convolution1D", "config": {"b_constraint": null, "W_regularizer": null, "input_length": null, "subsample_length": 1, "activity_regularizer": null, "filter_length": 6, "W_constraint": null, "init": "uniform", "name": "convolution1d_42", "nb_filter": 200, "border_mode": "valid", "bias": true, "activation": "relu", "b_regularizer": null, "input_dim": null, "trainable": true}}, {"class_name": "MaxPooling1D", "config": {"trainable": true, "name": "maxpooling1d_42", "pool_length": 66, "stride": 66, "border_mode": "valid"}}, {"class_name": "Flatten", "config": {"trainable": true, "name": "flatten_21"}}, {"class_name": "Dense", "config": {"b_constraint": null, "W_regularizer": null, "activity_regularizer": null, "W_constraint": null, "bias": true, "trainable": true, "name": "dense_41", "init": "glorot_uniform", "output_dim": 200, "b_regularizer": null, "input_dim": null, "activation": "linear"}}, {"class_name": "Dropout", "config": {"trainable": true, "p": 0.2, "name": "dropout_21"}}, {"class_name": "Activation", "config": {"trainable": true, "name": "activation_21", "activation": "relu"}}, {"class_name": "Dense", "config": {"b_constraint": null, "W_regularizer": null, "activity_regularizer": null, "W_constraint": null, "bias": true, "trainable": true, "name": "dense_42", "init": "glorot_uniform", "output_dim": 3, "b_regularizer": null, "input_dim": null, "activation": "softmax"}}], "keras_version": "1.1.0"}