{"class_name": "Sequential", "config": [{"class_name": "Merge", "config": {"dot_axes": -1, "mode": "concat", "name": "merge_1", "concat_axis": -1, "output_shape_type": "raw", "mode_type": "raw", "layers": [{"class_name": "Sequential", "config": [{"class_name": "Embedding", "config": {"W_constraint": null, "activity_regularizer": null, "trainable": true, "input_length": 140, "init": "uniform", "output_dim": 52, "W_regularizer": null, "dropout": 0.2, "name": "embedding_17_mpq_model", "input_dim": 428669, "input_dtype": "int32", "batch_input_shape": [null, 140], "mask_zero": false}}, {"class_name": "ZeroPadding1D", "config": {"name": "zeropadding1d_17_mpq_model", "padding": 5, "trainable": true}}, {"class_name": "Convolution1D", "config": {"b_regularizer": null, "border_mode": "valid", "init": "uniform", "activity_regularizer": null, "trainable": true, "input_length": null, "activation": "relu", "subsample_length": 1, "W_constraint": null, "bias": true, "name": "convolution1d_33_mpq_model", "input_dim": null, "W_regularizer": null, "nb_filter": 200, "filter_length": 6, "b_constraint": null}}, {"class_name": "MaxPooling1D", "config": {"pool_length": 4, "border_mode": "valid", "stride": 2, "name": "maxpooling1d_33_mpq_model", "trainable": true}}, {"class_name": "Convolution1D", "config": {"b_regularizer": null, "border_mode": "valid", "init": "uniform", "activity_regularizer": null, "trainable": true, "input_length": null, "activation": "relu", "subsample_length": 1, "W_constraint": null, "bias": true, "name": "convolution1d_34_mpq_model", "input_dim": null, "W_regularizer": null, "nb_filter": 200, "filter_length": 6, "b_constraint": null}}]}, {"class_name": "Sequential", "config": [{"class_name": "Embedding", "config": {"W_constraint": null, "activity_regularizer": null, "trainable": true, "input_length": 140, "init": "uniform", "output_dim": 52, "W_regularizer": null, "dropout": 0.2, "name": "embedding_1_tac_model", "input_dim": 428669, "input_dtype": "int32", "batch_input_shape": [null, 140], "mask_zero": false}}, {"class_name": "ZeroPadding1D", "config": {"name": "zeropadding1d_1_tac_model", "padding": 5, "trainable": true}}, {"class_name": "Convolution1D", "config": {"b_regularizer": null, "border_mode": "valid", "init": "uniform", "activity_regularizer": null, "trainable": true, "input_length": null, "activation": "relu", "subsample_length": 1, "W_constraint": null, "bias": true, "name": "convolution1d_1_tac_model", "input_dim": null, "W_regularizer": null, "nb_filter": 200, "filter_length": 6, "b_constraint": null}}, {"class_name": "MaxPooling1D", "config": {"pool_length": 4, "border_mode": "valid", "stride": 2, "name": "maxpooling1d_1_tac_model", "trainable": true}}, {"class_name": "Convolution1D", "config": {"b_regularizer": null, "border_mode": "valid", "init": "uniform", "activity_regularizer": null, "trainable": true, "input_length": null, "activation": "relu", "subsample_length": 1, "W_constraint": null, "bias": true, "name": "convolution1d_2_tac_model", "input_dim": null, "W_regularizer": null, "nb_filter": 200, "filter_length": 6, "b_constraint": null}}]}, {"class_name": "Sequential", "config": [{"class_name": "Embedding", "config": {"W_constraint": null, "activity_regularizer": null, "trainable": true, "input_length": 140, "init": "uniform", "output_dim": 52, "W_regularizer": null, "dropout": 0.2, "name": "embedding_1_dil_model", "input_dim": 1576890, "input_dtype": "int32", "batch_input_shape": [null, 140], "mask_zero": false}}, {"class_name": "ZeroPadding1D", "config": {"name": "zeropadding1d_1_dil_model", "padding": 5, "trainable": true}}, {"class_name": "Convolution1D", "config": {"b_regularizer": null, "border_mode": "valid", "init": "uniform", "activity_regularizer": null, "trainable": true, "input_length": null, "activation": "relu", "subsample_length": 1, "W_constraint": null, "bias": true, "name": "convolution1d_1_dil_model", "input_dim": null, "W_regularizer": null, "nb_filter": 200, "filter_length": 6, "b_constraint": null}}, {"class_name": "MaxPooling1D", "config": {"pool_length": 4, "border_mode": "valid", "stride": 2, "name": "maxpooling1d_1_dil_model", "trainable": true}}, {"class_name": "Convolution1D", "config": {"b_regularizer": null, "border_mode": "valid", "init": "uniform", "activity_regularizer": null, "trainable": true, "input_length": null, "activation": "relu", "subsample_length": 1, "W_constraint": null, "bias": true, "name": "convolution1d_2_dil_model", "input_dim": null, "W_regularizer": null, "nb_filter": 200, "filter_length": 6, "b_constraint": null}}]}, {"class_name": "Sequential", "config": [{"class_name": "Embedding", "config": {"W_constraint": null, "activity_regularizer": null, "trainable": true, "input_length": 140, "init": "uniform", "output_dim": 52, "W_regularizer": null, "dropout": 0.2, "name": "embedding_1_hul_model", "input_dim": 1062158, "input_dtype": "int32", "batch_input_shape": [null, 140], "mask_zero": false}}, {"class_name": "ZeroPadding1D", "config": {"name": "zeropadding1d_1_hul_model", "padding": 5, "trainable": true}}, {"class_name": "Convolution1D", "config": {"b_regularizer": null, "border_mode": "valid", "init": "uniform", "activity_regularizer": null, "trainable": true, "input_length": null, "activation": "relu", "subsample_length": 1, "W_constraint": null, "bias": true, "name": "convolution1d_1_hul_model", "input_dim": null, "W_regularizer": null, "nb_filter": 200, "filter_length": 6, "b_constraint": null}}, {"class_name": "MaxPooling1D", "config": {"pool_length": 4, "border_mode": "valid", "stride": 2, "name": "maxpooling1d_1_hul_model", "trainable": true}}, {"class_name": "Convolution1D", "config": {"b_regularizer": null, "border_mode": "valid", "init": "uniform", "activity_regularizer": null, "trainable": true, "input_length": null, "activation": "relu", "subsample_length": 1, "W_constraint": null, "bias": true, "name": "convolution1d_2_hul_model", "input_dim": null, "W_regularizer": null, "nb_filter": 200, "filter_length": 6, "b_constraint": null}}]}, {"class_name": "Sequential", "config": [{"class_name": "Embedding", "config": {"W_constraint": null, "activity_regularizer": null, "trainable": true, "input_length": 140, "init": "uniform", "output_dim": 52, "W_regularizer": null, "dropout": 0.2, "name": "embedding_1_semeval_model", "input_dim": 428669, "input_dtype": "int32", "batch_input_shape": [null, 140], "mask_zero": false}}, {"class_name": "ZeroPadding1D", "config": {"name": "zeropadding1d_1_semeval_model", "padding": 5, "trainable": true}}, {"class_name": "Convolution1D", "config": {"b_regularizer": null, "border_mode": "valid", "init": "uniform", "activity_regularizer": null, "trainable": true, "input_length": null, "activation": "relu", "subsample_length": 1, "W_constraint": null, "bias": true, "name": "convolution1d_1_semeval_model", "input_dim": null, "W_regularizer": null, "nb_filter": 200, "filter_length": 6, "b_constraint": null}}, {"class_name": "MaxPooling1D", "config": {"pool_length": 4, "border_mode": "valid", "stride": 2, "name": "maxpooling1d_1_semeval_model", "trainable": true}}, {"class_name": "Convolution1D", "config": {"b_regularizer": null, "border_mode": "valid", "init": "uniform", "activity_regularizer": null, "trainable": true, "input_length": null, "activation": "relu", "subsample_length": 1, "W_constraint": null, "bias": true, "name": "convolution1d_2_semeval_model", "input_dim": null, "W_regularizer": null, "nb_filter": 200, "filter_length": 6, "b_constraint": null}}]}, {"class_name": "Sequential", "config": [{"class_name": "Embedding", "config": {"W_constraint": null, "activity_regularizer": null, "trainable": true, "input_length": 140, "init": "uniform", "output_dim": 52, "W_regularizer": null, "dropout": 0.2, "name": "embedding_1_dai_model", "input_dim": 1576890, "input_dtype": "int32", "batch_input_shape": [null, 140], "mask_zero": false}}, {"class_name": "ZeroPadding1D", "config": {"name": "zeropadding1d_1_dai_model", "padding": 5, "trainable": true}}, {"class_name": "Convolution1D", "config": {"b_regularizer": null, "border_mode": "valid", "init": "uniform", "activity_regularizer": null, "trainable": true, "input_length": null, "activation": "relu", "subsample_length": 1, "W_constraint": null, "bias": true, "name": "convolution1d_1_dai_model", "input_dim": null, "W_regularizer": null, "nb_filter": 200, "filter_length": 6, "b_constraint": null}}, {"class_name": "MaxPooling1D", "config": {"pool_length": 4, "border_mode": "valid", "stride": 2, "name": "maxpooling1d_1_dai_model", "trainable": true}}, {"class_name": "Convolution1D", "config": {"b_regularizer": null, "border_mode": "valid", "init": "uniform", "activity_regularizer": null, "trainable": true, "input_length": null, "activation": "relu", "subsample_length": 1, "W_constraint": null, "bias": true, "name": "convolution1d_2_dai_model", "input_dim": null, "W_regularizer": null, "nb_filter": 200, "filter_length": 6, "b_constraint": null}}]}], "output_shape": null}}, {"class_name": "Flatten", "config": {"name": "flatten_1", "trainable": true}}, {"class_name": "Dense", "config": {"W_constraint": null, "init": "glorot_uniform", "activity_regularizer": null, "trainable": true, "activation": "linear", "output_dim": 200, "bias": true, "W_regularizer": null, "name": "dense_1", "input_dim": null, "b_regularizer": null, "b_constraint": null}}, {"class_name": "Dropout", "config": {"p": 0.2, "name": "dropout_1", "trainable": true}}, {"class_name": "Activation", "config": {"activation": "relu", "name": "activation_1", "trainable": true}}, {"class_name": "Dense", "config": {"W_constraint": null, "init": "glorot_uniform", "activity_regularizer": null, "trainable": true, "activation": "softmax", "output_dim": 3, "bias": true, "W_regularizer": null, "name": "dense_2", "input_dim": null, "b_regularizer": null, "b_constraint": null}}], "keras_version": "1.1.1"}