{"config": [{"config": {"output_shape_type": "raw", "mode_type": "raw", "mode": "concat", "name": "merge_1", "output_shape": null, "dot_axes": -1, "layers": [{"config": [{"config": {"W_regularizer": null, "input_length": 140, "trainable": true, "output_dim": 52, "init": "uniform", "name": "embedding_1_dai_model", "dropout": 0.2, "batch_input_shape": [null, 140], "input_dtype": "int32", "W_constraint": null, "mask_zero": false, "input_dim": 1576890, "activity_regularizer": null}, "class_name": "Embedding"}, {"config": {"trainable": true, "padding": 5, "name": "zeropadding1d_1_dai_model"}, "class_name": "ZeroPadding1D"}, {"config": {"W_regularizer": null, "input_length": null, "trainable": true, "name": "convolution1d_1_dai_model", "filter_length": 6, "border_mode": "valid", "subsample_length": 1, "W_constraint": null, "nb_filter": 200, "init": "uniform", "b_constraint": null, "b_regularizer": null, "input_dim": null, "activity_regularizer": null, "activation": "relu", "bias": true}, "class_name": "Convolution1D"}, {"config": {"border_mode": "valid", "trainable": true, "stride": 2, "name": "maxpooling1d_1_dai_model", "pool_length": 4}, "class_name": "MaxPooling1D"}, {"config": {"W_regularizer": null, "input_length": null, "trainable": true, "name": "convolution1d_2_dai_model", "filter_length": 6, "border_mode": "valid", "subsample_length": 1, "W_constraint": null, "nb_filter": 200, "init": "uniform", "b_constraint": null, "b_regularizer": null, "input_dim": null, "activity_regularizer": null, "activation": "relu", "bias": true}, "class_name": "Convolution1D"}], "class_name": "Sequential"}, {"config": [{"config": {"W_regularizer": null, "input_length": 140, "trainable": true, "output_dim": 52, "init": "uniform", "name": "embedding_17_mpq_model", "dropout": 0.2, "batch_input_shape": [null, 140], "input_dtype": "int32", "W_constraint": null, "mask_zero": false, "input_dim": 428669, "activity_regularizer": null}, "class_name": "Embedding"}, {"config": {"trainable": true, "padding": 5, "name": "zeropadding1d_17_mpq_model"}, "class_name": "ZeroPadding1D"}, {"config": {"W_regularizer": null, "input_length": null, "trainable": true, "name": "convolution1d_33_mpq_model", "filter_length": 6, "border_mode": "valid", "subsample_length": 1, "W_constraint": null, "nb_filter": 200, "init": "uniform", "b_constraint": null, "b_regularizer": null, "input_dim": null, "activity_regularizer": null, "activation": "relu", "bias": true}, "class_name": "Convolution1D"}, {"config": {"border_mode": "valid", "trainable": true, "stride": 2, "name": "maxpooling1d_33_mpq_model", "pool_length": 4}, "class_name": "MaxPooling1D"}, {"config": {"W_regularizer": null, "input_length": null, "trainable": true, "name": "convolution1d_34_mpq_model", "filter_length": 6, "border_mode": "valid", "subsample_length": 1, "W_constraint": null, "nb_filter": 200, "init": "uniform", "b_constraint": null, "b_regularizer": null, "input_dim": null, "activity_regularizer": null, "activation": "relu", "bias": true}, "class_name": "Convolution1D"}], "class_name": "Sequential"}, {"config": [{"config": {"W_regularizer": null, "input_length": 140, "trainable": true, "output_dim": 52, "init": "uniform", "name": "embedding_1_semeval_model", "dropout": 0.2, "batch_input_shape": [null, 140], "input_dtype": "int32", "W_constraint": null, "mask_zero": false, "input_dim": 1576890, "activity_regularizer": null}, "class_name": "Embedding"}, {"config": {"trainable": true, "padding": 5, "name": "zeropadding1d_1_semeval_model"}, "class_name": "ZeroPadding1D"}, {"config": {"W_regularizer": null, "input_length": null, "trainable": true, "name": "convolution1d_1_semeval_model", "filter_length": 6, "border_mode": "valid", "subsample_length": 1, "W_constraint": null, "nb_filter": 200, "init": "uniform", "b_constraint": null, "b_regularizer": null, "input_dim": null, "activity_regularizer": null, "activation": "relu", "bias": true}, "class_name": "Convolution1D"}, {"config": {"border_mode": "valid", "trainable": true, "stride": 2, "name": "maxpooling1d_1_semeval_model", "pool_length": 4}, "class_name": "MaxPooling1D"}, {"config": {"W_regularizer": null, "input_length": null, "trainable": true, "name": "convolution1d_2_semeval_model", "filter_length": 6, "border_mode": "valid", "subsample_length": 1, "W_constraint": null, "nb_filter": 200, "init": "uniform", "b_constraint": null, "b_regularizer": null, "input_dim": null, "activity_regularizer": null, "activation": "relu", "bias": true}, "class_name": "Convolution1D"}], "class_name": "Sequential"}], "concat_axis": -1}, "class_name": "Merge"}, {"config": {"border_mode": "valid", "trainable": true, "stride": 2, "name": "maxpooling1d_1", "pool_length": 4}, "class_name": "MaxPooling1D"}, {"config": {"W_regularizer": null, "input_length": null, "trainable": true, "filter_length": 6, "name": "convolution1d_1", "border_mode": "valid", "subsample_length": 1, "W_constraint": null, "nb_filter": 200, "init": "uniform", "b_constraint": null, "b_regularizer": null, "input_dim": null, "activity_regularizer": null, "activation": "relu", "bias": true}, "class_name": "Convolution1D"}, {"config": {"border_mode": "valid", "trainable": true, "stride": 2, "name": "maxpooling1d_2", "pool_length": 4}, "class_name": "MaxPooling1D"}, {"config": {"trainable": true, "name": "flatten_1"}, "class_name": "Flatten"}, {"config": {"W_regularizer": null, "trainable": true, "output_dim": 200, "name": "dense_1", "init": "glorot_uniform", "W_constraint": null, "bias": true, "b_constraint": null, "b_regularizer": null, "input_dim": null, "activity_regularizer": null, "activation": "linear"}, "class_name": "Dense"}, {"config": {"trainable": true, "p": 0.2, "name": "dropout_1"}, "class_name": "Dropout"}, {"config": {"trainable": true, "activation": "relu", "name": "activation_1"}, "class_name": "Activation"}, {"config": {"W_regularizer": null, "trainable": true, "output_dim": 3, "name": "dense_2", "init": "glorot_uniform", "W_constraint": null, "bias": true, "b_constraint": null, "b_regularizer": null, "input_dim": null, "activity_regularizer": null, "activation": "softmax"}, "class_name": "Dense"}], "class_name": "Sequential", "keras_version": "1.1.1"}