{"keras_version": "1.1.1", "class_name": "Sequential", "config": [{"class_name": "Merge", "config": {"concat_axis": -1, "dot_axes": -1, "name": "merge_1", "output_shape_type": "raw", "mode": "concat", "layers": [{"class_name": "Sequential", "config": [{"class_name": "Embedding", "config": {"name": "embedding_1_dai_model", "trainable": true, "batch_input_shape": [null, 140], "W_constraint": null, "input_dim": 1576890, "dropout": 0.2, "input_length": 140, "output_dim": 52, "mask_zero": false, "input_dtype": "int32", "activity_regularizer": null, "init": "uniform", "W_regularizer": null}}, {"class_name": "ZeroPadding1D", "config": {"padding": 5, "name": "zeropadding1d_1_dai_model", "trainable": true}}, {"class_name": "Convolution1D", "config": {"name": "convolution1d_1_dai_model", "trainable": true, "border_mode": "valid", "W_constraint": null, "activation": "relu", "nb_filter": 200, "input_dim": null, "bias": true, "input_length": null, "subsample_length": 1, "b_constraint": null, "b_regularizer": null, "activity_regularizer": null, "init": "uniform", "filter_length": 6, "W_regularizer": null}}, {"class_name": "MaxPooling1D", "config": {"name": "maxpooling1d_1_dai_model", "trainable": true, "border_mode": "valid", "pool_length": 4, "stride": 2}}, {"class_name": "Convolution1D", "config": {"name": "convolution1d_2_dai_model", "trainable": true, "border_mode": "valid", "W_constraint": null, "activation": "relu", "nb_filter": 200, "input_dim": null, "bias": true, "input_length": null, "subsample_length": 1, "b_constraint": null, "b_regularizer": null, "activity_regularizer": null, "init": "uniform", "filter_length": 6, "W_regularizer": null}}]}, {"class_name": "Sequential", "config": [{"class_name": "Embedding", "config": {"name": "embedding_1_hul_model", "trainable": true, "batch_input_shape": [null, 140], "W_constraint": null, "input_dim": 1062158, "dropout": 0.2, "input_length": 140, "output_dim": 52, "mask_zero": false, "input_dtype": "int32", "activity_regularizer": null, "init": "uniform", "W_regularizer": null}}, {"class_name": "ZeroPadding1D", "config": {"padding": 5, "name": "zeropadding1d_1_hul_model", "trainable": true}}, {"class_name": "Convolution1D", "config": {"name": "convolution1d_1_hul_model", "trainable": true, "border_mode": "valid", "W_constraint": null, "activation": "relu", "nb_filter": 200, "input_dim": null, "bias": true, "input_length": null, "subsample_length": 1, "b_constraint": null, "b_regularizer": null, "activity_regularizer": null, "init": "uniform", "filter_length": 6, "W_regularizer": null}}, {"class_name": "MaxPooling1D", "config": {"name": "maxpooling1d_1_hul_model", "trainable": true, "border_mode": "valid", "pool_length": 4, "stride": 2}}, {"class_name": "Convolution1D", "config": {"name": "convolution1d_2_hul_model", "trainable": true, "border_mode": "valid", "W_constraint": null, "activation": "relu", "nb_filter": 200, "input_dim": null, "bias": true, "input_length": null, "subsample_length": 1, "b_constraint": null, "b_regularizer": null, "activity_regularizer": null, "init": "uniform", "filter_length": 6, "W_regularizer": null}}]}, {"class_name": "Sequential", "config": [{"class_name": "Embedding", "config": {"name": "embedding_17_mpq_model", "trainable": true, "batch_input_shape": [null, 140], "W_constraint": null, "input_dim": 428669, "dropout": 0.2, "input_length": 140, "output_dim": 52, "mask_zero": false, "input_dtype": "int32", "activity_regularizer": null, "init": "uniform", "W_regularizer": null}}, {"class_name": "ZeroPadding1D", "config": {"padding": 5, "name": "zeropadding1d_17_mpq_model", "trainable": true}}, {"class_name": "Convolution1D", "config": {"name": "convolution1d_33_mpq_model", "trainable": true, "border_mode": "valid", "W_constraint": null, "activation": "relu", "nb_filter": 200, "input_dim": null, "bias": true, "input_length": null, "subsample_length": 1, "b_constraint": null, "b_regularizer": null, "activity_regularizer": null, "init": "uniform", "filter_length": 6, "W_regularizer": null}}, {"class_name": "MaxPooling1D", "config": {"name": "maxpooling1d_33_mpq_model", "trainable": true, "border_mode": "valid", "pool_length": 4, "stride": 2}}, {"class_name": "Convolution1D", "config": {"name": "convolution1d_34_mpq_model", "trainable": true, "border_mode": "valid", "W_constraint": null, "activation": "relu", "nb_filter": 200, "input_dim": null, "bias": true, "input_length": null, "subsample_length": 1, "b_constraint": null, "b_regularizer": null, "activity_regularizer": null, "init": "uniform", "filter_length": 6, "W_regularizer": null}}]}, {"class_name": "Sequential", "config": [{"class_name": "Embedding", "config": {"name": "embedding_1_semeval_model", "trainable": true, "batch_input_shape": [null, 140], "W_constraint": null, "input_dim": 428669, "dropout": 0.2, "input_length": 140, "output_dim": 52, "mask_zero": false, "input_dtype": "int32", "activity_regularizer": null, "init": "uniform", "W_regularizer": null}}, {"class_name": "ZeroPadding1D", "config": {"padding": 5, "name": "zeropadding1d_1_semeval_model", "trainable": true}}, {"class_name": "Convolution1D", "config": {"name": "convolution1d_1_semeval_model", "trainable": true, "border_mode": "valid", "W_constraint": null, "activation": "relu", "nb_filter": 200, "input_dim": null, "bias": true, "input_length": null, "subsample_length": 1, "b_constraint": null, "b_regularizer": null, "activity_regularizer": null, "init": "uniform", "filter_length": 6, "W_regularizer": null}}, {"class_name": "MaxPooling1D", "config": {"name": "maxpooling1d_1_semeval_model", "trainable": true, "border_mode": "valid", "pool_length": 4, "stride": 2}}, {"class_name": "Convolution1D", "config": {"name": "convolution1d_2_semeval_model", "trainable": true, "border_mode": "valid", "W_constraint": null, "activation": "relu", "nb_filter": 200, "input_dim": null, "bias": true, "input_length": null, "subsample_length": 1, "b_constraint": null, "b_regularizer": null, "activity_regularizer": null, "init": "uniform", "filter_length": 6, "W_regularizer": null}}]}, {"class_name": "Sequential", "config": [{"class_name": "Embedding", "config": {"name": "embedding_1_tac_model", "trainable": true, "batch_input_shape": [null, 140], "W_constraint": null, "input_dim": 428669, "dropout": 0.2, "input_length": 140, "output_dim": 52, "mask_zero": false, "input_dtype": "int32", "activity_regularizer": null, "init": "uniform", "W_regularizer": null}}, {"class_name": "ZeroPadding1D", "config": {"padding": 5, "name": "zeropadding1d_1_tac_model", "trainable": true}}, {"class_name": "Convolution1D", "config": {"name": "convolution1d_1_tac_model", "trainable": true, "border_mode": "valid", "W_constraint": null, "activation": "relu", "nb_filter": 200, "input_dim": null, "bias": true, "input_length": null, "subsample_length": 1, "b_constraint": null, "b_regularizer": null, "activity_regularizer": null, "init": "uniform", "filter_length": 6, "W_regularizer": null}}, {"class_name": "MaxPooling1D", "config": {"name": "maxpooling1d_1_tac_model", "trainable": true, "border_mode": "valid", "pool_length": 4, "stride": 2}}, {"class_name": "Convolution1D", "config": {"name": "convolution1d_2_tac_model", "trainable": true, "border_mode": "valid", "W_constraint": null, "activation": "relu", "nb_filter": 200, "input_dim": null, "bias": true, "input_length": null, "subsample_length": 1, "b_constraint": null, "b_regularizer": null, "activity_regularizer": null, "init": "uniform", "filter_length": 6, "W_regularizer": null}}]}], "mode_type": "raw", "output_shape": null}}, {"class_name": "Flatten", "config": {"name": "flatten_1", "trainable": true}}, {"class_name": "Dense", "config": {"name": "dense_1", "trainable": true, "W_constraint": null, "activation": "linear", "b_regularizer": null, "input_dim": null, "bias": true, "output_dim": 200, "b_constraint": null, "activity_regularizer": null, "init": "glorot_uniform", "W_regularizer": null}}, {"class_name": "Dropout", "config": {"p": 0.2, "name": "dropout_1", "trainable": true}}, {"class_name": "Activation", "config": {"activation": "relu", "name": "activation_1", "trainable": true}}, {"class_name": "Dense", "config": {"name": "dense_2", "trainable": true, "W_constraint": null, "activation": "softmax", "b_regularizer": null, "input_dim": null, "bias": true, "output_dim": 3, "b_constraint": null, "activity_regularizer": null, "init": "glorot_uniform", "W_regularizer": null}}]}