{"config": [{"config": {"mode_type": "raw", "output_shape": null, "concat_axis": -1, "output_shape_type": "raw", "mode": "concat", "dot_axes": -1, "layers": [{"config": [{"config": {"batch_input_shape": [null, 140], "trainable": true, "init": "uniform", "mask_zero": false, "W_constraint": null, "name": "embedding_1_dai_model", "input_dim": 1576890, "W_regularizer": null, "output_dim": 52, "input_dtype": "int32", "input_length": 140, "dropout": 0.2, "activity_regularizer": null}, "class_name": "Embedding"}, {"config": {"padding": 5, "trainable": true, "name": "zeropadding1d_1_dai_model"}, "class_name": "ZeroPadding1D"}, {"config": {"filter_length": 6, "trainable": true, "init": "uniform", "subsample_length": 1, "nb_filter": 200, "b_constraint": null, "b_regularizer": null, "bias": true, "border_mode": "valid", "input_dim": null, "W_regularizer": null, "activation": "relu", "input_length": null, "name": "convolution1d_1_dai_model", "W_constraint": null, "activity_regularizer": null}, "class_name": "Convolution1D"}, {"config": {"pool_length": 4, "trainable": true, "stride": 2, "border_mode": "valid", "name": "maxpooling1d_1_dai_model"}, "class_name": "MaxPooling1D"}, {"config": {"filter_length": 6, "trainable": true, "init": "uniform", "subsample_length": 1, "nb_filter": 200, "b_constraint": null, "b_regularizer": null, "bias": true, "border_mode": "valid", "input_dim": null, "W_regularizer": null, "activation": "relu", "input_length": null, "name": "convolution1d_2_dai_model", "W_constraint": null, "activity_regularizer": null}, "class_name": "Convolution1D"}], "class_name": "Sequential"}, {"config": [{"config": {"batch_input_shape": [null, 140], "trainable": true, "init": "uniform", "mask_zero": false, "W_constraint": null, "name": "embedding_1_dil_model", "input_dim": 1576890, "W_regularizer": null, "output_dim": 52, "input_dtype": "int32", "input_length": 140, "dropout": 0.2, "activity_regularizer": null}, "class_name": "Embedding"}, {"config": {"padding": 5, "trainable": true, "name": "zeropadding1d_1_dil_model"}, "class_name": "ZeroPadding1D"}, {"config": {"filter_length": 6, "trainable": true, "init": "uniform", "subsample_length": 1, "nb_filter": 200, "b_constraint": null, "b_regularizer": null, "bias": true, "border_mode": "valid", "input_dim": null, "W_regularizer": null, "activation": "relu", "input_length": null, "name": "convolution1d_1_dil_model", "W_constraint": null, "activity_regularizer": null}, "class_name": "Convolution1D"}, {"config": {"pool_length": 4, "trainable": true, "stride": 2, "border_mode": "valid", "name": "maxpooling1d_1_dil_model"}, "class_name": "MaxPooling1D"}, {"config": {"filter_length": 6, "trainable": true, "init": "uniform", "subsample_length": 1, "nb_filter": 200, "b_constraint": null, "b_regularizer": null, "bias": true, "border_mode": "valid", "input_dim": null, "W_regularizer": null, "activation": "relu", "input_length": null, "name": "convolution1d_2_dil_model", "W_constraint": null, "activity_regularizer": null}, "class_name": "Convolution1D"}], "class_name": "Sequential"}, {"config": [{"config": {"batch_input_shape": [null, 140], "trainable": true, "init": "uniform", "mask_zero": false, "W_constraint": null, "name": "embedding_1_hul_model", "input_dim": 1062158, "W_regularizer": null, "output_dim": 52, "input_dtype": "int32", "input_length": 140, "dropout": 0.2, "activity_regularizer": null}, "class_name": "Embedding"}, {"config": {"padding": 5, "trainable": true, "name": "zeropadding1d_1_hul_model"}, "class_name": "ZeroPadding1D"}, {"config": {"filter_length": 6, "trainable": true, "init": "uniform", "subsample_length": 1, "nb_filter": 200, "b_constraint": null, "b_regularizer": null, "bias": true, "border_mode": "valid", "input_dim": null, "W_regularizer": null, "activation": "relu", "input_length": null, "name": "convolution1d_1_hul_model", "W_constraint": null, "activity_regularizer": null}, "class_name": "Convolution1D"}, {"config": {"pool_length": 4, "trainable": true, "stride": 2, "border_mode": "valid", "name": "maxpooling1d_1_hul_model"}, "class_name": "MaxPooling1D"}, {"config": {"filter_length": 6, "trainable": true, "init": "uniform", "subsample_length": 1, "nb_filter": 200, "b_constraint": null, "b_regularizer": null, "bias": true, "border_mode": "valid", "input_dim": null, "W_regularizer": null, "activation": "relu", "input_length": null, "name": "convolution1d_2_hul_model", "W_constraint": null, "activity_regularizer": null}, "class_name": "Convolution1D"}], "class_name": "Sequential"}, {"config": [{"config": {"batch_input_shape": [null, 140], "trainable": true, "init": "uniform", "mask_zero": false, "W_constraint": null, "name": "embedding_1_semeval_model", "input_dim": 428669, "W_regularizer": null, "output_dim": 52, "input_dtype": "int32", "input_length": 140, "dropout": 0.2, "activity_regularizer": null}, "class_name": "Embedding"}, {"config": {"padding": 5, "trainable": true, "name": "zeropadding1d_1_semeval_model"}, "class_name": "ZeroPadding1D"}, {"config": {"filter_length": 6, "trainable": true, "init": "uniform", "subsample_length": 1, "nb_filter": 200, "b_constraint": null, "b_regularizer": null, "bias": true, "border_mode": "valid", "input_dim": null, "W_regularizer": null, "activation": "relu", "input_length": null, "name": "convolution1d_1_semeval_model", "W_constraint": null, "activity_regularizer": null}, "class_name": "Convolution1D"}, {"config": {"pool_length": 4, "trainable": true, "stride": 2, "border_mode": "valid", "name": "maxpooling1d_1_semeval_model"}, "class_name": "MaxPooling1D"}, {"config": {"filter_length": 6, "trainable": true, "init": "uniform", "subsample_length": 1, "nb_filter": 200, "b_constraint": null, "b_regularizer": null, "bias": true, "border_mode": "valid", "input_dim": null, "W_regularizer": null, "activation": "relu", "input_length": null, "name": "convolution1d_2_semeval_model", "W_constraint": null, "activity_regularizer": null}, "class_name": "Convolution1D"}], "class_name": "Sequential"}, {"config": [{"config": {"batch_input_shape": [null, 140], "trainable": true, "init": "uniform", "mask_zero": false, "W_constraint": null, "name": "embedding_1_tac_model", "input_dim": 428669, "W_regularizer": null, "output_dim": 52, "input_dtype": "int32", "input_length": 140, "dropout": 0.2, "activity_regularizer": null}, "class_name": "Embedding"}, {"config": {"padding": 5, "trainable": true, "name": "zeropadding1d_1_tac_model"}, "class_name": "ZeroPadding1D"}, {"config": {"filter_length": 6, "trainable": true, "init": "uniform", "subsample_length": 1, "nb_filter": 200, "b_constraint": null, "b_regularizer": null, "bias": true, "border_mode": "valid", "input_dim": null, "W_regularizer": null, "activation": "relu", "input_length": null, "name": "convolution1d_1_tac_model", "W_constraint": null, "activity_regularizer": null}, "class_name": "Convolution1D"}, {"config": {"pool_length": 4, "trainable": true, "stride": 2, "border_mode": "valid", "name": "maxpooling1d_1_tac_model"}, "class_name": "MaxPooling1D"}, {"config": {"filter_length": 6, "trainable": true, "init": "uniform", "subsample_length": 1, "nb_filter": 200, "b_constraint": null, "b_regularizer": null, "bias": true, "border_mode": "valid", "input_dim": null, "W_regularizer": null, "activation": "relu", "input_length": null, "name": "convolution1d_2_tac_model", "W_constraint": null, "activity_regularizer": null}, "class_name": "Convolution1D"}], "class_name": "Sequential"}], "name": "merge_1"}, "class_name": "Merge"}, {"config": {"trainable": true, "name": "flatten_1"}, "class_name": "Flatten"}, {"config": {"bias": true, "init": "glorot_uniform", "b_constraint": null, "b_regularizer": null, "trainable": true, "name": "dense_1", "activation": "linear", "W_regularizer": null, "output_dim": 200, "W_constraint": null, "input_dim": null, "activity_regularizer": null}, "class_name": "Dense"}, {"config": {"p": 0.2, "trainable": true, "name": "dropout_1"}, "class_name": "Dropout"}, {"config": {"trainable": true, "activation": "relu", "name": "activation_1"}, "class_name": "Activation"}, {"config": {"bias": true, "init": "glorot_uniform", "b_constraint": null, "b_regularizer": null, "trainable": true, "name": "dense_2", "activation": "softmax", "W_regularizer": null, "output_dim": 3, "W_constraint": null, "input_dim": null, "activity_regularizer": null}, "class_name": "Dense"}], "keras_version": "1.1.1", "class_name": "Sequential"}