{"config": [{"config": {"output_dim": 52, "input_length": 140, "W_constraint": null, "mask_zero": false, "name": "embedding_22", "input_dtype": "int32", "dropout": 0.2, "W_regularizer": null, "batch_input_shape": [null, 140], "activity_regularizer": null, "trainable": true, "input_dim": 428669, "init": "uniform"}, "class_name": "Embedding"}, {"config": {"name": "zeropadding1d_22", "trainable": true, "padding": 5}, "class_name": "ZeroPadding1D"}, {"config": {"border_mode": "valid", "input_length": null, "bias": true, "W_constraint": null, "name": "convolution1d_43", "filter_length": 6, "W_regularizer": null, "nb_filter": 200, "activity_regularizer": null, "trainable": true, "b_constraint": null, "b_regularizer": null, "subsample_length": 1, "input_dim": null, "activation": "relu", "init": "uniform"}, "class_name": "Convolution1D"}, {"config": {"pool_length": 4, "border_mode": "valid", "name": "maxpooling1d_43", "trainable": true, "stride": 2}, "class_name": "MaxPooling1D"}, {"config": {"border_mode": "valid", "input_length": null, "bias": true, "W_constraint": null, "name": "convolution1d_44", "filter_length": 6, "W_regularizer": null, "nb_filter": 200, "activity_regularizer": null, "trainable": true, "b_constraint": null, "b_regularizer": null, "subsample_length": 1, "input_dim": null, "activation": "relu", "init": "uniform"}, "class_name": "Convolution1D"}, {"config": {"pool_length": 66, "border_mode": "valid", "name": "maxpooling1d_44", "trainable": true, "stride": 66}, "class_name": "MaxPooling1D"}, {"config": {"name": "flatten_22", "trainable": true}, "class_name": "Flatten"}, {"config": {"output_dim": 200, "bias": true, "W_constraint": null, "name": "dense_43", "activation": "linear", "W_regularizer": null, "activity_regularizer": null, "trainable": true, "b_constraint": null, "b_regularizer": null, "input_dim": null, "init": "glorot_uniform"}, "class_name": "Dense"}, {"config": {"name": "dropout_22", "trainable": true, "p": 0.2}, "class_name": "Dropout"}, {"config": {"name": "activation_22", "trainable": true, "activation": "relu"}, "class_name": "Activation"}, {"config": {"output_dim": 3, "bias": true, "W_constraint": null, "name": "dense_44", "activation": "softmax", "W_regularizer": null, "activity_regularizer": null, "trainable": true, "b_constraint": null, "b_regularizer": null, "input_dim": null, "init": "glorot_uniform"}, "class_name": "Dense"}], "keras_version": "1.1.1", "class_name": "Sequential"}