{"config": [{"config": {"dot_axes": -1, "layers": [{"config": [{"config": {"batch_input_shape": [null, 140], "W_regularizer": null, "name": "embedding_1_hul_model", "mask_zero": false, "dropout": 0.2, "init": "uniform", "input_dtype": "int32", "input_length": 140, "activity_regularizer": null, "W_constraint": null, "input_dim": 1062158, "trainable": true, "output_dim": 52}, "class_name": "Embedding"}, {"config": {"name": "zeropadding1d_1_hul_model", "trainable": true, "padding": 5}, "class_name": "ZeroPadding1D"}, {"config": {"b_regularizer": null, "activation": "relu", "border_mode": "valid", "subsample_length": 1, "W_regularizer": null, "name": "convolution1d_1_hul_model", "filter_length": 6, "init": "uniform", "activity_regularizer": null, "b_constraint": null, "input_length": null, "nb_filter": 200, "W_constraint": null, "input_dim": null, "trainable": true, "bias": true}, "class_name": "Convolution1D"}, {"config": {"name": "maxpooling1d_1_hul_model", "stride": 2, "pool_length": 4, "trainable": true, "border_mode": "valid"}, "class_name": "MaxPooling1D"}, {"config": {"b_regularizer": null, "activation": "relu", "border_mode": "valid", "subsample_length": 1, "W_regularizer": null, "name": "convolution1d_2_hul_model", "filter_length": 6, "init": "uniform", "activity_regularizer": null, "b_constraint": null, "input_length": null, "nb_filter": 200, "W_constraint": null, "input_dim": null, "trainable": true, "bias": true}, "class_name": "Convolution1D"}, {"config": {"name": "maxpooling1d_2_hul_model", "stride": 66, "pool_length": 66, "trainable": true, "border_mode": "valid"}, "class_name": "MaxPooling1D"}, {"config": {"name": "flatten_1_hul_model", "trainable": true}, "class_name": "Flatten"}], "class_name": "Sequential"}, {"config": [{"config": {"batch_input_shape": [null, 140], "W_regularizer": null, "name": "embedding_1_dai_model", "mask_zero": false, "dropout": 0.2, "init": "uniform", "input_dtype": "int32", "input_length": 140, "activity_regularizer": null, "W_constraint": null, "input_dim": 1576890, "trainable": true, "output_dim": 52}, "class_name": "Embedding"}, {"config": {"name": "zeropadding1d_1_dai_model", "trainable": true, "padding": 5}, "class_name": "ZeroPadding1D"}, {"config": {"b_regularizer": null, "activation": "relu", "border_mode": "valid", "subsample_length": 1, "W_regularizer": null, "name": "convolution1d_1_dai_model", "filter_length": 6, "init": "uniform", "activity_regularizer": null, "b_constraint": null, "input_length": null, "nb_filter": 200, "W_constraint": null, "input_dim": null, "trainable": true, "bias": true}, "class_name": "Convolution1D"}, {"config": {"name": "maxpooling1d_1_dai_model", "stride": 2, "pool_length": 4, "trainable": true, "border_mode": "valid"}, "class_name": "MaxPooling1D"}, {"config": {"b_regularizer": null, "activation": "relu", "border_mode": "valid", "subsample_length": 1, "W_regularizer": null, "name": "convolution1d_2_dai_model", "filter_length": 6, "init": "uniform", "activity_regularizer": null, "b_constraint": null, "input_length": null, "nb_filter": 200, "W_constraint": null, "input_dim": null, "trainable": true, "bias": true}, "class_name": "Convolution1D"}, {"config": {"name": "maxpooling1d_2_dai_model", "stride": 66, "pool_length": 66, "trainable": true, "border_mode": "valid"}, "class_name": "MaxPooling1D"}, {"config": {"name": "flatten_1_dai_model", "trainable": true}, "class_name": "Flatten"}], "class_name": "Sequential"}, {"config": [{"config": {"batch_input_shape": [null, 140], "W_regularizer": null, "name": "embedding_17_mpq_model", "mask_zero": false, "dropout": 0.2, "init": "uniform", "input_dtype": "int32", "input_length": 140, "activity_regularizer": null, "W_constraint": null, "input_dim": 428669, "trainable": true, "output_dim": 52}, "class_name": "Embedding"}, {"config": {"name": "zeropadding1d_17_mpq_model", "trainable": true, "padding": 5}, "class_name": "ZeroPadding1D"}, {"config": {"b_regularizer": null, "activation": "relu", "border_mode": "valid", "subsample_length": 1, "W_regularizer": null, "name": "convolution1d_33_mpq_model", "filter_length": 6, "init": "uniform", "activity_regularizer": null, "b_constraint": null, "input_length": null, "nb_filter": 200, "W_constraint": null, "input_dim": null, "trainable": true, "bias": true}, "class_name": "Convolution1D"}, {"config": {"name": "maxpooling1d_33_mpq_model", "stride": 2, "pool_length": 4, "trainable": true, "border_mode": "valid"}, "class_name": "MaxPooling1D"}, {"config": {"b_regularizer": null, "activation": "relu", "border_mode": "valid", "subsample_length": 1, "W_regularizer": null, "name": "convolution1d_34_mpq_model", "filter_length": 6, "init": "uniform", "activity_regularizer": null, "b_constraint": null, "input_length": null, "nb_filter": 200, "W_constraint": null, "input_dim": null, "trainable": true, "bias": true}, "class_name": "Convolution1D"}, {"config": {"name": "maxpooling1d_34_mpq_model", "stride": 66, "pool_length": 66, "trainable": true, "border_mode": "valid"}, "class_name": "MaxPooling1D"}, {"config": {"name": "flatten_17_mpq_model", "trainable": true}, "class_name": "Flatten"}], "class_name": "Sequential"}, {"config": [{"config": {"batch_input_shape": [null, 140], "W_regularizer": null, "name": "embedding_1_dil_model", "mask_zero": false, "dropout": 0.2, "init": "uniform", "input_dtype": "int32", "input_length": 140, "activity_regularizer": null, "W_constraint": null, "input_dim": 1576890, "trainable": true, "output_dim": 52}, "class_name": "Embedding"}, {"config": {"name": "zeropadding1d_1_dil_model", "trainable": true, "padding": 5}, "class_name": "ZeroPadding1D"}, {"config": {"b_regularizer": null, "activation": "relu", "border_mode": "valid", "subsample_length": 1, "W_regularizer": null, "name": "convolution1d_1_dil_model", "filter_length": 6, "init": "uniform", "activity_regularizer": null, "b_constraint": null, "input_length": null, "nb_filter": 200, "W_constraint": null, "input_dim": null, "trainable": true, "bias": true}, "class_name": "Convolution1D"}, {"config": {"name": "maxpooling1d_1_dil_model", "stride": 2, "pool_length": 4, "trainable": true, "border_mode": "valid"}, "class_name": "MaxPooling1D"}, {"config": {"b_regularizer": null, "activation": "relu", "border_mode": "valid", "subsample_length": 1, "W_regularizer": null, "name": "convolution1d_2_dil_model", "filter_length": 6, "init": "uniform", "activity_regularizer": null, "b_constraint": null, "input_length": null, "nb_filter": 200, "W_constraint": null, "input_dim": null, "trainable": true, "bias": true}, "class_name": "Convolution1D"}, {"config": {"name": "maxpooling1d_2_dil_model", "stride": 66, "pool_length": 66, "trainable": true, "border_mode": "valid"}, "class_name": "MaxPooling1D"}, {"config": {"name": "flatten_1_dil_model", "trainable": true}, "class_name": "Flatten"}], "class_name": "Sequential"}, {"config": [{"config": {"batch_input_shape": [null, 140], "W_regularizer": null, "name": "embedding_1_semeval_model", "mask_zero": false, "dropout": 0.2, "init": "uniform", "input_dtype": "int32", "input_length": 140, "activity_regularizer": null, "W_constraint": null, "input_dim": 428669, "trainable": true, "output_dim": 52}, "class_name": "Embedding"}, {"config": {"name": "zeropadding1d_1_semeval_model", "trainable": true, "padding": 5}, "class_name": "ZeroPadding1D"}, {"config": {"b_regularizer": null, "activation": "relu", "border_mode": "valid", "subsample_length": 1, "W_regularizer": null, "name": "convolution1d_1_semeval_model", "filter_length": 6, "init": "uniform", "activity_regularizer": null, "b_constraint": null, "input_length": null, "nb_filter": 200, "W_constraint": null, "input_dim": null, "trainable": true, "bias": true}, "class_name": "Convolution1D"}, {"config": {"name": "maxpooling1d_1_semeval_model", "stride": 2, "pool_length": 4, "trainable": true, "border_mode": "valid"}, "class_name": "MaxPooling1D"}, {"config": {"b_regularizer": null, "activation": "relu", "border_mode": "valid", "subsample_length": 1, "W_regularizer": null, "name": "convolution1d_2_semeval_model", "filter_length": 6, "init": "uniform", "activity_regularizer": null, "b_constraint": null, "input_length": null, "nb_filter": 200, "W_constraint": null, "input_dim": null, "trainable": true, "bias": true}, "class_name": "Convolution1D"}, {"config": {"name": "maxpooling1d_2_semeval_model", "stride": 66, "pool_length": 66, "trainable": true, "border_mode": "valid"}, "class_name": "MaxPooling1D"}, {"config": {"name": "flatten_1_semeval_model", "trainable": true}, "class_name": "Flatten"}], "class_name": "Sequential"}, {"config": [{"config": {"batch_input_shape": [null, 140], "W_regularizer": null, "name": "embedding_1_tac_model", "mask_zero": false, "dropout": 0.2, "init": "uniform", "input_dtype": "int32", "input_length": 140, "activity_regularizer": null, "W_constraint": null, "input_dim": 428669, "trainable": true, "output_dim": 52}, "class_name": "Embedding"}, {"config": {"name": "zeropadding1d_1_tac_model", "trainable": true, "padding": 5}, "class_name": "ZeroPadding1D"}, {"config": {"b_regularizer": null, "activation": "relu", "border_mode": "valid", "subsample_length": 1, "W_regularizer": null, "name": "convolution1d_1_tac_model", "filter_length": 6, "init": "uniform", "activity_regularizer": null, "b_constraint": null, "input_length": null, "nb_filter": 200, "W_constraint": null, "input_dim": null, "trainable": true, "bias": true}, "class_name": "Convolution1D"}, {"config": {"name": "maxpooling1d_1_tac_model", "stride": 2, "pool_length": 4, "trainable": true, "border_mode": "valid"}, "class_name": "MaxPooling1D"}, {"config": {"b_regularizer": null, "activation": "relu", "border_mode": "valid", "subsample_length": 1, "W_regularizer": null, "name": "convolution1d_2_tac_model", "filter_length": 6, "init": "uniform", "activity_regularizer": null, "b_constraint": null, "input_length": null, "nb_filter": 200, "W_constraint": null, "input_dim": null, "trainable": true, "bias": true}, "class_name": "Convolution1D"}, {"config": {"name": "maxpooling1d_2_tac_model", "stride": 66, "pool_length": 66, "trainable": true, "border_mode": "valid"}, "class_name": "MaxPooling1D"}, {"config": {"name": "flatten_1_tac_model", "trainable": true}, "class_name": "Flatten"}], "class_name": "Sequential"}], "mode": "concat", "mode_type": "raw", "name": "merge_1", "output_shape_type": "raw", "output_shape": null, "concat_axis": -1}, "class_name": "Merge"}, {"config": {"b_regularizer": null, "activation": "linear", "bias": true, "W_regularizer": null, "name": "dense_1", "init": "glorot_uniform", "activity_regularizer": null, "b_constraint": null, "W_constraint": null, "input_dim": null, "trainable": true, "output_dim": 1028}, "class_name": "Dense"}, {"config": {"name": "activation_1", "trainable": true, "activation": "relu"}, "class_name": "Activation"}, {"config": {"b_regularizer": null, "activation": "softmax", "bias": true, "W_regularizer": null, "name": "dense_2", "init": "glorot_uniform", "activity_regularizer": null, "b_constraint": null, "W_constraint": null, "input_dim": null, "trainable": true, "output_dim": 3}, "class_name": "Dense"}], "keras_version": "1.1.1", "class_name": "Sequential"}