{"config": [{"class_name": "Merge", "config": {"dot_axes": -1, "layers": [{"class_name": "Sequential", "config": [{"config": {"input_dim": 428669, "input_length": 140, "W_regularizer": null, "input_dtype": "int32", "name": "embedding_1_tac_model", "batch_input_shape": [null, 140], "mask_zero": false, "output_dim": 52, "init": "uniform", "dropout": 0.2, "W_constraint": null, "activity_regularizer": null, "trainable": true}, "class_name": "Embedding"}, {"config": {"name": "zeropadding1d_1_tac_model", "trainable": true, "padding": 5}, "class_name": "ZeroPadding1D"}, {"config": {"input_dim": null, "input_length": null, "subsample_length": 1, "W_regularizer": null, "activation": "relu", "bias": true, "name": "convolution1d_1_tac_model", "filter_length": 6, "b_regularizer": null, "b_constraint": null, "nb_filter": 200, "border_mode": "valid", "init": "uniform", "W_constraint": null, "activity_regularizer": null, "trainable": true}, "class_name": "Convolution1D"}, {"config": {"trainable": true, "pool_length": 4, "name": "maxpooling1d_1_tac_model", "stride": 2, "border_mode": "valid"}, "class_name": "MaxPooling1D"}, {"config": {"input_dim": null, "input_length": null, "subsample_length": 1, "W_regularizer": null, "activation": "relu", "bias": true, "name": "convolution1d_2_tac_model", "filter_length": 6, "b_regularizer": null, "b_constraint": null, "nb_filter": 200, "border_mode": "valid", "init": "uniform", "W_constraint": null, "activity_regularizer": null, "trainable": true}, "class_name": "Convolution1D"}, {"config": {"trainable": true, "pool_length": 66, "name": "maxpooling1d_2_tac_model", "stride": 66, "border_mode": "valid"}, "class_name": "MaxPooling1D"}, {"config": {"name": "flatten_1_tac_model", "trainable": true}, "class_name": "Flatten"}]}, {"class_name": "Sequential", "config": [{"config": {"input_dim": 1576890, "input_length": 140, "W_regularizer": null, "input_dtype": "int32", "name": "embedding_1_dil_model", "batch_input_shape": [null, 140], "mask_zero": false, "output_dim": 52, "init": "uniform", "dropout": 0.2, "W_constraint": null, "activity_regularizer": null, "trainable": true}, "class_name": "Embedding"}, {"config": {"name": "zeropadding1d_1_dil_model", "trainable": true, "padding": 5}, "class_name": "ZeroPadding1D"}, {"config": {"input_dim": null, "input_length": null, "subsample_length": 1, "W_regularizer": null, "activation": "relu", "bias": true, "name": "convolution1d_1_dil_model", "filter_length": 6, "b_regularizer": null, "b_constraint": null, "nb_filter": 200, "border_mode": "valid", "init": "uniform", "W_constraint": null, "activity_regularizer": null, "trainable": true}, "class_name": "Convolution1D"}, {"config": {"trainable": true, "pool_length": 4, "name": "maxpooling1d_1_dil_model", "stride": 2, "border_mode": "valid"}, "class_name": "MaxPooling1D"}, {"config": {"input_dim": null, "input_length": null, "subsample_length": 1, "W_regularizer": null, "activation": "relu", "bias": true, "name": "convolution1d_2_dil_model", "filter_length": 6, "b_regularizer": null, "b_constraint": null, "nb_filter": 200, "border_mode": "valid", "init": "uniform", "W_constraint": null, "activity_regularizer": null, "trainable": true}, "class_name": "Convolution1D"}, {"config": {"trainable": true, "pool_length": 66, "name": "maxpooling1d_2_dil_model", "stride": 66, "border_mode": "valid"}, "class_name": "MaxPooling1D"}, {"config": {"name": "flatten_1_dil_model", "trainable": true}, "class_name": "Flatten"}]}, {"class_name": "Sequential", "config": [{"config": {"input_dim": 428669, "input_length": 140, "W_regularizer": null, "input_dtype": "int32", "name": "embedding_1_semeval_model", "batch_input_shape": [null, 140], "mask_zero": false, "output_dim": 52, "init": "uniform", "dropout": 0.2, "W_constraint": null, "activity_regularizer": null, "trainable": true}, "class_name": "Embedding"}, {"config": {"name": "zeropadding1d_1_semeval_model", "trainable": true, "padding": 5}, "class_name": "ZeroPadding1D"}, {"config": {"input_dim": null, "input_length": null, "subsample_length": 1, "W_regularizer": null, "activation": "relu", "bias": true, "name": "convolution1d_1_semeval_model", "filter_length": 6, "b_regularizer": null, "b_constraint": null, "nb_filter": 200, "border_mode": "valid", "init": "uniform", "W_constraint": null, "activity_regularizer": null, "trainable": true}, "class_name": "Convolution1D"}, {"config": {"trainable": true, "pool_length": 4, "name": "maxpooling1d_1_semeval_model", "stride": 2, "border_mode": "valid"}, "class_name": "MaxPooling1D"}, {"config": {"input_dim": null, "input_length": null, "subsample_length": 1, "W_regularizer": null, "activation": "relu", "bias": true, "name": "convolution1d_2_semeval_model", "filter_length": 6, "b_regularizer": null, "b_constraint": null, "nb_filter": 200, "border_mode": "valid", "init": "uniform", "W_constraint": null, "activity_regularizer": null, "trainable": true}, "class_name": "Convolution1D"}, {"config": {"trainable": true, "pool_length": 66, "name": "maxpooling1d_2_semeval_model", "stride": 66, "border_mode": "valid"}, "class_name": "MaxPooling1D"}, {"config": {"name": "flatten_1_semeval_model", "trainable": true}, "class_name": "Flatten"}]}, {"class_name": "Sequential", "config": [{"config": {"input_dim": 428669, "input_length": 140, "W_regularizer": null, "input_dtype": "int32", "name": "embedding_17_mpq_model", "batch_input_shape": [null, 140], "mask_zero": false, "output_dim": 52, "init": "uniform", "dropout": 0.2, "W_constraint": null, "activity_regularizer": null, "trainable": true}, "class_name": "Embedding"}, {"config": {"name": "zeropadding1d_17_mpq_model", "trainable": true, "padding": 5}, "class_name": "ZeroPadding1D"}, {"config": {"input_dim": null, "input_length": null, "subsample_length": 1, "W_regularizer": null, "activation": "relu", "bias": true, "name": "convolution1d_33_mpq_model", "filter_length": 6, "b_regularizer": null, "b_constraint": null, "nb_filter": 200, "border_mode": "valid", "init": "uniform", "W_constraint": null, "activity_regularizer": null, "trainable": true}, "class_name": "Convolution1D"}, {"config": {"trainable": true, "pool_length": 4, "name": "maxpooling1d_33_mpq_model", "stride": 2, "border_mode": "valid"}, "class_name": "MaxPooling1D"}, {"config": {"input_dim": null, "input_length": null, "subsample_length": 1, "W_regularizer": null, "activation": "relu", "bias": true, "name": "convolution1d_34_mpq_model", "filter_length": 6, "b_regularizer": null, "b_constraint": null, "nb_filter": 200, "border_mode": "valid", "init": "uniform", "W_constraint": null, "activity_regularizer": null, "trainable": true}, "class_name": "Convolution1D"}, {"config": {"trainable": true, "pool_length": 66, "name": "maxpooling1d_34_mpq_model", "stride": 66, "border_mode": "valid"}, "class_name": "MaxPooling1D"}, {"config": {"name": "flatten_17_mpq_model", "trainable": true}, "class_name": "Flatten"}]}, {"class_name": "Sequential", "config": [{"config": {"input_dim": 1062158, "input_length": 140, "W_regularizer": null, "input_dtype": "int32", "name": "embedding_1_hul_model", "batch_input_shape": [null, 140], "mask_zero": false, "output_dim": 52, "init": "uniform", "dropout": 0.2, "W_constraint": null, "activity_regularizer": null, "trainable": true}, "class_name": "Embedding"}, {"config": {"name": "zeropadding1d_1_hul_model", "trainable": true, "padding": 5}, "class_name": "ZeroPadding1D"}, {"config": {"input_dim": null, "input_length": null, "subsample_length": 1, "W_regularizer": null, "activation": "relu", "bias": true, "name": "convolution1d_1_hul_model", "filter_length": 6, "b_regularizer": null, "b_constraint": null, "nb_filter": 200, "border_mode": "valid", "init": "uniform", "W_constraint": null, "activity_regularizer": null, "trainable": true}, "class_name": "Convolution1D"}, {"config": {"trainable": true, "pool_length": 4, "name": "maxpooling1d_1_hul_model", "stride": 2, "border_mode": "valid"}, "class_name": "MaxPooling1D"}, {"config": {"input_dim": null, "input_length": null, "subsample_length": 1, "W_regularizer": null, "activation": "relu", "bias": true, "name": "convolution1d_2_hul_model", "filter_length": 6, "b_regularizer": null, "b_constraint": null, "nb_filter": 200, "border_mode": "valid", "init": "uniform", "W_constraint": null, "activity_regularizer": null, "trainable": true}, "class_name": "Convolution1D"}, {"config": {"trainable": true, "pool_length": 66, "name": "maxpooling1d_2_hul_model", "stride": 66, "border_mode": "valid"}, "class_name": "MaxPooling1D"}, {"config": {"name": "flatten_1_hul_model", "trainable": true}, "class_name": "Flatten"}]}, {"class_name": "Sequential", "config": [{"config": {"input_dim": 1576890, "input_length": 140, "W_regularizer": null, "input_dtype": "int32", "name": "embedding_1_dai_model", "batch_input_shape": [null, 140], "mask_zero": false, "output_dim": 52, "init": "uniform", "dropout": 0.2, "W_constraint": null, "activity_regularizer": null, "trainable": true}, "class_name": "Embedding"}, {"config": {"name": "zeropadding1d_1_dai_model", "trainable": true, "padding": 5}, "class_name": "ZeroPadding1D"}, {"config": {"input_dim": null, "input_length": null, "subsample_length": 1, "W_regularizer": null, "activation": "relu", "bias": true, "name": "convolution1d_1_dai_model", "filter_length": 6, "b_regularizer": null, "b_constraint": null, "nb_filter": 200, "border_mode": "valid", "init": "uniform", "W_constraint": null, "activity_regularizer": null, "trainable": true}, "class_name": "Convolution1D"}, {"config": {"trainable": true, "pool_length": 4, "name": "maxpooling1d_1_dai_model", "stride": 2, "border_mode": "valid"}, "class_name": "MaxPooling1D"}, {"config": {"input_dim": null, "input_length": null, "subsample_length": 1, "W_regularizer": null, "activation": "relu", "bias": true, "name": "convolution1d_2_dai_model", "filter_length": 6, "b_regularizer": null, "b_constraint": null, "nb_filter": 200, "border_mode": "valid", "init": "uniform", "W_constraint": null, "activity_regularizer": null, "trainable": true}, "class_name": "Convolution1D"}, {"config": {"trainable": true, "pool_length": 66, "name": "maxpooling1d_2_dai_model", "stride": 66, "border_mode": "valid"}, "class_name": "MaxPooling1D"}, {"config": {"name": "flatten_1_dai_model", "trainable": true}, "class_name": "Flatten"}]}], "mode_type": "raw", "mode": "concat", "name": "merge_1", "output_shape": null, "concat_axis": -1, "output_shape_type": "raw"}}, {"class_name": "Dense", "config": {"input_dim": null, "W_regularizer": null, "activation": "linear", "name": "dense_1", "b_regularizer": null, "trainable": true, "b_constraint": null, "output_dim": 1028, "init": "glorot_uniform", "W_constraint": null, "activity_regularizer": null, "bias": true}}, {"class_name": "Activation", "config": {"name": "activation_1", "trainable": true, "activation": "relu"}}, {"class_name": "Dense", "config": {"input_dim": null, "W_regularizer": null, "activation": "softmax", "name": "dense_2", "b_regularizer": null, "trainable": true, "b_constraint": null, "output_dim": 3, "init": "glorot_uniform", "W_constraint": null, "activity_regularizer": null, "bias": true}}], "keras_version": "1.1.1", "class_name": "Sequential"}