{"config": [{"config": {"output_dim": 52, "batch_input_shape": [null, 140], "W_constraint": null, "W_regularizer": null, "trainable": true, "input_dtype": "int32", "mask_zero": false, "init": "uniform", "name": "embedding_1", "dropout": 0.2, "input_dim": 428669, "input_length": 140, "activity_regularizer": null}, "class_name": "Embedding"}, {"config": {"padding": 5, "trainable": true, "name": "zeropadding1d_1"}, "class_name": "ZeroPadding1D"}, {"config": {"bias": true, "border_mode": "valid", "input_dim": null, "W_constraint": null, "W_regularizer": null, "filter_length": 6, "trainable": true, "activity_regularizer": null, "nb_filter": 200, "name": "convolution1d_1", "init": "uniform", "subsample_length": 1, "b_regularizer": null, "activation": "relu", "input_length": null, "b_constraint": null}, "class_name": "Convolution1D"}, {"config": {"stride": 2, "pool_length": 4, "trainable": true, "name": "maxpooling1d_1", "border_mode": "valid"}, "class_name": "MaxPooling1D"}, {"config": {"bias": true, "border_mode": "valid", "input_dim": null, "W_constraint": null, "W_regularizer": null, "filter_length": 6, "trainable": true, "activity_regularizer": null, "nb_filter": 200, "name": "convolution1d_2", "init": "uniform", "subsample_length": 1, "b_regularizer": null, "activation": "relu", "input_length": null, "b_constraint": null}, "class_name": "Convolution1D"}, {"config": {"stride": 66, "pool_length": 66, "trainable": true, "name": "maxpooling1d_2", "border_mode": "valid"}, "class_name": "MaxPooling1D"}, {"config": {"name": "flatten_1", "trainable": true}, "class_name": "Flatten"}, {"config": {"bias": true, "output_dim": 200, "input_dim": null, "W_constraint": null, "W_regularizer": null, "trainable": true, "init": "glorot_uniform", "name": "dense_1", "b_constraint": null, "b_regularizer": null, "activation": "linear", "activity_regularizer": null}, "class_name": "Dense"}, {"config": {"p": 0.2, "trainable": true, "name": "dropout_1"}, "class_name": "Dropout"}, {"config": {"trainable": true, "name": "activation_1", "activation": "relu"}, "class_name": "Activation"}, {"config": {"bias": true, "output_dim": 3, "input_dim": null, "W_constraint": null, "W_regularizer": null, "trainable": true, "init": "glorot_uniform", "name": "dense_2", "b_constraint": null, "b_regularizer": null, "activation": "softmax", "activity_regularizer": null}, "class_name": "Dense"}], "class_name": "Sequential", "keras_version": "1.1.1"}