{"keras_version": "1.1.1", "config": [{"config": {"output_shape_type": "raw", "concat_axis": -1, "dot_axes": -1, "mode": "concat", "name": "merge_1", "mode_type": "raw", "layers": [{"config": [{"config": {"W_constraint": null, "name": "embedding_1_dil_model", "mask_zero": false, "input_dtype": "int32", "output_dim": 52, "batch_input_shape": [null, 140], "trainable": true, "activity_regularizer": null, "dropout": 0.2, "input_length": 140, "W_regularizer": null, "input_dim": 1576890, "init": "uniform"}, "class_name": "Embedding"}, {"config": {"name": "zeropadding1d_1_dil_model", "trainable": true, "padding": 5}, "class_name": "ZeroPadding1D"}, {"config": {"b_regularizer": null, "W_constraint": null, "border_mode": "valid", "filter_length": 6, "activation": "relu", "bias": true, "b_constraint": null, "trainable": true, "activity_regularizer": null, "nb_filter": 200, "subsample_length": 1, "name": "convolution1d_1_dil_model", "input_dim": null, "W_regularizer": null, "input_length": null, "init": "uniform"}, "class_name": "Convolution1D"}, {"config": {"name": "maxpooling1d_1_dil_model", "trainable": true, "pool_length": 4, "border_mode": "valid", "stride": 2}, "class_name": "MaxPooling1D"}, {"config": {"b_regularizer": null, "W_constraint": null, "border_mode": "valid", "filter_length": 6, "activation": "relu", "bias": true, "b_constraint": null, "trainable": true, "activity_regularizer": null, "nb_filter": 200, "subsample_length": 1, "name": "convolution1d_2_dil_model", "input_dim": null, "W_regularizer": null, "input_length": null, "init": "uniform"}, "class_name": "Convolution1D"}], "class_name": "Sequential"}, {"config": [{"config": {"W_constraint": null, "name": "embedding_1_hul_model", "mask_zero": false, "input_dtype": "int32", "output_dim": 52, "batch_input_shape": [null, 140], "trainable": true, "activity_regularizer": null, "dropout": 0.2, "input_length": 140, "W_regularizer": null, "input_dim": 1062158, "init": "uniform"}, "class_name": "Embedding"}, {"config": {"name": "zeropadding1d_1_hul_model", "trainable": true, "padding": 5}, "class_name": "ZeroPadding1D"}, {"config": {"b_regularizer": null, "W_constraint": null, "border_mode": "valid", "filter_length": 6, "activation": "relu", "bias": true, "b_constraint": null, "trainable": true, "activity_regularizer": null, "nb_filter": 200, "subsample_length": 1, "name": "convolution1d_1_hul_model", "input_dim": null, "W_regularizer": null, "input_length": null, "init": "uniform"}, "class_name": "Convolution1D"}, {"config": {"name": "maxpooling1d_1_hul_model", "trainable": true, "pool_length": 4, "border_mode": "valid", "stride": 2}, "class_name": "MaxPooling1D"}, {"config": {"b_regularizer": null, "W_constraint": null, "border_mode": "valid", "filter_length": 6, "activation": "relu", "bias": true, "b_constraint": null, "trainable": true, "activity_regularizer": null, "nb_filter": 200, "subsample_length": 1, "name": "convolution1d_2_hul_model", "input_dim": null, "W_regularizer": null, "input_length": null, "init": "uniform"}, "class_name": "Convolution1D"}], "class_name": "Sequential"}, {"config": [{"config": {"W_constraint": null, "name": "embedding_17_mpq_model", "mask_zero": false, "input_dtype": "int32", "output_dim": 52, "batch_input_shape": [null, 140], "trainable": true, "activity_regularizer": null, "dropout": 0.2, "input_length": 140, "W_regularizer": null, "input_dim": 428669, "init": "uniform"}, "class_name": "Embedding"}, {"config": {"name": "zeropadding1d_17_mpq_model", "trainable": true, "padding": 5}, "class_name": "ZeroPadding1D"}, {"config": {"b_regularizer": null, "W_constraint": null, "border_mode": "valid", "filter_length": 6, "activation": "relu", "bias": true, "b_constraint": null, "trainable": true, "activity_regularizer": null, "nb_filter": 200, "subsample_length": 1, "name": "convolution1d_33_mpq_model", "input_dim": null, "W_regularizer": null, "input_length": null, "init": "uniform"}, "class_name": "Convolution1D"}, {"config": {"name": "maxpooling1d_33_mpq_model", "trainable": true, "pool_length": 4, "border_mode": "valid", "stride": 2}, "class_name": "MaxPooling1D"}, {"config": {"b_regularizer": null, "W_constraint": null, "border_mode": "valid", "filter_length": 6, "activation": "relu", "bias": true, "b_constraint": null, "trainable": true, "activity_regularizer": null, "nb_filter": 200, "subsample_length": 1, "name": "convolution1d_34_mpq_model", "input_dim": null, "W_regularizer": null, "input_length": null, "init": "uniform"}, "class_name": "Convolution1D"}], "class_name": "Sequential"}, {"config": [{"config": {"W_constraint": null, "name": "embedding_1_semeval_model", "mask_zero": false, "input_dtype": "int32", "output_dim": 52, "batch_input_shape": [null, 140], "trainable": true, "activity_regularizer": null, "dropout": 0.2, "input_length": 140, "W_regularizer": null, "input_dim": 1576890, "init": "uniform"}, "class_name": "Embedding"}, {"config": {"name": "zeropadding1d_1_semeval_model", "trainable": true, "padding": 5}, "class_name": "ZeroPadding1D"}, {"config": {"b_regularizer": null, "W_constraint": null, "border_mode": "valid", "filter_length": 6, "activation": "relu", "bias": true, "b_constraint": null, "trainable": true, "activity_regularizer": null, "nb_filter": 200, "subsample_length": 1, "name": "convolution1d_1_semeval_model", "input_dim": null, "W_regularizer": null, "input_length": null, "init": "uniform"}, "class_name": "Convolution1D"}, {"config": {"name": "maxpooling1d_1_semeval_model", "trainable": true, "pool_length": 4, "border_mode": "valid", "stride": 2}, "class_name": "MaxPooling1D"}, {"config": {"b_regularizer": null, "W_constraint": null, "border_mode": "valid", "filter_length": 6, "activation": "relu", "bias": true, "b_constraint": null, "trainable": true, "activity_regularizer": null, "nb_filter": 200, "subsample_length": 1, "name": "convolution1d_2_semeval_model", "input_dim": null, "W_regularizer": null, "input_length": null, "init": "uniform"}, "class_name": "Convolution1D"}], "class_name": "Sequential"}, {"config": [{"config": {"W_constraint": null, "name": "embedding_1_tac_model", "mask_zero": false, "input_dtype": "int32", "output_dim": 52, "batch_input_shape": [null, 140], "trainable": true, "activity_regularizer": null, "dropout": 0.2, "input_length": 140, "W_regularizer": null, "input_dim": 428669, "init": "uniform"}, "class_name": "Embedding"}, {"config": {"name": "zeropadding1d_1_tac_model", "trainable": true, "padding": 5}, "class_name": "ZeroPadding1D"}, {"config": {"b_regularizer": null, "W_constraint": null, "border_mode": "valid", "filter_length": 6, "activation": "relu", "bias": true, "b_constraint": null, "trainable": true, "activity_regularizer": null, "nb_filter": 200, "subsample_length": 1, "name": "convolution1d_1_tac_model", "input_dim": null, "W_regularizer": null, "input_length": null, "init": "uniform"}, "class_name": "Convolution1D"}, {"config": {"name": "maxpooling1d_1_tac_model", "trainable": true, "pool_length": 4, "border_mode": "valid", "stride": 2}, "class_name": "MaxPooling1D"}, {"config": {"b_regularizer": null, "W_constraint": null, "border_mode": "valid", "filter_length": 6, "activation": "relu", "bias": true, "b_constraint": null, "trainable": true, "activity_regularizer": null, "nb_filter": 200, "subsample_length": 1, "name": "convolution1d_2_tac_model", "input_dim": null, "W_regularizer": null, "input_length": null, "init": "uniform"}, "class_name": "Convolution1D"}], "class_name": "Sequential"}], "output_shape": null}, "class_name": "Merge"}, {"config": {"name": "maxpooling1d_1", "trainable": true, "pool_length": 4, "border_mode": "valid", "stride": 2}, "class_name": "MaxPooling1D"}, {"config": {"b_regularizer": null, "W_constraint": null, "border_mode": "valid", "name": "convolution1d_1", "filter_length": 6, "activation": "relu", "bias": true, "b_constraint": null, "trainable": true, "activity_regularizer": null, "init": "uniform", "nb_filter": 200, "input_dim": null, "W_regularizer": null, "input_length": null, "subsample_length": 1}, "class_name": "Convolution1D"}, {"config": {"name": "maxpooling1d_2", "trainable": true, "pool_length": 4, "border_mode": "valid", "stride": 2}, "class_name": "MaxPooling1D"}, {"config": {"name": "flatten_1", "trainable": true}, "class_name": "Flatten"}, {"config": {"b_regularizer": null, "W_constraint": null, "name": "dense_1", "bias": true, "output_dim": 200, "b_constraint": null, "trainable": true, "activity_regularizer": null, "activation": "linear", "input_dim": null, "W_regularizer": null, "init": "glorot_uniform"}, "class_name": "Dense"}, {"config": {"name": "dropout_1", "trainable": true, "p": 0.2}, "class_name": "Dropout"}, {"config": {"name": "activation_1", "trainable": true, "activation": "relu"}, "class_name": "Activation"}, {"config": {"b_regularizer": null, "W_constraint": null, "name": "dense_2", "bias": true, "output_dim": 3, "b_constraint": null, "trainable": true, "activity_regularizer": null, "activation": "softmax", "input_dim": null, "W_regularizer": null, "init": "glorot_uniform"}, "class_name": "Dense"}], "class_name": "Sequential"}