{"keras_version": "1.1.1", "class_name": "Sequential", "config": [{"class_name": "Merge", "config": {"output_shape_type": "raw", "layers": [{"class_name": "Sequential", "config": [{"class_name": "Embedding", "config": {"input_dtype": "int32", "W_regularizer": null, "mask_zero": false, "activity_regularizer": null, "input_dim": 1062158, "name": "embedding_1_hul_model", "W_constraint": null, "init": "uniform", "dropout": 0.2, "output_dim": 52, "input_length": 140, "trainable": true, "batch_input_shape": [null, 140]}}, {"class_name": "ZeroPadding1D", "config": {"padding": 5, "name": "zeropadding1d_1_hul_model", "trainable": true}}, {"class_name": "Convolution1D", "config": {"W_regularizer": null, "subsample_length": 1, "b_regularizer": null, "nb_filter": 200, "input_length": null, "activity_regularizer": null, "input_dim": null, "bias": true, "filter_length": 6, "W_constraint": null, "border_mode": "valid", "init": "uniform", "name": "convolution1d_1_hul_model", "activation": "relu", "trainable": true, "b_constraint": null}}, {"class_name": "MaxPooling1D", "config": {"stride": 2, "pool_length": 4, "trainable": true, "name": "maxpooling1d_1_hul_model", "border_mode": "valid"}}, {"class_name": "Convolution1D", "config": {"W_regularizer": null, "subsample_length": 1, "b_regularizer": null, "nb_filter": 200, "input_length": null, "activity_regularizer": null, "input_dim": null, "bias": true, "filter_length": 6, "W_constraint": null, "border_mode": "valid", "init": "uniform", "name": "convolution1d_2_hul_model", "activation": "relu", "trainable": true, "b_constraint": null}}]}, {"class_name": "Sequential", "config": [{"class_name": "Embedding", "config": {"input_dtype": "int32", "W_regularizer": null, "mask_zero": false, "activity_regularizer": null, "input_dim": 428669, "name": "embedding_1_tac_model", "W_constraint": null, "init": "uniform", "dropout": 0.2, "output_dim": 52, "input_length": 140, "trainable": true, "batch_input_shape": [null, 140]}}, {"class_name": "ZeroPadding1D", "config": {"padding": 5, "name": "zeropadding1d_1_tac_model", "trainable": true}}, {"class_name": "Convolution1D", "config": {"W_regularizer": null, "subsample_length": 1, "b_regularizer": null, "nb_filter": 200, "input_length": null, "activity_regularizer": null, "input_dim": null, "bias": true, "filter_length": 6, "W_constraint": null, "border_mode": "valid", "init": "uniform", "name": "convolution1d_1_tac_model", "activation": "relu", "trainable": true, "b_constraint": null}}, {"class_name": "MaxPooling1D", "config": {"stride": 2, "pool_length": 4, "trainable": true, "name": "maxpooling1d_1_tac_model", "border_mode": "valid"}}, {"class_name": "Convolution1D", "config": {"W_regularizer": null, "subsample_length": 1, "b_regularizer": null, "nb_filter": 200, "input_length": null, "activity_regularizer": null, "input_dim": null, "bias": true, "filter_length": 6, "W_constraint": null, "border_mode": "valid", "init": "uniform", "name": "convolution1d_2_tac_model", "activation": "relu", "trainable": true, "b_constraint": null}}]}, {"class_name": "Sequential", "config": [{"class_name": "Embedding", "config": {"input_dtype": "int32", "W_regularizer": null, "mask_zero": false, "activity_regularizer": null, "input_dim": 428669, "name": "embedding_17_mpq_model", "W_constraint": null, "init": "uniform", "dropout": 0.2, "output_dim": 52, "input_length": 140, "trainable": true, "batch_input_shape": [null, 140]}}, {"class_name": "ZeroPadding1D", "config": {"padding": 5, "name": "zeropadding1d_17_mpq_model", "trainable": true}}, {"class_name": "Convolution1D", "config": {"W_regularizer": null, "subsample_length": 1, "b_regularizer": null, "nb_filter": 200, "input_length": null, "activity_regularizer": null, "input_dim": null, "bias": true, "filter_length": 6, "W_constraint": null, "border_mode": "valid", "init": "uniform", "name": "convolution1d_33_mpq_model", "activation": "relu", "trainable": true, "b_constraint": null}}, {"class_name": "MaxPooling1D", "config": {"stride": 2, "pool_length": 4, "trainable": true, "name": "maxpooling1d_33_mpq_model", "border_mode": "valid"}}, {"class_name": "Convolution1D", "config": {"W_regularizer": null, "subsample_length": 1, "b_regularizer": null, "nb_filter": 200, "input_length": null, "activity_regularizer": null, "input_dim": null, "bias": true, "filter_length": 6, "W_constraint": null, "border_mode": "valid", "init": "uniform", "name": "convolution1d_34_mpq_model", "activation": "relu", "trainable": true, "b_constraint": null}}]}, {"class_name": "Sequential", "config": [{"class_name": "Embedding", "config": {"input_dtype": "int32", "W_regularizer": null, "mask_zero": false, "activity_regularizer": null, "input_dim": 1576890, "name": "embedding_1_dai_model", "W_constraint": null, "init": "uniform", "dropout": 0.2, "output_dim": 52, "input_length": 140, "trainable": true, "batch_input_shape": [null, 140]}}, {"class_name": "ZeroPadding1D", "config": {"padding": 5, "name": "zeropadding1d_1_dai_model", "trainable": true}}, {"class_name": "Convolution1D", "config": {"W_regularizer": null, "subsample_length": 1, "b_regularizer": null, "nb_filter": 200, "input_length": null, "activity_regularizer": null, "input_dim": null, "bias": true, "filter_length": 6, "W_constraint": null, "border_mode": "valid", "init": "uniform", "name": "convolution1d_1_dai_model", "activation": "relu", "trainable": true, "b_constraint": null}}, {"class_name": "MaxPooling1D", "config": {"stride": 2, "pool_length": 4, "trainable": true, "name": "maxpooling1d_1_dai_model", "border_mode": "valid"}}, {"class_name": "Convolution1D", "config": {"W_regularizer": null, "subsample_length": 1, "b_regularizer": null, "nb_filter": 200, "input_length": null, "activity_regularizer": null, "input_dim": null, "bias": true, "filter_length": 6, "W_constraint": null, "border_mode": "valid", "init": "uniform", "name": "convolution1d_2_dai_model", "activation": "relu", "trainable": true, "b_constraint": null}}]}, {"class_name": "Sequential", "config": [{"class_name": "Embedding", "config": {"input_dtype": "int32", "W_regularizer": null, "mask_zero": false, "activity_regularizer": null, "input_dim": 428669, "name": "embedding_1_semeval_model", "W_constraint": null, "init": "uniform", "dropout": 0.2, "output_dim": 52, "input_length": 140, "trainable": true, "batch_input_shape": [null, 140]}}, {"class_name": "ZeroPadding1D", "config": {"padding": 5, "name": "zeropadding1d_1_semeval_model", "trainable": true}}, {"class_name": "Convolution1D", "config": {"W_regularizer": null, "subsample_length": 1, "b_regularizer": null, "nb_filter": 200, "input_length": null, "activity_regularizer": null, "input_dim": null, "bias": true, "filter_length": 6, "W_constraint": null, "border_mode": "valid", "init": "uniform", "name": "convolution1d_1_semeval_model", "activation": "relu", "trainable": true, "b_constraint": null}}, {"class_name": "MaxPooling1D", "config": {"stride": 2, "pool_length": 4, "trainable": true, "name": "maxpooling1d_1_semeval_model", "border_mode": "valid"}}, {"class_name": "Convolution1D", "config": {"W_regularizer": null, "subsample_length": 1, "b_regularizer": null, "nb_filter": 200, "input_length": null, "activity_regularizer": null, "input_dim": null, "bias": true, "filter_length": 6, "W_constraint": null, "border_mode": "valid", "init": "uniform", "name": "convolution1d_2_semeval_model", "activation": "relu", "trainable": true, "b_constraint": null}}]}, {"class_name": "Sequential", "config": [{"class_name": "Embedding", "config": {"input_dtype": "int32", "W_regularizer": null, "mask_zero": false, "activity_regularizer": null, "input_dim": 1576890, "name": "embedding_1_dil_model", "W_constraint": null, "init": "uniform", "dropout": 0.2, "output_dim": 52, "input_length": 140, "trainable": true, "batch_input_shape": [null, 140]}}, {"class_name": "ZeroPadding1D", "config": {"padding": 5, "name": "zeropadding1d_1_dil_model", "trainable": true}}, {"class_name": "Convolution1D", "config": {"W_regularizer": null, "subsample_length": 1, "b_regularizer": null, "nb_filter": 200, "input_length": null, "activity_regularizer": null, "input_dim": null, "bias": true, "filter_length": 6, "W_constraint": null, "border_mode": "valid", "init": "uniform", "name": "convolution1d_1_dil_model", "activation": "relu", "trainable": true, "b_constraint": null}}, {"class_name": "MaxPooling1D", "config": {"stride": 2, "pool_length": 4, "trainable": true, "name": "maxpooling1d_1_dil_model", "border_mode": "valid"}}, {"class_name": "Convolution1D", "config": {"W_regularizer": null, "subsample_length": 1, "b_regularizer": null, "nb_filter": 200, "input_length": null, "activity_regularizer": null, "input_dim": null, "bias": true, "filter_length": 6, "W_constraint": null, "border_mode": "valid", "init": "uniform", "name": "convolution1d_2_dil_model", "activation": "relu", "trainable": true, "b_constraint": null}}]}], "mode_type": "raw", "dot_axes": -1, "mode": "concat", "output_shape": null, "name": "merge_1", "concat_axis": -1}}, {"class_name": "Flatten", "config": {"name": "flatten_1", "trainable": true}}, {"class_name": "Dense", "config": {"trainable": true, "b_regularizer": null, "activation": "linear", "activity_regularizer": null, "input_dim": null, "bias": true, "b_constraint": null, "W_constraint": null, "init": "glorot_uniform", "output_dim": 200, "name": "dense_1", "W_regularizer": null}}, {"class_name": "Dropout", "config": {"trainable": true, "name": "dropout_1", "p": 0.2}}, {"class_name": "Activation", "config": {"trainable": true, "name": "activation_1", "activation": "relu"}}, {"class_name": "Dense", "config": {"trainable": true, "b_regularizer": null, "activation": "softmax", "activity_regularizer": null, "input_dim": null, "bias": true, "b_constraint": null, "W_constraint": null, "init": "glorot_uniform", "output_dim": 3, "name": "dense_2", "W_regularizer": null}}]}