{"keras_version": "1.1.1", "config": [{"config": {"mode": "concat", "output_shape": null, "dot_axes": -1, "name": "merge_1", "output_shape_type": "raw", "concat_axis": -1, "layers": [{"config": [{"config": {"W_constraint": null, "activity_regularizer": null, "batch_input_shape": [null, 140], "trainable": true, "dropout": 0.2, "mask_zero": false, "W_regularizer": null, "input_dim": 428669, "input_dtype": "int32", "init": "uniform", "output_dim": 52, "input_length": 140, "name": "embedding_1_tac_model"}, "class_name": "Embedding"}, {"config": {"padding": 5, "name": "zeropadding1d_1_tac_model", "trainable": true}, "class_name": "ZeroPadding1D"}, {"config": {"b_regularizer": null, "bias": true, "W_constraint": null, "activation": "relu", "b_constraint": null, "activity_regularizer": null, "trainable": true, "filter_length": 6, "nb_filter": 200, "W_regularizer": null, "input_dim": null, "border_mode": "valid", "init": "uniform", "input_length": null, "subsample_length": 1, "name": "convolution1d_1_tac_model"}, "class_name": "Convolution1D"}, {"config": {"pool_length": 4, "stride": 2, "border_mode": "valid", "name": "maxpooling1d_1_tac_model", "trainable": true}, "class_name": "MaxPooling1D"}, {"config": {"b_regularizer": null, "bias": true, "W_constraint": null, "activation": "relu", "b_constraint": null, "activity_regularizer": null, "trainable": true, "filter_length": 6, "nb_filter": 200, "W_regularizer": null, "input_dim": null, "border_mode": "valid", "init": "uniform", "input_length": null, "subsample_length": 1, "name": "convolution1d_2_tac_model"}, "class_name": "Convolution1D"}, {"config": {"pool_length": 66, "stride": 66, "border_mode": "valid", "name": "maxpooling1d_2_tac_model", "trainable": true}, "class_name": "MaxPooling1D"}, {"config": {"name": "flatten_1_tac_model", "trainable": true}, "class_name": "Flatten"}], "class_name": "Sequential"}, {"config": [{"config": {"W_constraint": null, "activity_regularizer": null, "batch_input_shape": [null, 140], "trainable": true, "dropout": 0.2, "mask_zero": false, "W_regularizer": null, "input_dim": 1062158, "input_dtype": "int32", "init": "uniform", "output_dim": 52, "input_length": 140, "name": "embedding_1_hul_model"}, "class_name": "Embedding"}, {"config": {"padding": 5, "name": "zeropadding1d_1_hul_model", "trainable": true}, "class_name": "ZeroPadding1D"}, {"config": {"b_regularizer": null, "bias": true, "W_constraint": null, "activation": "relu", "b_constraint": null, "activity_regularizer": null, "trainable": true, "filter_length": 6, "nb_filter": 200, "W_regularizer": null, "input_dim": null, "border_mode": "valid", "init": "uniform", "input_length": null, "subsample_length": 1, "name": "convolution1d_1_hul_model"}, "class_name": "Convolution1D"}, {"config": {"pool_length": 4, "stride": 2, "border_mode": "valid", "name": "maxpooling1d_1_hul_model", "trainable": true}, "class_name": "MaxPooling1D"}, {"config": {"b_regularizer": null, "bias": true, "W_constraint": null, "activation": "relu", "b_constraint": null, "activity_regularizer": null, "trainable": true, "filter_length": 6, "nb_filter": 200, "W_regularizer": null, "input_dim": null, "border_mode": "valid", "init": "uniform", "input_length": null, "subsample_length": 1, "name": "convolution1d_2_hul_model"}, "class_name": "Convolution1D"}, {"config": {"pool_length": 66, "stride": 66, "border_mode": "valid", "name": "maxpooling1d_2_hul_model", "trainable": true}, "class_name": "MaxPooling1D"}, {"config": {"name": "flatten_1_hul_model", "trainable": true}, "class_name": "Flatten"}], "class_name": "Sequential"}, {"config": [{"config": {"W_constraint": null, "activity_regularizer": null, "batch_input_shape": [null, 140], "trainable": true, "dropout": 0.2, "mask_zero": false, "W_regularizer": null, "input_dim": 428669, "input_dtype": "int32", "init": "uniform", "output_dim": 52, "input_length": 140, "name": "embedding_1_semeval_model"}, "class_name": "Embedding"}, {"config": {"padding": 5, "name": "zeropadding1d_1_semeval_model", "trainable": true}, "class_name": "ZeroPadding1D"}, {"config": {"b_regularizer": null, "bias": true, "W_constraint": null, "activation": "relu", "b_constraint": null, "activity_regularizer": null, "trainable": true, "filter_length": 6, "nb_filter": 200, "W_regularizer": null, "input_dim": null, "border_mode": "valid", "init": "uniform", "input_length": null, "subsample_length": 1, "name": "convolution1d_1_semeval_model"}, "class_name": "Convolution1D"}, {"config": {"pool_length": 4, "stride": 2, "border_mode": "valid", "name": "maxpooling1d_1_semeval_model", "trainable": true}, "class_name": "MaxPooling1D"}, {"config": {"b_regularizer": null, "bias": true, "W_constraint": null, "activation": "relu", "b_constraint": null, "activity_regularizer": null, "trainable": true, "filter_length": 6, "nb_filter": 200, "W_regularizer": null, "input_dim": null, "border_mode": "valid", "init": "uniform", "input_length": null, "subsample_length": 1, "name": "convolution1d_2_semeval_model"}, "class_name": "Convolution1D"}, {"config": {"pool_length": 66, "stride": 66, "border_mode": "valid", "name": "maxpooling1d_2_semeval_model", "trainable": true}, "class_name": "MaxPooling1D"}, {"config": {"name": "flatten_1_semeval_model", "trainable": true}, "class_name": "Flatten"}], "class_name": "Sequential"}, {"config": [{"config": {"W_constraint": null, "activity_regularizer": null, "batch_input_shape": [null, 140], "trainable": true, "dropout": 0.2, "mask_zero": false, "W_regularizer": null, "input_dim": 1576890, "input_dtype": "int32", "init": "uniform", "output_dim": 52, "input_length": 140, "name": "embedding_1_dai_model"}, "class_name": "Embedding"}, {"config": {"padding": 5, "name": "zeropadding1d_1_dai_model", "trainable": true}, "class_name": "ZeroPadding1D"}, {"config": {"b_regularizer": null, "bias": true, "W_constraint": null, "activation": "relu", "b_constraint": null, "activity_regularizer": null, "trainable": true, "filter_length": 6, "nb_filter": 200, "W_regularizer": null, "input_dim": null, "border_mode": "valid", "init": "uniform", "input_length": null, "subsample_length": 1, "name": "convolution1d_1_dai_model"}, "class_name": "Convolution1D"}, {"config": {"pool_length": 4, "stride": 2, "border_mode": "valid", "name": "maxpooling1d_1_dai_model", "trainable": true}, "class_name": "MaxPooling1D"}, {"config": {"b_regularizer": null, "bias": true, "W_constraint": null, "activation": "relu", "b_constraint": null, "activity_regularizer": null, "trainable": true, "filter_length": 6, "nb_filter": 200, "W_regularizer": null, "input_dim": null, "border_mode": "valid", "init": "uniform", "input_length": null, "subsample_length": 1, "name": "convolution1d_2_dai_model"}, "class_name": "Convolution1D"}, {"config": {"pool_length": 66, "stride": 66, "border_mode": "valid", "name": "maxpooling1d_2_dai_model", "trainable": true}, "class_name": "MaxPooling1D"}, {"config": {"name": "flatten_1_dai_model", "trainable": true}, "class_name": "Flatten"}], "class_name": "Sequential"}, {"config": [{"config": {"W_constraint": null, "activity_regularizer": null, "batch_input_shape": [null, 140], "trainable": true, "dropout": 0.2, "mask_zero": false, "W_regularizer": null, "input_dim": 1576890, "input_dtype": "int32", "init": "uniform", "output_dim": 52, "input_length": 140, "name": "embedding_1_dil_model"}, "class_name": "Embedding"}, {"config": {"padding": 5, "name": "zeropadding1d_1_dil_model", "trainable": true}, "class_name": "ZeroPadding1D"}, {"config": {"b_regularizer": null, "bias": true, "W_constraint": null, "activation": "relu", "b_constraint": null, "activity_regularizer": null, "trainable": true, "filter_length": 6, "nb_filter": 200, "W_regularizer": null, "input_dim": null, "border_mode": "valid", "init": "uniform", "input_length": null, "subsample_length": 1, "name": "convolution1d_1_dil_model"}, "class_name": "Convolution1D"}, {"config": {"pool_length": 4, "stride": 2, "border_mode": "valid", "name": "maxpooling1d_1_dil_model", "trainable": true}, "class_name": "MaxPooling1D"}, {"config": {"b_regularizer": null, "bias": true, "W_constraint": null, "activation": "relu", "b_constraint": null, "activity_regularizer": null, "trainable": true, "filter_length": 6, "nb_filter": 200, "W_regularizer": null, "input_dim": null, "border_mode": "valid", "init": "uniform", "input_length": null, "subsample_length": 1, "name": "convolution1d_2_dil_model"}, "class_name": "Convolution1D"}, {"config": {"pool_length": 66, "stride": 66, "border_mode": "valid", "name": "maxpooling1d_2_dil_model", "trainable": true}, "class_name": "MaxPooling1D"}, {"config": {"name": "flatten_1_dil_model", "trainable": true}, "class_name": "Flatten"}], "class_name": "Sequential"}, {"config": [{"config": {"W_constraint": null, "activity_regularizer": null, "batch_input_shape": [null, 140], "trainable": true, "dropout": 0.2, "mask_zero": false, "W_regularizer": null, "input_dim": 428669, "input_dtype": "int32", "init": "uniform", "output_dim": 52, "input_length": 140, "name": "embedding_17_mpq_model"}, "class_name": "Embedding"}, {"config": {"padding": 5, "name": "zeropadding1d_17_mpq_model", "trainable": true}, "class_name": "ZeroPadding1D"}, {"config": {"b_regularizer": null, "bias": true, "W_constraint": null, "activation": "relu", "b_constraint": null, "activity_regularizer": null, "trainable": true, "filter_length": 6, "nb_filter": 200, "W_regularizer": null, "input_dim": null, "border_mode": "valid", "init": "uniform", "input_length": null, "subsample_length": 1, "name": "convolution1d_33_mpq_model"}, "class_name": "Convolution1D"}, {"config": {"pool_length": 4, "stride": 2, "border_mode": "valid", "name": "maxpooling1d_33_mpq_model", "trainable": true}, "class_name": "MaxPooling1D"}, {"config": {"b_regularizer": null, "bias": true, "W_constraint": null, "activation": "relu", "b_constraint": null, "activity_regularizer": null, "trainable": true, "filter_length": 6, "nb_filter": 200, "W_regularizer": null, "input_dim": null, "border_mode": "valid", "init": "uniform", "input_length": null, "subsample_length": 1, "name": "convolution1d_34_mpq_model"}, "class_name": "Convolution1D"}, {"config": {"pool_length": 66, "stride": 66, "border_mode": "valid", "name": "maxpooling1d_34_mpq_model", "trainable": true}, "class_name": "MaxPooling1D"}, {"config": {"name": "flatten_17_mpq_model", "trainable": true}, "class_name": "Flatten"}], "class_name": "Sequential"}], "mode_type": "raw"}, "class_name": "Merge"}, {"config": {"b_regularizer": null, "bias": true, "W_constraint": null, "activation": "linear", "b_constraint": null, "activity_regularizer": null, "trainable": true, "W_regularizer": null, "input_dim": null, "init": "glorot_uniform", "output_dim": 1028, "name": "dense_1"}, "class_name": "Dense"}, {"config": {"activation": "relu", "name": "activation_1", "trainable": true}, "class_name": "Activation"}, {"config": {"b_regularizer": null, "bias": true, "W_constraint": null, "activation": "softmax", "b_constraint": null, "activity_regularizer": null, "trainable": true, "W_regularizer": null, "input_dim": null, "init": "glorot_uniform", "output_dim": 3, "name": "dense_2"}, "class_name": "Dense"}], "class_name": "Sequential"}