{"keras_version": "1.1.1", "config": [{"config": {"output_shape": null, "mode": "concat", "mode_type": "raw", "concat_axis": -1, "output_shape_type": "raw", "layers": [{"config": [{"config": {"input_dtype": "int32", "dropout": 0.2, "W_constraint": null, "batch_input_shape": [null, 140], "W_regularizer": null, "mask_zero": false, "input_dim": 1576890, "name": "embedding_1_dai_model", "init": "uniform", "activity_regularizer": null, "output_dim": 52, "input_length": 140, "trainable": true}, "class_name": "Embedding"}, {"config": {"padding": 5, "name": "zeropadding1d_1_dai_model", "trainable": true}, "class_name": "ZeroPadding1D"}, {"config": {"W_constraint": null, "input_length": null, "activation": "relu", "W_regularizer": null, "name": "convolution1d_1_dai_model", "bias": true, "subsample_length": 1, "b_constraint": null, "input_dim": null, "init": "uniform", "activity_regularizer": null, "b_regularizer": null, "filter_length": 6, "nb_filter": 200, "border_mode": "valid", "trainable": true}, "class_name": "Convolution1D"}, {"config": {"stride": 2, "pool_length": 4, "name": "maxpooling1d_1_dai_model", "border_mode": "valid", "trainable": true}, "class_name": "MaxPooling1D"}, {"config": {"W_constraint": null, "input_length": null, "activation": "relu", "W_regularizer": null, "name": "convolution1d_2_dai_model", "bias": true, "subsample_length": 1, "b_constraint": null, "input_dim": null, "init": "uniform", "activity_regularizer": null, "b_regularizer": null, "filter_length": 6, "nb_filter": 200, "border_mode": "valid", "trainable": true}, "class_name": "Convolution1D"}], "class_name": "Sequential"}, {"config": [{"config": {"input_dtype": "int32", "dropout": 0.2, "W_constraint": null, "batch_input_shape": [null, 140], "W_regularizer": null, "mask_zero": false, "input_dim": 1576890, "name": "embedding_1_dil_model", "init": "uniform", "activity_regularizer": null, "output_dim": 52, "input_length": 140, "trainable": true}, "class_name": "Embedding"}, {"config": {"padding": 5, "name": "zeropadding1d_1_dil_model", "trainable": true}, "class_name": "ZeroPadding1D"}, {"config": {"W_constraint": null, "input_length": null, "activation": "relu", "W_regularizer": null, "name": "convolution1d_1_dil_model", "bias": true, "subsample_length": 1, "b_constraint": null, "input_dim": null, "init": "uniform", "activity_regularizer": null, "b_regularizer": null, "filter_length": 6, "nb_filter": 200, "border_mode": "valid", "trainable": true}, "class_name": "Convolution1D"}, {"config": {"stride": 2, "pool_length": 4, "name": "maxpooling1d_1_dil_model", "border_mode": "valid", "trainable": true}, "class_name": "MaxPooling1D"}, {"config": {"W_constraint": null, "input_length": null, "activation": "relu", "W_regularizer": null, "name": "convolution1d_2_dil_model", "bias": true, "subsample_length": 1, "b_constraint": null, "input_dim": null, "init": "uniform", "activity_regularizer": null, "b_regularizer": null, "filter_length": 6, "nb_filter": 200, "border_mode": "valid", "trainable": true}, "class_name": "Convolution1D"}], "class_name": "Sequential"}, {"config": [{"config": {"input_dtype": "int32", "dropout": 0.2, "W_constraint": null, "batch_input_shape": [null, 140], "W_regularizer": null, "mask_zero": false, "input_dim": 1576890, "name": "embedding_1_semeval_model", "init": "uniform", "activity_regularizer": null, "output_dim": 52, "input_length": 140, "trainable": true}, "class_name": "Embedding"}, {"config": {"padding": 5, "name": "zeropadding1d_1_semeval_model", "trainable": true}, "class_name": "ZeroPadding1D"}, {"config": {"W_constraint": null, "input_length": null, "activation": "relu", "W_regularizer": null, "name": "convolution1d_1_semeval_model", "bias": true, "subsample_length": 1, "b_constraint": null, "input_dim": null, "init": "uniform", "activity_regularizer": null, "b_regularizer": null, "filter_length": 6, "nb_filter": 200, "border_mode": "valid", "trainable": true}, "class_name": "Convolution1D"}, {"config": {"stride": 2, "pool_length": 4, "name": "maxpooling1d_1_semeval_model", "border_mode": "valid", "trainable": true}, "class_name": "MaxPooling1D"}, {"config": {"W_constraint": null, "input_length": null, "activation": "relu", "W_regularizer": null, "name": "convolution1d_2_semeval_model", "bias": true, "subsample_length": 1, "b_constraint": null, "input_dim": null, "init": "uniform", "activity_regularizer": null, "b_regularizer": null, "filter_length": 6, "nb_filter": 200, "border_mode": "valid", "trainable": true}, "class_name": "Convolution1D"}], "class_name": "Sequential"}, {"config": [{"config": {"input_dtype": "int32", "dropout": 0.2, "W_constraint": null, "batch_input_shape": [null, 140], "W_regularizer": null, "mask_zero": false, "input_dim": 428669, "name": "embedding_1_tac_model", "init": "uniform", "activity_regularizer": null, "output_dim": 52, "input_length": 140, "trainable": true}, "class_name": "Embedding"}, {"config": {"padding": 5, "name": "zeropadding1d_1_tac_model", "trainable": true}, "class_name": "ZeroPadding1D"}, {"config": {"W_constraint": null, "input_length": null, "activation": "relu", "W_regularizer": null, "name": "convolution1d_1_tac_model", "bias": true, "subsample_length": 1, "b_constraint": null, "input_dim": null, "init": "uniform", "activity_regularizer": null, "b_regularizer": null, "filter_length": 6, "nb_filter": 200, "border_mode": "valid", "trainable": true}, "class_name": "Convolution1D"}, {"config": {"stride": 2, "pool_length": 4, "name": "maxpooling1d_1_tac_model", "border_mode": "valid", "trainable": true}, "class_name": "MaxPooling1D"}, {"config": {"W_constraint": null, "input_length": null, "activation": "relu", "W_regularizer": null, "name": "convolution1d_2_tac_model", "bias": true, "subsample_length": 1, "b_constraint": null, "input_dim": null, "init": "uniform", "activity_regularizer": null, "b_regularizer": null, "filter_length": 6, "nb_filter": 200, "border_mode": "valid", "trainable": true}, "class_name": "Convolution1D"}], "class_name": "Sequential"}], "dot_axes": -1, "name": "merge_1"}, "class_name": "Merge"}, {"config": {"stride": 2, "pool_length": 4, "name": "maxpooling1d_1", "border_mode": "valid", "trainable": true}, "class_name": "MaxPooling1D"}, {"config": {"filter_length": 6, "trainable": true, "W_constraint": null, "activation": "relu", "activity_regularizer": null, "name": "convolution1d_1", "input_dim": null, "subsample_length": 1, "bias": true, "init": "uniform", "W_regularizer": null, "b_regularizer": null, "input_length": null, "nb_filter": 200, "border_mode": "valid", "b_constraint": null}, "class_name": "Convolution1D"}, {"config": {"stride": 2, "pool_length": 4, "name": "maxpooling1d_2", "border_mode": "valid", "trainable": true}, "class_name": "MaxPooling1D"}, {"config": {"name": "flatten_1", "trainable": true}, "class_name": "Flatten"}, {"config": {"trainable": true, "W_constraint": null, "activation": "linear", "W_regularizer": null, "name": "dense_1", "input_dim": null, "b_constraint": null, "bias": true, "init": "glorot_uniform", "activity_regularizer": null, "output_dim": 200, "b_regularizer": null}, "class_name": "Dense"}, {"config": {"p": 0.2, "name": "dropout_1", "trainable": true}, "class_name": "Dropout"}, {"config": {"activation": "relu", "name": "activation_1", "trainable": true}, "class_name": "Activation"}, {"config": {"trainable": true, "W_constraint": null, "activation": "softmax", "W_regularizer": null, "name": "dense_2", "input_dim": null, "b_constraint": null, "bias": true, "init": "glorot_uniform", "activity_regularizer": null, "output_dim": 3, "b_regularizer": null}, "class_name": "Dense"}], "class_name": "Sequential"}