{"config": [{"config": {"output_dim": 52, "activity_regularizer": null, "mask_zero": false, "input_length": 140, "init": "uniform", "trainable": true, "input_dim": 1576890, "dropout": 0.2, "batch_input_shape": [null, 140], "input_dtype": "int32", "W_regularizer": null, "name": "embedding_1", "W_constraint": null}, "class_name": "Embedding"}, {"config": {"name": "zeropadding1d_1", "padding": 5, "trainable": true}, "class_name": "ZeroPadding1D"}, {"config": {"activity_regularizer": null, "W_regularizer": null, "b_constraint": null, "init": "uniform", "name": "convolution1d_1", "trainable": true, "filter_length": 6, "b_regularizer": null, "border_mode": "valid", "nb_filter": 200, "subsample_length": 1, "activation": "relu", "input_dim": null, "W_constraint": null, "bias": true, "input_length": null}, "class_name": "Convolution1D"}, {"config": {"border_mode": "valid", "pool_length": 4, "name": "maxpooling1d_1", "trainable": true, "stride": 2}, "class_name": "MaxPooling1D"}, {"config": {"activity_regularizer": null, "W_regularizer": null, "b_constraint": null, "init": "uniform", "name": "convolution1d_2", "trainable": true, "filter_length": 6, "b_regularizer": null, "border_mode": "valid", "nb_filter": 200, "subsample_length": 1, "activation": "relu", "input_dim": null, "W_constraint": null, "bias": true, "input_length": null}, "class_name": "Convolution1D"}, {"config": {"border_mode": "valid", "pool_length": 66, "name": "maxpooling1d_2", "trainable": true, "stride": 66}, "class_name": "MaxPooling1D"}, {"config": {"name": "flatten_1", "trainable": true}, "class_name": "Flatten"}, {"config": {"trainable": true, "W_regularizer": null, "b_constraint": null, "init": "glorot_uniform", "activity_regularizer": null, "input_dim": null, "output_dim": 200, "activation": "linear", "name": "dense_1", "W_constraint": null, "bias": true, "b_regularizer": null}, "class_name": "Dense"}, {"config": {"p": 0.2, "name": "dropout_1", "trainable": true}, "class_name": "Dropout"}, {"config": {"activation": "relu", "name": "activation_1", "trainable": true}, "class_name": "Activation"}, {"config": {"trainable": true, "W_regularizer": null, "b_constraint": null, "init": "glorot_uniform", "activity_regularizer": null, "input_dim": null, "output_dim": 3, "activation": "softmax", "name": "dense_2", "W_constraint": null, "bias": true, "b_regularizer": null}, "class_name": "Dense"}], "class_name": "Sequential", "keras_version": "1.1.1"}