{"keras_version": "1.1.1", "config": [{"config": {"dot_axes": -1, "layers": [{"config": [{"config": {"dropout": 0.2, "input_dim": 428669, "input_length": 140, "W_regularizer": null, "init": "uniform", "input_dtype": "int32", "mask_zero": false, "output_dim": 52, "trainable": true, "activity_regularizer": null, "W_constraint": null, "name": "embedding_1_tac_model", "batch_input_shape": [null, 140]}, "class_name": "Embedding"}, {"config": {"trainable": true, "padding": 5, "name": "zeropadding1d_1_tac_model"}, "class_name": "ZeroPadding1D"}, {"config": {"b_constraint": null, "input_dim": null, "input_length": null, "W_regularizer": null, "subsample_length": 1, "bias": true, "nb_filter": 200, "b_regularizer": null, "trainable": true, "activation": "relu", "W_constraint": null, "init": "uniform", "border_mode": "valid", "filter_length": 6, "name": "convolution1d_1_tac_model", "activity_regularizer": null}, "class_name": "Convolution1D"}, {"config": {"pool_length": 4, "trainable": true, "name": "maxpooling1d_1_tac_model", "stride": 2, "border_mode": "valid"}, "class_name": "MaxPooling1D"}, {"config": {"b_constraint": null, "input_dim": null, "input_length": null, "W_regularizer": null, "subsample_length": 1, "bias": true, "nb_filter": 200, "b_regularizer": null, "trainable": true, "activation": "relu", "W_constraint": null, "init": "uniform", "border_mode": "valid", "filter_length": 6, "name": "convolution1d_2_tac_model", "activity_regularizer": null}, "class_name": "Convolution1D"}, {"config": {"pool_length": 66, "trainable": true, "name": "maxpooling1d_2_tac_model", "stride": 66, "border_mode": "valid"}, "class_name": "MaxPooling1D"}, {"config": {"trainable": true, "name": "flatten_1_tac_model"}, "class_name": "Flatten"}, {"config": {"b_constraint": null, "input_dim": null, "W_regularizer": null, "init": "glorot_uniform", "bias": true, "b_regularizer": null, "output_dim": 200, "trainable": true, "activation": "linear", "W_constraint": null, "name": "dense_1_tac_model", "activity_regularizer": null}, "class_name": "Dense"}, {"config": {"trainable": true, "name": "dropout_1_tac_model", "p": 0.2}, "class_name": "Dropout"}, {"config": {"trainable": true, "activation": "relu", "name": "activation_1_tac_model"}, "class_name": "Activation"}, {"config": {"b_constraint": null, "input_dim": null, "W_regularizer": null, "init": "glorot_uniform", "bias": true, "b_regularizer": null, "output_dim": 3, "trainable": true, "activation": "softmax", "W_constraint": null, "name": "dense_2_tac_model", "activity_regularizer": null}, "class_name": "Dense"}], "class_name": "Sequential"}, {"config": [{"config": {"dropout": 0.2, "input_dim": 428669, "input_length": 140, "W_regularizer": null, "init": "uniform", "input_dtype": "int32", "mask_zero": false, "output_dim": 52, "trainable": true, "activity_regularizer": null, "W_constraint": null, "name": "embedding_17_mpq_model", "batch_input_shape": [null, 140]}, "class_name": "Embedding"}, {"config": {"trainable": true, "padding": 5, "name": "zeropadding1d_17_mpq_model"}, "class_name": "ZeroPadding1D"}, {"config": {"b_constraint": null, "input_dim": null, "input_length": null, "W_regularizer": null, "subsample_length": 1, "bias": true, "nb_filter": 200, "b_regularizer": null, "trainable": true, "activation": "relu", "W_constraint": null, "init": "uniform", "border_mode": "valid", "filter_length": 6, "name": "convolution1d_33_mpq_model", "activity_regularizer": null}, "class_name": "Convolution1D"}, {"config": {"pool_length": 4, "trainable": true, "name": "maxpooling1d_33_mpq_model", "stride": 2, "border_mode": "valid"}, "class_name": "MaxPooling1D"}, {"config": {"b_constraint": null, "input_dim": null, "input_length": null, "W_regularizer": null, "subsample_length": 1, "bias": true, "nb_filter": 200, "b_regularizer": null, "trainable": true, "activation": "relu", "W_constraint": null, "init": "uniform", "border_mode": "valid", "filter_length": 6, "name": "convolution1d_34_mpq_model", "activity_regularizer": null}, "class_name": "Convolution1D"}, {"config": {"pool_length": 66, "trainable": true, "name": "maxpooling1d_34_mpq_model", "stride": 66, "border_mode": "valid"}, "class_name": "MaxPooling1D"}, {"config": {"trainable": true, "name": "flatten_17_mpq_model"}, "class_name": "Flatten"}, {"config": {"b_constraint": null, "input_dim": null, "W_regularizer": null, "init": "glorot_uniform", "bias": true, "b_regularizer": null, "output_dim": 200, "trainable": true, "activation": "linear", "W_constraint": null, "name": "dense_33_mpq_model", "activity_regularizer": null}, "class_name": "Dense"}, {"config": {"trainable": true, "name": "dropout_17_mpq_model", "p": 0.2}, "class_name": "Dropout"}, {"config": {"trainable": true, "activation": "relu", "name": "activation_17_mpq_model"}, "class_name": "Activation"}, {"config": {"b_constraint": null, "input_dim": null, "W_regularizer": null, "init": "glorot_uniform", "bias": true, "b_regularizer": null, "output_dim": 3, "trainable": true, "activation": "softmax", "W_constraint": null, "name": "dense_34_mpq_model", "activity_regularizer": null}, "class_name": "Dense"}], "class_name": "Sequential"}, {"config": [{"config": {"dropout": 0.2, "input_dim": 428669, "input_length": 140, "W_regularizer": null, "init": "uniform", "input_dtype": "int32", "mask_zero": false, "output_dim": 52, "trainable": true, "activity_regularizer": null, "W_constraint": null, "name": "embedding_1_semeval_model", "batch_input_shape": [null, 140]}, "class_name": "Embedding"}, {"config": {"trainable": true, "padding": 5, "name": "zeropadding1d_1_semeval_model"}, "class_name": "ZeroPadding1D"}, {"config": {"b_constraint": null, "input_dim": null, "input_length": null, "W_regularizer": null, "subsample_length": 1, "bias": true, "nb_filter": 200, "b_regularizer": null, "trainable": true, "activation": "relu", "W_constraint": null, "init": "uniform", "border_mode": "valid", "filter_length": 6, "name": "convolution1d_1_semeval_model", "activity_regularizer": null}, "class_name": "Convolution1D"}, {"config": {"pool_length": 4, "trainable": true, "name": "maxpooling1d_1_semeval_model", "stride": 2, "border_mode": "valid"}, "class_name": "MaxPooling1D"}, {"config": {"b_constraint": null, "input_dim": null, "input_length": null, "W_regularizer": null, "subsample_length": 1, "bias": true, "nb_filter": 200, "b_regularizer": null, "trainable": true, "activation": "relu", "W_constraint": null, "init": "uniform", "border_mode": "valid", "filter_length": 6, "name": "convolution1d_2_semeval_model", "activity_regularizer": null}, "class_name": "Convolution1D"}, {"config": {"pool_length": 66, "trainable": true, "name": "maxpooling1d_2_semeval_model", "stride": 66, "border_mode": "valid"}, "class_name": "MaxPooling1D"}, {"config": {"trainable": true, "name": "flatten_1_semeval_model"}, "class_name": "Flatten"}, {"config": {"b_constraint": null, "input_dim": null, "W_regularizer": null, "init": "glorot_uniform", "bias": true, "b_regularizer": null, "output_dim": 200, "trainable": true, "activation": "linear", "W_constraint": null, "name": "dense_1_semeval_model", "activity_regularizer": null}, "class_name": "Dense"}, {"config": {"trainable": true, "name": "dropout_1_semeval_model", "p": 0.2}, "class_name": "Dropout"}, {"config": {"trainable": true, "activation": "relu", "name": "activation_1_semeval_model"}, "class_name": "Activation"}, {"config": {"b_constraint": null, "input_dim": null, "W_regularizer": null, "init": "glorot_uniform", "bias": true, "b_regularizer": null, "output_dim": 3, "trainable": true, "activation": "softmax", "W_constraint": null, "name": "dense_2_semeval_model", "activity_regularizer": null}, "class_name": "Dense"}], "class_name": "Sequential"}, {"config": [{"config": {"dropout": 0.2, "input_dim": 1576890, "input_length": 140, "W_regularizer": null, "init": "uniform", "input_dtype": "int32", "mask_zero": false, "output_dim": 52, "trainable": true, "activity_regularizer": null, "W_constraint": null, "name": "embedding_1_dil_model", "batch_input_shape": [null, 140]}, "class_name": "Embedding"}, {"config": {"trainable": true, "padding": 5, "name": "zeropadding1d_1_dil_model"}, "class_name": "ZeroPadding1D"}, {"config": {"b_constraint": null, "input_dim": null, "input_length": null, "W_regularizer": null, "subsample_length": 1, "bias": true, "nb_filter": 200, "b_regularizer": null, "trainable": true, "activation": "relu", "W_constraint": null, "init": "uniform", "border_mode": "valid", "filter_length": 6, "name": "convolution1d_1_dil_model", "activity_regularizer": null}, "class_name": "Convolution1D"}, {"config": {"pool_length": 4, "trainable": true, "name": "maxpooling1d_1_dil_model", "stride": 2, "border_mode": "valid"}, "class_name": "MaxPooling1D"}, {"config": {"b_constraint": null, "input_dim": null, "input_length": null, "W_regularizer": null, "subsample_length": 1, "bias": true, "nb_filter": 200, "b_regularizer": null, "trainable": true, "activation": "relu", "W_constraint": null, "init": "uniform", "border_mode": "valid", "filter_length": 6, "name": "convolution1d_2_dil_model", "activity_regularizer": null}, "class_name": "Convolution1D"}, {"config": {"pool_length": 66, "trainable": true, "name": "maxpooling1d_2_dil_model", "stride": 66, "border_mode": "valid"}, "class_name": "MaxPooling1D"}, {"config": {"trainable": true, "name": "flatten_1_dil_model"}, "class_name": "Flatten"}, {"config": {"b_constraint": null, "input_dim": null, "W_regularizer": null, "init": "glorot_uniform", "bias": true, "b_regularizer": null, "output_dim": 200, "trainable": true, "activation": "linear", "W_constraint": null, "name": "dense_1_dil_model", "activity_regularizer": null}, "class_name": "Dense"}, {"config": {"trainable": true, "name": "dropout_1_dil_model", "p": 0.2}, "class_name": "Dropout"}, {"config": {"trainable": true, "activation": "relu", "name": "activation_1_dil_model"}, "class_name": "Activation"}, {"config": {"b_constraint": null, "input_dim": null, "W_regularizer": null, "init": "glorot_uniform", "bias": true, "b_regularizer": null, "output_dim": 3, "trainable": true, "activation": "softmax", "W_constraint": null, "name": "dense_2_dil_model", "activity_regularizer": null}, "class_name": "Dense"}], "class_name": "Sequential"}, {"config": [{"config": {"dropout": 0.2, "input_dim": 1062158, "input_length": 140, "W_regularizer": null, "init": "uniform", "input_dtype": "int32", "mask_zero": false, "output_dim": 52, "trainable": true, "activity_regularizer": null, "W_constraint": null, "name": "embedding_1_hul_model", "batch_input_shape": [null, 140]}, "class_name": "Embedding"}, {"config": {"trainable": true, "padding": 5, "name": "zeropadding1d_1_hul_model"}, "class_name": "ZeroPadding1D"}, {"config": {"b_constraint": null, "input_dim": null, "input_length": null, "W_regularizer": null, "subsample_length": 1, "bias": true, "nb_filter": 200, "b_regularizer": null, "trainable": true, "activation": "relu", "W_constraint": null, "init": "uniform", "border_mode": "valid", "filter_length": 6, "name": "convolution1d_1_hul_model", "activity_regularizer": null}, "class_name": "Convolution1D"}, {"config": {"pool_length": 4, "trainable": true, "name": "maxpooling1d_1_hul_model", "stride": 2, "border_mode": "valid"}, "class_name": "MaxPooling1D"}, {"config": {"b_constraint": null, "input_dim": null, "input_length": null, "W_regularizer": null, "subsample_length": 1, "bias": true, "nb_filter": 200, "b_regularizer": null, "trainable": true, "activation": "relu", "W_constraint": null, "init": "uniform", "border_mode": "valid", "filter_length": 6, "name": "convolution1d_2_hul_model", "activity_regularizer": null}, "class_name": "Convolution1D"}, {"config": {"pool_length": 66, "trainable": true, "name": "maxpooling1d_2_hul_model", "stride": 66, "border_mode": "valid"}, "class_name": "MaxPooling1D"}, {"config": {"trainable": true, "name": "flatten_1_hul_model"}, "class_name": "Flatten"}, {"config": {"b_constraint": null, "input_dim": null, "W_regularizer": null, "init": "glorot_uniform", "bias": true, "b_regularizer": null, "output_dim": 200, "trainable": true, "activation": "linear", "W_constraint": null, "name": "dense_1_hul_model", "activity_regularizer": null}, "class_name": "Dense"}, {"config": {"trainable": true, "name": "dropout_1_hul_model", "p": 0.2}, "class_name": "Dropout"}, {"config": {"trainable": true, "activation": "relu", "name": "activation_1_hul_model"}, "class_name": "Activation"}, {"config": {"b_constraint": null, "input_dim": null, "W_regularizer": null, "init": "glorot_uniform", "bias": true, "b_regularizer": null, "output_dim": 3, "trainable": true, "activation": "softmax", "W_constraint": null, "name": "dense_2_hul_model", "activity_regularizer": null}, "class_name": "Dense"}], "class_name": "Sequential"}, {"config": [{"config": {"dropout": 0.2, "input_dim": 1576890, "input_length": 140, "W_regularizer": null, "init": "uniform", "input_dtype": "int32", "mask_zero": false, "output_dim": 52, "trainable": true, "activity_regularizer": null, "W_constraint": null, "name": "embedding_1_dai_model", "batch_input_shape": [null, 140]}, "class_name": "Embedding"}, {"config": {"trainable": true, "padding": 5, "name": "zeropadding1d_1_dai_model"}, "class_name": "ZeroPadding1D"}, {"config": {"b_constraint": null, "input_dim": null, "input_length": null, "W_regularizer": null, "subsample_length": 1, "bias": true, "nb_filter": 200, "b_regularizer": null, "trainable": true, "activation": "relu", "W_constraint": null, "init": "uniform", "border_mode": "valid", "filter_length": 6, "name": "convolution1d_1_dai_model", "activity_regularizer": null}, "class_name": "Convolution1D"}, {"config": {"pool_length": 4, "trainable": true, "name": "maxpooling1d_1_dai_model", "stride": 2, "border_mode": "valid"}, "class_name": "MaxPooling1D"}, {"config": {"b_constraint": null, "input_dim": null, "input_length": null, "W_regularizer": null, "subsample_length": 1, "bias": true, "nb_filter": 200, "b_regularizer": null, "trainable": true, "activation": "relu", "W_constraint": null, "init": "uniform", "border_mode": "valid", "filter_length": 6, "name": "convolution1d_2_dai_model", "activity_regularizer": null}, "class_name": "Convolution1D"}, {"config": {"pool_length": 66, "trainable": true, "name": "maxpooling1d_2_dai_model", "stride": 66, "border_mode": "valid"}, "class_name": "MaxPooling1D"}, {"config": {"trainable": true, "name": "flatten_1_dai_model"}, "class_name": "Flatten"}, {"config": {"b_constraint": null, "input_dim": null, "W_regularizer": null, "init": "glorot_uniform", "bias": true, "b_regularizer": null, "output_dim": 200, "trainable": true, "activation": "linear", "W_constraint": null, "name": "dense_1_dai_model", "activity_regularizer": null}, "class_name": "Dense"}, {"config": {"trainable": true, "name": "dropout_1_dai_model", "p": 0.2}, "class_name": "Dropout"}, {"config": {"trainable": true, "activation": "relu", "name": "activation_1_dai_model"}, "class_name": "Activation"}, {"config": {"b_constraint": null, "input_dim": null, "W_regularizer": null, "init": "glorot_uniform", "bias": true, "b_regularizer": null, "output_dim": 3, "trainable": true, "activation": "softmax", "W_constraint": null, "name": "dense_2_dai_model", "activity_regularizer": null}, "class_name": "Dense"}], "class_name": "Sequential"}], "mode_type": "raw", "output_shape": null, "output_shape_type": "raw", "concat_axis": -1, "name": "merge_1", "mode": "concat"}, "class_name": "Merge"}, {"config": {"b_constraint": null, "input_dim": null, "W_regularizer": null, "init": "glorot_uniform", "bias": true, "b_regularizer": null, "output_dim": 256, "trainable": true, "activation": "linear", "W_constraint": null, "name": "dense_1", "activity_regularizer": null}, "class_name": "Dense"}, {"config": {"trainable": true, "activation": "relu", "name": "activation_1"}, "class_name": "Activation"}, {"config": {"b_constraint": null, "input_dim": null, "W_regularizer": null, "init": "glorot_uniform", "bias": true, "b_regularizer": null, "output_dim": 3, "trainable": true, "activation": "softmax", "W_constraint": null, "name": "dense_2", "activity_regularizer": null}, "class_name": "Dense"}], "class_name": "Sequential"}