{"keras_version": "1.1.1", "class_name": "Sequential", "config": [{"class_name": "Merge", "config": {"name": "merge_1", "layers": [{"class_name": "Sequential", "config": [{"class_name": "Embedding", "config": {"mask_zero": false, "W_regularizer": null, "input_dtype": "int32", "init": "uniform", "batch_input_shape": [null, 140], "name": "embedding_1_tac_model", "input_dim": 428669, "trainable": true, "input_length": 140, "dropout": 0.2, "activity_regularizer": null, "output_dim": 52, "W_constraint": null}}, {"class_name": "ZeroPadding1D", "config": {"name": "zeropadding1d_1_tac_model", "trainable": true, "padding": 5}}, {"class_name": "Convolution1D", "config": {"W_constraint": null, "b_constraint": null, "W_regularizer": null, "border_mode": "valid", "subsample_length": 1, "init": "uniform", "b_regularizer": null, "name": "convolution1d_1_tac_model", "input_dim": null, "trainable": true, "nb_filter": 200, "filter_length": 6, "bias": true, "input_length": null, "activation": "relu", "activity_regularizer": null}}, {"class_name": "MaxPooling1D", "config": {"stride": 2, "name": "maxpooling1d_1_tac_model", "trainable": true, "pool_length": 4, "border_mode": "valid"}}, {"class_name": "Convolution1D", "config": {"W_constraint": null, "b_constraint": null, "W_regularizer": null, "border_mode": "valid", "subsample_length": 1, "init": "uniform", "b_regularizer": null, "name": "convolution1d_2_tac_model", "input_dim": null, "trainable": true, "nb_filter": 200, "filter_length": 6, "bias": true, "input_length": null, "activation": "relu", "activity_regularizer": null}}, {"class_name": "MaxPooling1D", "config": {"stride": 66, "name": "maxpooling1d_2_tac_model", "trainable": true, "pool_length": 66, "border_mode": "valid"}}, {"class_name": "Flatten", "config": {"name": "flatten_1_tac_model", "trainable": true}}]}, {"class_name": "Sequential", "config": [{"class_name": "Embedding", "config": {"mask_zero": false, "W_regularizer": null, "input_dtype": "int32", "init": "uniform", "batch_input_shape": [null, 140], "name": "embedding_1_dai_model", "input_dim": 1576890, "trainable": true, "input_length": 140, "dropout": 0.2, "activity_regularizer": null, "output_dim": 52, "W_constraint": null}}, {"class_name": "ZeroPadding1D", "config": {"name": "zeropadding1d_1_dai_model", "trainable": true, "padding": 5}}, {"class_name": "Convolution1D", "config": {"W_constraint": null, "b_constraint": null, "W_regularizer": null, "border_mode": "valid", "subsample_length": 1, "init": "uniform", "b_regularizer": null, "name": "convolution1d_1_dai_model", "input_dim": null, "trainable": true, "nb_filter": 200, "filter_length": 6, "bias": true, "input_length": null, "activation": "relu", "activity_regularizer": null}}, {"class_name": "MaxPooling1D", "config": {"stride": 2, "name": "maxpooling1d_1_dai_model", "trainable": true, "pool_length": 4, "border_mode": "valid"}}, {"class_name": "Convolution1D", "config": {"W_constraint": null, "b_constraint": null, "W_regularizer": null, "border_mode": "valid", "subsample_length": 1, "init": "uniform", "b_regularizer": null, "name": "convolution1d_2_dai_model", "input_dim": null, "trainable": true, "nb_filter": 200, "filter_length": 6, "bias": true, "input_length": null, "activation": "relu", "activity_regularizer": null}}, {"class_name": "MaxPooling1D", "config": {"stride": 66, "name": "maxpooling1d_2_dai_model", "trainable": true, "pool_length": 66, "border_mode": "valid"}}, {"class_name": "Flatten", "config": {"name": "flatten_1_dai_model", "trainable": true}}]}, {"class_name": "Sequential", "config": [{"class_name": "Embedding", "config": {"mask_zero": false, "W_regularizer": null, "input_dtype": "int32", "init": "uniform", "batch_input_shape": [null, 140], "name": "embedding_17_mpq_model", "input_dim": 428669, "trainable": true, "input_length": 140, "dropout": 0.2, "activity_regularizer": null, "output_dim": 52, "W_constraint": null}}, {"class_name": "ZeroPadding1D", "config": {"name": "zeropadding1d_17_mpq_model", "trainable": true, "padding": 5}}, {"class_name": "Convolution1D", "config": {"W_constraint": null, "b_constraint": null, "W_regularizer": null, "border_mode": "valid", "subsample_length": 1, "init": "uniform", "b_regularizer": null, "name": "convolution1d_33_mpq_model", "input_dim": null, "trainable": true, "nb_filter": 200, "filter_length": 6, "bias": true, "input_length": null, "activation": "relu", "activity_regularizer": null}}, {"class_name": "MaxPooling1D", "config": {"stride": 2, "name": "maxpooling1d_33_mpq_model", "trainable": true, "pool_length": 4, "border_mode": "valid"}}, {"class_name": "Convolution1D", "config": {"W_constraint": null, "b_constraint": null, "W_regularizer": null, "border_mode": "valid", "subsample_length": 1, "init": "uniform", "b_regularizer": null, "name": "convolution1d_34_mpq_model", "input_dim": null, "trainable": true, "nb_filter": 200, "filter_length": 6, "bias": true, "input_length": null, "activation": "relu", "activity_regularizer": null}}, {"class_name": "MaxPooling1D", "config": {"stride": 66, "name": "maxpooling1d_34_mpq_model", "trainable": true, "pool_length": 66, "border_mode": "valid"}}, {"class_name": "Flatten", "config": {"name": "flatten_17_mpq_model", "trainable": true}}]}, {"class_name": "Sequential", "config": [{"class_name": "Embedding", "config": {"mask_zero": false, "W_regularizer": null, "input_dtype": "int32", "init": "uniform", "batch_input_shape": [null, 140], "name": "embedding_1_dil_model", "input_dim": 1576890, "trainable": true, "input_length": 140, "dropout": 0.2, "activity_regularizer": null, "output_dim": 52, "W_constraint": null}}, {"class_name": "ZeroPadding1D", "config": {"name": "zeropadding1d_1_dil_model", "trainable": true, "padding": 5}}, {"class_name": "Convolution1D", "config": {"W_constraint": null, "b_constraint": null, "W_regularizer": null, "border_mode": "valid", "subsample_length": 1, "init": "uniform", "b_regularizer": null, "name": "convolution1d_1_dil_model", "input_dim": null, "trainable": true, "nb_filter": 200, "filter_length": 6, "bias": true, "input_length": null, "activation": "relu", "activity_regularizer": null}}, {"class_name": "MaxPooling1D", "config": {"stride": 2, "name": "maxpooling1d_1_dil_model", "trainable": true, "pool_length": 4, "border_mode": "valid"}}, {"class_name": "Convolution1D", "config": {"W_constraint": null, "b_constraint": null, "W_regularizer": null, "border_mode": "valid", "subsample_length": 1, "init": "uniform", "b_regularizer": null, "name": "convolution1d_2_dil_model", "input_dim": null, "trainable": true, "nb_filter": 200, "filter_length": 6, "bias": true, "input_length": null, "activation": "relu", "activity_regularizer": null}}, {"class_name": "MaxPooling1D", "config": {"stride": 66, "name": "maxpooling1d_2_dil_model", "trainable": true, "pool_length": 66, "border_mode": "valid"}}, {"class_name": "Flatten", "config": {"name": "flatten_1_dil_model", "trainable": true}}]}, {"class_name": "Sequential", "config": [{"class_name": "Embedding", "config": {"mask_zero": false, "W_regularizer": null, "input_dtype": "int32", "init": "uniform", "batch_input_shape": [null, 140], "name": "embedding_1_hul_model", "input_dim": 1062158, "trainable": true, "input_length": 140, "dropout": 0.2, "activity_regularizer": null, "output_dim": 52, "W_constraint": null}}, {"class_name": "ZeroPadding1D", "config": {"name": "zeropadding1d_1_hul_model", "trainable": true, "padding": 5}}, {"class_name": "Convolution1D", "config": {"W_constraint": null, "b_constraint": null, "W_regularizer": null, "border_mode": "valid", "subsample_length": 1, "init": "uniform", "b_regularizer": null, "name": "convolution1d_1_hul_model", "input_dim": null, "trainable": true, "nb_filter": 200, "filter_length": 6, "bias": true, "input_length": null, "activation": "relu", "activity_regularizer": null}}, {"class_name": "MaxPooling1D", "config": {"stride": 2, "name": "maxpooling1d_1_hul_model", "trainable": true, "pool_length": 4, "border_mode": "valid"}}, {"class_name": "Convolution1D", "config": {"W_constraint": null, "b_constraint": null, "W_regularizer": null, "border_mode": "valid", "subsample_length": 1, "init": "uniform", "b_regularizer": null, "name": "convolution1d_2_hul_model", "input_dim": null, "trainable": true, "nb_filter": 200, "filter_length": 6, "bias": true, "input_length": null, "activation": "relu", "activity_regularizer": null}}, {"class_name": "MaxPooling1D", "config": {"stride": 66, "name": "maxpooling1d_2_hul_model", "trainable": true, "pool_length": 66, "border_mode": "valid"}}, {"class_name": "Flatten", "config": {"name": "flatten_1_hul_model", "trainable": true}}]}, {"class_name": "Sequential", "config": [{"class_name": "Embedding", "config": {"mask_zero": false, "W_regularizer": null, "input_dtype": "int32", "init": "uniform", "batch_input_shape": [null, 140], "name": "embedding_1_semeval_model", "input_dim": 428669, "trainable": true, "input_length": 140, "dropout": 0.2, "activity_regularizer": null, "output_dim": 52, "W_constraint": null}}, {"class_name": "ZeroPadding1D", "config": {"name": "zeropadding1d_1_semeval_model", "trainable": true, "padding": 5}}, {"class_name": "Convolution1D", "config": {"W_constraint": null, "b_constraint": null, "W_regularizer": null, "border_mode": "valid", "subsample_length": 1, "init": "uniform", "b_regularizer": null, "name": "convolution1d_1_semeval_model", "input_dim": null, "trainable": true, "nb_filter": 200, "filter_length": 6, "bias": true, "input_length": null, "activation": "relu", "activity_regularizer": null}}, {"class_name": "MaxPooling1D", "config": {"stride": 2, "name": "maxpooling1d_1_semeval_model", "trainable": true, "pool_length": 4, "border_mode": "valid"}}, {"class_name": "Convolution1D", "config": {"W_constraint": null, "b_constraint": null, "W_regularizer": null, "border_mode": "valid", "subsample_length": 1, "init": "uniform", "b_regularizer": null, "name": "convolution1d_2_semeval_model", "input_dim": null, "trainable": true, "nb_filter": 200, "filter_length": 6, "bias": true, "input_length": null, "activation": "relu", "activity_regularizer": null}}, {"class_name": "MaxPooling1D", "config": {"stride": 66, "name": "maxpooling1d_2_semeval_model", "trainable": true, "pool_length": 66, "border_mode": "valid"}}, {"class_name": "Flatten", "config": {"name": "flatten_1_semeval_model", "trainable": true}}]}], "output_shape": null, "output_shape_type": "raw", "mode_type": "raw", "mode": "concat", "dot_axes": -1, "concat_axis": -1}}, {"class_name": "Dense", "config": {"b_constraint": null, "W_regularizer": null, "W_constraint": null, "init": "glorot_uniform", "activation": "linear", "name": "dense_1", "input_dim": null, "trainable": true, "bias": true, "b_regularizer": null, "output_dim": 1028, "activity_regularizer": null}}, {"class_name": "Activation", "config": {"name": "activation_1", "trainable": true, "activation": "relu"}}, {"class_name": "Dense", "config": {"b_constraint": null, "W_regularizer": null, "W_constraint": null, "init": "glorot_uniform", "activation": "softmax", "name": "dense_2", "input_dim": null, "trainable": true, "bias": true, "b_regularizer": null, "output_dim": 3, "activity_regularizer": null}}]}