{"config": [{"config": {"init": "uniform", "input_dtype": "int32", "mask_zero": false, "input_dim": 428669, "name": "embedding_1", "dropout": 0.2, "activity_regularizer": null, "W_constraint": null, "trainable": true, "output_dim": 52, "batch_input_shape": [null, 140], "W_regularizer": null, "input_length": 140}, "class_name": "Embedding"}, {"config": {"name": "zeropadding1d_1", "trainable": true, "padding": 5}, "class_name": "ZeroPadding1D"}, {"config": {"activity_regularizer": null, "nb_filter": 200, "name": "convolution1d_1", "trainable": true, "filter_length": 6, "init": "uniform", "W_constraint": null, "subsample_length": 1, "activation": "relu", "input_dim": null, "border_mode": "valid", "b_constraint": null, "input_length": null, "W_regularizer": null, "b_regularizer": null, "bias": true}, "class_name": "Convolution1D"}, {"config": {"pool_length": 4, "border_mode": "valid", "name": "maxpooling1d_1", "stride": 2, "trainable": true}, "class_name": "MaxPooling1D"}, {"config": {"activity_regularizer": null, "nb_filter": 200, "name": "convolution1d_2", "trainable": true, "filter_length": 6, "init": "uniform", "W_constraint": null, "subsample_length": 1, "activation": "relu", "input_dim": null, "border_mode": "valid", "b_constraint": null, "input_length": null, "W_regularizer": null, "b_regularizer": null, "bias": true}, "class_name": "Convolution1D"}, {"config": {"pool_length": 66, "border_mode": "valid", "name": "maxpooling1d_2", "stride": 66, "trainable": true}, "class_name": "MaxPooling1D"}, {"config": {"name": "flatten_1", "trainable": true}, "class_name": "Flatten"}, {"config": {"init": "glorot_uniform", "input_dim": null, "name": "dense_1", "activity_regularizer": null, "W_constraint": null, "trainable": true, "activation": "linear", "output_dim": 200, "b_constraint": null, "W_regularizer": null, "b_regularizer": null, "bias": true}, "class_name": "Dense"}, {"config": {"name": "dropout_1", "trainable": true, "p": 0.2}, "class_name": "Dropout"}, {"config": {"name": "activation_1", "activation": "relu", "trainable": true}, "class_name": "Activation"}, {"config": {"init": "glorot_uniform", "input_dim": null, "name": "dense_2", "activity_regularizer": null, "W_constraint": null, "trainable": true, "activation": "softmax", "output_dim": 3, "b_constraint": null, "W_regularizer": null, "b_regularizer": null, "bias": true}, "class_name": "Dense"}], "keras_version": "1.1.1", "class_name": "Sequential"}