{"class_name": "Sequential", "keras_version": "1.1.1", "config": [{"class_name": "Embedding", "config": {"init": "uniform", "activity_regularizer": null, "input_dim": 428669, "output_dim": 52, "input_length": 140, "W_regularizer": null, "input_dtype": "int32", "mask_zero": false, "dropout": 0.2, "W_constraint": null, "trainable": true, "name": "embedding_1", "batch_input_shape": [null, 140]}}, {"class_name": "ZeroPadding1D", "config": {"trainable": true, "padding": 5, "name": "zeropadding1d_1"}}, {"class_name": "Convolution1D", "config": {"init": "uniform", "activity_regularizer": null, "b_constraint": null, "bias": true, "activation": "relu", "input_length": null, "border_mode": "valid", "W_regularizer": null, "subsample_length": 1, "trainable": true, "input_dim": null, "name": "convolution1d_1", "W_constraint": null, "filter_length": 6, "b_regularizer": null, "nb_filter": 200}}, {"class_name": "MaxPooling1D", "config": {"trainable": true, "stride": 2, "name": "maxpooling1d_1", "border_mode": "valid", "pool_length": 4}}, {"class_name": "Convolution1D", "config": {"init": "uniform", "activity_regularizer": null, "b_constraint": null, "bias": true, "activation": "relu", "input_length": null, "border_mode": "valid", "W_regularizer": null, "subsample_length": 1, "trainable": true, "input_dim": null, "name": "convolution1d_2", "W_constraint": null, "filter_length": 6, "b_regularizer": null, "nb_filter": 200}}, {"class_name": "MaxPooling1D", "config": {"trainable": true, "stride": 66, "name": "maxpooling1d_2", "border_mode": "valid", "pool_length": 66}}, {"class_name": "Flatten", "config": {"trainable": true, "name": "flatten_1"}}, {"class_name": "Dense", "config": {"init": "glorot_uniform", "activity_regularizer": null, "b_constraint": null, "output_dim": 200, "bias": true, "activation": "linear", "W_regularizer": null, "input_dim": null, "name": "dense_1", "W_constraint": null, "trainable": true, "b_regularizer": null}}, {"class_name": "Dropout", "config": {"trainable": true, "p": 0.2, "name": "dropout_1"}}, {"class_name": "Activation", "config": {"trainable": true, "activation": "relu", "name": "activation_1"}}, {"class_name": "Dense", "config": {"init": "glorot_uniform", "activity_regularizer": null, "b_constraint": null, "output_dim": 3, "bias": true, "activation": "softmax", "W_regularizer": null, "input_dim": null, "name": "dense_2", "W_constraint": null, "trainable": true, "b_regularizer": null}}]}