{"class_name": "Sequential", "config": [{"class_name": "Merge", "config": {"concat_axis": -1, "layers": [{"class_name": "Sequential", "config": [{"class_name": "Embedding", "config": {"input_dtype": "int32", "input_length": 140, "activity_regularizer": null, "trainable": true, "input_dim": 1062158, "batch_input_shape": [null, 140], "W_constraint": null, "W_regularizer": null, "init": "uniform", "dropout": 0.2, "mask_zero": false, "name": "embedding_1_hul_model", "output_dim": 52}}, {"class_name": "ZeroPadding1D", "config": {"name": "zeropadding1d_1_hul_model", "padding": 5, "trainable": true}}, {"class_name": "Convolution1D", "config": {"border_mode": "valid", "b_regularizer": null, "input_length": null, "activity_regularizer": null, "activation": "relu", "trainable": true, "input_dim": null, "b_constraint": null, "filter_length": 6, "W_regularizer": null, "init": "uniform", "subsample_length": 1, "name": "convolution1d_1_hul_model", "W_constraint": null, "nb_filter": 200, "bias": true}}, {"class_name": "MaxPooling1D", "config": {"border_mode": "valid", "pool_length": 4, "name": "maxpooling1d_1_hul_model", "stride": 2, "trainable": true}}, {"class_name": "Convolution1D", "config": {"border_mode": "valid", "b_regularizer": null, "input_length": null, "activity_regularizer": null, "activation": "relu", "trainable": true, "input_dim": null, "b_constraint": null, "filter_length": 6, "W_regularizer": null, "init": "uniform", "subsample_length": 1, "name": "convolution1d_2_hul_model", "W_constraint": null, "nb_filter": 200, "bias": true}}]}, {"class_name": "Sequential", "config": [{"class_name": "Embedding", "config": {"input_dtype": "int32", "input_length": 140, "activity_regularizer": null, "trainable": true, "input_dim": 428669, "batch_input_shape": [null, 140], "W_constraint": null, "W_regularizer": null, "init": "uniform", "dropout": 0.2, "mask_zero": false, "name": "embedding_17_mpq_model", "output_dim": 52}}, {"class_name": "ZeroPadding1D", "config": {"name": "zeropadding1d_17_mpq_model", "padding": 5, "trainable": true}}, {"class_name": "Convolution1D", "config": {"border_mode": "valid", "b_regularizer": null, "input_length": null, "activity_regularizer": null, "activation": "relu", "trainable": true, "input_dim": null, "b_constraint": null, "filter_length": 6, "W_regularizer": null, "init": "uniform", "subsample_length": 1, "name": "convolution1d_33_mpq_model", "W_constraint": null, "nb_filter": 200, "bias": true}}, {"class_name": "MaxPooling1D", "config": {"border_mode": "valid", "pool_length": 4, "name": "maxpooling1d_33_mpq_model", "stride": 2, "trainable": true}}, {"class_name": "Convolution1D", "config": {"border_mode": "valid", "b_regularizer": null, "input_length": null, "activity_regularizer": null, "activation": "relu", "trainable": true, "input_dim": null, "b_constraint": null, "filter_length": 6, "W_regularizer": null, "init": "uniform", "subsample_length": 1, "name": "convolution1d_34_mpq_model", "W_constraint": null, "nb_filter": 200, "bias": true}}]}, {"class_name": "Sequential", "config": [{"class_name": "Embedding", "config": {"input_dtype": "int32", "input_length": 140, "activity_regularizer": null, "trainable": true, "input_dim": 1576890, "batch_input_shape": [null, 140], "W_constraint": null, "W_regularizer": null, "init": "uniform", "dropout": 0.2, "mask_zero": false, "name": "embedding_1_semeval_model", "output_dim": 52}}, {"class_name": "ZeroPadding1D", "config": {"name": "zeropadding1d_1_semeval_model", "padding": 5, "trainable": true}}, {"class_name": "Convolution1D", "config": {"border_mode": "valid", "b_regularizer": null, "input_length": null, "activity_regularizer": null, "activation": "relu", "trainable": true, "input_dim": null, "b_constraint": null, "filter_length": 6, "W_regularizer": null, "init": "uniform", "subsample_length": 1, "name": "convolution1d_1_semeval_model", "W_constraint": null, "nb_filter": 200, "bias": true}}, {"class_name": "MaxPooling1D", "config": {"border_mode": "valid", "pool_length": 4, "name": "maxpooling1d_1_semeval_model", "stride": 2, "trainable": true}}, {"class_name": "Convolution1D", "config": {"border_mode": "valid", "b_regularizer": null, "input_length": null, "activity_regularizer": null, "activation": "relu", "trainable": true, "input_dim": null, "b_constraint": null, "filter_length": 6, "W_regularizer": null, "init": "uniform", "subsample_length": 1, "name": "convolution1d_2_semeval_model", "W_constraint": null, "nb_filter": 200, "bias": true}}]}], "mode_type": "raw", "mode": "concat", "output_shape_type": "raw", "dot_axes": -1, "name": "merge_1", "output_shape": null}}, {"class_name": "MaxPooling1D", "config": {"border_mode": "valid", "pool_length": 4, "name": "maxpooling1d_1", "stride": 2, "trainable": true}}, {"class_name": "Convolution1D", "config": {"border_mode": "valid", "b_regularizer": null, "bias": true, "input_length": null, "activity_regularizer": null, "activation": "relu", "trainable": true, "input_dim": null, "b_constraint": null, "filter_length": 6, "W_regularizer": null, "init": "uniform", "name": "convolution1d_1", "W_constraint": null, "nb_filter": 200, "subsample_length": 1}}, {"class_name": "MaxPooling1D", "config": {"border_mode": "valid", "pool_length": 4, "name": "maxpooling1d_2", "stride": 2, "trainable": true}}, {"class_name": "Flatten", "config": {"name": "flatten_1", "trainable": true}}, {"class_name": "Dense", "config": {"b_regularizer": null, "b_constraint": null, "activation": "linear", "activity_regularizer": null, "trainable": true, "input_dim": null, "W_constraint": null, "W_regularizer": null, "init": "glorot_uniform", "name": "dense_1", "output_dim": 200, "bias": true}}, {"class_name": "Dropout", "config": {"p": 0.2, "name": "dropout_1", "trainable": true}}, {"class_name": "Activation", "config": {"name": "activation_1", "activation": "relu", "trainable": true}}, {"class_name": "Dense", "config": {"b_regularizer": null, "b_constraint": null, "activation": "softmax", "activity_regularizer": null, "trainable": true, "input_dim": null, "W_constraint": null, "W_regularizer": null, "init": "glorot_uniform", "name": "dense_2", "output_dim": 3, "bias": true}}], "keras_version": "1.1.1"}