{"class_name": "Sequential", "config": [{"class_name": "Merge", "config": {"output_shape": null, "mode": "concat", "dot_axes": -1, "mode_type": "raw", "concat_axis": -1, "name": "merge_1", "output_shape_type": "raw", "layers": [{"class_name": "Sequential", "config": [{"class_name": "Embedding", "config": {"W_constraint": null, "input_dim": 1576890, "activity_regularizer": null, "mask_zero": false, "name": "embedding_1_dai_model", "W_regularizer": null, "trainable": true, "dropout": 0.2, "init": "uniform", "output_dim": 52, "batch_input_shape": [null, 140], "input_length": 140, "input_dtype": "int32"}}, {"class_name": "ZeroPadding1D", "config": {"name": "zeropadding1d_1_dai_model", "trainable": true, "padding": 5}}, {"class_name": "Convolution1D", "config": {"W_constraint": null, "input_dim": null, "activity_regularizer": null, "subsample_length": 1, "activation": "relu", "W_regularizer": null, "trainable": true, "nb_filter": 200, "init": "uniform", "b_regularizer": null, "filter_length": 6, "name": "convolution1d_1_dai_model", "b_constraint": null, "bias": true, "input_length": null, "border_mode": "valid"}}, {"class_name": "MaxPooling1D", "config": {"stride": 2, "name": "maxpooling1d_1_dai_model", "border_mode": "valid", "trainable": true, "pool_length": 4}}, {"class_name": "Convolution1D", "config": {"W_constraint": null, "input_dim": null, "activity_regularizer": null, "subsample_length": 1, "activation": "relu", "W_regularizer": null, "trainable": true, "nb_filter": 200, "init": "uniform", "b_regularizer": null, "filter_length": 6, "name": "convolution1d_2_dai_model", "b_constraint": null, "bias": true, "input_length": null, "border_mode": "valid"}}]}, {"class_name": "Sequential", "config": [{"class_name": "Embedding", "config": {"W_constraint": null, "input_dim": 1576890, "activity_regularizer": null, "mask_zero": false, "name": "embedding_1_dil_model", "W_regularizer": null, "trainable": true, "dropout": 0.2, "init": "uniform", "output_dim": 52, "batch_input_shape": [null, 140], "input_length": 140, "input_dtype": "int32"}}, {"class_name": "ZeroPadding1D", "config": {"name": "zeropadding1d_1_dil_model", "trainable": true, "padding": 5}}, {"class_name": "Convolution1D", "config": {"W_constraint": null, "input_dim": null, "activity_regularizer": null, "subsample_length": 1, "activation": "relu", "W_regularizer": null, "trainable": true, "nb_filter": 200, "init": "uniform", "b_regularizer": null, "filter_length": 6, "name": "convolution1d_1_dil_model", "b_constraint": null, "bias": true, "input_length": null, "border_mode": "valid"}}, {"class_name": "MaxPooling1D", "config": {"stride": 2, "name": "maxpooling1d_1_dil_model", "border_mode": "valid", "trainable": true, "pool_length": 4}}, {"class_name": "Convolution1D", "config": {"W_constraint": null, "input_dim": null, "activity_regularizer": null, "subsample_length": 1, "activation": "relu", "W_regularizer": null, "trainable": true, "nb_filter": 200, "init": "uniform", "b_regularizer": null, "filter_length": 6, "name": "convolution1d_2_dil_model", "b_constraint": null, "bias": true, "input_length": null, "border_mode": "valid"}}]}, {"class_name": "Sequential", "config": [{"class_name": "Embedding", "config": {"W_constraint": null, "input_dim": 1062158, "activity_regularizer": null, "mask_zero": false, "name": "embedding_1_hul_model", "W_regularizer": null, "trainable": true, "dropout": 0.2, "init": "uniform", "output_dim": 52, "batch_input_shape": [null, 140], "input_length": 140, "input_dtype": "int32"}}, {"class_name": "ZeroPadding1D", "config": {"name": "zeropadding1d_1_hul_model", "trainable": true, "padding": 5}}, {"class_name": "Convolution1D", "config": {"W_constraint": null, "input_dim": null, "activity_regularizer": null, "subsample_length": 1, "activation": "relu", "W_regularizer": null, "trainable": true, "nb_filter": 200, "init": "uniform", "b_regularizer": null, "filter_length": 6, "name": "convolution1d_1_hul_model", "b_constraint": null, "bias": true, "input_length": null, "border_mode": "valid"}}, {"class_name": "MaxPooling1D", "config": {"stride": 2, "name": "maxpooling1d_1_hul_model", "border_mode": "valid", "trainable": true, "pool_length": 4}}, {"class_name": "Convolution1D", "config": {"W_constraint": null, "input_dim": null, "activity_regularizer": null, "subsample_length": 1, "activation": "relu", "W_regularizer": null, "trainable": true, "nb_filter": 200, "init": "uniform", "b_regularizer": null, "filter_length": 6, "name": "convolution1d_2_hul_model", "b_constraint": null, "bias": true, "input_length": null, "border_mode": "valid"}}]}, {"class_name": "Sequential", "config": [{"class_name": "Embedding", "config": {"W_constraint": null, "input_dim": 428669, "activity_regularizer": null, "mask_zero": false, "name": "embedding_1_semeval_model", "W_regularizer": null, "trainable": true, "dropout": 0.2, "init": "uniform", "output_dim": 52, "batch_input_shape": [null, 140], "input_length": 140, "input_dtype": "int32"}}, {"class_name": "ZeroPadding1D", "config": {"name": "zeropadding1d_1_semeval_model", "trainable": true, "padding": 5}}, {"class_name": "Convolution1D", "config": {"W_constraint": null, "input_dim": null, "activity_regularizer": null, "subsample_length": 1, "activation": "relu", "W_regularizer": null, "trainable": true, "nb_filter": 200, "init": "uniform", "b_regularizer": null, "filter_length": 6, "name": "convolution1d_1_semeval_model", "b_constraint": null, "bias": true, "input_length": null, "border_mode": "valid"}}, {"class_name": "MaxPooling1D", "config": {"stride": 2, "name": "maxpooling1d_1_semeval_model", "border_mode": "valid", "trainable": true, "pool_length": 4}}, {"class_name": "Convolution1D", "config": {"W_constraint": null, "input_dim": null, "activity_regularizer": null, "subsample_length": 1, "activation": "relu", "W_regularizer": null, "trainable": true, "nb_filter": 200, "init": "uniform", "b_regularizer": null, "filter_length": 6, "name": "convolution1d_2_semeval_model", "b_constraint": null, "bias": true, "input_length": null, "border_mode": "valid"}}]}, {"class_name": "Sequential", "config": [{"class_name": "Embedding", "config": {"W_constraint": null, "input_dim": 428669, "activity_regularizer": null, "mask_zero": false, "name": "embedding_1_tac_model", "W_regularizer": null, "trainable": true, "dropout": 0.2, "init": "uniform", "output_dim": 52, "batch_input_shape": [null, 140], "input_length": 140, "input_dtype": "int32"}}, {"class_name": "ZeroPadding1D", "config": {"name": "zeropadding1d_1_tac_model", "trainable": true, "padding": 5}}, {"class_name": "Convolution1D", "config": {"W_constraint": null, "input_dim": null, "activity_regularizer": null, "subsample_length": 1, "activation": "relu", "W_regularizer": null, "trainable": true, "nb_filter": 200, "init": "uniform", "b_regularizer": null, "filter_length": 6, "name": "convolution1d_1_tac_model", "b_constraint": null, "bias": true, "input_length": null, "border_mode": "valid"}}, {"class_name": "MaxPooling1D", "config": {"stride": 2, "name": "maxpooling1d_1_tac_model", "border_mode": "valid", "trainable": true, "pool_length": 4}}, {"class_name": "Convolution1D", "config": {"W_constraint": null, "input_dim": null, "activity_regularizer": null, "subsample_length": 1, "activation": "relu", "W_regularizer": null, "trainable": true, "nb_filter": 200, "init": "uniform", "b_regularizer": null, "filter_length": 6, "name": "convolution1d_2_tac_model", "b_constraint": null, "bias": true, "input_length": null, "border_mode": "valid"}}]}]}}, {"class_name": "Flatten", "config": {"name": "flatten_1", "trainable": true}}, {"class_name": "Dense", "config": {"W_constraint": null, "input_dim": null, "activity_regularizer": null, "activation": "linear", "W_regularizer": null, "trainable": true, "init": "glorot_uniform", "b_regularizer": null, "output_dim": 200, "name": "dense_1", "b_constraint": null, "bias": true}}, {"class_name": "Dropout", "config": {"name": "dropout_1", "p": 0.2, "trainable": true}}, {"class_name": "Activation", "config": {"name": "activation_1", "trainable": true, "activation": "relu"}}, {"class_name": "Dense", "config": {"W_constraint": null, "input_dim": null, "activity_regularizer": null, "activation": "softmax", "W_regularizer": null, "trainable": true, "init": "glorot_uniform", "b_regularizer": null, "output_dim": 3, "name": "dense_2", "b_constraint": null, "bias": true}}], "keras_version": "1.1.1"}