{"config": [{"config": {"concat_axis": -1, "mode_type": "raw", "name": "merge_1", "mode": "concat", "output_shape": null, "layers": [{"config": [{"config": {"mask_zero": false, "trainable": true, "dropout": 0.2, "init": "uniform", "activity_regularizer": null, "output_dim": 52, "batch_input_shape": [null, 140], "W_regularizer": null, "input_dim": 1576890, "input_length": 140, "name": "embedding_1_semeval_model", "W_constraint": null, "input_dtype": "int32"}, "class_name": "Embedding"}, {"config": {"name": "zeropadding1d_1_semeval_model", "trainable": true, "padding": 5}, "class_name": "ZeroPadding1D"}, {"config": {"border_mode": "valid", "init": "uniform", "trainable": true, "subsample_length": 1, "activity_regularizer": null, "b_constraint": null, "filter_length": 6, "bias": true, "W_regularizer": null, "input_dim": null, "input_length": null, "b_regularizer": null, "name": "convolution1d_1_semeval_model", "activation": "relu", "W_constraint": null, "nb_filter": 200}, "class_name": "Convolution1D"}, {"config": {"name": "maxpooling1d_1_semeval_model", "stride": 2, "trainable": true, "pool_length": 4, "border_mode": "valid"}, "class_name": "MaxPooling1D"}, {"config": {"border_mode": "valid", "init": "uniform", "trainable": true, "subsample_length": 1, "activity_regularizer": null, "b_constraint": null, "filter_length": 6, "bias": true, "W_regularizer": null, "input_dim": null, "input_length": null, "b_regularizer": null, "name": "convolution1d_2_semeval_model", "activation": "relu", "W_constraint": null, "nb_filter": 200}, "class_name": "Convolution1D"}], "class_name": "Sequential"}, {"config": [{"config": {"mask_zero": false, "trainable": true, "dropout": 0.2, "init": "uniform", "activity_regularizer": null, "output_dim": 52, "batch_input_shape": [null, 140], "W_regularizer": null, "input_dim": 428669, "input_length": 140, "name": "embedding_1_tac_model", "W_constraint": null, "input_dtype": "int32"}, "class_name": "Embedding"}, {"config": {"name": "zeropadding1d_1_tac_model", "trainable": true, "padding": 5}, "class_name": "ZeroPadding1D"}, {"config": {"border_mode": "valid", "init": "uniform", "trainable": true, "subsample_length": 1, "activity_regularizer": null, "b_constraint": null, "filter_length": 6, "bias": true, "W_regularizer": null, "input_dim": null, "input_length": null, "b_regularizer": null, "name": "convolution1d_1_tac_model", "activation": "relu", "W_constraint": null, "nb_filter": 200}, "class_name": "Convolution1D"}, {"config": {"name": "maxpooling1d_1_tac_model", "stride": 2, "trainable": true, "pool_length": 4, "border_mode": "valid"}, "class_name": "MaxPooling1D"}, {"config": {"border_mode": "valid", "init": "uniform", "trainable": true, "subsample_length": 1, "activity_regularizer": null, "b_constraint": null, "filter_length": 6, "bias": true, "W_regularizer": null, "input_dim": null, "input_length": null, "b_regularizer": null, "name": "convolution1d_2_tac_model", "activation": "relu", "W_constraint": null, "nb_filter": 200}, "class_name": "Convolution1D"}], "class_name": "Sequential"}], "output_shape_type": "raw", "dot_axes": -1}, "class_name": "Merge"}, {"config": {"name": "maxpooling1d_1", "trainable": true, "pool_length": 4, "border_mode": "valid", "stride": 2}, "class_name": "MaxPooling1D"}, {"config": {"border_mode": "valid", "input_length": null, "trainable": true, "activity_regularizer": null, "b_constraint": null, "filter_length": 6, "W_constraint": null, "bias": true, "W_regularizer": null, "input_dim": null, "init": "uniform", "b_regularizer": null, "name": "convolution1d_1", "activation": "relu", "subsample_length": 1, "nb_filter": 200}, "class_name": "Convolution1D"}, {"config": {"name": "maxpooling1d_2", "trainable": true, "pool_length": 4, "border_mode": "valid", "stride": 2}, "class_name": "MaxPooling1D"}, {"config": {"name": "flatten_1", "trainable": true}, "class_name": "Flatten"}, {"config": {"activity_regularizer": null, "trainable": true, "init": "glorot_uniform", "b_constraint": null, "output_dim": 200, "bias": true, "W_regularizer": null, "input_dim": null, "b_regularizer": null, "name": "dense_1", "activation": "linear", "W_constraint": null}, "class_name": "Dense"}, {"config": {"name": "dropout_1", "p": 0.2, "trainable": true}, "class_name": "Dropout"}, {"config": {"name": "activation_1", "activation": "relu", "trainable": true}, "class_name": "Activation"}, {"config": {"activity_regularizer": null, "trainable": true, "init": "glorot_uniform", "b_constraint": null, "output_dim": 3, "bias": true, "W_regularizer": null, "input_dim": null, "b_regularizer": null, "name": "dense_2", "activation": "softmax", "W_constraint": null}, "class_name": "Dense"}], "keras_version": "1.1.1", "class_name": "Sequential"}