{"class_name": "Sequential", "keras_version": "1.1.1", "config": [{"class_name": "Merge", "config": {"name": "merge_1", "mode": "concat", "layers": [{"class_name": "Sequential", "config": [{"class_name": "Embedding", "config": {"input_dtype": "int32", "W_regularizer": null, "mask_zero": false, "dropout": 0.2, "init": "uniform", "trainable": true, "W_constraint": null, "name": "embedding_1_tac_model", "input_dim": 428669, "batch_input_shape": [null, 140], "output_dim": 52, "activity_regularizer": null, "input_length": 140}}, {"class_name": "ZeroPadding1D", "config": {"name": "zeropadding1d_1_tac_model", "trainable": true, "padding": 5}}, {"class_name": "Convolution1D", "config": {"border_mode": "valid", "W_regularizer": null, "nb_filter": 200, "bias": true, "init": "uniform", "trainable": true, "W_constraint": null, "name": "convolution1d_1_tac_model", "input_dim": null, "subsample_length": 1, "activation": "relu", "b_regularizer": null, "filter_length": 6, "activity_regularizer": null, "b_constraint": null, "input_length": null}}, {"class_name": "MaxPooling1D", "config": {"name": "maxpooling1d_1_tac_model", "border_mode": "valid", "trainable": true, "pool_length": 4, "stride": 2}}, {"class_name": "Convolution1D", "config": {"border_mode": "valid", "W_regularizer": null, "nb_filter": 200, "bias": true, "init": "uniform", "trainable": true, "W_constraint": null, "name": "convolution1d_2_tac_model", "input_dim": null, "subsample_length": 1, "activation": "relu", "b_regularizer": null, "filter_length": 6, "activity_regularizer": null, "b_constraint": null, "input_length": null}}, {"class_name": "MaxPooling1D", "config": {"name": "maxpooling1d_2_tac_model", "border_mode": "valid", "trainable": true, "pool_length": 66, "stride": 66}}, {"class_name": "Flatten", "config": {"name": "flatten_1_tac_model", "trainable": true}}]}, {"class_name": "Sequential", "config": [{"class_name": "Embedding", "config": {"input_dtype": "int32", "W_regularizer": null, "mask_zero": false, "dropout": 0.2, "init": "uniform", "trainable": true, "W_constraint": null, "name": "embedding_1_dai_model", "input_dim": 1576890, "batch_input_shape": [null, 140], "output_dim": 52, "activity_regularizer": null, "input_length": 140}}, {"class_name": "ZeroPadding1D", "config": {"name": "zeropadding1d_1_dai_model", "trainable": true, "padding": 5}}, {"class_name": "Convolution1D", "config": {"border_mode": "valid", "W_regularizer": null, "nb_filter": 200, "bias": true, "init": "uniform", "trainable": true, "W_constraint": null, "name": "convolution1d_1_dai_model", "input_dim": null, "subsample_length": 1, "activation": "relu", "b_regularizer": null, "filter_length": 6, "activity_regularizer": null, "b_constraint": null, "input_length": null}}, {"class_name": "MaxPooling1D", "config": {"name": "maxpooling1d_1_dai_model", "border_mode": "valid", "trainable": true, "pool_length": 4, "stride": 2}}, {"class_name": "Convolution1D", "config": {"border_mode": "valid", "W_regularizer": null, "nb_filter": 200, "bias": true, "init": "uniform", "trainable": true, "W_constraint": null, "name": "convolution1d_2_dai_model", "input_dim": null, "subsample_length": 1, "activation": "relu", "b_regularizer": null, "filter_length": 6, "activity_regularizer": null, "b_constraint": null, "input_length": null}}, {"class_name": "MaxPooling1D", "config": {"name": "maxpooling1d_2_dai_model", "border_mode": "valid", "trainable": true, "pool_length": 66, "stride": 66}}, {"class_name": "Flatten", "config": {"name": "flatten_1_dai_model", "trainable": true}}]}, {"class_name": "Sequential", "config": [{"class_name": "Embedding", "config": {"input_dtype": "int32", "W_regularizer": null, "mask_zero": false, "dropout": 0.2, "init": "uniform", "trainable": true, "W_constraint": null, "name": "embedding_17_mpq_model", "input_dim": 428669, "batch_input_shape": [null, 140], "output_dim": 52, "activity_regularizer": null, "input_length": 140}}, {"class_name": "ZeroPadding1D", "config": {"name": "zeropadding1d_17_mpq_model", "trainable": true, "padding": 5}}, {"class_name": "Convolution1D", "config": {"border_mode": "valid", "W_regularizer": null, "nb_filter": 200, "bias": true, "init": "uniform", "trainable": true, "W_constraint": null, "name": "convolution1d_33_mpq_model", "input_dim": null, "subsample_length": 1, "activation": "relu", "b_regularizer": null, "filter_length": 6, "activity_regularizer": null, "b_constraint": null, "input_length": null}}, {"class_name": "MaxPooling1D", "config": {"name": "maxpooling1d_33_mpq_model", "border_mode": "valid", "trainable": true, "pool_length": 4, "stride": 2}}, {"class_name": "Convolution1D", "config": {"border_mode": "valid", "W_regularizer": null, "nb_filter": 200, "bias": true, "init": "uniform", "trainable": true, "W_constraint": null, "name": "convolution1d_34_mpq_model", "input_dim": null, "subsample_length": 1, "activation": "relu", "b_regularizer": null, "filter_length": 6, "activity_regularizer": null, "b_constraint": null, "input_length": null}}, {"class_name": "MaxPooling1D", "config": {"name": "maxpooling1d_34_mpq_model", "border_mode": "valid", "trainable": true, "pool_length": 66, "stride": 66}}, {"class_name": "Flatten", "config": {"name": "flatten_17_mpq_model", "trainable": true}}]}, {"class_name": "Sequential", "config": [{"class_name": "Embedding", "config": {"input_dtype": "int32", "W_regularizer": null, "mask_zero": false, "dropout": 0.2, "init": "uniform", "trainable": true, "W_constraint": null, "name": "embedding_1_semeval_model", "input_dim": 428669, "batch_input_shape": [null, 140], "output_dim": 52, "activity_regularizer": null, "input_length": 140}}, {"class_name": "ZeroPadding1D", "config": {"name": "zeropadding1d_1_semeval_model", "trainable": true, "padding": 5}}, {"class_name": "Convolution1D", "config": {"border_mode": "valid", "W_regularizer": null, "nb_filter": 200, "bias": true, "init": "uniform", "trainable": true, "W_constraint": null, "name": "convolution1d_1_semeval_model", "input_dim": null, "subsample_length": 1, "activation": "relu", "b_regularizer": null, "filter_length": 6, "activity_regularizer": null, "b_constraint": null, "input_length": null}}, {"class_name": "MaxPooling1D", "config": {"name": "maxpooling1d_1_semeval_model", "border_mode": "valid", "trainable": true, "pool_length": 4, "stride": 2}}, {"class_name": "Convolution1D", "config": {"border_mode": "valid", "W_regularizer": null, "nb_filter": 200, "bias": true, "init": "uniform", "trainable": true, "W_constraint": null, "name": "convolution1d_2_semeval_model", "input_dim": null, "subsample_length": 1, "activation": "relu", "b_regularizer": null, "filter_length": 6, "activity_regularizer": null, "b_constraint": null, "input_length": null}}, {"class_name": "MaxPooling1D", "config": {"name": "maxpooling1d_2_semeval_model", "border_mode": "valid", "trainable": true, "pool_length": 66, "stride": 66}}, {"class_name": "Flatten", "config": {"name": "flatten_1_semeval_model", "trainable": true}}]}, {"class_name": "Sequential", "config": [{"class_name": "Embedding", "config": {"input_dtype": "int32", "W_regularizer": null, "mask_zero": false, "dropout": 0.2, "init": "uniform", "trainable": true, "W_constraint": null, "name": "embedding_1_dil_model", "input_dim": 1576890, "batch_input_shape": [null, 140], "output_dim": 52, "activity_regularizer": null, "input_length": 140}}, {"class_name": "ZeroPadding1D", "config": {"name": "zeropadding1d_1_dil_model", "trainable": true, "padding": 5}}, {"class_name": "Convolution1D", "config": {"border_mode": "valid", "W_regularizer": null, "nb_filter": 200, "bias": true, "init": "uniform", "trainable": true, "W_constraint": null, "name": "convolution1d_1_dil_model", "input_dim": null, "subsample_length": 1, "activation": "relu", "b_regularizer": null, "filter_length": 6, "activity_regularizer": null, "b_constraint": null, "input_length": null}}, {"class_name": "MaxPooling1D", "config": {"name": "maxpooling1d_1_dil_model", "border_mode": "valid", "trainable": true, "pool_length": 4, "stride": 2}}, {"class_name": "Convolution1D", "config": {"border_mode": "valid", "W_regularizer": null, "nb_filter": 200, "bias": true, "init": "uniform", "trainable": true, "W_constraint": null, "name": "convolution1d_2_dil_model", "input_dim": null, "subsample_length": 1, "activation": "relu", "b_regularizer": null, "filter_length": 6, "activity_regularizer": null, "b_constraint": null, "input_length": null}}, {"class_name": "MaxPooling1D", "config": {"name": "maxpooling1d_2_dil_model", "border_mode": "valid", "trainable": true, "pool_length": 66, "stride": 66}}, {"class_name": "Flatten", "config": {"name": "flatten_1_dil_model", "trainable": true}}]}, {"class_name": "Sequential", "config": [{"class_name": "Embedding", "config": {"input_dtype": "int32", "W_regularizer": null, "mask_zero": false, "dropout": 0.2, "init": "uniform", "trainable": true, "W_constraint": null, "name": "embedding_1_hul_model", "input_dim": 1062158, "batch_input_shape": [null, 140], "output_dim": 52, "activity_regularizer": null, "input_length": 140}}, {"class_name": "ZeroPadding1D", "config": {"name": "zeropadding1d_1_hul_model", "trainable": true, "padding": 5}}, {"class_name": "Convolution1D", "config": {"border_mode": "valid", "W_regularizer": null, "nb_filter": 200, "bias": true, "init": "uniform", "trainable": true, "W_constraint": null, "name": "convolution1d_1_hul_model", "input_dim": null, "subsample_length": 1, "activation": "relu", "b_regularizer": null, "filter_length": 6, "activity_regularizer": null, "b_constraint": null, "input_length": null}}, {"class_name": "MaxPooling1D", "config": {"name": "maxpooling1d_1_hul_model", "border_mode": "valid", "trainable": true, "pool_length": 4, "stride": 2}}, {"class_name": "Convolution1D", "config": {"border_mode": "valid", "W_regularizer": null, "nb_filter": 200, "bias": true, "init": "uniform", "trainable": true, "W_constraint": null, "name": "convolution1d_2_hul_model", "input_dim": null, "subsample_length": 1, "activation": "relu", "b_regularizer": null, "filter_length": 6, "activity_regularizer": null, "b_constraint": null, "input_length": null}}, {"class_name": "MaxPooling1D", "config": {"name": "maxpooling1d_2_hul_model", "border_mode": "valid", "trainable": true, "pool_length": 66, "stride": 66}}, {"class_name": "Flatten", "config": {"name": "flatten_1_hul_model", "trainable": true}}]}], "output_shape": null, "dot_axes": -1, "mode_type": "raw", "concat_axis": -1, "output_shape_type": "raw"}}, {"class_name": "Dense", "config": {"W_regularizer": null, "bias": true, "init": "glorot_uniform", "trainable": true, "W_constraint": null, "name": "dense_1", "input_dim": null, "activation": "linear", "output_dim": 1028, "b_regularizer": null, "b_constraint": null, "activity_regularizer": null}}, {"class_name": "Activation", "config": {"name": "activation_1", "trainable": true, "activation": "relu"}}, {"class_name": "Dense", "config": {"W_regularizer": null, "bias": true, "init": "glorot_uniform", "trainable": true, "W_constraint": null, "name": "dense_2", "input_dim": null, "activation": "softmax", "output_dim": 3, "b_regularizer": null, "b_constraint": null, "activity_regularizer": null}}]}