{"class_name": "Sequential", "config": [{"class_name": "Embedding", "config": {"activity_regularizer": null, "W_regularizer": null, "dropout": 0.2, "init": "uniform", "input_dtype": "int32", "output_dim": 52, "input_length": 140, "W_constraint": null, "mask_zero": false, "name": "embedding_1", "trainable": true, "input_dim": 2950660, "batch_input_shape": [null, 140]}}, {"class_name": "ZeroPadding1D", "config": {"name": "zeropadding1d_1", "padding": 5, "trainable": true}}, {"class_name": "Convolution1D", "config": {"b_regularizer": null, "activity_regularizer": null, "border_mode": "valid", "activation": "relu", "init": "uniform", "filter_length": 6, "input_length": null, "W_constraint": null, "subsample_length": 1, "input_dim": null, "name": "convolution1d_1", "b_constraint": null, "trainable": true, "nb_filter": 200, "bias": true, "W_regularizer": null}}, {"class_name": "MaxPooling1D", "config": {"stride": 2, "trainable": true, "name": "maxpooling1d_1", "border_mode": "valid", "pool_length": 4}}, {"class_name": "Convolution1D", "config": {"b_regularizer": null, "activity_regularizer": null, "border_mode": "valid", "activation": "relu", "init": "uniform", "filter_length": 6, "input_length": null, "W_constraint": null, "subsample_length": 1, "input_dim": null, "name": "convolution1d_2", "b_constraint": null, "trainable": true, "nb_filter": 200, "bias": true, "W_regularizer": null}}, {"class_name": "MaxPooling1D", "config": {"stride": 66, "trainable": true, "name": "maxpooling1d_2", "border_mode": "valid", "pool_length": 66}}, {"class_name": "Flatten", "config": {"name": "flatten_1", "trainable": true}}, {"class_name": "Dense", "config": {"b_regularizer": null, "W_constraint": null, "b_constraint": null, "activation": "linear", "output_dim": 200, "activity_regularizer": null, "name": "dense_1", "W_regularizer": null, "trainable": true, "input_dim": null, "bias": true, "init": "glorot_uniform"}}, {"class_name": "Dropout", "config": {"name": "dropout_1", "p": 0.2, "trainable": true}}, {"class_name": "Activation", "config": {"name": "activation_1", "activation": "relu", "trainable": true}}, {"class_name": "Dense", "config": {"b_regularizer": null, "W_constraint": null, "b_constraint": null, "activation": "softmax", "output_dim": 3, "activity_regularizer": null, "name": "dense_2", "W_regularizer": null, "trainable": true, "input_dim": null, "bias": true, "init": "glorot_uniform"}}], "keras_version": "1.1.0"}