{"class_name": "Sequential", "config": [{"class_name": "Merge", "config": {"dot_axes": -1, "mode": "concat", "output_shape": null, "name": "merge_1", "mode_type": "raw", "layers": [{"class_name": "Sequential", "config": [{"class_name": "Embedding", "config": {"W_constraint": null, "mask_zero": false, "input_dtype": "int32", "name": "embedding_1_dil_model", "input_dim": 1576890, "output_dim": 52, "activity_regularizer": null, "W_regularizer": null, "trainable": true, "batch_input_shape": [null, 140], "input_length": 140, "dropout": 0.2, "init": "uniform"}}, {"class_name": "ZeroPadding1D", "config": {"padding": 5, "name": "zeropadding1d_1_dil_model", "trainable": true}}, {"class_name": "Convolution1D", "config": {"bias": true, "filter_length": 6, "name": "convolution1d_1_dil_model", "nb_filter": 200, "input_dim": null, "W_constraint": null, "activity_regularizer": null, "W_regularizer": null, "b_constraint": null, "border_mode": "valid", "trainable": true, "activation": "relu", "b_regularizer": null, "input_length": null, "subsample_length": 1, "init": "uniform"}}, {"class_name": "MaxPooling1D", "config": {"pool_length": 4, "stride": 2, "name": "maxpooling1d_1_dil_model", "trainable": true, "border_mode": "valid"}}, {"class_name": "Convolution1D", "config": {"bias": true, "filter_length": 6, "name": "convolution1d_2_dil_model", "nb_filter": 200, "input_dim": null, "W_constraint": null, "activity_regularizer": null, "W_regularizer": null, "b_constraint": null, "border_mode": "valid", "trainable": true, "activation": "relu", "b_regularizer": null, "input_length": null, "subsample_length": 1, "init": "uniform"}}, {"class_name": "MaxPooling1D", "config": {"pool_length": 66, "stride": 66, "name": "maxpooling1d_2_dil_model", "trainable": true, "border_mode": "valid"}}, {"class_name": "Flatten", "config": {"trainable": true, "name": "flatten_1_dil_model"}}]}, {"class_name": "Sequential", "config": [{"class_name": "Embedding", "config": {"W_constraint": null, "mask_zero": false, "input_dtype": "int32", "name": "embedding_1_dai_model", "input_dim": 1576890, "output_dim": 52, "activity_regularizer": null, "W_regularizer": null, "trainable": true, "batch_input_shape": [null, 140], "input_length": 140, "dropout": 0.2, "init": "uniform"}}, {"class_name": "ZeroPadding1D", "config": {"padding": 5, "name": "zeropadding1d_1_dai_model", "trainable": true}}, {"class_name": "Convolution1D", "config": {"bias": true, "filter_length": 6, "name": "convolution1d_1_dai_model", "nb_filter": 200, "input_dim": null, "W_constraint": null, "activity_regularizer": null, "W_regularizer": null, "b_constraint": null, "border_mode": "valid", "trainable": true, "activation": "relu", "b_regularizer": null, "input_length": null, "subsample_length": 1, "init": "uniform"}}, {"class_name": "MaxPooling1D", "config": {"pool_length": 4, "stride": 2, "name": "maxpooling1d_1_dai_model", "trainable": true, "border_mode": "valid"}}, {"class_name": "Convolution1D", "config": {"bias": true, "filter_length": 6, "name": "convolution1d_2_dai_model", "nb_filter": 200, "input_dim": null, "W_constraint": null, "activity_regularizer": null, "W_regularizer": null, "b_constraint": null, "border_mode": "valid", "trainable": true, "activation": "relu", "b_regularizer": null, "input_length": null, "subsample_length": 1, "init": "uniform"}}, {"class_name": "MaxPooling1D", "config": {"pool_length": 66, "stride": 66, "name": "maxpooling1d_2_dai_model", "trainable": true, "border_mode": "valid"}}, {"class_name": "Flatten", "config": {"trainable": true, "name": "flatten_1_dai_model"}}]}, {"class_name": "Sequential", "config": [{"class_name": "Embedding", "config": {"W_constraint": null, "mask_zero": false, "input_dtype": "int32", "name": "embedding_1_semeval_model", "input_dim": 428669, "output_dim": 52, "activity_regularizer": null, "W_regularizer": null, "trainable": true, "batch_input_shape": [null, 140], "input_length": 140, "dropout": 0.2, "init": "uniform"}}, {"class_name": "ZeroPadding1D", "config": {"padding": 5, "name": "zeropadding1d_1_semeval_model", "trainable": true}}, {"class_name": "Convolution1D", "config": {"bias": true, "filter_length": 6, "name": "convolution1d_1_semeval_model", "nb_filter": 200, "input_dim": null, "W_constraint": null, "activity_regularizer": null, "W_regularizer": null, "b_constraint": null, "border_mode": "valid", "trainable": true, "activation": "relu", "b_regularizer": null, "input_length": null, "subsample_length": 1, "init": "uniform"}}, {"class_name": "MaxPooling1D", "config": {"pool_length": 4, "stride": 2, "name": "maxpooling1d_1_semeval_model", "trainable": true, "border_mode": "valid"}}, {"class_name": "Convolution1D", "config": {"bias": true, "filter_length": 6, "name": "convolution1d_2_semeval_model", "nb_filter": 200, "input_dim": null, "W_constraint": null, "activity_regularizer": null, "W_regularizer": null, "b_constraint": null, "border_mode": "valid", "trainable": true, "activation": "relu", "b_regularizer": null, "input_length": null, "subsample_length": 1, "init": "uniform"}}, {"class_name": "MaxPooling1D", "config": {"pool_length": 66, "stride": 66, "name": "maxpooling1d_2_semeval_model", "trainable": true, "border_mode": "valid"}}, {"class_name": "Flatten", "config": {"trainable": true, "name": "flatten_1_semeval_model"}}]}, {"class_name": "Sequential", "config": [{"class_name": "Embedding", "config": {"W_constraint": null, "mask_zero": false, "input_dtype": "int32", "name": "embedding_17_mpq_model", "input_dim": 428669, "output_dim": 52, "activity_regularizer": null, "W_regularizer": null, "trainable": true, "batch_input_shape": [null, 140], "input_length": 140, "dropout": 0.2, "init": "uniform"}}, {"class_name": "ZeroPadding1D", "config": {"padding": 5, "name": "zeropadding1d_17_mpq_model", "trainable": true}}, {"class_name": "Convolution1D", "config": {"bias": true, "filter_length": 6, "name": "convolution1d_33_mpq_model", "nb_filter": 200, "input_dim": null, "W_constraint": null, "activity_regularizer": null, "W_regularizer": null, "b_constraint": null, "border_mode": "valid", "trainable": true, "activation": "relu", "b_regularizer": null, "input_length": null, "subsample_length": 1, "init": "uniform"}}, {"class_name": "MaxPooling1D", "config": {"pool_length": 4, "stride": 2, "name": "maxpooling1d_33_mpq_model", "trainable": true, "border_mode": "valid"}}, {"class_name": "Convolution1D", "config": {"bias": true, "filter_length": 6, "name": "convolution1d_34_mpq_model", "nb_filter": 200, "input_dim": null, "W_constraint": null, "activity_regularizer": null, "W_regularizer": null, "b_constraint": null, "border_mode": "valid", "trainable": true, "activation": "relu", "b_regularizer": null, "input_length": null, "subsample_length": 1, "init": "uniform"}}, {"class_name": "MaxPooling1D", "config": {"pool_length": 66, "stride": 66, "name": "maxpooling1d_34_mpq_model", "trainable": true, "border_mode": "valid"}}, {"class_name": "Flatten", "config": {"trainable": true, "name": "flatten_17_mpq_model"}}]}, {"class_name": "Sequential", "config": [{"class_name": "Embedding", "config": {"W_constraint": null, "mask_zero": false, "input_dtype": "int32", "name": "embedding_1_tac_model", "input_dim": 428669, "output_dim": 52, "activity_regularizer": null, "W_regularizer": null, "trainable": true, "batch_input_shape": [null, 140], "input_length": 140, "dropout": 0.2, "init": "uniform"}}, {"class_name": "ZeroPadding1D", "config": {"padding": 5, "name": "zeropadding1d_1_tac_model", "trainable": true}}, {"class_name": "Convolution1D", "config": {"bias": true, "filter_length": 6, "name": "convolution1d_1_tac_model", "nb_filter": 200, "input_dim": null, "W_constraint": null, "activity_regularizer": null, "W_regularizer": null, "b_constraint": null, "border_mode": "valid", "trainable": true, "activation": "relu", "b_regularizer": null, "input_length": null, "subsample_length": 1, "init": "uniform"}}, {"class_name": "MaxPooling1D", "config": {"pool_length": 4, "stride": 2, "name": "maxpooling1d_1_tac_model", "trainable": true, "border_mode": "valid"}}, {"class_name": "Convolution1D", "config": {"bias": true, "filter_length": 6, "name": "convolution1d_2_tac_model", "nb_filter": 200, "input_dim": null, "W_constraint": null, "activity_regularizer": null, "W_regularizer": null, "b_constraint": null, "border_mode": "valid", "trainable": true, "activation": "relu", "b_regularizer": null, "input_length": null, "subsample_length": 1, "init": "uniform"}}, {"class_name": "MaxPooling1D", "config": {"pool_length": 66, "stride": 66, "name": "maxpooling1d_2_tac_model", "trainable": true, "border_mode": "valid"}}, {"class_name": "Flatten", "config": {"trainable": true, "name": "flatten_1_tac_model"}}]}, {"class_name": "Sequential", "config": [{"class_name": "Embedding", "config": {"W_constraint": null, "mask_zero": false, "input_dtype": "int32", "name": "embedding_1_hul_model", "input_dim": 1062158, "output_dim": 52, "activity_regularizer": null, "W_regularizer": null, "trainable": true, "batch_input_shape": [null, 140], "input_length": 140, "dropout": 0.2, "init": "uniform"}}, {"class_name": "ZeroPadding1D", "config": {"padding": 5, "name": "zeropadding1d_1_hul_model", "trainable": true}}, {"class_name": "Convolution1D", "config": {"bias": true, "filter_length": 6, "name": "convolution1d_1_hul_model", "nb_filter": 200, "input_dim": null, "W_constraint": null, "activity_regularizer": null, "W_regularizer": null, "b_constraint": null, "border_mode": "valid", "trainable": true, "activation": "relu", "b_regularizer": null, "input_length": null, "subsample_length": 1, "init": "uniform"}}, {"class_name": "MaxPooling1D", "config": {"pool_length": 4, "stride": 2, "name": "maxpooling1d_1_hul_model", "trainable": true, "border_mode": "valid"}}, {"class_name": "Convolution1D", "config": {"bias": true, "filter_length": 6, "name": "convolution1d_2_hul_model", "nb_filter": 200, "input_dim": null, "W_constraint": null, "activity_regularizer": null, "W_regularizer": null, "b_constraint": null, "border_mode": "valid", "trainable": true, "activation": "relu", "b_regularizer": null, "input_length": null, "subsample_length": 1, "init": "uniform"}}, {"class_name": "MaxPooling1D", "config": {"pool_length": 66, "stride": 66, "name": "maxpooling1d_2_hul_model", "trainable": true, "border_mode": "valid"}}, {"class_name": "Flatten", "config": {"trainable": true, "name": "flatten_1_hul_model"}}]}], "output_shape_type": "raw", "concat_axis": -1}}, {"class_name": "Dense", "config": {"bias": true, "W_constraint": null, "trainable": true, "name": "dense_1", "input_dim": null, "output_dim": 1028, "activity_regularizer": null, "W_regularizer": null, "b_constraint": null, "activation": "linear", "b_regularizer": null, "init": "glorot_uniform"}}, {"class_name": "Activation", "config": {"trainable": true, "name": "activation_1", "activation": "relu"}}, {"class_name": "Dense", "config": {"bias": true, "W_constraint": null, "trainable": true, "name": "dense_2", "input_dim": null, "output_dim": 3, "activity_regularizer": null, "W_regularizer": null, "b_constraint": null, "activation": "softmax", "b_regularizer": null, "init": "glorot_uniform"}}], "keras_version": "1.1.1"}