{"config": [{"class_name": "Merge", "config": {"mode_type": "raw", "mode": "concat", "layers": [{"class_name": "Sequential", "config": [{"config": {"input_dtype": "int32", "init": "uniform", "input_length": 140, "trainable": true, "output_dim": 52, "name": "embedding_17_mpq_model", "W_regularizer": null, "activity_regularizer": null, "dropout": 0.2, "W_constraint": null, "input_dim": 428669, "batch_input_shape": [null, 140], "mask_zero": false}, "class_name": "Embedding"}, {"config": {"padding": 5, "trainable": true, "name": "zeropadding1d_17_mpq_model"}, "class_name": "ZeroPadding1D"}, {"config": {"init": "uniform", "activation": "relu", "trainable": true, "name": "convolution1d_33_mpq_model", "subsample_length": 1, "input_length": null, "nb_filter": 200, "activity_regularizer": null, "bias": true, "W_constraint": null, "b_regularizer": null, "W_regularizer": null, "input_dim": null, "border_mode": "valid", "b_constraint": null, "filter_length": 6}, "class_name": "Convolution1D"}, {"config": {"pool_length": 4, "stride": 2, "name": "maxpooling1d_33_mpq_model", "trainable": true, "border_mode": "valid"}, "class_name": "MaxPooling1D"}, {"config": {"init": "uniform", "activation": "relu", "trainable": true, "name": "convolution1d_34_mpq_model", "subsample_length": 1, "input_length": null, "nb_filter": 200, "activity_regularizer": null, "bias": true, "W_constraint": null, "b_regularizer": null, "W_regularizer": null, "input_dim": null, "border_mode": "valid", "b_constraint": null, "filter_length": 6}, "class_name": "Convolution1D"}]}, {"class_name": "Sequential", "config": [{"config": {"input_dtype": "int32", "init": "uniform", "input_length": 140, "trainable": true, "output_dim": 52, "name": "embedding_1_dai_model", "W_regularizer": null, "activity_regularizer": null, "dropout": 0.2, "W_constraint": null, "input_dim": 1576890, "batch_input_shape": [null, 140], "mask_zero": false}, "class_name": "Embedding"}, {"config": {"padding": 5, "trainable": true, "name": "zeropadding1d_1_dai_model"}, "class_name": "ZeroPadding1D"}, {"config": {"init": "uniform", "activation": "relu", "trainable": true, "name": "convolution1d_1_dai_model", "subsample_length": 1, "input_length": null, "nb_filter": 200, "activity_regularizer": null, "bias": true, "W_constraint": null, "b_regularizer": null, "W_regularizer": null, "input_dim": null, "border_mode": "valid", "b_constraint": null, "filter_length": 6}, "class_name": "Convolution1D"}, {"config": {"pool_length": 4, "stride": 2, "name": "maxpooling1d_1_dai_model", "trainable": true, "border_mode": "valid"}, "class_name": "MaxPooling1D"}, {"config": {"init": "uniform", "activation": "relu", "trainable": true, "name": "convolution1d_2_dai_model", "subsample_length": 1, "input_length": null, "nb_filter": 200, "activity_regularizer": null, "bias": true, "W_constraint": null, "b_regularizer": null, "W_regularizer": null, "input_dim": null, "border_mode": "valid", "b_constraint": null, "filter_length": 6}, "class_name": "Convolution1D"}]}, {"class_name": "Sequential", "config": [{"config": {"input_dtype": "int32", "init": "uniform", "input_length": 140, "trainable": true, "output_dim": 52, "name": "embedding_1_hul_model", "W_regularizer": null, "activity_regularizer": null, "dropout": 0.2, "W_constraint": null, "input_dim": 1062158, "batch_input_shape": [null, 140], "mask_zero": false}, "class_name": "Embedding"}, {"config": {"padding": 5, "trainable": true, "name": "zeropadding1d_1_hul_model"}, "class_name": "ZeroPadding1D"}, {"config": {"init": "uniform", "activation": "relu", "trainable": true, "name": "convolution1d_1_hul_model", "subsample_length": 1, "input_length": null, "nb_filter": 200, "activity_regularizer": null, "bias": true, "W_constraint": null, "b_regularizer": null, "W_regularizer": null, "input_dim": null, "border_mode": "valid", "b_constraint": null, "filter_length": 6}, "class_name": "Convolution1D"}, {"config": {"pool_length": 4, "stride": 2, "name": "maxpooling1d_1_hul_model", "trainable": true, "border_mode": "valid"}, "class_name": "MaxPooling1D"}, {"config": {"init": "uniform", "activation": "relu", "trainable": true, "name": "convolution1d_2_hul_model", "subsample_length": 1, "input_length": null, "nb_filter": 200, "activity_regularizer": null, "bias": true, "W_constraint": null, "b_regularizer": null, "W_regularizer": null, "input_dim": null, "border_mode": "valid", "b_constraint": null, "filter_length": 6}, "class_name": "Convolution1D"}]}, {"class_name": "Sequential", "config": [{"config": {"input_dtype": "int32", "init": "uniform", "input_length": 140, "trainable": true, "output_dim": 52, "name": "embedding_1_dil_model", "W_regularizer": null, "activity_regularizer": null, "dropout": 0.2, "W_constraint": null, "input_dim": 1576890, "batch_input_shape": [null, 140], "mask_zero": false}, "class_name": "Embedding"}, {"config": {"padding": 5, "trainable": true, "name": "zeropadding1d_1_dil_model"}, "class_name": "ZeroPadding1D"}, {"config": {"init": "uniform", "activation": "relu", "trainable": true, "name": "convolution1d_1_dil_model", "subsample_length": 1, "input_length": null, "nb_filter": 200, "activity_regularizer": null, "bias": true, "W_constraint": null, "b_regularizer": null, "W_regularizer": null, "input_dim": null, "border_mode": "valid", "b_constraint": null, "filter_length": 6}, "class_name": "Convolution1D"}, {"config": {"pool_length": 4, "stride": 2, "name": "maxpooling1d_1_dil_model", "trainable": true, "border_mode": "valid"}, "class_name": "MaxPooling1D"}, {"config": {"init": "uniform", "activation": "relu", "trainable": true, "name": "convolution1d_2_dil_model", "subsample_length": 1, "input_length": null, "nb_filter": 200, "activity_regularizer": null, "bias": true, "W_constraint": null, "b_regularizer": null, "W_regularizer": null, "input_dim": null, "border_mode": "valid", "b_constraint": null, "filter_length": 6}, "class_name": "Convolution1D"}]}, {"class_name": "Sequential", "config": [{"config": {"input_dtype": "int32", "init": "uniform", "input_length": 140, "trainable": true, "output_dim": 52, "name": "embedding_1_semeval_model", "W_regularizer": null, "activity_regularizer": null, "dropout": 0.2, "W_constraint": null, "input_dim": 428669, "batch_input_shape": [null, 140], "mask_zero": false}, "class_name": "Embedding"}, {"config": {"padding": 5, "trainable": true, "name": "zeropadding1d_1_semeval_model"}, "class_name": "ZeroPadding1D"}, {"config": {"init": "uniform", "activation": "relu", "trainable": true, "name": "convolution1d_1_semeval_model", "subsample_length": 1, "input_length": null, "nb_filter": 200, "activity_regularizer": null, "bias": true, "W_constraint": null, "b_regularizer": null, "W_regularizer": null, "input_dim": null, "border_mode": "valid", "b_constraint": null, "filter_length": 6}, "class_name": "Convolution1D"}, {"config": {"pool_length": 4, "stride": 2, "name": "maxpooling1d_1_semeval_model", "trainable": true, "border_mode": "valid"}, "class_name": "MaxPooling1D"}, {"config": {"init": "uniform", "activation": "relu", "trainable": true, "name": "convolution1d_2_semeval_model", "subsample_length": 1, "input_length": null, "nb_filter": 200, "activity_regularizer": null, "bias": true, "W_constraint": null, "b_regularizer": null, "W_regularizer": null, "input_dim": null, "border_mode": "valid", "b_constraint": null, "filter_length": 6}, "class_name": "Convolution1D"}]}, {"class_name": "Sequential", "config": [{"config": {"input_dtype": "int32", "init": "uniform", "input_length": 140, "trainable": true, "output_dim": 52, "name": "embedding_1_tac_model", "W_regularizer": null, "activity_regularizer": null, "dropout": 0.2, "W_constraint": null, "input_dim": 428669, "batch_input_shape": [null, 140], "mask_zero": false}, "class_name": "Embedding"}, {"config": {"padding": 5, "trainable": true, "name": "zeropadding1d_1_tac_model"}, "class_name": "ZeroPadding1D"}, {"config": {"init": "uniform", "activation": "relu", "trainable": true, "name": "convolution1d_1_tac_model", "subsample_length": 1, "input_length": null, "nb_filter": 200, "activity_regularizer": null, "bias": true, "W_constraint": null, "b_regularizer": null, "W_regularizer": null, "input_dim": null, "border_mode": "valid", "b_constraint": null, "filter_length": 6}, "class_name": "Convolution1D"}, {"config": {"pool_length": 4, "stride": 2, "name": "maxpooling1d_1_tac_model", "trainable": true, "border_mode": "valid"}, "class_name": "MaxPooling1D"}, {"config": {"init": "uniform", "activation": "relu", "trainable": true, "name": "convolution1d_2_tac_model", "subsample_length": 1, "input_length": null, "nb_filter": 200, "activity_regularizer": null, "bias": true, "W_constraint": null, "b_regularizer": null, "W_regularizer": null, "input_dim": null, "border_mode": "valid", "b_constraint": null, "filter_length": 6}, "class_name": "Convolution1D"}]}], "output_shape": null, "name": "merge_1", "concat_axis": -1, "dot_axes": -1, "output_shape_type": "raw"}}, {"class_name": "Flatten", "config": {"trainable": true, "name": "flatten_1"}}, {"class_name": "Dense", "config": {"init": "glorot_uniform", "activation": "linear", "trainable": true, "output_dim": 200, "name": "dense_1", "W_regularizer": null, "activity_regularizer": null, "bias": true, "W_constraint": null, "b_regularizer": null, "input_dim": null, "b_constraint": null}}, {"class_name": "Dropout", "config": {"name": "dropout_1", "trainable": true, "p": 0.2}}, {"class_name": "Activation", "config": {"activation": "relu", "trainable": true, "name": "activation_1"}}, {"class_name": "Dense", "config": {"init": "glorot_uniform", "activation": "softmax", "trainable": true, "output_dim": 3, "name": "dense_2", "W_regularizer": null, "activity_regularizer": null, "bias": true, "W_constraint": null, "b_regularizer": null, "input_dim": null, "b_constraint": null}}], "keras_version": "1.1.1", "class_name": "Sequential"}