{"keras_version": "1.1.1", "class_name": "Sequential", "config": [{"class_name": "Merge", "config": {"layers": [{"class_name": "Sequential", "config": [{"class_name": "Embedding", "config": {"name": "embedding_1_dai_model", "trainable": true, "batch_input_shape": [null, 140], "input_dim": 1576890, "W_regularizer": null, "W_constraint": null, "mask_zero": false, "init": "uniform", "output_dim": 52, "input_length": 140, "activity_regularizer": null, "dropout": 0.2, "input_dtype": "int32"}}, {"class_name": "ZeroPadding1D", "config": {"name": "zeropadding1d_1_dai_model", "trainable": true, "padding": 5}}, {"class_name": "Convolution1D", "config": {"name": "convolution1d_1_dai_model", "trainable": true, "border_mode": "valid", "W_regularizer": null, "nb_filter": 200, "W_constraint": null, "filter_length": 6, "subsample_length": 1, "init": "uniform", "input_dim": null, "input_length": null, "activity_regularizer": null, "activation": "relu", "b_constraint": null, "b_regularizer": null, "bias": true}}, {"class_name": "MaxPooling1D", "config": {"name": "maxpooling1d_1_dai_model", "trainable": true, "stride": 2, "pool_length": 4, "border_mode": "valid"}}, {"class_name": "Convolution1D", "config": {"name": "convolution1d_2_dai_model", "trainable": true, "border_mode": "valid", "W_regularizer": null, "nb_filter": 200, "W_constraint": null, "filter_length": 6, "subsample_length": 1, "init": "uniform", "input_dim": null, "input_length": null, "activity_regularizer": null, "activation": "relu", "b_constraint": null, "b_regularizer": null, "bias": true}}]}, {"class_name": "Sequential", "config": [{"class_name": "Embedding", "config": {"name": "embedding_1_dil_model", "trainable": true, "batch_input_shape": [null, 140], "input_dim": 1576890, "W_regularizer": null, "W_constraint": null, "mask_zero": false, "init": "uniform", "output_dim": 52, "input_length": 140, "activity_regularizer": null, "dropout": 0.2, "input_dtype": "int32"}}, {"class_name": "ZeroPadding1D", "config": {"name": "zeropadding1d_1_dil_model", "trainable": true, "padding": 5}}, {"class_name": "Convolution1D", "config": {"name": "convolution1d_1_dil_model", "trainable": true, "border_mode": "valid", "W_regularizer": null, "nb_filter": 200, "W_constraint": null, "filter_length": 6, "subsample_length": 1, "init": "uniform", "input_dim": null, "input_length": null, "activity_regularizer": null, "activation": "relu", "b_constraint": null, "b_regularizer": null, "bias": true}}, {"class_name": "MaxPooling1D", "config": {"name": "maxpooling1d_1_dil_model", "trainable": true, "stride": 2, "pool_length": 4, "border_mode": "valid"}}, {"class_name": "Convolution1D", "config": {"name": "convolution1d_2_dil_model", "trainable": true, "border_mode": "valid", "W_regularizer": null, "nb_filter": 200, "W_constraint": null, "filter_length": 6, "subsample_length": 1, "init": "uniform", "input_dim": null, "input_length": null, "activity_regularizer": null, "activation": "relu", "b_constraint": null, "b_regularizer": null, "bias": true}}]}, {"class_name": "Sequential", "config": [{"class_name": "Embedding", "config": {"name": "embedding_17_mpq_model", "trainable": true, "batch_input_shape": [null, 140], "input_dim": 428669, "W_regularizer": null, "W_constraint": null, "mask_zero": false, "init": "uniform", "output_dim": 52, "input_length": 140, "activity_regularizer": null, "dropout": 0.2, "input_dtype": "int32"}}, {"class_name": "ZeroPadding1D", "config": {"name": "zeropadding1d_17_mpq_model", "trainable": true, "padding": 5}}, {"class_name": "Convolution1D", "config": {"name": "convolution1d_33_mpq_model", "trainable": true, "border_mode": "valid", "W_regularizer": null, "nb_filter": 200, "W_constraint": null, "filter_length": 6, "subsample_length": 1, "init": "uniform", "input_dim": null, "input_length": null, "activity_regularizer": null, "activation": "relu", "b_constraint": null, "b_regularizer": null, "bias": true}}, {"class_name": "MaxPooling1D", "config": {"name": "maxpooling1d_33_mpq_model", "trainable": true, "stride": 2, "pool_length": 4, "border_mode": "valid"}}, {"class_name": "Convolution1D", "config": {"name": "convolution1d_34_mpq_model", "trainable": true, "border_mode": "valid", "W_regularizer": null, "nb_filter": 200, "W_constraint": null, "filter_length": 6, "subsample_length": 1, "init": "uniform", "input_dim": null, "input_length": null, "activity_regularizer": null, "activation": "relu", "b_constraint": null, "b_regularizer": null, "bias": true}}]}, {"class_name": "Sequential", "config": [{"class_name": "Embedding", "config": {"name": "embedding_1_semeval_model", "trainable": true, "batch_input_shape": [null, 140], "input_dim": 428669, "W_regularizer": null, "W_constraint": null, "mask_zero": false, "init": "uniform", "output_dim": 52, "input_length": 140, "activity_regularizer": null, "dropout": 0.2, "input_dtype": "int32"}}, {"class_name": "ZeroPadding1D", "config": {"name": "zeropadding1d_1_semeval_model", "trainable": true, "padding": 5}}, {"class_name": "Convolution1D", "config": {"name": "convolution1d_1_semeval_model", "trainable": true, "border_mode": "valid", "W_regularizer": null, "nb_filter": 200, "W_constraint": null, "filter_length": 6, "subsample_length": 1, "init": "uniform", "input_dim": null, "input_length": null, "activity_regularizer": null, "activation": "relu", "b_constraint": null, "b_regularizer": null, "bias": true}}, {"class_name": "MaxPooling1D", "config": {"name": "maxpooling1d_1_semeval_model", "trainable": true, "stride": 2, "pool_length": 4, "border_mode": "valid"}}, {"class_name": "Convolution1D", "config": {"name": "convolution1d_2_semeval_model", "trainable": true, "border_mode": "valid", "W_regularizer": null, "nb_filter": 200, "W_constraint": null, "filter_length": 6, "subsample_length": 1, "init": "uniform", "input_dim": null, "input_length": null, "activity_regularizer": null, "activation": "relu", "b_constraint": null, "b_regularizer": null, "bias": true}}]}, {"class_name": "Sequential", "config": [{"class_name": "Embedding", "config": {"name": "embedding_1_tac_model", "trainable": true, "batch_input_shape": [null, 140], "input_dim": 428669, "W_regularizer": null, "W_constraint": null, "mask_zero": false, "init": "uniform", "output_dim": 52, "input_length": 140, "activity_regularizer": null, "dropout": 0.2, "input_dtype": "int32"}}, {"class_name": "ZeroPadding1D", "config": {"name": "zeropadding1d_1_tac_model", "trainable": true, "padding": 5}}, {"class_name": "Convolution1D", "config": {"name": "convolution1d_1_tac_model", "trainable": true, "border_mode": "valid", "W_regularizer": null, "nb_filter": 200, "W_constraint": null, "filter_length": 6, "subsample_length": 1, "init": "uniform", "input_dim": null, "input_length": null, "activity_regularizer": null, "activation": "relu", "b_constraint": null, "b_regularizer": null, "bias": true}}, {"class_name": "MaxPooling1D", "config": {"name": "maxpooling1d_1_tac_model", "trainable": true, "stride": 2, "pool_length": 4, "border_mode": "valid"}}, {"class_name": "Convolution1D", "config": {"name": "convolution1d_2_tac_model", "trainable": true, "border_mode": "valid", "W_regularizer": null, "nb_filter": 200, "W_constraint": null, "filter_length": 6, "subsample_length": 1, "init": "uniform", "input_dim": null, "input_length": null, "activity_regularizer": null, "activation": "relu", "b_constraint": null, "b_regularizer": null, "bias": true}}]}], "name": "merge_1", "output_shape_type": "raw", "dot_axes": -1, "mode_type": "raw", "concat_axis": -1, "mode": "concat", "output_shape": null}}, {"class_name": "Flatten", "config": {"name": "flatten_1", "trainable": true}}, {"class_name": "Dense", "config": {"W_regularizer": null, "name": "dense_1", "trainable": true, "input_dim": null, "W_constraint": null, "init": "glorot_uniform", "output_dim": 200, "activity_regularizer": null, "activation": "linear", "b_constraint": null, "b_regularizer": null, "bias": true}}, {"class_name": "Dropout", "config": {"name": "dropout_1", "trainable": true, "p": 0.2}}, {"class_name": "Activation", "config": {"name": "activation_1", "activation": "relu", "trainable": true}}, {"class_name": "Dense", "config": {"W_regularizer": null, "name": "dense_2", "trainable": true, "input_dim": null, "W_constraint": null, "init": "glorot_uniform", "output_dim": 3, "activity_regularizer": null, "activation": "softmax", "b_constraint": null, "b_regularizer": null, "bias": true}}]}