{"config": [{"class_name": "Embedding", "config": {"W_regularizer": null, "input_dtype": "int32", "mask_zero": false, "activity_regularizer": null, "init": "uniform", "input_length": 140, "dropout": 0.2, "batch_input_shape": [null, 140], "input_dim": 1353244, "name": "embedding_1", "trainable": true, "W_constraint": null, "output_dim": 52}}, {"class_name": "ZeroPadding1D", "config": {"trainable": true, "name": "zeropadding1d_1", "padding": 5}}, {"class_name": "Convolution1D", "config": {"nb_filter": 200, "filter_length": 6, "W_regularizer": null, "activation": "relu", "bias": true, "activity_regularizer": null, "border_mode": "valid", "init": "uniform", "b_regularizer": null, "input_length": null, "b_constraint": null, "input_dim": null, "name": "convolution1d_1", "trainable": true, "W_constraint": null, "subsample_length": 1}}, {"class_name": "MaxPooling1D", "config": {"trainable": true, "name": "maxpooling1d_1", "stride": 2, "pool_length": 4, "border_mode": "valid"}}, {"class_name": "Convolution1D", "config": {"nb_filter": 200, "filter_length": 6, "W_regularizer": null, "activation": "relu", "bias": true, "activity_regularizer": null, "border_mode": "valid", "init": "uniform", "b_regularizer": null, "input_length": null, "b_constraint": null, "input_dim": null, "name": "convolution1d_2", "trainable": true, "W_constraint": null, "subsample_length": 1}}, {"class_name": "MaxPooling1D", "config": {"trainable": true, "name": "maxpooling1d_2", "stride": 66, "pool_length": 66, "border_mode": "valid"}}, {"class_name": "Flatten", "config": {"name": "flatten_1", "trainable": true}}, {"class_name": "Dense", "config": {"activation": "linear", "W_regularizer": null, "bias": true, "activity_regularizer": null, "init": "glorot_uniform", "b_regularizer": null, "b_constraint": null, "input_dim": null, "name": "dense_1", "trainable": true, "W_constraint": null, "output_dim": 200}}, {"class_name": "Dropout", "config": {"trainable": true, "name": "dropout_1", "p": 0.2}}, {"class_name": "Activation", "config": {"activation": "relu", "name": "activation_1", "trainable": true}}, {"class_name": "Dense", "config": {"activation": "softmax", "W_regularizer": null, "bias": true, "activity_regularizer": null, "init": "glorot_uniform", "b_regularizer": null, "b_constraint": null, "input_dim": null, "name": "dense_2", "trainable": true, "W_constraint": null, "output_dim": 3}}], "class_name": "Sequential", "keras_version": "1.1.0"}