{"class_name": "Sequential", "config": [{"class_name": "Merge", "config": {"mode": "concat", "mode_type": "raw", "dot_axes": -1, "layers": [{"class_name": "Sequential", "config": [{"class_name": "Embedding", "config": {"trainable": true, "input_dtype": "int32", "init": "uniform", "mask_zero": false, "W_regularizer": null, "W_constraint": null, "activity_regularizer": null, "dropout": 0.2, "batch_input_shape": [null, 140], "name": "embedding_1_dai_model", "output_dim": 52, "input_dim": 1576890, "input_length": 140}}, {"class_name": "ZeroPadding1D", "config": {"name": "zeropadding1d_1_dai_model", "padding": 5, "trainable": true}}, {"class_name": "Convolution1D", "config": {"b_regularizer": null, "trainable": true, "input_length": null, "subsample_length": 1, "init": "uniform", "W_regularizer": null, "filter_length": 6, "activity_regularizer": null, "b_constraint": null, "nb_filter": 200, "W_constraint": null, "bias": true, "name": "convolution1d_1_dai_model", "input_dim": null, "activation": "relu", "border_mode": "valid"}}, {"class_name": "MaxPooling1D", "config": {"name": "maxpooling1d_1_dai_model", "trainable": true, "pool_length": 4, "stride": 2, "border_mode": "valid"}}, {"class_name": "Convolution1D", "config": {"b_regularizer": null, "trainable": true, "input_length": null, "subsample_length": 1, "init": "uniform", "W_regularizer": null, "filter_length": 6, "activity_regularizer": null, "b_constraint": null, "nb_filter": 200, "W_constraint": null, "bias": true, "name": "convolution1d_2_dai_model", "input_dim": null, "activation": "relu", "border_mode": "valid"}}, {"class_name": "MaxPooling1D", "config": {"name": "maxpooling1d_2_dai_model", "trainable": true, "pool_length": 66, "stride": 66, "border_mode": "valid"}}, {"class_name": "Flatten", "config": {"name": "flatten_1_dai_model", "trainable": true}}]}, {"class_name": "Sequential", "config": [{"class_name": "Embedding", "config": {"trainable": true, "input_dtype": "int32", "init": "uniform", "mask_zero": false, "W_regularizer": null, "W_constraint": null, "activity_regularizer": null, "dropout": 0.2, "batch_input_shape": [null, 140], "name": "embedding_1_semeval_model", "output_dim": 52, "input_dim": 428669, "input_length": 140}}, {"class_name": "ZeroPadding1D", "config": {"name": "zeropadding1d_1_semeval_model", "padding": 5, "trainable": true}}, {"class_name": "Convolution1D", "config": {"b_regularizer": null, "trainable": true, "input_length": null, "subsample_length": 1, "init": "uniform", "W_regularizer": null, "filter_length": 6, "activity_regularizer": null, "b_constraint": null, "nb_filter": 200, "W_constraint": null, "bias": true, "name": "convolution1d_1_semeval_model", "input_dim": null, "activation": "relu", "border_mode": "valid"}}, {"class_name": "MaxPooling1D", "config": {"name": "maxpooling1d_1_semeval_model", "trainable": true, "pool_length": 4, "stride": 2, "border_mode": "valid"}}, {"class_name": "Convolution1D", "config": {"b_regularizer": null, "trainable": true, "input_length": null, "subsample_length": 1, "init": "uniform", "W_regularizer": null, "filter_length": 6, "activity_regularizer": null, "b_constraint": null, "nb_filter": 200, "W_constraint": null, "bias": true, "name": "convolution1d_2_semeval_model", "input_dim": null, "activation": "relu", "border_mode": "valid"}}, {"class_name": "MaxPooling1D", "config": {"name": "maxpooling1d_2_semeval_model", "trainable": true, "pool_length": 66, "stride": 66, "border_mode": "valid"}}, {"class_name": "Flatten", "config": {"name": "flatten_1_semeval_model", "trainable": true}}]}, {"class_name": "Sequential", "config": [{"class_name": "Embedding", "config": {"trainable": true, "input_dtype": "int32", "init": "uniform", "mask_zero": false, "W_regularizer": null, "W_constraint": null, "activity_regularizer": null, "dropout": 0.2, "batch_input_shape": [null, 140], "name": "embedding_1_tac_model", "output_dim": 52, "input_dim": 428669, "input_length": 140}}, {"class_name": "ZeroPadding1D", "config": {"name": "zeropadding1d_1_tac_model", "padding": 5, "trainable": true}}, {"class_name": "Convolution1D", "config": {"b_regularizer": null, "trainable": true, "input_length": null, "subsample_length": 1, "init": "uniform", "W_regularizer": null, "filter_length": 6, "activity_regularizer": null, "b_constraint": null, "nb_filter": 200, "W_constraint": null, "bias": true, "name": "convolution1d_1_tac_model", "input_dim": null, "activation": "relu", "border_mode": "valid"}}, {"class_name": "MaxPooling1D", "config": {"name": "maxpooling1d_1_tac_model", "trainable": true, "pool_length": 4, "stride": 2, "border_mode": "valid"}}, {"class_name": "Convolution1D", "config": {"b_regularizer": null, "trainable": true, "input_length": null, "subsample_length": 1, "init": "uniform", "W_regularizer": null, "filter_length": 6, "activity_regularizer": null, "b_constraint": null, "nb_filter": 200, "W_constraint": null, "bias": true, "name": "convolution1d_2_tac_model", "input_dim": null, "activation": "relu", "border_mode": "valid"}}, {"class_name": "MaxPooling1D", "config": {"name": "maxpooling1d_2_tac_model", "trainable": true, "pool_length": 66, "stride": 66, "border_mode": "valid"}}, {"class_name": "Flatten", "config": {"name": "flatten_1_tac_model", "trainable": true}}]}, {"class_name": "Sequential", "config": [{"class_name": "Embedding", "config": {"trainable": true, "input_dtype": "int32", "init": "uniform", "mask_zero": false, "W_regularizer": null, "W_constraint": null, "activity_regularizer": null, "dropout": 0.2, "batch_input_shape": [null, 140], "name": "embedding_1_hul_model", "output_dim": 52, "input_dim": 1062158, "input_length": 140}}, {"class_name": "ZeroPadding1D", "config": {"name": "zeropadding1d_1_hul_model", "padding": 5, "trainable": true}}, {"class_name": "Convolution1D", "config": {"b_regularizer": null, "trainable": true, "input_length": null, "subsample_length": 1, "init": "uniform", "W_regularizer": null, "filter_length": 6, "activity_regularizer": null, "b_constraint": null, "nb_filter": 200, "W_constraint": null, "bias": true, "name": "convolution1d_1_hul_model", "input_dim": null, "activation": "relu", "border_mode": "valid"}}, {"class_name": "MaxPooling1D", "config": {"name": "maxpooling1d_1_hul_model", "trainable": true, "pool_length": 4, "stride": 2, "border_mode": "valid"}}, {"class_name": "Convolution1D", "config": {"b_regularizer": null, "trainable": true, "input_length": null, "subsample_length": 1, "init": "uniform", "W_regularizer": null, "filter_length": 6, "activity_regularizer": null, "b_constraint": null, "nb_filter": 200, "W_constraint": null, "bias": true, "name": "convolution1d_2_hul_model", "input_dim": null, "activation": "relu", "border_mode": "valid"}}, {"class_name": "MaxPooling1D", "config": {"name": "maxpooling1d_2_hul_model", "trainable": true, "pool_length": 66, "stride": 66, "border_mode": "valid"}}, {"class_name": "Flatten", "config": {"name": "flatten_1_hul_model", "trainable": true}}]}, {"class_name": "Sequential", "config": [{"class_name": "Embedding", "config": {"trainable": true, "input_dtype": "int32", "init": "uniform", "mask_zero": false, "W_regularizer": null, "W_constraint": null, "activity_regularizer": null, "dropout": 0.2, "batch_input_shape": [null, 140], "name": "embedding_1_dil_model", "output_dim": 52, "input_dim": 1576890, "input_length": 140}}, {"class_name": "ZeroPadding1D", "config": {"name": "zeropadding1d_1_dil_model", "padding": 5, "trainable": true}}, {"class_name": "Convolution1D", "config": {"b_regularizer": null, "trainable": true, "input_length": null, "subsample_length": 1, "init": "uniform", "W_regularizer": null, "filter_length": 6, "activity_regularizer": null, "b_constraint": null, "nb_filter": 200, "W_constraint": null, "bias": true, "name": "convolution1d_1_dil_model", "input_dim": null, "activation": "relu", "border_mode": "valid"}}, {"class_name": "MaxPooling1D", "config": {"name": "maxpooling1d_1_dil_model", "trainable": true, "pool_length": 4, "stride": 2, "border_mode": "valid"}}, {"class_name": "Convolution1D", "config": {"b_regularizer": null, "trainable": true, "input_length": null, "subsample_length": 1, "init": "uniform", "W_regularizer": null, "filter_length": 6, "activity_regularizer": null, "b_constraint": null, "nb_filter": 200, "W_constraint": null, "bias": true, "name": "convolution1d_2_dil_model", "input_dim": null, "activation": "relu", "border_mode": "valid"}}, {"class_name": "MaxPooling1D", "config": {"name": "maxpooling1d_2_dil_model", "trainable": true, "pool_length": 66, "stride": 66, "border_mode": "valid"}}, {"class_name": "Flatten", "config": {"name": "flatten_1_dil_model", "trainable": true}}]}, {"class_name": "Sequential", "config": [{"class_name": "Embedding", "config": {"trainable": true, "input_dtype": "int32", "init": "uniform", "mask_zero": false, "W_regularizer": null, "W_constraint": null, "activity_regularizer": null, "dropout": 0.2, "batch_input_shape": [null, 140], "name": "embedding_17_mpq_model", "output_dim": 52, "input_dim": 428669, "input_length": 140}}, {"class_name": "ZeroPadding1D", "config": {"name": "zeropadding1d_17_mpq_model", "padding": 5, "trainable": true}}, {"class_name": "Convolution1D", "config": {"b_regularizer": null, "trainable": true, "input_length": null, "subsample_length": 1, "init": "uniform", "W_regularizer": null, "filter_length": 6, "activity_regularizer": null, "b_constraint": null, "nb_filter": 200, "W_constraint": null, "bias": true, "name": "convolution1d_33_mpq_model", "input_dim": null, "activation": "relu", "border_mode": "valid"}}, {"class_name": "MaxPooling1D", "config": {"name": "maxpooling1d_33_mpq_model", "trainable": true, "pool_length": 4, "stride": 2, "border_mode": "valid"}}, {"class_name": "Convolution1D", "config": {"b_regularizer": null, "trainable": true, "input_length": null, "subsample_length": 1, "init": "uniform", "W_regularizer": null, "filter_length": 6, "activity_regularizer": null, "b_constraint": null, "nb_filter": 200, "W_constraint": null, "bias": true, "name": "convolution1d_34_mpq_model", "input_dim": null, "activation": "relu", "border_mode": "valid"}}, {"class_name": "MaxPooling1D", "config": {"name": "maxpooling1d_34_mpq_model", "trainable": true, "pool_length": 66, "stride": 66, "border_mode": "valid"}}, {"class_name": "Flatten", "config": {"name": "flatten_17_mpq_model", "trainable": true}}]}], "name": "merge_1", "output_shape_type": "raw", "concat_axis": -1, "output_shape": null}}, {"class_name": "Dense", "config": {"b_regularizer": null, "trainable": true, "init": "glorot_uniform", "W_regularizer": null, "W_constraint": null, "activity_regularizer": null, "b_constraint": null, "output_dim": 1028, "name": "dense_1", "bias": true, "activation": "linear", "input_dim": null}}, {"class_name": "Activation", "config": {"name": "activation_1", "trainable": true, "activation": "relu"}}, {"class_name": "Dense", "config": {"b_regularizer": null, "trainable": true, "init": "glorot_uniform", "W_regularizer": null, "W_constraint": null, "activity_regularizer": null, "b_constraint": null, "output_dim": 3, "name": "dense_2", "bias": true, "activation": "softmax", "input_dim": null}}], "keras_version": "1.1.1"}