{"class_name": "Sequential", "config": [{"class_name": "Merge", "config": {"concat_axis": -1, "layers": [{"class_name": "Sequential", "config": [{"class_name": "Embedding", "config": {"init": "uniform", "input_dtype": "int32", "mask_zero": false, "name": "embedding_1_hul_model", "activity_regularizer": null, "input_dim": 1062158, "trainable": true, "W_constraint": null, "input_length": 140, "dropout": 0.2, "output_dim": 52, "W_regularizer": null, "batch_input_shape": [null, 140]}}, {"class_name": "ZeroPadding1D", "config": {"trainable": true, "name": "zeropadding1d_1_hul_model", "padding": 5}}, {"class_name": "Convolution1D", "config": {"init": "uniform", "subsample_length": 1, "bias": true, "nb_filter": 200, "activity_regularizer": null, "border_mode": "valid", "name": "convolution1d_1_hul_model", "b_constraint": null, "activation": "relu", "input_dim": null, "trainable": true, "W_constraint": null, "filter_length": 6, "W_regularizer": null, "b_regularizer": null, "input_length": null}}, {"class_name": "MaxPooling1D", "config": {"trainable": true, "border_mode": "valid", "name": "maxpooling1d_1_hul_model", "pool_length": 4, "stride": 2}}, {"class_name": "Convolution1D", "config": {"init": "uniform", "subsample_length": 1, "bias": true, "nb_filter": 200, "activity_regularizer": null, "border_mode": "valid", "name": "convolution1d_2_hul_model", "b_constraint": null, "activation": "relu", "input_dim": null, "trainable": true, "W_constraint": null, "filter_length": 6, "W_regularizer": null, "b_regularizer": null, "input_length": null}}]}, {"class_name": "Sequential", "config": [{"class_name": "Embedding", "config": {"init": "uniform", "input_dtype": "int32", "mask_zero": false, "name": "embedding_1_semeval_model", "activity_regularizer": null, "input_dim": 1576890, "trainable": true, "W_constraint": null, "input_length": 140, "dropout": 0.2, "output_dim": 52, "W_regularizer": null, "batch_input_shape": [null, 140]}}, {"class_name": "ZeroPadding1D", "config": {"trainable": true, "name": "zeropadding1d_1_semeval_model", "padding": 5}}, {"class_name": "Convolution1D", "config": {"init": "uniform", "subsample_length": 1, "bias": true, "nb_filter": 200, "activity_regularizer": null, "border_mode": "valid", "name": "convolution1d_1_semeval_model", "b_constraint": null, "activation": "relu", "input_dim": null, "trainable": true, "W_constraint": null, "filter_length": 6, "W_regularizer": null, "b_regularizer": null, "input_length": null}}, {"class_name": "MaxPooling1D", "config": {"trainable": true, "border_mode": "valid", "name": "maxpooling1d_1_semeval_model", "pool_length": 4, "stride": 2}}, {"class_name": "Convolution1D", "config": {"init": "uniform", "subsample_length": 1, "bias": true, "nb_filter": 200, "activity_regularizer": null, "border_mode": "valid", "name": "convolution1d_2_semeval_model", "b_constraint": null, "activation": "relu", "input_dim": null, "trainable": true, "W_constraint": null, "filter_length": 6, "W_regularizer": null, "b_regularizer": null, "input_length": null}}]}, {"class_name": "Sequential", "config": [{"class_name": "Embedding", "config": {"init": "uniform", "input_dtype": "int32", "mask_zero": false, "name": "embedding_1_tac_model", "activity_regularizer": null, "input_dim": 428669, "trainable": true, "W_constraint": null, "input_length": 140, "dropout": 0.2, "output_dim": 52, "W_regularizer": null, "batch_input_shape": [null, 140]}}, {"class_name": "ZeroPadding1D", "config": {"trainable": true, "name": "zeropadding1d_1_tac_model", "padding": 5}}, {"class_name": "Convolution1D", "config": {"init": "uniform", "subsample_length": 1, "bias": true, "nb_filter": 200, "activity_regularizer": null, "border_mode": "valid", "name": "convolution1d_1_tac_model", "b_constraint": null, "activation": "relu", "input_dim": null, "trainable": true, "W_constraint": null, "filter_length": 6, "W_regularizer": null, "b_regularizer": null, "input_length": null}}, {"class_name": "MaxPooling1D", "config": {"trainable": true, "border_mode": "valid", "name": "maxpooling1d_1_tac_model", "pool_length": 4, "stride": 2}}, {"class_name": "Convolution1D", "config": {"init": "uniform", "subsample_length": 1, "bias": true, "nb_filter": 200, "activity_regularizer": null, "border_mode": "valid", "name": "convolution1d_2_tac_model", "b_constraint": null, "activation": "relu", "input_dim": null, "trainable": true, "W_constraint": null, "filter_length": 6, "W_regularizer": null, "b_regularizer": null, "input_length": null}}]}], "mode": "concat", "mode_type": "raw", "output_shape": null, "name": "merge_1", "dot_axes": -1, "output_shape_type": "raw"}}, {"class_name": "MaxPooling1D", "config": {"trainable": true, "border_mode": "valid", "name": "maxpooling1d_1", "pool_length": 4, "stride": 2}}, {"class_name": "Convolution1D", "config": {"init": "uniform", "subsample_length": 1, "bias": true, "nb_filter": 200, "activity_regularizer": null, "border_mode": "valid", "name": "convolution1d_1", "b_constraint": null, "activation": "relu", "input_dim": null, "trainable": true, "W_constraint": null, "filter_length": 6, "W_regularizer": null, "b_regularizer": null, "input_length": null}}, {"class_name": "MaxPooling1D", "config": {"trainable": true, "border_mode": "valid", "name": "maxpooling1d_2", "pool_length": 4, "stride": 2}}, {"class_name": "Flatten", "config": {"trainable": true, "name": "flatten_1"}}, {"class_name": "Dense", "config": {"init": "glorot_uniform", "bias": true, "activity_regularizer": null, "name": "dense_1", "b_constraint": null, "activation": "linear", "input_dim": null, "trainable": true, "W_constraint": null, "output_dim": 200, "W_regularizer": null, "b_regularizer": null}}, {"class_name": "Dropout", "config": {"trainable": true, "name": "dropout_1", "p": 0.2}}, {"class_name": "Activation", "config": {"trainable": true, "name": "activation_1", "activation": "relu"}}, {"class_name": "Dense", "config": {"init": "glorot_uniform", "bias": true, "activity_regularizer": null, "name": "dense_2", "b_constraint": null, "activation": "softmax", "input_dim": null, "trainable": true, "W_constraint": null, "output_dim": 3, "W_regularizer": null, "b_regularizer": null}}], "keras_version": "1.1.1"}