{"config": [{"config": {"W_constraint": null, "input_dtype": "int32", "input_length": 140, "mask_zero": false, "dropout": 0.2, "input_dim": 2950660, "W_regularizer": null, "trainable": true, "name": "embedding_1", "activity_regularizer": null, "batch_input_shape": [null, 140], "output_dim": 52, "init": "uniform"}, "class_name": "Embedding"}, {"config": {"name": "zeropadding1d_1", "padding": 5, "trainable": true}, "class_name": "ZeroPadding1D"}, {"config": {"W_constraint": null, "b_regularizer": null, "input_length": null, "nb_filter": 200, "border_mode": "valid", "bias": true, "input_dim": null, "filter_length": 6, "name": "convolution1d_1", "activation": "relu", "trainable": true, "W_regularizer": null, "activity_regularizer": null, "init": "uniform", "b_constraint": null, "subsample_length": 1}, "class_name": "Convolution1D"}, {"config": {"name": "maxpooling1d_1", "stride": 2, "pool_length": 4, "border_mode": "valid", "trainable": true}, "class_name": "MaxPooling1D"}, {"config": {"W_constraint": null, "b_regularizer": null, "input_length": null, "nb_filter": 200, "border_mode": "valid", "bias": true, "input_dim": null, "filter_length": 6, "name": "convolution1d_2", "activation": "relu", "trainable": true, "W_regularizer": null, "activity_regularizer": null, "init": "uniform", "b_constraint": null, "subsample_length": 1}, "class_name": "Convolution1D"}, {"config": {"name": "maxpooling1d_2", "stride": 66, "pool_length": 66, "border_mode": "valid", "trainable": true}, "class_name": "MaxPooling1D"}, {"config": {"name": "flatten_1", "trainable": true}, "class_name": "Flatten"}, {"config": {"W_constraint": null, "b_regularizer": null, "bias": true, "b_constraint": null, "input_dim": null, "name": "dense_1", "activation": "linear", "trainable": true, "W_regularizer": null, "activity_regularizer": null, "init": "glorot_uniform", "output_dim": 200}, "class_name": "Dense"}, {"config": {"name": "dropout_1", "p": 0.2, "trainable": true}, "class_name": "Dropout"}, {"config": {"name": "activation_1", "activation": "relu", "trainable": true}, "class_name": "Activation"}, {"config": {"W_constraint": null, "b_regularizer": null, "bias": true, "b_constraint": null, "input_dim": null, "name": "dense_2", "activation": "softmax", "trainable": true, "W_regularizer": null, "activity_regularizer": null, "init": "glorot_uniform", "output_dim": 3}, "class_name": "Dense"}], "class_name": "Sequential", "keras_version": "1.1.0"}