{"keras_version": "1.1.1", "class_name": "Sequential", "config": [{"class_name": "Embedding", "config": {"dropout": 0.2, "name": "embedding_1", "batch_input_shape": [null, 140], "output_dim": 52, "activity_regularizer": null, "W_regularizer": null, "init": "uniform", "input_length": 140, "input_dtype": "int32", "trainable": true, "input_dim": 428669, "mask_zero": false, "W_constraint": null}}, {"class_name": "ZeroPadding1D", "config": {"name": "zeropadding1d_1", "trainable": true, "padding": 5}}, {"class_name": "Convolution1D", "config": {"bias": true, "subsample_length": 1, "filter_length": 6, "b_constraint": null, "nb_filter": 200, "activity_regularizer": null, "W_regularizer": null, "name": "convolution1d_1", "input_length": null, "trainable": true, "input_dim": null, "border_mode": "valid", "b_regularizer": null, "init": "uniform", "W_constraint": null, "activation": "relu"}}, {"class_name": "MaxPooling1D", "config": {"name": "maxpooling1d_1", "stride": 2, "trainable": true, "border_mode": "valid", "pool_length": 4}}, {"class_name": "Convolution1D", "config": {"bias": true, "subsample_length": 1, "filter_length": 6, "b_constraint": null, "nb_filter": 200, "activity_regularizer": null, "W_regularizer": null, "name": "convolution1d_2", "input_length": null, "trainable": true, "input_dim": null, "border_mode": "valid", "b_regularizer": null, "init": "uniform", "W_constraint": null, "activation": "relu"}}, {"class_name": "MaxPooling1D", "config": {"name": "maxpooling1d_2", "stride": 66, "trainable": true, "border_mode": "valid", "pool_length": 66}}, {"class_name": "Flatten", "config": {"name": "flatten_1", "trainable": true}}, {"class_name": "Dense", "config": {"bias": true, "name": "dense_1", "W_regularizer": null, "b_constraint": null, "activity_regularizer": null, "init": "glorot_uniform", "trainable": true, "input_dim": null, "output_dim": 200, "b_regularizer": null, "W_constraint": null, "activation": "linear"}}, {"class_name": "Dropout", "config": {"name": "dropout_1", "trainable": true, "p": 0.2}}, {"class_name": "Activation", "config": {"name": "activation_1", "activation": "relu", "trainable": true}}, {"class_name": "Dense", "config": {"bias": true, "name": "dense_2", "W_regularizer": null, "b_constraint": null, "activity_regularizer": null, "init": "glorot_uniform", "trainable": true, "input_dim": null, "output_dim": 3, "b_regularizer": null, "W_constraint": null, "activation": "softmax"}}]}