{"keras_version": "1.1.0", "config": [{"config": {"input_dim": 1576890, "dropout": 0.2, "activity_regularizer": null, "mask_zero": false, "input_dtype": "int32", "W_regularizer": null, "output_dim": 52, "W_constraint": null, "trainable": true, "input_length": 140, "batch_input_shape": [null, 140], "name": "embedding_21", "init": "uniform"}, "class_name": "Embedding"}, {"config": {"trainable": true, "name": "zeropadding1d_21", "padding": 5}, "class_name": "ZeroPadding1D"}, {"config": {"b_regularizer": null, "border_mode": "valid", "input_dim": null, "activity_regularizer": null, "filter_length": 6, "W_regularizer": null, "W_constraint": null, "b_constraint": null, "activation": "relu", "bias": true, "input_length": null, "trainable": true, "subsample_length": 1, "name": "convolution1d_41", "init": "uniform", "nb_filter": 200}, "class_name": "Convolution1D"}, {"config": {"name": "maxpooling1d_41", "border_mode": "valid", "pool_length": 4, "stride": 2, "trainable": true}, "class_name": "MaxPooling1D"}, {"config": {"b_regularizer": null, "border_mode": "valid", "input_dim": null, "activity_regularizer": null, "filter_length": 6, "W_regularizer": null, "W_constraint": null, "b_constraint": null, "activation": "relu", "bias": true, "input_length": null, "trainable": true, "subsample_length": 1, "name": "convolution1d_42", "init": "uniform", "nb_filter": 200}, "class_name": "Convolution1D"}, {"config": {"name": "maxpooling1d_42", "border_mode": "valid", "pool_length": 66, "stride": 66, "trainable": true}, "class_name": "MaxPooling1D"}, {"config": {"name": "flatten_21", "trainable": true}, "class_name": "Flatten"}, {"config": {"b_regularizer": null, "W_regularizer": null, "activity_regularizer": null, "activation": "linear", "input_dim": null, "output_dim": 200, "W_constraint": null, "b_constraint": null, "trainable": true, "bias": true, "init": "glorot_uniform", "name": "dense_41"}, "class_name": "Dense"}, {"config": {"p": 0.2, "name": "dropout_21", "trainable": true}, "class_name": "Dropout"}, {"config": {"activation": "relu", "name": "activation_21", "trainable": true}, "class_name": "Activation"}, {"config": {"b_regularizer": null, "W_regularizer": null, "activity_regularizer": null, "activation": "softmax", "input_dim": null, "output_dim": 3, "W_constraint": null, "b_constraint": null, "trainable": true, "bias": true, "init": "glorot_uniform", "name": "dense_42"}, "class_name": "Dense"}], "class_name": "Sequential"}