{"config": [{"config": {"dot_axes": -1, "name": "merge_1", "mode": "concat", "output_shape": null, "output_shape_type": "raw", "mode_type": "raw", "concat_axis": -1, "layers": [{"config": [{"config": {"trainable": true, "dropout": 0.2, "activity_regularizer": null, "init": "uniform", "W_regularizer": null, "mask_zero": false, "output_dim": 52, "batch_input_shape": [null, 140], "input_length": 140, "name": "embedding_1_dai_model", "input_dim": 1576890, "W_constraint": null, "input_dtype": "int32"}, "class_name": "Embedding"}, {"config": {"trainable": true, "name": "zeropadding1d_1_dai_model", "padding": 5}, "class_name": "ZeroPadding1D"}, {"config": {"trainable": true, "activity_regularizer": null, "init": "uniform", "W_regularizer": null, "subsample_length": 1, "b_regularizer": null, "nb_filter": 200, "bias": true, "b_constraint": null, "name": "convolution1d_1_dai_model", "input_length": null, "input_dim": null, "W_constraint": null, "filter_length": 6, "activation": "relu", "border_mode": "valid"}, "class_name": "Convolution1D"}, {"config": {"trainable": true, "name": "maxpooling1d_1_dai_model", "border_mode": "valid", "pool_length": 4, "stride": 2}, "class_name": "MaxPooling1D"}, {"config": {"trainable": true, "activity_regularizer": null, "init": "uniform", "W_regularizer": null, "subsample_length": 1, "b_regularizer": null, "nb_filter": 200, "bias": true, "b_constraint": null, "name": "convolution1d_2_dai_model", "input_length": null, "input_dim": null, "W_constraint": null, "filter_length": 6, "activation": "relu", "border_mode": "valid"}, "class_name": "Convolution1D"}], "class_name": "Sequential"}, {"config": [{"config": {"trainable": true, "dropout": 0.2, "activity_regularizer": null, "init": "uniform", "W_regularizer": null, "mask_zero": false, "output_dim": 52, "batch_input_shape": [null, 140], "input_length": 140, "name": "embedding_1_semeval_model", "input_dim": 428669, "W_constraint": null, "input_dtype": "int32"}, "class_name": "Embedding"}, {"config": {"trainable": true, "name": "zeropadding1d_1_semeval_model", "padding": 5}, "class_name": "ZeroPadding1D"}, {"config": {"trainable": true, "activity_regularizer": null, "init": "uniform", "W_regularizer": null, "subsample_length": 1, "b_regularizer": null, "nb_filter": 200, "bias": true, "b_constraint": null, "name": "convolution1d_1_semeval_model", "input_length": null, "input_dim": null, "W_constraint": null, "filter_length": 6, "activation": "relu", "border_mode": "valid"}, "class_name": "Convolution1D"}, {"config": {"trainable": true, "name": "maxpooling1d_1_semeval_model", "border_mode": "valid", "pool_length": 4, "stride": 2}, "class_name": "MaxPooling1D"}, {"config": {"trainable": true, "activity_regularizer": null, "init": "uniform", "W_regularizer": null, "subsample_length": 1, "b_regularizer": null, "nb_filter": 200, "bias": true, "b_constraint": null, "name": "convolution1d_2_semeval_model", "input_length": null, "input_dim": null, "W_constraint": null, "filter_length": 6, "activation": "relu", "border_mode": "valid"}, "class_name": "Convolution1D"}], "class_name": "Sequential"}, {"config": [{"config": {"trainable": true, "dropout": 0.2, "activity_regularizer": null, "init": "uniform", "W_regularizer": null, "mask_zero": false, "output_dim": 52, "batch_input_shape": [null, 140], "input_length": 140, "name": "embedding_1_hul_model", "input_dim": 1062158, "W_constraint": null, "input_dtype": "int32"}, "class_name": "Embedding"}, {"config": {"trainable": true, "name": "zeropadding1d_1_hul_model", "padding": 5}, "class_name": "ZeroPadding1D"}, {"config": {"trainable": true, "activity_regularizer": null, "init": "uniform", "W_regularizer": null, "subsample_length": 1, "b_regularizer": null, "nb_filter": 200, "bias": true, "b_constraint": null, "name": "convolution1d_1_hul_model", "input_length": null, "input_dim": null, "W_constraint": null, "filter_length": 6, "activation": "relu", "border_mode": "valid"}, "class_name": "Convolution1D"}, {"config": {"trainable": true, "name": "maxpooling1d_1_hul_model", "border_mode": "valid", "pool_length": 4, "stride": 2}, "class_name": "MaxPooling1D"}, {"config": {"trainable": true, "activity_regularizer": null, "init": "uniform", "W_regularizer": null, "subsample_length": 1, "b_regularizer": null, "nb_filter": 200, "bias": true, "b_constraint": null, "name": "convolution1d_2_hul_model", "input_length": null, "input_dim": null, "W_constraint": null, "filter_length": 6, "activation": "relu", "border_mode": "valid"}, "class_name": "Convolution1D"}], "class_name": "Sequential"}, {"config": [{"config": {"trainable": true, "dropout": 0.2, "activity_regularizer": null, "init": "uniform", "W_regularizer": null, "mask_zero": false, "output_dim": 52, "batch_input_shape": [null, 140], "input_length": 140, "name": "embedding_1_tac_model", "input_dim": 428669, "W_constraint": null, "input_dtype": "int32"}, "class_name": "Embedding"}, {"config": {"trainable": true, "name": "zeropadding1d_1_tac_model", "padding": 5}, "class_name": "ZeroPadding1D"}, {"config": {"trainable": true, "activity_regularizer": null, "init": "uniform", "W_regularizer": null, "subsample_length": 1, "b_regularizer": null, "nb_filter": 200, "bias": true, "b_constraint": null, "name": "convolution1d_1_tac_model", "input_length": null, "input_dim": null, "W_constraint": null, "filter_length": 6, "activation": "relu", "border_mode": "valid"}, "class_name": "Convolution1D"}, {"config": {"trainable": true, "name": "maxpooling1d_1_tac_model", "border_mode": "valid", "pool_length": 4, "stride": 2}, "class_name": "MaxPooling1D"}, {"config": {"trainable": true, "activity_regularizer": null, "init": "uniform", "W_regularizer": null, "subsample_length": 1, "b_regularizer": null, "nb_filter": 200, "bias": true, "b_constraint": null, "name": "convolution1d_2_tac_model", "input_length": null, "input_dim": null, "W_constraint": null, "filter_length": 6, "activation": "relu", "border_mode": "valid"}, "class_name": "Convolution1D"}], "class_name": "Sequential"}, {"config": [{"config": {"trainable": true, "dropout": 0.2, "activity_regularizer": null, "init": "uniform", "W_regularizer": null, "mask_zero": false, "output_dim": 52, "batch_input_shape": [null, 140], "input_length": 140, "name": "embedding_1_dil_model", "input_dim": 1576890, "W_constraint": null, "input_dtype": "int32"}, "class_name": "Embedding"}, {"config": {"trainable": true, "name": "zeropadding1d_1_dil_model", "padding": 5}, "class_name": "ZeroPadding1D"}, {"config": {"trainable": true, "activity_regularizer": null, "init": "uniform", "W_regularizer": null, "subsample_length": 1, "b_regularizer": null, "nb_filter": 200, "bias": true, "b_constraint": null, "name": "convolution1d_1_dil_model", "input_length": null, "input_dim": null, "W_constraint": null, "filter_length": 6, "activation": "relu", "border_mode": "valid"}, "class_name": "Convolution1D"}, {"config": {"trainable": true, "name": "maxpooling1d_1_dil_model", "border_mode": "valid", "pool_length": 4, "stride": 2}, "class_name": "MaxPooling1D"}, {"config": {"trainable": true, "activity_regularizer": null, "init": "uniform", "W_regularizer": null, "subsample_length": 1, "b_regularizer": null, "nb_filter": 200, "bias": true, "b_constraint": null, "name": "convolution1d_2_dil_model", "input_length": null, "input_dim": null, "W_constraint": null, "filter_length": 6, "activation": "relu", "border_mode": "valid"}, "class_name": "Convolution1D"}], "class_name": "Sequential"}, {"config": [{"config": {"trainable": true, "dropout": 0.2, "activity_regularizer": null, "init": "uniform", "W_regularizer": null, "mask_zero": false, "output_dim": 52, "batch_input_shape": [null, 140], "input_length": 140, "name": "embedding_17_mpq_model", "input_dim": 428669, "W_constraint": null, "input_dtype": "int32"}, "class_name": "Embedding"}, {"config": {"trainable": true, "name": "zeropadding1d_17_mpq_model", "padding": 5}, "class_name": "ZeroPadding1D"}, {"config": {"trainable": true, "activity_regularizer": null, "init": "uniform", "W_regularizer": null, "subsample_length": 1, "b_regularizer": null, "nb_filter": 200, "bias": true, "b_constraint": null, "name": "convolution1d_33_mpq_model", "input_length": null, "input_dim": null, "W_constraint": null, "filter_length": 6, "activation": "relu", "border_mode": "valid"}, "class_name": "Convolution1D"}, {"config": {"trainable": true, "name": "maxpooling1d_33_mpq_model", "border_mode": "valid", "pool_length": 4, "stride": 2}, "class_name": "MaxPooling1D"}, {"config": {"trainable": true, "activity_regularizer": null, "init": "uniform", "W_regularizer": null, "subsample_length": 1, "b_regularizer": null, "nb_filter": 200, "bias": true, "b_constraint": null, "name": "convolution1d_34_mpq_model", "input_length": null, "input_dim": null, "W_constraint": null, "filter_length": 6, "activation": "relu", "border_mode": "valid"}, "class_name": "Convolution1D"}], "class_name": "Sequential"}]}, "class_name": "Merge"}, {"config": {"trainable": true, "name": "flatten_1"}, "class_name": "Flatten"}, {"config": {"trainable": true, "activity_regularizer": null, "init": "glorot_uniform", "W_regularizer": null, "b_regularizer": null, "output_dim": 200, "W_constraint": null, "b_constraint": null, "name": "dense_1", "bias": true, "input_dim": null, "activation": "linear"}, "class_name": "Dense"}, {"config": {"trainable": true, "name": "dropout_1", "p": 0.2}, "class_name": "Dropout"}, {"config": {"trainable": true, "name": "activation_1", "activation": "relu"}, "class_name": "Activation"}, {"config": {"trainable": true, "activity_regularizer": null, "init": "glorot_uniform", "W_regularizer": null, "b_regularizer": null, "output_dim": 3, "W_constraint": null, "b_constraint": null, "name": "dense_2", "bias": true, "input_dim": null, "activation": "softmax"}, "class_name": "Dense"}], "class_name": "Sequential", "keras_version": "1.1.1"}