{"keras_version": "1.1.1", "config": [{"config": {"concat_axis": -1, "output_shape": null, "mode_type": "raw", "name": "merge_1", "output_shape_type": "raw", "mode": "concat", "layers": [{"config": [{"config": {"trainable": true, "input_length": 140, "W_regularizer": null, "activity_regularizer": null, "batch_input_shape": [null, 140], "output_dim": 52, "dropout": 0.2, "init": "uniform", "input_dim": 1576890, "mask_zero": false, "input_dtype": "int32", "name": "embedding_1_dai_model", "W_constraint": null}, "class_name": "Embedding"}, {"config": {"trainable": true, "padding": 5, "name": "zeropadding1d_1_dai_model"}, "class_name": "ZeroPadding1D"}, {"config": {"input_dim": null, "input_length": null, "activity_regularizer": null, "nb_filter": 200, "trainable": true, "b_regularizer": null, "init": "uniform", "border_mode": "valid", "W_regularizer": null, "name": "convolution1d_1_dai_model", "bias": true, "filter_length": 6, "activation": "relu", "b_constraint": null, "subsample_length": 1, "W_constraint": null}, "class_name": "Convolution1D"}, {"config": {"stride": 2, "trainable": true, "pool_length": 4, "border_mode": "valid", "name": "maxpooling1d_1_dai_model"}, "class_name": "MaxPooling1D"}, {"config": {"input_dim": null, "input_length": null, "activity_regularizer": null, "nb_filter": 200, "trainable": true, "b_regularizer": null, "init": "uniform", "border_mode": "valid", "W_regularizer": null, "name": "convolution1d_2_dai_model", "bias": true, "filter_length": 6, "activation": "relu", "b_constraint": null, "subsample_length": 1, "W_constraint": null}, "class_name": "Convolution1D"}], "class_name": "Sequential"}, {"config": [{"config": {"trainable": true, "input_length": 140, "W_regularizer": null, "activity_regularizer": null, "batch_input_shape": [null, 140], "output_dim": 52, "dropout": 0.2, "init": "uniform", "input_dim": 428669, "mask_zero": false, "input_dtype": "int32", "name": "embedding_17_mpq_model", "W_constraint": null}, "class_name": "Embedding"}, {"config": {"trainable": true, "padding": 5, "name": "zeropadding1d_17_mpq_model"}, "class_name": "ZeroPadding1D"}, {"config": {"input_dim": null, "input_length": null, "activity_regularizer": null, "nb_filter": 200, "trainable": true, "b_regularizer": null, "init": "uniform", "border_mode": "valid", "W_regularizer": null, "name": "convolution1d_33_mpq_model", "bias": true, "filter_length": 6, "activation": "relu", "b_constraint": null, "subsample_length": 1, "W_constraint": null}, "class_name": "Convolution1D"}, {"config": {"stride": 2, "trainable": true, "pool_length": 4, "border_mode": "valid", "name": "maxpooling1d_33_mpq_model"}, "class_name": "MaxPooling1D"}, {"config": {"input_dim": null, "input_length": null, "activity_regularizer": null, "nb_filter": 200, "trainable": true, "b_regularizer": null, "init": "uniform", "border_mode": "valid", "W_regularizer": null, "name": "convolution1d_34_mpq_model", "bias": true, "filter_length": 6, "activation": "relu", "b_constraint": null, "subsample_length": 1, "W_constraint": null}, "class_name": "Convolution1D"}], "class_name": "Sequential"}, {"config": [{"config": {"trainable": true, "input_length": 140, "W_regularizer": null, "activity_regularizer": null, "batch_input_shape": [null, 140], "output_dim": 52, "dropout": 0.2, "init": "uniform", "input_dim": 1576890, "mask_zero": false, "input_dtype": "int32", "name": "embedding_1_semeval_model", "W_constraint": null}, "class_name": "Embedding"}, {"config": {"trainable": true, "padding": 5, "name": "zeropadding1d_1_semeval_model"}, "class_name": "ZeroPadding1D"}, {"config": {"input_dim": null, "input_length": null, "activity_regularizer": null, "nb_filter": 200, "trainable": true, "b_regularizer": null, "init": "uniform", "border_mode": "valid", "W_regularizer": null, "name": "convolution1d_1_semeval_model", "bias": true, "filter_length": 6, "activation": "relu", "b_constraint": null, "subsample_length": 1, "W_constraint": null}, "class_name": "Convolution1D"}, {"config": {"stride": 2, "trainable": true, "pool_length": 4, "border_mode": "valid", "name": "maxpooling1d_1_semeval_model"}, "class_name": "MaxPooling1D"}, {"config": {"input_dim": null, "input_length": null, "activity_regularizer": null, "nb_filter": 200, "trainable": true, "b_regularizer": null, "init": "uniform", "border_mode": "valid", "W_regularizer": null, "name": "convolution1d_2_semeval_model", "bias": true, "filter_length": 6, "activation": "relu", "b_constraint": null, "subsample_length": 1, "W_constraint": null}, "class_name": "Convolution1D"}], "class_name": "Sequential"}, {"config": [{"config": {"trainable": true, "input_length": 140, "W_regularizer": null, "activity_regularizer": null, "batch_input_shape": [null, 140], "output_dim": 52, "dropout": 0.2, "init": "uniform", "input_dim": 428669, "mask_zero": false, "input_dtype": "int32", "name": "embedding_1_tac_model", "W_constraint": null}, "class_name": "Embedding"}, {"config": {"trainable": true, "padding": 5, "name": "zeropadding1d_1_tac_model"}, "class_name": "ZeroPadding1D"}, {"config": {"input_dim": null, "input_length": null, "activity_regularizer": null, "nb_filter": 200, "trainable": true, "b_regularizer": null, "init": "uniform", "border_mode": "valid", "W_regularizer": null, "name": "convolution1d_1_tac_model", "bias": true, "filter_length": 6, "activation": "relu", "b_constraint": null, "subsample_length": 1, "W_constraint": null}, "class_name": "Convolution1D"}, {"config": {"stride": 2, "trainable": true, "pool_length": 4, "border_mode": "valid", "name": "maxpooling1d_1_tac_model"}, "class_name": "MaxPooling1D"}, {"config": {"input_dim": null, "input_length": null, "activity_regularizer": null, "nb_filter": 200, "trainable": true, "b_regularizer": null, "init": "uniform", "border_mode": "valid", "W_regularizer": null, "name": "convolution1d_2_tac_model", "bias": true, "filter_length": 6, "activation": "relu", "b_constraint": null, "subsample_length": 1, "W_constraint": null}, "class_name": "Convolution1D"}], "class_name": "Sequential"}], "dot_axes": -1}, "class_name": "Merge"}, {"config": {"pool_length": 4, "trainable": true, "stride": 2, "border_mode": "valid", "name": "maxpooling1d_1"}, "class_name": "MaxPooling1D"}, {"config": {"input_dim": null, "input_length": null, "nb_filter": 200, "activity_regularizer": null, "trainable": true, "b_regularizer": null, "init": "uniform", "border_mode": "valid", "W_regularizer": null, "name": "convolution1d_1", "bias": true, "filter_length": 6, "activation": "relu", "b_constraint": null, "subsample_length": 1, "W_constraint": null}, "class_name": "Convolution1D"}, {"config": {"pool_length": 4, "trainable": true, "stride": 2, "border_mode": "valid", "name": "maxpooling1d_2"}, "class_name": "MaxPooling1D"}, {"config": {"trainable": true, "name": "flatten_1"}, "class_name": "Flatten"}, {"config": {"input_dim": null, "W_constraint": null, "activity_regularizer": null, "trainable": true, "output_dim": 200, "b_regularizer": null, "init": "glorot_uniform", "W_regularizer": null, "name": "dense_1", "bias": true, "activation": "linear", "b_constraint": null}, "class_name": "Dense"}, {"config": {"trainable": true, "p": 0.2, "name": "dropout_1"}, "class_name": "Dropout"}, {"config": {"name": "activation_1", "activation": "relu", "trainable": true}, "class_name": "Activation"}, {"config": {"input_dim": null, "W_constraint": null, "activity_regularizer": null, "trainable": true, "output_dim": 3, "b_regularizer": null, "init": "glorot_uniform", "W_regularizer": null, "name": "dense_2", "bias": true, "activation": "softmax", "b_constraint": null}, "class_name": "Dense"}], "class_name": "Sequential"}