{"config": [{"class_name": "Merge", "config": {"name": "merge_1", "output_shape": null, "output_shape_type": "raw", "dot_axes": -1, "mode": "concat", "mode_type": "raw", "concat_axis": -1, "layers": [{"class_name": "Sequential", "config": [{"config": {"W_regularizer": null, "input_dtype": "int32", "activity_regularizer": null, "input_dim": 1576890, "input_length": 140, "mask_zero": false, "output_dim": 52, "name": "embedding_1_dil_model", "trainable": true, "dropout": 0.2, "init": "uniform", "batch_input_shape": [null, 140], "W_constraint": null}, "class_name": "Embedding"}, {"config": {"name": "zeropadding1d_1_dil_model", "trainable": true, "padding": 5}, "class_name": "ZeroPadding1D"}, {"config": {"subsample_length": 1, "W_regularizer": null, "activity_regularizer": null, "input_dim": null, "trainable": true, "filter_length": 6, "b_constraint": null, "b_regularizer": null, "activation": "relu", "name": "convolution1d_1_dil_model", "border_mode": "valid", "input_length": null, "nb_filter": 200, "bias": true, "init": "uniform", "W_constraint": null}, "class_name": "Convolution1D"}, {"config": {"name": "maxpooling1d_1_dil_model", "trainable": true, "stride": 2, "pool_length": 4, "border_mode": "valid"}, "class_name": "MaxPooling1D"}, {"config": {"subsample_length": 1, "W_regularizer": null, "activity_regularizer": null, "input_dim": null, "trainable": true, "filter_length": 6, "b_constraint": null, "b_regularizer": null, "activation": "relu", "name": "convolution1d_2_dil_model", "border_mode": "valid", "input_length": null, "nb_filter": 200, "bias": true, "init": "uniform", "W_constraint": null}, "class_name": "Convolution1D"}]}, {"class_name": "Sequential", "config": [{"config": {"W_regularizer": null, "input_dtype": "int32", "activity_regularizer": null, "input_dim": 428669, "input_length": 140, "mask_zero": false, "output_dim": 52, "name": "embedding_1_semeval_model", "trainable": true, "dropout": 0.2, "init": "uniform", "batch_input_shape": [null, 140], "W_constraint": null}, "class_name": "Embedding"}, {"config": {"name": "zeropadding1d_1_semeval_model", "trainable": true, "padding": 5}, "class_name": "ZeroPadding1D"}, {"config": {"subsample_length": 1, "W_regularizer": null, "activity_regularizer": null, "input_dim": null, "trainable": true, "filter_length": 6, "b_constraint": null, "b_regularizer": null, "activation": "relu", "name": "convolution1d_1_semeval_model", "border_mode": "valid", "input_length": null, "nb_filter": 200, "bias": true, "init": "uniform", "W_constraint": null}, "class_name": "Convolution1D"}, {"config": {"name": "maxpooling1d_1_semeval_model", "trainable": true, "stride": 2, "pool_length": 4, "border_mode": "valid"}, "class_name": "MaxPooling1D"}, {"config": {"subsample_length": 1, "W_regularizer": null, "activity_regularizer": null, "input_dim": null, "trainable": true, "filter_length": 6, "b_constraint": null, "b_regularizer": null, "activation": "relu", "name": "convolution1d_2_semeval_model", "border_mode": "valid", "input_length": null, "nb_filter": 200, "bias": true, "init": "uniform", "W_constraint": null}, "class_name": "Convolution1D"}]}, {"class_name": "Sequential", "config": [{"config": {"W_regularizer": null, "input_dtype": "int32", "activity_regularizer": null, "input_dim": 428669, "input_length": 140, "mask_zero": false, "output_dim": 52, "name": "embedding_17_mpq_model", "trainable": true, "dropout": 0.2, "init": "uniform", "batch_input_shape": [null, 140], "W_constraint": null}, "class_name": "Embedding"}, {"config": {"name": "zeropadding1d_17_mpq_model", "trainable": true, "padding": 5}, "class_name": "ZeroPadding1D"}, {"config": {"subsample_length": 1, "W_regularizer": null, "activity_regularizer": null, "input_dim": null, "trainable": true, "filter_length": 6, "b_constraint": null, "b_regularizer": null, "activation": "relu", "name": "convolution1d_33_mpq_model", "border_mode": "valid", "input_length": null, "nb_filter": 200, "bias": true, "init": "uniform", "W_constraint": null}, "class_name": "Convolution1D"}, {"config": {"name": "maxpooling1d_33_mpq_model", "trainable": true, "stride": 2, "pool_length": 4, "border_mode": "valid"}, "class_name": "MaxPooling1D"}, {"config": {"subsample_length": 1, "W_regularizer": null, "activity_regularizer": null, "input_dim": null, "trainable": true, "filter_length": 6, "b_constraint": null, "b_regularizer": null, "activation": "relu", "name": "convolution1d_34_mpq_model", "border_mode": "valid", "input_length": null, "nb_filter": 200, "bias": true, "init": "uniform", "W_constraint": null}, "class_name": "Convolution1D"}]}, {"class_name": "Sequential", "config": [{"config": {"W_regularizer": null, "input_dtype": "int32", "activity_regularizer": null, "input_dim": 1576890, "input_length": 140, "mask_zero": false, "output_dim": 52, "name": "embedding_1_dai_model", "trainable": true, "dropout": 0.2, "init": "uniform", "batch_input_shape": [null, 140], "W_constraint": null}, "class_name": "Embedding"}, {"config": {"name": "zeropadding1d_1_dai_model", "trainable": true, "padding": 5}, "class_name": "ZeroPadding1D"}, {"config": {"subsample_length": 1, "W_regularizer": null, "activity_regularizer": null, "input_dim": null, "trainable": true, "filter_length": 6, "b_constraint": null, "b_regularizer": null, "activation": "relu", "name": "convolution1d_1_dai_model", "border_mode": "valid", "input_length": null, "nb_filter": 200, "bias": true, "init": "uniform", "W_constraint": null}, "class_name": "Convolution1D"}, {"config": {"name": "maxpooling1d_1_dai_model", "trainable": true, "stride": 2, "pool_length": 4, "border_mode": "valid"}, "class_name": "MaxPooling1D"}, {"config": {"subsample_length": 1, "W_regularizer": null, "activity_regularizer": null, "input_dim": null, "trainable": true, "filter_length": 6, "b_constraint": null, "b_regularizer": null, "activation": "relu", "name": "convolution1d_2_dai_model", "border_mode": "valid", "input_length": null, "nb_filter": 200, "bias": true, "init": "uniform", "W_constraint": null}, "class_name": "Convolution1D"}]}, {"class_name": "Sequential", "config": [{"config": {"W_regularizer": null, "input_dtype": "int32", "activity_regularizer": null, "input_dim": 1062158, "input_length": 140, "mask_zero": false, "output_dim": 52, "name": "embedding_1_hul_model", "trainable": true, "dropout": 0.2, "init": "uniform", "batch_input_shape": [null, 140], "W_constraint": null}, "class_name": "Embedding"}, {"config": {"name": "zeropadding1d_1_hul_model", "trainable": true, "padding": 5}, "class_name": "ZeroPadding1D"}, {"config": {"subsample_length": 1, "W_regularizer": null, "activity_regularizer": null, "input_dim": null, "trainable": true, "filter_length": 6, "b_constraint": null, "b_regularizer": null, "activation": "relu", "name": "convolution1d_1_hul_model", "border_mode": "valid", "input_length": null, "nb_filter": 200, "bias": true, "init": "uniform", "W_constraint": null}, "class_name": "Convolution1D"}, {"config": {"name": "maxpooling1d_1_hul_model", "trainable": true, "stride": 2, "pool_length": 4, "border_mode": "valid"}, "class_name": "MaxPooling1D"}, {"config": {"subsample_length": 1, "W_regularizer": null, "activity_regularizer": null, "input_dim": null, "trainable": true, "filter_length": 6, "b_constraint": null, "b_regularizer": null, "activation": "relu", "name": "convolution1d_2_hul_model", "border_mode": "valid", "input_length": null, "nb_filter": 200, "bias": true, "init": "uniform", "W_constraint": null}, "class_name": "Convolution1D"}]}, {"class_name": "Sequential", "config": [{"config": {"W_regularizer": null, "input_dtype": "int32", "activity_regularizer": null, "input_dim": 428669, "input_length": 140, "mask_zero": false, "output_dim": 52, "name": "embedding_1_tac_model", "trainable": true, "dropout": 0.2, "init": "uniform", "batch_input_shape": [null, 140], "W_constraint": null}, "class_name": "Embedding"}, {"config": {"name": "zeropadding1d_1_tac_model", "trainable": true, "padding": 5}, "class_name": "ZeroPadding1D"}, {"config": {"subsample_length": 1, "W_regularizer": null, "activity_regularizer": null, "input_dim": null, "trainable": true, "filter_length": 6, "b_constraint": null, "b_regularizer": null, "activation": "relu", "name": "convolution1d_1_tac_model", "border_mode": "valid", "input_length": null, "nb_filter": 200, "bias": true, "init": "uniform", "W_constraint": null}, "class_name": "Convolution1D"}, {"config": {"name": "maxpooling1d_1_tac_model", "trainable": true, "stride": 2, "pool_length": 4, "border_mode": "valid"}, "class_name": "MaxPooling1D"}, {"config": {"subsample_length": 1, "W_regularizer": null, "activity_regularizer": null, "input_dim": null, "trainable": true, "filter_length": 6, "b_constraint": null, "b_regularizer": null, "activation": "relu", "name": "convolution1d_2_tac_model", "border_mode": "valid", "input_length": null, "nb_filter": 200, "bias": true, "init": "uniform", "W_constraint": null}, "class_name": "Convolution1D"}]}]}}, {"class_name": "Flatten", "config": {"name": "flatten_1", "trainable": true}}, {"class_name": "Dense", "config": {"W_regularizer": null, "activity_regularizer": null, "input_dim": null, "trainable": true, "b_constraint": null, "output_dim": 200, "b_regularizer": null, "activation": "linear", "name": "dense_1", "bias": true, "init": "glorot_uniform", "W_constraint": null}}, {"class_name": "Dropout", "config": {"name": "dropout_1", "trainable": true, "p": 0.2}}, {"class_name": "Activation", "config": {"name": "activation_1", "trainable": true, "activation": "relu"}}, {"class_name": "Dense", "config": {"W_regularizer": null, "activity_regularizer": null, "input_dim": null, "trainable": true, "b_constraint": null, "output_dim": 3, "b_regularizer": null, "activation": "softmax", "name": "dense_2", "bias": true, "init": "glorot_uniform", "W_constraint": null}}], "keras_version": "1.1.1", "class_name": "Sequential"}