{"keras_version": "1.1.0", "config": [{"config": {"mask_zero": false, "trainable": true, "dropout": 0.2, "input_dtype": "int32", "W_constraint": null, "name": "embedding_1", "output_dim": 52, "activity_regularizer": null, "W_regularizer": null, "input_dim": 1576890, "batch_input_shape": [null, 140], "input_length": 140, "init": "uniform"}, "class_name": "Embedding"}, {"config": {"name": "zeropadding1d_1", "padding": 5, "trainable": true}, "class_name": "ZeroPadding1D"}, {"config": {"b_regularizer": null, "input_dim": null, "init": "uniform", "nb_filter": 200, "bias": true, "name": "convolution1d_1", "border_mode": "valid", "W_constraint": null, "activity_regularizer": null, "W_regularizer": null, "filter_length": 6, "trainable": true, "subsample_length": 1, "activation": "relu", "b_constraint": null, "input_length": null}, "class_name": "Convolution1D"}, {"config": {"name": "maxpooling1d_1", "border_mode": "valid", "pool_length": 4, "stride": 2, "trainable": true}, "class_name": "MaxPooling1D"}, {"config": {"b_regularizer": null, "input_dim": null, "init": "uniform", "nb_filter": 200, "bias": true, "name": "convolution1d_2", "border_mode": "valid", "W_constraint": null, "activity_regularizer": null, "W_regularizer": null, "filter_length": 6, "trainable": true, "subsample_length": 1, "activation": "relu", "b_constraint": null, "input_length": null}, "class_name": "Convolution1D"}, {"config": {"name": "maxpooling1d_2", "border_mode": "valid", "pool_length": 66, "stride": 66, "trainable": true}, "class_name": "MaxPooling1D"}, {"config": {"name": "flatten_1", "trainable": true}, "class_name": "Flatten"}, {"config": {"b_regularizer": null, "input_dim": null, "init": "glorot_uniform", "W_constraint": null, "name": "dense_1", "output_dim": 200, "activity_regularizer": null, "W_regularizer": null, "bias": true, "trainable": true, "activation": "linear", "b_constraint": null}, "class_name": "Dense"}, {"config": {"name": "dropout_1", "trainable": true, "p": 0.2}, "class_name": "Dropout"}, {"config": {"name": "activation_1", "activation": "relu", "trainable": true}, "class_name": "Activation"}, {"config": {"b_regularizer": null, "input_dim": null, "init": "glorot_uniform", "W_constraint": null, "name": "dense_2", "output_dim": 3, "activity_regularizer": null, "W_regularizer": null, "bias": true, "trainable": true, "activation": "softmax", "b_constraint": null}, "class_name": "Dense"}], "class_name": "Sequential"}