{"class_name": "Sequential", "keras_version": "1.1.1", "config": [{"class_name": "Merge", "config": {"name": "merge_1", "output_shape_type": "raw", "dot_axes": -1, "mode": "concat", "mode_type": "raw", "concat_axis": -1, "output_shape": null, "layers": [{"class_name": "Sequential", "config": [{"class_name": "Embedding", "config": {"name": "embedding_1_hul_model", "input_dtype": "int32", "input_dim": 1062158, "init": "uniform", "W_constraint": null, "trainable": true, "dropout": 0.2, "batch_input_shape": [null, 140], "activity_regularizer": null, "input_length": 140, "output_dim": 52, "mask_zero": false, "W_regularizer": null}}, {"class_name": "ZeroPadding1D", "config": {"name": "zeropadding1d_1_hul_model", "padding": 5, "trainable": true}}, {"class_name": "Convolution1D", "config": {"name": "convolution1d_1_hul_model", "bias": true, "input_dim": null, "border_mode": "valid", "init": "uniform", "W_constraint": null, "b_constraint": null, "subsample_length": 1, "activity_regularizer": null, "trainable": true, "filter_length": 6, "b_regularizer": null, "input_length": null, "activation": "relu", "W_regularizer": null, "nb_filter": 200}}, {"class_name": "MaxPooling1D", "config": {"pool_length": 4, "name": "maxpooling1d_1_hul_model", "border_mode": "valid", "trainable": true, "stride": 2}}, {"class_name": "Convolution1D", "config": {"name": "convolution1d_2_hul_model", "bias": true, "input_dim": null, "border_mode": "valid", "init": "uniform", "W_constraint": null, "b_constraint": null, "subsample_length": 1, "activity_regularizer": null, "trainable": true, "filter_length": 6, "b_regularizer": null, "input_length": null, "activation": "relu", "W_regularizer": null, "nb_filter": 200}}, {"class_name": "MaxPooling1D", "config": {"pool_length": 66, "name": "maxpooling1d_2_hul_model", "border_mode": "valid", "trainable": true, "stride": 66}}, {"class_name": "Flatten", "config": {"name": "flatten_1_hul_model", "trainable": true}}]}, {"class_name": "Sequential", "config": [{"class_name": "Embedding", "config": {"name": "embedding_1_dil_model", "input_dtype": "int32", "input_dim": 1576890, "init": "uniform", "W_constraint": null, "trainable": true, "dropout": 0.2, "batch_input_shape": [null, 140], "activity_regularizer": null, "input_length": 140, "output_dim": 52, "mask_zero": false, "W_regularizer": null}}, {"class_name": "ZeroPadding1D", "config": {"name": "zeropadding1d_1_dil_model", "padding": 5, "trainable": true}}, {"class_name": "Convolution1D", "config": {"name": "convolution1d_1_dil_model", "bias": true, "input_dim": null, "border_mode": "valid", "init": "uniform", "W_constraint": null, "b_constraint": null, "subsample_length": 1, "activity_regularizer": null, "trainable": true, "filter_length": 6, "b_regularizer": null, "input_length": null, "activation": "relu", "W_regularizer": null, "nb_filter": 200}}, {"class_name": "MaxPooling1D", "config": {"pool_length": 4, "name": "maxpooling1d_1_dil_model", "border_mode": "valid", "trainable": true, "stride": 2}}, {"class_name": "Convolution1D", "config": {"name": "convolution1d_2_dil_model", "bias": true, "input_dim": null, "border_mode": "valid", "init": "uniform", "W_constraint": null, "b_constraint": null, "subsample_length": 1, "activity_regularizer": null, "trainable": true, "filter_length": 6, "b_regularizer": null, "input_length": null, "activation": "relu", "W_regularizer": null, "nb_filter": 200}}, {"class_name": "MaxPooling1D", "config": {"pool_length": 66, "name": "maxpooling1d_2_dil_model", "border_mode": "valid", "trainable": true, "stride": 66}}, {"class_name": "Flatten", "config": {"name": "flatten_1_dil_model", "trainable": true}}]}, {"class_name": "Sequential", "config": [{"class_name": "Embedding", "config": {"name": "embedding_1_dai_model", "input_dtype": "int32", "input_dim": 1576890, "init": "uniform", "W_constraint": null, "trainable": true, "dropout": 0.2, "batch_input_shape": [null, 140], "activity_regularizer": null, "input_length": 140, "output_dim": 52, "mask_zero": false, "W_regularizer": null}}, {"class_name": "ZeroPadding1D", "config": {"name": "zeropadding1d_1_dai_model", "padding": 5, "trainable": true}}, {"class_name": "Convolution1D", "config": {"name": "convolution1d_1_dai_model", "bias": true, "input_dim": null, "border_mode": "valid", "init": "uniform", "W_constraint": null, "b_constraint": null, "subsample_length": 1, "activity_regularizer": null, "trainable": true, "filter_length": 6, "b_regularizer": null, "input_length": null, "activation": "relu", "W_regularizer": null, "nb_filter": 200}}, {"class_name": "MaxPooling1D", "config": {"pool_length": 4, "name": "maxpooling1d_1_dai_model", "border_mode": "valid", "trainable": true, "stride": 2}}, {"class_name": "Convolution1D", "config": {"name": "convolution1d_2_dai_model", "bias": true, "input_dim": null, "border_mode": "valid", "init": "uniform", "W_constraint": null, "b_constraint": null, "subsample_length": 1, "activity_regularizer": null, "trainable": true, "filter_length": 6, "b_regularizer": null, "input_length": null, "activation": "relu", "W_regularizer": null, "nb_filter": 200}}, {"class_name": "MaxPooling1D", "config": {"pool_length": 66, "name": "maxpooling1d_2_dai_model", "border_mode": "valid", "trainable": true, "stride": 66}}, {"class_name": "Flatten", "config": {"name": "flatten_1_dai_model", "trainable": true}}]}]}}, {"class_name": "Dense", "config": {"name": "dense_1", "bias": true, "output_dim": 1028, "init": "glorot_uniform", "W_constraint": null, "trainable": true, "activity_regularizer": null, "b_constraint": null, "b_regularizer": null, "input_dim": null, "W_regularizer": null, "activation": "linear"}}, {"class_name": "Activation", "config": {"name": "activation_1", "trainable": true, "activation": "relu"}}, {"class_name": "Dense", "config": {"name": "dense_2", "bias": true, "output_dim": 3, "init": "glorot_uniform", "W_constraint": null, "trainable": true, "activity_regularizer": null, "b_constraint": null, "b_regularizer": null, "input_dim": null, "W_regularizer": null, "activation": "softmax"}}]}