{"class_name": "Sequential", "keras_version": "1.1.1", "config": [{"class_name": "Merge", "config": {"output_shape": null, "mode": "concat", "mode_type": "raw", "name": "merge_1", "output_shape_type": "raw", "layers": [{"class_name": "Sequential", "config": [{"class_name": "Embedding", "config": {"name": "embedding_1_dil_model", "W_constraint": null, "activity_regularizer": null, "output_dim": 52, "dropout": 0.2, "batch_input_shape": [null, 140], "trainable": true, "mask_zero": false, "input_dim": 1576890, "input_length": 140, "W_regularizer": null, "init": "uniform", "input_dtype": "int32"}}, {"class_name": "ZeroPadding1D", "config": {"name": "zeropadding1d_1_dil_model", "trainable": true, "padding": 5}}, {"class_name": "Convolution1D", "config": {"b_constraint": null, "W_constraint": null, "activity_regularizer": null, "filter_length": 6, "trainable": true, "name": "convolution1d_1_dil_model", "activation": "relu", "nb_filter": 200, "subsample_length": 1, "b_regularizer": null, "border_mode": "valid", "W_regularizer": null, "bias": true, "init": "uniform", "input_dim": null, "input_length": null}}, {"class_name": "MaxPooling1D", "config": {"name": "maxpooling1d_1_dil_model", "trainable": true, "stride": 2, "border_mode": "valid", "pool_length": 4}}, {"class_name": "Convolution1D", "config": {"b_constraint": null, "W_constraint": null, "activity_regularizer": null, "filter_length": 6, "trainable": true, "name": "convolution1d_2_dil_model", "activation": "relu", "nb_filter": 200, "subsample_length": 1, "b_regularizer": null, "border_mode": "valid", "W_regularizer": null, "bias": true, "init": "uniform", "input_dim": null, "input_length": null}}, {"class_name": "MaxPooling1D", "config": {"name": "maxpooling1d_2_dil_model", "trainable": true, "stride": 66, "border_mode": "valid", "pool_length": 66}}, {"class_name": "Flatten", "config": {"name": "flatten_1_dil_model", "trainable": true}}]}, {"class_name": "Sequential", "config": [{"class_name": "Embedding", "config": {"name": "embedding_1_tac_model", "W_constraint": null, "activity_regularizer": null, "output_dim": 52, "dropout": 0.2, "batch_input_shape": [null, 140], "trainable": true, "mask_zero": false, "input_dim": 428669, "input_length": 140, "W_regularizer": null, "init": "uniform", "input_dtype": "int32"}}, {"class_name": "ZeroPadding1D", "config": {"name": "zeropadding1d_1_tac_model", "trainable": true, "padding": 5}}, {"class_name": "Convolution1D", "config": {"b_constraint": null, "W_constraint": null, "activity_regularizer": null, "filter_length": 6, "trainable": true, "name": "convolution1d_1_tac_model", "activation": "relu", "nb_filter": 200, "subsample_length": 1, "b_regularizer": null, "border_mode": "valid", "W_regularizer": null, "bias": true, "init": "uniform", "input_dim": null, "input_length": null}}, {"class_name": "MaxPooling1D", "config": {"name": "maxpooling1d_1_tac_model", "trainable": true, "stride": 2, "border_mode": "valid", "pool_length": 4}}, {"class_name": "Convolution1D", "config": {"b_constraint": null, "W_constraint": null, "activity_regularizer": null, "filter_length": 6, "trainable": true, "name": "convolution1d_2_tac_model", "activation": "relu", "nb_filter": 200, "subsample_length": 1, "b_regularizer": null, "border_mode": "valid", "W_regularizer": null, "bias": true, "init": "uniform", "input_dim": null, "input_length": null}}, {"class_name": "MaxPooling1D", "config": {"name": "maxpooling1d_2_tac_model", "trainable": true, "stride": 66, "border_mode": "valid", "pool_length": 66}}, {"class_name": "Flatten", "config": {"name": "flatten_1_tac_model", "trainable": true}}]}, {"class_name": "Sequential", "config": [{"class_name": "Embedding", "config": {"name": "embedding_1_semeval_model", "W_constraint": null, "activity_regularizer": null, "output_dim": 52, "dropout": 0.2, "batch_input_shape": [null, 140], "trainable": true, "mask_zero": false, "input_dim": 428669, "input_length": 140, "W_regularizer": null, "init": "uniform", "input_dtype": "int32"}}, {"class_name": "ZeroPadding1D", "config": {"name": "zeropadding1d_1_semeval_model", "trainable": true, "padding": 5}}, {"class_name": "Convolution1D", "config": {"b_constraint": null, "W_constraint": null, "activity_regularizer": null, "filter_length": 6, "trainable": true, "name": "convolution1d_1_semeval_model", "activation": "relu", "nb_filter": 200, "subsample_length": 1, "b_regularizer": null, "border_mode": "valid", "W_regularizer": null, "bias": true, "init": "uniform", "input_dim": null, "input_length": null}}, {"class_name": "MaxPooling1D", "config": {"name": "maxpooling1d_1_semeval_model", "trainable": true, "stride": 2, "border_mode": "valid", "pool_length": 4}}, {"class_name": "Convolution1D", "config": {"b_constraint": null, "W_constraint": null, "activity_regularizer": null, "filter_length": 6, "trainable": true, "name": "convolution1d_2_semeval_model", "activation": "relu", "nb_filter": 200, "subsample_length": 1, "b_regularizer": null, "border_mode": "valid", "W_regularizer": null, "bias": true, "init": "uniform", "input_dim": null, "input_length": null}}, {"class_name": "MaxPooling1D", "config": {"name": "maxpooling1d_2_semeval_model", "trainable": true, "stride": 66, "border_mode": "valid", "pool_length": 66}}, {"class_name": "Flatten", "config": {"name": "flatten_1_semeval_model", "trainable": true}}]}, {"class_name": "Sequential", "config": [{"class_name": "Embedding", "config": {"name": "embedding_17_mpq_model", "W_constraint": null, "activity_regularizer": null, "output_dim": 52, "dropout": 0.2, "batch_input_shape": [null, 140], "trainable": true, "mask_zero": false, "input_dim": 428669, "input_length": 140, "W_regularizer": null, "init": "uniform", "input_dtype": "int32"}}, {"class_name": "ZeroPadding1D", "config": {"name": "zeropadding1d_17_mpq_model", "trainable": true, "padding": 5}}, {"class_name": "Convolution1D", "config": {"b_constraint": null, "W_constraint": null, "activity_regularizer": null, "filter_length": 6, "trainable": true, "name": "convolution1d_33_mpq_model", "activation": "relu", "nb_filter": 200, "subsample_length": 1, "b_regularizer": null, "border_mode": "valid", "W_regularizer": null, "bias": true, "init": "uniform", "input_dim": null, "input_length": null}}, {"class_name": "MaxPooling1D", "config": {"name": "maxpooling1d_33_mpq_model", "trainable": true, "stride": 2, "border_mode": "valid", "pool_length": 4}}, {"class_name": "Convolution1D", "config": {"b_constraint": null, "W_constraint": null, "activity_regularizer": null, "filter_length": 6, "trainable": true, "name": "convolution1d_34_mpq_model", "activation": "relu", "nb_filter": 200, "subsample_length": 1, "b_regularizer": null, "border_mode": "valid", "W_regularizer": null, "bias": true, "init": "uniform", "input_dim": null, "input_length": null}}, {"class_name": "MaxPooling1D", "config": {"name": "maxpooling1d_34_mpq_model", "trainable": true, "stride": 66, "border_mode": "valid", "pool_length": 66}}, {"class_name": "Flatten", "config": {"name": "flatten_17_mpq_model", "trainable": true}}]}, {"class_name": "Sequential", "config": [{"class_name": "Embedding", "config": {"name": "embedding_1_hul_model", "W_constraint": null, "activity_regularizer": null, "output_dim": 52, "dropout": 0.2, "batch_input_shape": [null, 140], "trainable": true, "mask_zero": false, "input_dim": 1062158, "input_length": 140, "W_regularizer": null, "init": "uniform", "input_dtype": "int32"}}, {"class_name": "ZeroPadding1D", "config": {"name": "zeropadding1d_1_hul_model", "trainable": true, "padding": 5}}, {"class_name": "Convolution1D", "config": {"b_constraint": null, "W_constraint": null, "activity_regularizer": null, "filter_length": 6, "trainable": true, "name": "convolution1d_1_hul_model", "activation": "relu", "nb_filter": 200, "subsample_length": 1, "b_regularizer": null, "border_mode": "valid", "W_regularizer": null, "bias": true, "init": "uniform", "input_dim": null, "input_length": null}}, {"class_name": "MaxPooling1D", "config": {"name": "maxpooling1d_1_hul_model", "trainable": true, "stride": 2, "border_mode": "valid", "pool_length": 4}}, {"class_name": "Convolution1D", "config": {"b_constraint": null, "W_constraint": null, "activity_regularizer": null, "filter_length": 6, "trainable": true, "name": "convolution1d_2_hul_model", "activation": "relu", "nb_filter": 200, "subsample_length": 1, "b_regularizer": null, "border_mode": "valid", "W_regularizer": null, "bias": true, "init": "uniform", "input_dim": null, "input_length": null}}, {"class_name": "MaxPooling1D", "config": {"name": "maxpooling1d_2_hul_model", "trainable": true, "stride": 66, "border_mode": "valid", "pool_length": 66}}, {"class_name": "Flatten", "config": {"name": "flatten_1_hul_model", "trainable": true}}]}, {"class_name": "Sequential", "config": [{"class_name": "Embedding", "config": {"name": "embedding_1_dai_model", "W_constraint": null, "activity_regularizer": null, "output_dim": 52, "dropout": 0.2, "batch_input_shape": [null, 140], "trainable": true, "mask_zero": false, "input_dim": 1576890, "input_length": 140, "W_regularizer": null, "init": "uniform", "input_dtype": "int32"}}, {"class_name": "ZeroPadding1D", "config": {"name": "zeropadding1d_1_dai_model", "trainable": true, "padding": 5}}, {"class_name": "Convolution1D", "config": {"b_constraint": null, "W_constraint": null, "activity_regularizer": null, "filter_length": 6, "trainable": true, "name": "convolution1d_1_dai_model", "activation": "relu", "nb_filter": 200, "subsample_length": 1, "b_regularizer": null, "border_mode": "valid", "W_regularizer": null, "bias": true, "init": "uniform", "input_dim": null, "input_length": null}}, {"class_name": "MaxPooling1D", "config": {"name": "maxpooling1d_1_dai_model", "trainable": true, "stride": 2, "border_mode": "valid", "pool_length": 4}}, {"class_name": "Convolution1D", "config": {"b_constraint": null, "W_constraint": null, "activity_regularizer": null, "filter_length": 6, "trainable": true, "name": "convolution1d_2_dai_model", "activation": "relu", "nb_filter": 200, "subsample_length": 1, "b_regularizer": null, "border_mode": "valid", "W_regularizer": null, "bias": true, "init": "uniform", "input_dim": null, "input_length": null}}, {"class_name": "MaxPooling1D", "config": {"name": "maxpooling1d_2_dai_model", "trainable": true, "stride": 66, "border_mode": "valid", "pool_length": 66}}, {"class_name": "Flatten", "config": {"name": "flatten_1_dai_model", "trainable": true}}]}], "dot_axes": -1, "concat_axis": -1}}, {"class_name": "Dense", "config": {"b_constraint": null, "name": "dense_1", "W_constraint": null, "activity_regularizer": null, "trainable": true, "output_dim": 1028, "activation": "linear", "input_dim": null, "b_regularizer": null, "W_regularizer": null, "bias": true, "init": "glorot_uniform"}}, {"class_name": "Activation", "config": {"trainable": true, "name": "activation_1", "activation": "relu"}}, {"class_name": "Dense", "config": {"b_constraint": null, "name": "dense_2", "W_constraint": null, "activity_regularizer": null, "trainable": true, "output_dim": 3, "activation": "softmax", "input_dim": null, "b_regularizer": null, "W_regularizer": null, "bias": true, "init": "glorot_uniform"}}]}