{"class_name": "Sequential", "config": [{"class_name": "Merge", "config": {"output_shape_type": "raw", "layers": [{"class_name": "Sequential", "config": [{"class_name": "Embedding", "config": {"input_length": 140, "dropout": 0.2, "activity_regularizer": null, "init": "uniform", "name": "embedding_17_mpq_model", "input_dtype": "int32", "output_dim": 52, "batch_input_shape": [null, 140], "mask_zero": false, "input_dim": 428669, "W_regularizer": null, "W_constraint": null, "trainable": true}}, {"class_name": "ZeroPadding1D", "config": {"name": "zeropadding1d_17_mpq_model", "padding": 5, "trainable": true}}, {"class_name": "Convolution1D", "config": {"nb_filter": 200, "bias": true, "init": "uniform", "border_mode": "valid", "input_length": null, "name": "convolution1d_33_mpq_model", "b_regularizer": null, "b_constraint": null, "subsample_length": 1, "activation": "relu", "input_dim": null, "W_regularizer": null, "W_constraint": null, "filter_length": 6, "trainable": true, "activity_regularizer": null}}, {"class_name": "MaxPooling1D", "config": {"name": "maxpooling1d_33_mpq_model", "stride": 2, "trainable": true, "border_mode": "valid", "pool_length": 4}}, {"class_name": "Convolution1D", "config": {"nb_filter": 200, "bias": true, "init": "uniform", "border_mode": "valid", "input_length": null, "name": "convolution1d_34_mpq_model", "b_regularizer": null, "b_constraint": null, "subsample_length": 1, "activation": "relu", "input_dim": null, "W_regularizer": null, "W_constraint": null, "filter_length": 6, "trainable": true, "activity_regularizer": null}}, {"class_name": "MaxPooling1D", "config": {"name": "maxpooling1d_34_mpq_model", "stride": 66, "trainable": true, "border_mode": "valid", "pool_length": 66}}, {"class_name": "Flatten", "config": {"name": "flatten_17_mpq_model", "trainable": true}}]}, {"class_name": "Sequential", "config": [{"class_name": "Embedding", "config": {"input_length": 140, "dropout": 0.2, "activity_regularizer": null, "init": "uniform", "name": "embedding_1_tac_model", "input_dtype": "int32", "output_dim": 52, "batch_input_shape": [null, 140], "mask_zero": false, "input_dim": 428669, "W_regularizer": null, "W_constraint": null, "trainable": true}}, {"class_name": "ZeroPadding1D", "config": {"name": "zeropadding1d_1_tac_model", "padding": 5, "trainable": true}}, {"class_name": "Convolution1D", "config": {"nb_filter": 200, "bias": true, "init": "uniform", "border_mode": "valid", "input_length": null, "name": "convolution1d_1_tac_model", "b_regularizer": null, "b_constraint": null, "subsample_length": 1, "activation": "relu", "input_dim": null, "W_regularizer": null, "W_constraint": null, "filter_length": 6, "trainable": true, "activity_regularizer": null}}, {"class_name": "MaxPooling1D", "config": {"name": "maxpooling1d_1_tac_model", "stride": 2, "trainable": true, "border_mode": "valid", "pool_length": 4}}, {"class_name": "Convolution1D", "config": {"nb_filter": 200, "bias": true, "init": "uniform", "border_mode": "valid", "input_length": null, "name": "convolution1d_2_tac_model", "b_regularizer": null, "b_constraint": null, "subsample_length": 1, "activation": "relu", "input_dim": null, "W_regularizer": null, "W_constraint": null, "filter_length": 6, "trainable": true, "activity_regularizer": null}}, {"class_name": "MaxPooling1D", "config": {"name": "maxpooling1d_2_tac_model", "stride": 66, "trainable": true, "border_mode": "valid", "pool_length": 66}}, {"class_name": "Flatten", "config": {"name": "flatten_1_tac_model", "trainable": true}}]}, {"class_name": "Sequential", "config": [{"class_name": "Embedding", "config": {"input_length": 140, "dropout": 0.2, "activity_regularizer": null, "init": "uniform", "name": "embedding_1_dai_model", "input_dtype": "int32", "output_dim": 52, "batch_input_shape": [null, 140], "mask_zero": false, "input_dim": 1576890, "W_regularizer": null, "W_constraint": null, "trainable": true}}, {"class_name": "ZeroPadding1D", "config": {"name": "zeropadding1d_1_dai_model", "padding": 5, "trainable": true}}, {"class_name": "Convolution1D", "config": {"nb_filter": 200, "bias": true, "init": "uniform", "border_mode": "valid", "input_length": null, "name": "convolution1d_1_dai_model", "b_regularizer": null, "b_constraint": null, "subsample_length": 1, "activation": "relu", "input_dim": null, "W_regularizer": null, "W_constraint": null, "filter_length": 6, "trainable": true, "activity_regularizer": null}}, {"class_name": "MaxPooling1D", "config": {"name": "maxpooling1d_1_dai_model", "stride": 2, "trainable": true, "border_mode": "valid", "pool_length": 4}}, {"class_name": "Convolution1D", "config": {"nb_filter": 200, "bias": true, "init": "uniform", "border_mode": "valid", "input_length": null, "name": "convolution1d_2_dai_model", "b_regularizer": null, "b_constraint": null, "subsample_length": 1, "activation": "relu", "input_dim": null, "W_regularizer": null, "W_constraint": null, "filter_length": 6, "trainable": true, "activity_regularizer": null}}, {"class_name": "MaxPooling1D", "config": {"name": "maxpooling1d_2_dai_model", "stride": 66, "trainable": true, "border_mode": "valid", "pool_length": 66}}, {"class_name": "Flatten", "config": {"name": "flatten_1_dai_model", "trainable": true}}]}, {"class_name": "Sequential", "config": [{"class_name": "Embedding", "config": {"input_length": 140, "dropout": 0.2, "activity_regularizer": null, "init": "uniform", "name": "embedding_1_hul_model", "input_dtype": "int32", "output_dim": 52, "batch_input_shape": [null, 140], "mask_zero": false, "input_dim": 1062158, "W_regularizer": null, "W_constraint": null, "trainable": true}}, {"class_name": "ZeroPadding1D", "config": {"name": "zeropadding1d_1_hul_model", "padding": 5, "trainable": true}}, {"class_name": "Convolution1D", "config": {"nb_filter": 200, "bias": true, "init": "uniform", "border_mode": "valid", "input_length": null, "name": "convolution1d_1_hul_model", "b_regularizer": null, "b_constraint": null, "subsample_length": 1, "activation": "relu", "input_dim": null, "W_regularizer": null, "W_constraint": null, "filter_length": 6, "trainable": true, "activity_regularizer": null}}, {"class_name": "MaxPooling1D", "config": {"name": "maxpooling1d_1_hul_model", "stride": 2, "trainable": true, "border_mode": "valid", "pool_length": 4}}, {"class_name": "Convolution1D", "config": {"nb_filter": 200, "bias": true, "init": "uniform", "border_mode": "valid", "input_length": null, "name": "convolution1d_2_hul_model", "b_regularizer": null, "b_constraint": null, "subsample_length": 1, "activation": "relu", "input_dim": null, "W_regularizer": null, "W_constraint": null, "filter_length": 6, "trainable": true, "activity_regularizer": null}}, {"class_name": "MaxPooling1D", "config": {"name": "maxpooling1d_2_hul_model", "stride": 66, "trainable": true, "border_mode": "valid", "pool_length": 66}}, {"class_name": "Flatten", "config": {"name": "flatten_1_hul_model", "trainable": true}}]}, {"class_name": "Sequential", "config": [{"class_name": "Embedding", "config": {"input_length": 140, "dropout": 0.2, "activity_regularizer": null, "init": "uniform", "name": "embedding_1_dil_model", "input_dtype": "int32", "output_dim": 52, "batch_input_shape": [null, 140], "mask_zero": false, "input_dim": 1576890, "W_regularizer": null, "W_constraint": null, "trainable": true}}, {"class_name": "ZeroPadding1D", "config": {"name": "zeropadding1d_1_dil_model", "padding": 5, "trainable": true}}, {"class_name": "Convolution1D", "config": {"nb_filter": 200, "bias": true, "init": "uniform", "border_mode": "valid", "input_length": null, "name": "convolution1d_1_dil_model", "b_regularizer": null, "b_constraint": null, "subsample_length": 1, "activation": "relu", "input_dim": null, "W_regularizer": null, "W_constraint": null, "filter_length": 6, "trainable": true, "activity_regularizer": null}}, {"class_name": "MaxPooling1D", "config": {"name": "maxpooling1d_1_dil_model", "stride": 2, "trainable": true, "border_mode": "valid", "pool_length": 4}}, {"class_name": "Convolution1D", "config": {"nb_filter": 200, "bias": true, "init": "uniform", "border_mode": "valid", "input_length": null, "name": "convolution1d_2_dil_model", "b_regularizer": null, "b_constraint": null, "subsample_length": 1, "activation": "relu", "input_dim": null, "W_regularizer": null, "W_constraint": null, "filter_length": 6, "trainable": true, "activity_regularizer": null}}, {"class_name": "MaxPooling1D", "config": {"name": "maxpooling1d_2_dil_model", "stride": 66, "trainable": true, "border_mode": "valid", "pool_length": 66}}, {"class_name": "Flatten", "config": {"name": "flatten_1_dil_model", "trainable": true}}]}, {"class_name": "Sequential", "config": [{"class_name": "Embedding", "config": {"input_length": 140, "dropout": 0.2, "activity_regularizer": null, "init": "uniform", "name": "embedding_1_semeval_model", "input_dtype": "int32", "output_dim": 52, "batch_input_shape": [null, 140], "mask_zero": false, "input_dim": 428669, "W_regularizer": null, "W_constraint": null, "trainable": true}}, {"class_name": "ZeroPadding1D", "config": {"name": "zeropadding1d_1_semeval_model", "padding": 5, "trainable": true}}, {"class_name": "Convolution1D", "config": {"nb_filter": 200, "bias": true, "init": "uniform", "border_mode": "valid", "input_length": null, "name": "convolution1d_1_semeval_model", "b_regularizer": null, "b_constraint": null, "subsample_length": 1, "activation": "relu", "input_dim": null, "W_regularizer": null, "W_constraint": null, "filter_length": 6, "trainable": true, "activity_regularizer": null}}, {"class_name": "MaxPooling1D", "config": {"name": "maxpooling1d_1_semeval_model", "stride": 2, "trainable": true, "border_mode": "valid", "pool_length": 4}}, {"class_name": "Convolution1D", "config": {"nb_filter": 200, "bias": true, "init": "uniform", "border_mode": "valid", "input_length": null, "name": "convolution1d_2_semeval_model", "b_regularizer": null, "b_constraint": null, "subsample_length": 1, "activation": "relu", "input_dim": null, "W_regularizer": null, "W_constraint": null, "filter_length": 6, "trainable": true, "activity_regularizer": null}}, {"class_name": "MaxPooling1D", "config": {"name": "maxpooling1d_2_semeval_model", "stride": 66, "trainable": true, "border_mode": "valid", "pool_length": 66}}, {"class_name": "Flatten", "config": {"name": "flatten_1_semeval_model", "trainable": true}}]}], "mode_type": "raw", "dot_axes": -1, "mode": "concat", "name": "merge_1", "output_shape": null, "concat_axis": -1}}, {"class_name": "Dense", "config": {"bias": true, "activity_regularizer": null, "init": "glorot_uniform", "name": "dense_1", "b_regularizer": null, "output_dim": 1028, "activation": "linear", "input_dim": null, "b_constraint": null, "W_regularizer": null, "W_constraint": null, "trainable": true}}, {"class_name": "Activation", "config": {"name": "activation_1", "activation": "relu", "trainable": true}}, {"class_name": "Dense", "config": {"bias": true, "activity_regularizer": null, "init": "glorot_uniform", "name": "dense_2", "b_regularizer": null, "output_dim": 3, "activation": "softmax", "input_dim": null, "b_constraint": null, "W_regularizer": null, "W_constraint": null, "trainable": true}}], "keras_version": "1.1.1"}