{"keras_version": "1.1.1", "class_name": "Sequential", "config": [{"class_name": "Merge", "config": {"dot_axes": -1, "mode": "concat", "output_shape": null, "mode_type": "raw", "concat_axis": -1, "layers": [{"class_name": "Sequential", "config": [{"class_name": "Embedding", "config": {"batch_input_shape": [null, 140], "input_dim": 1576890, "activity_regularizer": null, "init": "uniform", "W_constraint": null, "input_length": 140, "mask_zero": false, "input_dtype": "int32", "name": "embedding_1_dil_model", "trainable": true, "W_regularizer": null, "output_dim": 52, "dropout": 0.2}}, {"class_name": "ZeroPadding1D", "config": {"padding": 5, "name": "zeropadding1d_1_dil_model", "trainable": true}}, {"class_name": "Convolution1D", "config": {"border_mode": "valid", "bias": true, "input_dim": null, "activity_regularizer": null, "trainable": true, "input_length": null, "W_constraint": null, "init": "uniform", "b_regularizer": null, "name": "convolution1d_1_dil_model", "filter_length": 6, "nb_filter": 200, "b_constraint": null, "W_regularizer": null, "activation": "relu", "subsample_length": 1}}, {"class_name": "MaxPooling1D", "config": {"stride": 2, "border_mode": "valid", "pool_length": 4, "name": "maxpooling1d_1_dil_model", "trainable": true}}, {"class_name": "Convolution1D", "config": {"border_mode": "valid", "bias": true, "input_dim": null, "activity_regularizer": null, "trainable": true, "input_length": null, "W_constraint": null, "init": "uniform", "b_regularizer": null, "name": "convolution1d_2_dil_model", "filter_length": 6, "nb_filter": 200, "b_constraint": null, "W_regularizer": null, "activation": "relu", "subsample_length": 1}}, {"class_name": "MaxPooling1D", "config": {"stride": 66, "border_mode": "valid", "pool_length": 66, "name": "maxpooling1d_2_dil_model", "trainable": true}}, {"class_name": "Flatten", "config": {"name": "flatten_1_dil_model", "trainable": true}}]}, {"class_name": "Sequential", "config": [{"class_name": "Embedding", "config": {"batch_input_shape": [null, 140], "input_dim": 1062158, "activity_regularizer": null, "init": "uniform", "W_constraint": null, "input_length": 140, "mask_zero": false, "input_dtype": "int32", "name": "embedding_1_hul_model", "trainable": true, "W_regularizer": null, "output_dim": 52, "dropout": 0.2}}, {"class_name": "ZeroPadding1D", "config": {"padding": 5, "name": "zeropadding1d_1_hul_model", "trainable": true}}, {"class_name": "Convolution1D", "config": {"border_mode": "valid", "bias": true, "input_dim": null, "activity_regularizer": null, "trainable": true, "input_length": null, "W_constraint": null, "init": "uniform", "b_regularizer": null, "name": "convolution1d_1_hul_model", "filter_length": 6, "nb_filter": 200, "b_constraint": null, "W_regularizer": null, "activation": "relu", "subsample_length": 1}}, {"class_name": "MaxPooling1D", "config": {"stride": 2, "border_mode": "valid", "pool_length": 4, "name": "maxpooling1d_1_hul_model", "trainable": true}}, {"class_name": "Convolution1D", "config": {"border_mode": "valid", "bias": true, "input_dim": null, "activity_regularizer": null, "trainable": true, "input_length": null, "W_constraint": null, "init": "uniform", "b_regularizer": null, "name": "convolution1d_2_hul_model", "filter_length": 6, "nb_filter": 200, "b_constraint": null, "W_regularizer": null, "activation": "relu", "subsample_length": 1}}, {"class_name": "MaxPooling1D", "config": {"stride": 66, "border_mode": "valid", "pool_length": 66, "name": "maxpooling1d_2_hul_model", "trainable": true}}, {"class_name": "Flatten", "config": {"name": "flatten_1_hul_model", "trainable": true}}]}, {"class_name": "Sequential", "config": [{"class_name": "Embedding", "config": {"batch_input_shape": [null, 140], "input_dim": 1576890, "activity_regularizer": null, "init": "uniform", "W_constraint": null, "input_length": 140, "mask_zero": false, "input_dtype": "int32", "name": "embedding_1_dai_model", "trainable": true, "W_regularizer": null, "output_dim": 52, "dropout": 0.2}}, {"class_name": "ZeroPadding1D", "config": {"padding": 5, "name": "zeropadding1d_1_dai_model", "trainable": true}}, {"class_name": "Convolution1D", "config": {"border_mode": "valid", "bias": true, "input_dim": null, "activity_regularizer": null, "trainable": true, "input_length": null, "W_constraint": null, "init": "uniform", "b_regularizer": null, "name": "convolution1d_1_dai_model", "filter_length": 6, "nb_filter": 200, "b_constraint": null, "W_regularizer": null, "activation": "relu", "subsample_length": 1}}, {"class_name": "MaxPooling1D", "config": {"stride": 2, "border_mode": "valid", "pool_length": 4, "name": "maxpooling1d_1_dai_model", "trainable": true}}, {"class_name": "Convolution1D", "config": {"border_mode": "valid", "bias": true, "input_dim": null, "activity_regularizer": null, "trainable": true, "input_length": null, "W_constraint": null, "init": "uniform", "b_regularizer": null, "name": "convolution1d_2_dai_model", "filter_length": 6, "nb_filter": 200, "b_constraint": null, "W_regularizer": null, "activation": "relu", "subsample_length": 1}}, {"class_name": "MaxPooling1D", "config": {"stride": 66, "border_mode": "valid", "pool_length": 66, "name": "maxpooling1d_2_dai_model", "trainable": true}}, {"class_name": "Flatten", "config": {"name": "flatten_1_dai_model", "trainable": true}}]}], "name": "merge_1", "output_shape_type": "raw"}}, {"class_name": "Dense", "config": {"bias": true, "input_dim": null, "activity_regularizer": null, "init": "glorot_uniform", "W_constraint": null, "b_regularizer": null, "name": "dense_1", "trainable": true, "b_constraint": null, "W_regularizer": null, "activation": "linear", "output_dim": 1028}}, {"class_name": "Activation", "config": {"activation": "relu", "name": "activation_1", "trainable": true}}, {"class_name": "Dense", "config": {"bias": true, "input_dim": null, "activity_regularizer": null, "init": "glorot_uniform", "W_constraint": null, "b_regularizer": null, "name": "dense_2", "trainable": true, "b_constraint": null, "W_regularizer": null, "activation": "softmax", "output_dim": 3}}]}