{"config": [{"config": {"concat_axis": -1, "layers": [{"config": [{"config": {"dropout": 0.2, "output_dim": 52, "W_constraint": null, "init": "uniform", "input_length": 140, "trainable": true, "mask_zero": false, "input_dtype": "int32", "activity_regularizer": null, "batch_input_shape": [null, 140], "name": "embedding_1_tac_model", "input_dim": 428669, "W_regularizer": null}, "class_name": "Embedding"}, {"config": {"padding": 5, "name": "zeropadding1d_1_tac_model", "trainable": true}, "class_name": "ZeroPadding1D"}, {"config": {"activation": "relu", "nb_filter": 200, "filter_length": 6, "W_constraint": null, "init": "uniform", "bias": true, "b_regularizer": null, "trainable": true, "subsample_length": 1, "b_constraint": null, "W_regularizer": null, "activity_regularizer": null, "input_length": null, "border_mode": "valid", "name": "convolution1d_1_tac_model", "input_dim": null}, "class_name": "Convolution1D"}, {"config": {"border_mode": "valid", "name": "maxpooling1d_1_tac_model", "pool_length": 4, "trainable": true, "stride": 2}, "class_name": "MaxPooling1D"}, {"config": {"activation": "relu", "nb_filter": 200, "filter_length": 6, "W_constraint": null, "init": "uniform", "bias": true, "b_regularizer": null, "trainable": true, "subsample_length": 1, "b_constraint": null, "W_regularizer": null, "activity_regularizer": null, "input_length": null, "border_mode": "valid", "name": "convolution1d_2_tac_model", "input_dim": null}, "class_name": "Convolution1D"}], "class_name": "Sequential"}, {"config": [{"config": {"dropout": 0.2, "output_dim": 52, "W_constraint": null, "init": "uniform", "input_length": 140, "trainable": true, "mask_zero": false, "input_dtype": "int32", "activity_regularizer": null, "batch_input_shape": [null, 140], "name": "embedding_1_dil_model", "input_dim": 1576890, "W_regularizer": null}, "class_name": "Embedding"}, {"config": {"padding": 5, "name": "zeropadding1d_1_dil_model", "trainable": true}, "class_name": "ZeroPadding1D"}, {"config": {"activation": "relu", "nb_filter": 200, "filter_length": 6, "W_constraint": null, "init": "uniform", "bias": true, "b_regularizer": null, "trainable": true, "subsample_length": 1, "b_constraint": null, "W_regularizer": null, "activity_regularizer": null, "input_length": null, "border_mode": "valid", "name": "convolution1d_1_dil_model", "input_dim": null}, "class_name": "Convolution1D"}, {"config": {"border_mode": "valid", "name": "maxpooling1d_1_dil_model", "pool_length": 4, "trainable": true, "stride": 2}, "class_name": "MaxPooling1D"}, {"config": {"activation": "relu", "nb_filter": 200, "filter_length": 6, "W_constraint": null, "init": "uniform", "bias": true, "b_regularizer": null, "trainable": true, "subsample_length": 1, "b_constraint": null, "W_regularizer": null, "activity_regularizer": null, "input_length": null, "border_mode": "valid", "name": "convolution1d_2_dil_model", "input_dim": null}, "class_name": "Convolution1D"}], "class_name": "Sequential"}, {"config": [{"config": {"dropout": 0.2, "output_dim": 52, "W_constraint": null, "init": "uniform", "input_length": 140, "trainable": true, "mask_zero": false, "input_dtype": "int32", "activity_regularizer": null, "batch_input_shape": [null, 140], "name": "embedding_17_mpq_model", "input_dim": 428669, "W_regularizer": null}, "class_name": "Embedding"}, {"config": {"padding": 5, "name": "zeropadding1d_17_mpq_model", "trainable": true}, "class_name": "ZeroPadding1D"}, {"config": {"activation": "relu", "nb_filter": 200, "filter_length": 6, "W_constraint": null, "init": "uniform", "bias": true, "b_regularizer": null, "trainable": true, "subsample_length": 1, "b_constraint": null, "W_regularizer": null, "activity_regularizer": null, "input_length": null, "border_mode": "valid", "name": "convolution1d_33_mpq_model", "input_dim": null}, "class_name": "Convolution1D"}, {"config": {"border_mode": "valid", "name": "maxpooling1d_33_mpq_model", "pool_length": 4, "trainable": true, "stride": 2}, "class_name": "MaxPooling1D"}, {"config": {"activation": "relu", "nb_filter": 200, "filter_length": 6, "W_constraint": null, "init": "uniform", "bias": true, "b_regularizer": null, "trainable": true, "subsample_length": 1, "b_constraint": null, "W_regularizer": null, "activity_regularizer": null, "input_length": null, "border_mode": "valid", "name": "convolution1d_34_mpq_model", "input_dim": null}, "class_name": "Convolution1D"}], "class_name": "Sequential"}, {"config": [{"config": {"dropout": 0.2, "output_dim": 52, "W_constraint": null, "init": "uniform", "input_length": 140, "trainable": true, "mask_zero": false, "input_dtype": "int32", "activity_regularizer": null, "batch_input_shape": [null, 140], "name": "embedding_1_semeval_model", "input_dim": 428669, "W_regularizer": null}, "class_name": "Embedding"}, {"config": {"padding": 5, "name": "zeropadding1d_1_semeval_model", "trainable": true}, "class_name": "ZeroPadding1D"}, {"config": {"activation": "relu", "nb_filter": 200, "filter_length": 6, "W_constraint": null, "init": "uniform", "bias": true, "b_regularizer": null, "trainable": true, "subsample_length": 1, "b_constraint": null, "W_regularizer": null, "activity_regularizer": null, "input_length": null, "border_mode": "valid", "name": "convolution1d_1_semeval_model", "input_dim": null}, "class_name": "Convolution1D"}, {"config": {"border_mode": "valid", "name": "maxpooling1d_1_semeval_model", "pool_length": 4, "trainable": true, "stride": 2}, "class_name": "MaxPooling1D"}, {"config": {"activation": "relu", "nb_filter": 200, "filter_length": 6, "W_constraint": null, "init": "uniform", "bias": true, "b_regularizer": null, "trainable": true, "subsample_length": 1, "b_constraint": null, "W_regularizer": null, "activity_regularizer": null, "input_length": null, "border_mode": "valid", "name": "convolution1d_2_semeval_model", "input_dim": null}, "class_name": "Convolution1D"}], "class_name": "Sequential"}, {"config": [{"config": {"dropout": 0.2, "output_dim": 52, "W_constraint": null, "init": "uniform", "input_length": 140, "trainable": true, "mask_zero": false, "input_dtype": "int32", "activity_regularizer": null, "batch_input_shape": [null, 140], "name": "embedding_1_dai_model", "input_dim": 1576890, "W_regularizer": null}, "class_name": "Embedding"}, {"config": {"padding": 5, "name": "zeropadding1d_1_dai_model", "trainable": true}, "class_name": "ZeroPadding1D"}, {"config": {"activation": "relu", "nb_filter": 200, "filter_length": 6, "W_constraint": null, "init": "uniform", "bias": true, "b_regularizer": null, "trainable": true, "subsample_length": 1, "b_constraint": null, "W_regularizer": null, "activity_regularizer": null, "input_length": null, "border_mode": "valid", "name": "convolution1d_1_dai_model", "input_dim": null}, "class_name": "Convolution1D"}, {"config": {"border_mode": "valid", "name": "maxpooling1d_1_dai_model", "pool_length": 4, "trainable": true, "stride": 2}, "class_name": "MaxPooling1D"}, {"config": {"activation": "relu", "nb_filter": 200, "filter_length": 6, "W_constraint": null, "init": "uniform", "bias": true, "b_regularizer": null, "trainable": true, "subsample_length": 1, "b_constraint": null, "W_regularizer": null, "activity_regularizer": null, "input_length": null, "border_mode": "valid", "name": "convolution1d_2_dai_model", "input_dim": null}, "class_name": "Convolution1D"}], "class_name": "Sequential"}, {"config": [{"config": {"dropout": 0.2, "output_dim": 52, "W_constraint": null, "init": "uniform", "input_length": 140, "trainable": true, "mask_zero": false, "input_dtype": "int32", "activity_regularizer": null, "batch_input_shape": [null, 140], "name": "embedding_1_hul_model", "input_dim": 1062158, "W_regularizer": null}, "class_name": "Embedding"}, {"config": {"padding": 5, "name": "zeropadding1d_1_hul_model", "trainable": true}, "class_name": "ZeroPadding1D"}, {"config": {"activation": "relu", "nb_filter": 200, "filter_length": 6, "W_constraint": null, "init": "uniform", "bias": true, "b_regularizer": null, "trainable": true, "subsample_length": 1, "b_constraint": null, "W_regularizer": null, "activity_regularizer": null, "input_length": null, "border_mode": "valid", "name": "convolution1d_1_hul_model", "input_dim": null}, "class_name": "Convolution1D"}, {"config": {"border_mode": "valid", "name": "maxpooling1d_1_hul_model", "pool_length": 4, "trainable": true, "stride": 2}, "class_name": "MaxPooling1D"}, {"config": {"activation": "relu", "nb_filter": 200, "filter_length": 6, "W_constraint": null, "init": "uniform", "bias": true, "b_regularizer": null, "trainable": true, "subsample_length": 1, "b_constraint": null, "W_regularizer": null, "activity_regularizer": null, "input_length": null, "border_mode": "valid", "name": "convolution1d_2_hul_model", "input_dim": null}, "class_name": "Convolution1D"}], "class_name": "Sequential"}], "mode": "concat", "output_shape": null, "name": "merge_1", "dot_axes": -1, "output_shape_type": "raw", "mode_type": "raw"}, "class_name": "Merge"}, {"config": {"name": "flatten_1", "trainable": true}, "class_name": "Flatten"}, {"config": {"activation": "linear", "output_dim": 200, "W_constraint": null, "init": "glorot_uniform", "bias": true, "b_regularizer": null, "trainable": true, "b_constraint": null, "W_regularizer": null, "activity_regularizer": null, "name": "dense_1", "input_dim": null}, "class_name": "Dense"}, {"config": {"name": "dropout_1", "trainable": true, "p": 0.2}, "class_name": "Dropout"}, {"config": {"activation": "relu", "name": "activation_1", "trainable": true}, "class_name": "Activation"}, {"config": {"activation": "softmax", "output_dim": 3, "W_constraint": null, "init": "glorot_uniform", "bias": true, "b_regularizer": null, "trainable": true, "b_constraint": null, "W_regularizer": null, "activity_regularizer": null, "name": "dense_2", "input_dim": null}, "class_name": "Dense"}], "keras_version": "1.1.1", "class_name": "Sequential"}