{"keras_version": "1.1.1", "config": [{"config": {"output_shape_type": "raw", "mode_type": "raw", "mode": "concat", "concat_axis": -1, "output_shape": null, "layers": [{"config": [{"config": {"output_dim": 52, "mask_zero": false, "input_dim": 1576890, "dropout": 0.2, "W_regularizer": null, "init": "uniform", "input_dtype": "int32", "activity_regularizer": null, "trainable": true, "input_length": 140, "W_constraint": null, "batch_input_shape": [null, 140], "name": "embedding_1_dai_model"}, "class_name": "Embedding"}, {"config": {"trainable": true, "name": "zeropadding1d_1_dai_model", "padding": 5}, "class_name": "ZeroPadding1D"}, {"config": {"b_regularizer": null, "activation": "relu", "input_dim": null, "b_constraint": null, "subsample_length": 1, "W_regularizer": null, "init": "uniform", "bias": true, "filter_length": 6, "nb_filter": 200, "activity_regularizer": null, "trainable": true, "input_length": null, "W_constraint": null, "border_mode": "valid", "name": "convolution1d_1_dai_model"}, "class_name": "Convolution1D"}, {"config": {"pool_length": 4, "border_mode": "valid", "trainable": true, "name": "maxpooling1d_1_dai_model", "stride": 2}, "class_name": "MaxPooling1D"}, {"config": {"b_regularizer": null, "activation": "relu", "input_dim": null, "b_constraint": null, "subsample_length": 1, "W_regularizer": null, "init": "uniform", "bias": true, "filter_length": 6, "nb_filter": 200, "activity_regularizer": null, "trainable": true, "input_length": null, "W_constraint": null, "border_mode": "valid", "name": "convolution1d_2_dai_model"}, "class_name": "Convolution1D"}], "class_name": "Sequential"}, {"config": [{"config": {"output_dim": 52, "mask_zero": false, "input_dim": 1576890, "dropout": 0.2, "W_regularizer": null, "init": "uniform", "input_dtype": "int32", "activity_regularizer": null, "trainable": true, "input_length": 140, "W_constraint": null, "batch_input_shape": [null, 140], "name": "embedding_1_dil_model"}, "class_name": "Embedding"}, {"config": {"trainable": true, "name": "zeropadding1d_1_dil_model", "padding": 5}, "class_name": "ZeroPadding1D"}, {"config": {"b_regularizer": null, "activation": "relu", "input_dim": null, "b_constraint": null, "subsample_length": 1, "W_regularizer": null, "init": "uniform", "bias": true, "filter_length": 6, "nb_filter": 200, "activity_regularizer": null, "trainable": true, "input_length": null, "W_constraint": null, "border_mode": "valid", "name": "convolution1d_1_dil_model"}, "class_name": "Convolution1D"}, {"config": {"pool_length": 4, "border_mode": "valid", "trainable": true, "name": "maxpooling1d_1_dil_model", "stride": 2}, "class_name": "MaxPooling1D"}, {"config": {"b_regularizer": null, "activation": "relu", "input_dim": null, "b_constraint": null, "subsample_length": 1, "W_regularizer": null, "init": "uniform", "bias": true, "filter_length": 6, "nb_filter": 200, "activity_regularizer": null, "trainable": true, "input_length": null, "W_constraint": null, "border_mode": "valid", "name": "convolution1d_2_dil_model"}, "class_name": "Convolution1D"}], "class_name": "Sequential"}, {"config": [{"config": {"output_dim": 52, "mask_zero": false, "input_dim": 428669, "dropout": 0.2, "W_regularizer": null, "init": "uniform", "input_dtype": "int32", "activity_regularizer": null, "trainable": true, "input_length": 140, "W_constraint": null, "batch_input_shape": [null, 140], "name": "embedding_17_mpq_model"}, "class_name": "Embedding"}, {"config": {"trainable": true, "name": "zeropadding1d_17_mpq_model", "padding": 5}, "class_name": "ZeroPadding1D"}, {"config": {"b_regularizer": null, "activation": "relu", "input_dim": null, "b_constraint": null, "subsample_length": 1, "W_regularizer": null, "init": "uniform", "bias": true, "filter_length": 6, "nb_filter": 200, "activity_regularizer": null, "trainable": true, "input_length": null, "W_constraint": null, "border_mode": "valid", "name": "convolution1d_33_mpq_model"}, "class_name": "Convolution1D"}, {"config": {"pool_length": 4, "border_mode": "valid", "trainable": true, "name": "maxpooling1d_33_mpq_model", "stride": 2}, "class_name": "MaxPooling1D"}, {"config": {"b_regularizer": null, "activation": "relu", "input_dim": null, "b_constraint": null, "subsample_length": 1, "W_regularizer": null, "init": "uniform", "bias": true, "filter_length": 6, "nb_filter": 200, "activity_regularizer": null, "trainable": true, "input_length": null, "W_constraint": null, "border_mode": "valid", "name": "convolution1d_34_mpq_model"}, "class_name": "Convolution1D"}], "class_name": "Sequential"}, {"config": [{"config": {"output_dim": 52, "mask_zero": false, "input_dim": 428669, "dropout": 0.2, "W_regularizer": null, "init": "uniform", "input_dtype": "int32", "activity_regularizer": null, "trainable": true, "input_length": 140, "W_constraint": null, "batch_input_shape": [null, 140], "name": "embedding_1_semeval_model"}, "class_name": "Embedding"}, {"config": {"trainable": true, "name": "zeropadding1d_1_semeval_model", "padding": 5}, "class_name": "ZeroPadding1D"}, {"config": {"b_regularizer": null, "activation": "relu", "input_dim": null, "b_constraint": null, "subsample_length": 1, "W_regularizer": null, "init": "uniform", "bias": true, "filter_length": 6, "nb_filter": 200, "activity_regularizer": null, "trainable": true, "input_length": null, "W_constraint": null, "border_mode": "valid", "name": "convolution1d_1_semeval_model"}, "class_name": "Convolution1D"}, {"config": {"pool_length": 4, "border_mode": "valid", "trainable": true, "name": "maxpooling1d_1_semeval_model", "stride": 2}, "class_name": "MaxPooling1D"}, {"config": {"b_regularizer": null, "activation": "relu", "input_dim": null, "b_constraint": null, "subsample_length": 1, "W_regularizer": null, "init": "uniform", "bias": true, "filter_length": 6, "nb_filter": 200, "activity_regularizer": null, "trainable": true, "input_length": null, "W_constraint": null, "border_mode": "valid", "name": "convolution1d_2_semeval_model"}, "class_name": "Convolution1D"}], "class_name": "Sequential"}, {"config": [{"config": {"output_dim": 52, "mask_zero": false, "input_dim": 428669, "dropout": 0.2, "W_regularizer": null, "init": "uniform", "input_dtype": "int32", "activity_regularizer": null, "trainable": true, "input_length": 140, "W_constraint": null, "batch_input_shape": [null, 140], "name": "embedding_1_tac_model"}, "class_name": "Embedding"}, {"config": {"trainable": true, "name": "zeropadding1d_1_tac_model", "padding": 5}, "class_name": "ZeroPadding1D"}, {"config": {"b_regularizer": null, "activation": "relu", "input_dim": null, "b_constraint": null, "subsample_length": 1, "W_regularizer": null, "init": "uniform", "bias": true, "filter_length": 6, "nb_filter": 200, "activity_regularizer": null, "trainable": true, "input_length": null, "W_constraint": null, "border_mode": "valid", "name": "convolution1d_1_tac_model"}, "class_name": "Convolution1D"}, {"config": {"pool_length": 4, "border_mode": "valid", "trainable": true, "name": "maxpooling1d_1_tac_model", "stride": 2}, "class_name": "MaxPooling1D"}, {"config": {"b_regularizer": null, "activation": "relu", "input_dim": null, "b_constraint": null, "subsample_length": 1, "W_regularizer": null, "init": "uniform", "bias": true, "filter_length": 6, "nb_filter": 200, "activity_regularizer": null, "trainable": true, "input_length": null, "W_constraint": null, "border_mode": "valid", "name": "convolution1d_2_tac_model"}, "class_name": "Convolution1D"}], "class_name": "Sequential"}], "dot_axes": -1, "name": "merge_1"}, "class_name": "Merge"}, {"config": {"trainable": true, "name": "flatten_1"}, "class_name": "Flatten"}, {"config": {"output_dim": 200, "b_regularizer": null, "activation": "linear", "input_dim": null, "b_constraint": null, "W_regularizer": null, "init": "glorot_uniform", "bias": true, "activity_regularizer": null, "trainable": true, "W_constraint": null, "name": "dense_1"}, "class_name": "Dense"}, {"config": {"trainable": true, "p": 0.2, "name": "dropout_1"}, "class_name": "Dropout"}, {"config": {"activation": "relu", "trainable": true, "name": "activation_1"}, "class_name": "Activation"}, {"config": {"output_dim": 3, "b_regularizer": null, "activation": "softmax", "input_dim": null, "b_constraint": null, "W_regularizer": null, "init": "glorot_uniform", "bias": true, "activity_regularizer": null, "trainable": true, "W_constraint": null, "name": "dense_2"}, "class_name": "Dense"}], "class_name": "Sequential"}