{"config": [{"config": {"output_shape": null, "name": "merge_1", "concat_axis": -1, "mode": "concat", "mode_type": "raw", "dot_axes": -1, "layers": [{"config": [{"config": {"name": "embedding_1_dil_model", "trainable": true, "input_dim": 1576890, "W_constraint": null, "dropout": 0.2, "output_dim": 52, "activity_regularizer": null, "batch_input_shape": [null, 140], "input_length": 140, "W_regularizer": null, "init": "uniform", "input_dtype": "int32", "mask_zero": false}, "class_name": "Embedding"}, {"config": {"padding": 5, "name": "zeropadding1d_1_dil_model", "trainable": true}, "class_name": "ZeroPadding1D"}, {"config": {"nb_filter": 200, "name": "convolution1d_1_dil_model", "trainable": true, "input_dim": null, "W_constraint": null, "subsample_length": 1, "b_regularizer": null, "activation": "relu", "bias": true, "border_mode": "valid", "filter_length": 6, "activity_regularizer": null, "W_regularizer": null, "init": "uniform", "input_length": null, "b_constraint": null}, "class_name": "Convolution1D"}, {"config": {"stride": 2, "pool_length": 4, "name": "maxpooling1d_1_dil_model", "trainable": true, "border_mode": "valid"}, "class_name": "MaxPooling1D"}, {"config": {"nb_filter": 200, "name": "convolution1d_2_dil_model", "trainable": true, "input_dim": null, "W_constraint": null, "subsample_length": 1, "b_regularizer": null, "activation": "relu", "bias": true, "border_mode": "valid", "filter_length": 6, "activity_regularizer": null, "W_regularizer": null, "init": "uniform", "input_length": null, "b_constraint": null}, "class_name": "Convolution1D"}], "class_name": "Sequential"}, {"config": [{"config": {"name": "embedding_1_tac_model", "trainable": true, "input_dim": 428669, "W_constraint": null, "dropout": 0.2, "output_dim": 52, "activity_regularizer": null, "batch_input_shape": [null, 140], "input_length": 140, "W_regularizer": null, "init": "uniform", "input_dtype": "int32", "mask_zero": false}, "class_name": "Embedding"}, {"config": {"padding": 5, "name": "zeropadding1d_1_tac_model", "trainable": true}, "class_name": "ZeroPadding1D"}, {"config": {"nb_filter": 200, "name": "convolution1d_1_tac_model", "trainable": true, "input_dim": null, "W_constraint": null, "subsample_length": 1, "b_regularizer": null, "activation": "relu", "bias": true, "border_mode": "valid", "filter_length": 6, "activity_regularizer": null, "W_regularizer": null, "init": "uniform", "input_length": null, "b_constraint": null}, "class_name": "Convolution1D"}, {"config": {"stride": 2, "pool_length": 4, "name": "maxpooling1d_1_tac_model", "trainable": true, "border_mode": "valid"}, "class_name": "MaxPooling1D"}, {"config": {"nb_filter": 200, "name": "convolution1d_2_tac_model", "trainable": true, "input_dim": null, "W_constraint": null, "subsample_length": 1, "b_regularizer": null, "activation": "relu", "bias": true, "border_mode": "valid", "filter_length": 6, "activity_regularizer": null, "W_regularizer": null, "init": "uniform", "input_length": null, "b_constraint": null}, "class_name": "Convolution1D"}], "class_name": "Sequential"}, {"config": [{"config": {"name": "embedding_1_dai_model", "trainable": true, "input_dim": 1576890, "W_constraint": null, "dropout": 0.2, "output_dim": 52, "activity_regularizer": null, "batch_input_shape": [null, 140], "input_length": 140, "W_regularizer": null, "init": "uniform", "input_dtype": "int32", "mask_zero": false}, "class_name": "Embedding"}, {"config": {"padding": 5, "name": "zeropadding1d_1_dai_model", "trainable": true}, "class_name": "ZeroPadding1D"}, {"config": {"nb_filter": 200, "name": "convolution1d_1_dai_model", "trainable": true, "input_dim": null, "W_constraint": null, "subsample_length": 1, "b_regularizer": null, "activation": "relu", "bias": true, "border_mode": "valid", "filter_length": 6, "activity_regularizer": null, "W_regularizer": null, "init": "uniform", "input_length": null, "b_constraint": null}, "class_name": "Convolution1D"}, {"config": {"stride": 2, "pool_length": 4, "name": "maxpooling1d_1_dai_model", "trainable": true, "border_mode": "valid"}, "class_name": "MaxPooling1D"}, {"config": {"nb_filter": 200, "name": "convolution1d_2_dai_model", "trainable": true, "input_dim": null, "W_constraint": null, "subsample_length": 1, "b_regularizer": null, "activation": "relu", "bias": true, "border_mode": "valid", "filter_length": 6, "activity_regularizer": null, "W_regularizer": null, "init": "uniform", "input_length": null, "b_constraint": null}, "class_name": "Convolution1D"}], "class_name": "Sequential"}, {"config": [{"config": {"name": "embedding_1_semeval_model", "trainable": true, "input_dim": 428669, "W_constraint": null, "dropout": 0.2, "output_dim": 52, "activity_regularizer": null, "batch_input_shape": [null, 140], "input_length": 140, "W_regularizer": null, "init": "uniform", "input_dtype": "int32", "mask_zero": false}, "class_name": "Embedding"}, {"config": {"padding": 5, "name": "zeropadding1d_1_semeval_model", "trainable": true}, "class_name": "ZeroPadding1D"}, {"config": {"nb_filter": 200, "name": "convolution1d_1_semeval_model", "trainable": true, "input_dim": null, "W_constraint": null, "subsample_length": 1, "b_regularizer": null, "activation": "relu", "bias": true, "border_mode": "valid", "filter_length": 6, "activity_regularizer": null, "W_regularizer": null, "init": "uniform", "input_length": null, "b_constraint": null}, "class_name": "Convolution1D"}, {"config": {"stride": 2, "pool_length": 4, "name": "maxpooling1d_1_semeval_model", "trainable": true, "border_mode": "valid"}, "class_name": "MaxPooling1D"}, {"config": {"nb_filter": 200, "name": "convolution1d_2_semeval_model", "trainable": true, "input_dim": null, "W_constraint": null, "subsample_length": 1, "b_regularizer": null, "activation": "relu", "bias": true, "border_mode": "valid", "filter_length": 6, "activity_regularizer": null, "W_regularizer": null, "init": "uniform", "input_length": null, "b_constraint": null}, "class_name": "Convolution1D"}], "class_name": "Sequential"}, {"config": [{"config": {"name": "embedding_1_hul_model", "trainable": true, "input_dim": 1062158, "W_constraint": null, "dropout": 0.2, "output_dim": 52, "activity_regularizer": null, "batch_input_shape": [null, 140], "input_length": 140, "W_regularizer": null, "init": "uniform", "input_dtype": "int32", "mask_zero": false}, "class_name": "Embedding"}, {"config": {"padding": 5, "name": "zeropadding1d_1_hul_model", "trainable": true}, "class_name": "ZeroPadding1D"}, {"config": {"nb_filter": 200, "name": "convolution1d_1_hul_model", "trainable": true, "input_dim": null, "W_constraint": null, "subsample_length": 1, "b_regularizer": null, "activation": "relu", "bias": true, "border_mode": "valid", "filter_length": 6, "activity_regularizer": null, "W_regularizer": null, "init": "uniform", "input_length": null, "b_constraint": null}, "class_name": "Convolution1D"}, {"config": {"stride": 2, "pool_length": 4, "name": "maxpooling1d_1_hul_model", "trainable": true, "border_mode": "valid"}, "class_name": "MaxPooling1D"}, {"config": {"nb_filter": 200, "name": "convolution1d_2_hul_model", "trainable": true, "input_dim": null, "W_constraint": null, "subsample_length": 1, "b_regularizer": null, "activation": "relu", "bias": true, "border_mode": "valid", "filter_length": 6, "activity_regularizer": null, "W_regularizer": null, "init": "uniform", "input_length": null, "b_constraint": null}, "class_name": "Convolution1D"}], "class_name": "Sequential"}, {"config": [{"config": {"name": "embedding_17_mpq_model", "trainable": true, "input_dim": 428669, "W_constraint": null, "dropout": 0.2, "output_dim": 52, "activity_regularizer": null, "batch_input_shape": [null, 140], "input_length": 140, "W_regularizer": null, "init": "uniform", "input_dtype": "int32", "mask_zero": false}, "class_name": "Embedding"}, {"config": {"padding": 5, "name": "zeropadding1d_17_mpq_model", "trainable": true}, "class_name": "ZeroPadding1D"}, {"config": {"nb_filter": 200, "name": "convolution1d_33_mpq_model", "trainable": true, "input_dim": null, "W_constraint": null, "subsample_length": 1, "b_regularizer": null, "activation": "relu", "bias": true, "border_mode": "valid", "filter_length": 6, "activity_regularizer": null, "W_regularizer": null, "init": "uniform", "input_length": null, "b_constraint": null}, "class_name": "Convolution1D"}, {"config": {"stride": 2, "pool_length": 4, "name": "maxpooling1d_33_mpq_model", "trainable": true, "border_mode": "valid"}, "class_name": "MaxPooling1D"}, {"config": {"nb_filter": 200, "name": "convolution1d_34_mpq_model", "trainable": true, "input_dim": null, "W_constraint": null, "subsample_length": 1, "b_regularizer": null, "activation": "relu", "bias": true, "border_mode": "valid", "filter_length": 6, "activity_regularizer": null, "W_regularizer": null, "init": "uniform", "input_length": null, "b_constraint": null}, "class_name": "Convolution1D"}], "class_name": "Sequential"}], "output_shape_type": "raw"}, "class_name": "Merge"}, {"config": {"name": "flatten_1", "trainable": true}, "class_name": "Flatten"}, {"config": {"activity_regularizer": null, "name": "dense_1", "trainable": true, "input_dim": null, "W_constraint": null, "output_dim": 200, "bias": true, "activation": "linear", "W_regularizer": null, "init": "glorot_uniform", "b_regularizer": null, "b_constraint": null}, "class_name": "Dense"}, {"config": {"p": 0.2, "name": "dropout_1", "trainable": true}, "class_name": "Dropout"}, {"config": {"name": "activation_1", "activation": "relu", "trainable": true}, "class_name": "Activation"}, {"config": {"activity_regularizer": null, "name": "dense_2", "trainable": true, "input_dim": null, "W_constraint": null, "output_dim": 3, "bias": true, "activation": "softmax", "W_regularizer": null, "init": "glorot_uniform", "b_regularizer": null, "b_constraint": null}, "class_name": "Dense"}], "class_name": "Sequential", "keras_version": "1.1.1"}