{"class_name": "Sequential", "keras_version": "1.1.1", "config": [{"class_name": "Merge", "config": {"mode_type": "raw", "layers": [{"class_name": "Sequential", "config": [{"class_name": "Embedding", "config": {"trainable": true, "mask_zero": false, "W_regularizer": null, "input_length": 140, "name": "embedding_1_dai_model", "input_dim": 1576890, "input_dtype": "int32", "batch_input_shape": [null, 140], "dropout": 0.2, "W_constraint": null, "activity_regularizer": null, "init": "uniform", "output_dim": 52}}, {"class_name": "ZeroPadding1D", "config": {"trainable": true, "name": "zeropadding1d_1_dai_model", "padding": 5}}, {"class_name": "Convolution1D", "config": {"trainable": true, "border_mode": "valid", "activation": "relu", "W_regularizer": null, "input_length": null, "nb_filter": 200, "name": "convolution1d_1_dai_model", "subsample_length": 1, "input_dim": null, "b_regularizer": null, "W_constraint": null, "activity_regularizer": null, "bias": true, "init": "uniform", "b_constraint": null, "filter_length": 6}}, {"class_name": "MaxPooling1D", "config": {"pool_length": 4, "trainable": true, "name": "maxpooling1d_1_dai_model", "border_mode": "valid", "stride": 2}}, {"class_name": "Convolution1D", "config": {"trainable": true, "border_mode": "valid", "activation": "relu", "W_regularizer": null, "input_length": null, "nb_filter": 200, "name": "convolution1d_2_dai_model", "subsample_length": 1, "input_dim": null, "b_regularizer": null, "W_constraint": null, "activity_regularizer": null, "bias": true, "init": "uniform", "b_constraint": null, "filter_length": 6}}]}, {"class_name": "Sequential", "config": [{"class_name": "Embedding", "config": {"trainable": true, "mask_zero": false, "W_regularizer": null, "input_length": 140, "name": "embedding_1_dil_model", "input_dim": 1576890, "input_dtype": "int32", "batch_input_shape": [null, 140], "dropout": 0.2, "W_constraint": null, "activity_regularizer": null, "init": "uniform", "output_dim": 52}}, {"class_name": "ZeroPadding1D", "config": {"trainable": true, "name": "zeropadding1d_1_dil_model", "padding": 5}}, {"class_name": "Convolution1D", "config": {"trainable": true, "border_mode": "valid", "activation": "relu", "W_regularizer": null, "input_length": null, "nb_filter": 200, "name": "convolution1d_1_dil_model", "subsample_length": 1, "input_dim": null, "b_regularizer": null, "W_constraint": null, "activity_regularizer": null, "bias": true, "init": "uniform", "b_constraint": null, "filter_length": 6}}, {"class_name": "MaxPooling1D", "config": {"pool_length": 4, "trainable": true, "name": "maxpooling1d_1_dil_model", "border_mode": "valid", "stride": 2}}, {"class_name": "Convolution1D", "config": {"trainable": true, "border_mode": "valid", "activation": "relu", "W_regularizer": null, "input_length": null, "nb_filter": 200, "name": "convolution1d_2_dil_model", "subsample_length": 1, "input_dim": null, "b_regularizer": null, "W_constraint": null, "activity_regularizer": null, "bias": true, "init": "uniform", "b_constraint": null, "filter_length": 6}}]}, {"class_name": "Sequential", "config": [{"class_name": "Embedding", "config": {"trainable": true, "mask_zero": false, "W_regularizer": null, "input_length": 140, "name": "embedding_17_mpq_model", "input_dim": 428669, "input_dtype": "int32", "batch_input_shape": [null, 140], "dropout": 0.2, "W_constraint": null, "activity_regularizer": null, "init": "uniform", "output_dim": 52}}, {"class_name": "ZeroPadding1D", "config": {"trainable": true, "name": "zeropadding1d_17_mpq_model", "padding": 5}}, {"class_name": "Convolution1D", "config": {"trainable": true, "border_mode": "valid", "activation": "relu", "W_regularizer": null, "input_length": null, "nb_filter": 200, "name": "convolution1d_33_mpq_model", "subsample_length": 1, "input_dim": null, "b_regularizer": null, "W_constraint": null, "activity_regularizer": null, "bias": true, "init": "uniform", "b_constraint": null, "filter_length": 6}}, {"class_name": "MaxPooling1D", "config": {"pool_length": 4, "trainable": true, "name": "maxpooling1d_33_mpq_model", "border_mode": "valid", "stride": 2}}, {"class_name": "Convolution1D", "config": {"trainable": true, "border_mode": "valid", "activation": "relu", "W_regularizer": null, "input_length": null, "nb_filter": 200, "name": "convolution1d_34_mpq_model", "subsample_length": 1, "input_dim": null, "b_regularizer": null, "W_constraint": null, "activity_regularizer": null, "bias": true, "init": "uniform", "b_constraint": null, "filter_length": 6}}]}, {"class_name": "Sequential", "config": [{"class_name": "Embedding", "config": {"trainable": true, "mask_zero": false, "W_regularizer": null, "input_length": 140, "name": "embedding_1_semeval_model", "input_dim": 1576890, "input_dtype": "int32", "batch_input_shape": [null, 140], "dropout": 0.2, "W_constraint": null, "activity_regularizer": null, "init": "uniform", "output_dim": 52}}, {"class_name": "ZeroPadding1D", "config": {"trainable": true, "name": "zeropadding1d_1_semeval_model", "padding": 5}}, {"class_name": "Convolution1D", "config": {"trainable": true, "border_mode": "valid", "activation": "relu", "W_regularizer": null, "input_length": null, "nb_filter": 200, "name": "convolution1d_1_semeval_model", "subsample_length": 1, "input_dim": null, "b_regularizer": null, "W_constraint": null, "activity_regularizer": null, "bias": true, "init": "uniform", "b_constraint": null, "filter_length": 6}}, {"class_name": "MaxPooling1D", "config": {"pool_length": 4, "trainable": true, "name": "maxpooling1d_1_semeval_model", "border_mode": "valid", "stride": 2}}, {"class_name": "Convolution1D", "config": {"trainable": true, "border_mode": "valid", "activation": "relu", "W_regularizer": null, "input_length": null, "nb_filter": 200, "name": "convolution1d_2_semeval_model", "subsample_length": 1, "input_dim": null, "b_regularizer": null, "W_constraint": null, "activity_regularizer": null, "bias": true, "init": "uniform", "b_constraint": null, "filter_length": 6}}]}, {"class_name": "Sequential", "config": [{"class_name": "Embedding", "config": {"trainable": true, "mask_zero": false, "W_regularizer": null, "input_length": 140, "name": "embedding_1_tac_model", "input_dim": 428669, "input_dtype": "int32", "batch_input_shape": [null, 140], "dropout": 0.2, "W_constraint": null, "activity_regularizer": null, "init": "uniform", "output_dim": 52}}, {"class_name": "ZeroPadding1D", "config": {"trainable": true, "name": "zeropadding1d_1_tac_model", "padding": 5}}, {"class_name": "Convolution1D", "config": {"trainable": true, "border_mode": "valid", "activation": "relu", "W_regularizer": null, "input_length": null, "nb_filter": 200, "name": "convolution1d_1_tac_model", "subsample_length": 1, "input_dim": null, "b_regularizer": null, "W_constraint": null, "activity_regularizer": null, "bias": true, "init": "uniform", "b_constraint": null, "filter_length": 6}}, {"class_name": "MaxPooling1D", "config": {"pool_length": 4, "trainable": true, "name": "maxpooling1d_1_tac_model", "border_mode": "valid", "stride": 2}}, {"class_name": "Convolution1D", "config": {"trainable": true, "border_mode": "valid", "activation": "relu", "W_regularizer": null, "input_length": null, "nb_filter": 200, "name": "convolution1d_2_tac_model", "subsample_length": 1, "input_dim": null, "b_regularizer": null, "W_constraint": null, "activity_regularizer": null, "bias": true, "init": "uniform", "b_constraint": null, "filter_length": 6}}]}], "output_shape": null, "name": "merge_1", "output_shape_type": "raw", "mode": "concat", "concat_axis": -1, "dot_axes": -1}}, {"class_name": "MaxPooling1D", "config": {"pool_length": 4, "trainable": true, "name": "maxpooling1d_1", "border_mode": "valid", "stride": 2}}, {"class_name": "Convolution1D", "config": {"trainable": true, "border_mode": "valid", "activation": "relu", "W_regularizer": null, "input_length": null, "nb_filter": 200, "name": "convolution1d_1", "subsample_length": 1, "input_dim": null, "bias": true, "W_constraint": null, "activity_regularizer": null, "b_regularizer": null, "init": "uniform", "b_constraint": null, "filter_length": 6}}, {"class_name": "MaxPooling1D", "config": {"pool_length": 4, "trainable": true, "name": "maxpooling1d_2", "border_mode": "valid", "stride": 2}}, {"class_name": "Flatten", "config": {"trainable": true, "name": "flatten_1"}}, {"class_name": "Dense", "config": {"trainable": true, "activation": "linear", "W_regularizer": null, "name": "dense_1", "input_dim": null, "bias": true, "W_constraint": null, "activity_regularizer": null, "b_regularizer": null, "init": "glorot_uniform", "b_constraint": null, "output_dim": 200}}, {"class_name": "Dropout", "config": {"trainable": true, "name": "dropout_1", "p": 0.2}}, {"class_name": "Activation", "config": {"trainable": true, "name": "activation_1", "activation": "relu"}}, {"class_name": "Dense", "config": {"trainable": true, "activation": "softmax", "W_regularizer": null, "name": "dense_2", "input_dim": null, "bias": true, "W_constraint": null, "activity_regularizer": null, "b_regularizer": null, "init": "glorot_uniform", "b_constraint": null, "output_dim": 3}}]}