{"class_name": "Sequential", "keras_version": "1.1.1", "config": [{"class_name": "Merge", "config": {"name": "merge_1", "layers": [{"class_name": "Sequential", "config": [{"class_name": "Embedding", "config": {"input_length": 140, "input_dim": 1576890, "input_dtype": "int32", "init": "uniform", "W_regularizer": null, "mask_zero": false, "name": "embedding_1_dil_model", "W_constraint": null, "trainable": true, "output_dim": 52, "batch_input_shape": [null, 140], "activity_regularizer": null, "dropout": 0.2}}, {"class_name": "ZeroPadding1D", "config": {"name": "zeropadding1d_1_dil_model", "trainable": true, "padding": 5}}, {"class_name": "Convolution1D", "config": {"input_length": null, "input_dim": null, "subsample_length": 1, "init": "uniform", "bias": true, "nb_filter": 200, "activation": "relu", "W_regularizer": null, "filter_length": 6, "border_mode": "valid", "name": "convolution1d_1_dil_model", "W_constraint": null, "trainable": true, "b_constraint": null, "activity_regularizer": null, "b_regularizer": null}}, {"class_name": "MaxPooling1D", "config": {"name": "maxpooling1d_1_dil_model", "trainable": true, "pool_length": 4, "stride": 2, "border_mode": "valid"}}, {"class_name": "Convolution1D", "config": {"input_length": null, "input_dim": null, "subsample_length": 1, "init": "uniform", "bias": true, "nb_filter": 200, "activation": "relu", "W_regularizer": null, "filter_length": 6, "border_mode": "valid", "name": "convolution1d_2_dil_model", "W_constraint": null, "trainable": true, "b_constraint": null, "activity_regularizer": null, "b_regularizer": null}}]}, {"class_name": "Sequential", "config": [{"class_name": "Embedding", "config": {"input_length": 140, "input_dim": 428669, "input_dtype": "int32", "init": "uniform", "W_regularizer": null, "mask_zero": false, "name": "embedding_17_mpq_model", "W_constraint": null, "trainable": true, "output_dim": 52, "batch_input_shape": [null, 140], "activity_regularizer": null, "dropout": 0.2}}, {"class_name": "ZeroPadding1D", "config": {"name": "zeropadding1d_17_mpq_model", "trainable": true, "padding": 5}}, {"class_name": "Convolution1D", "config": {"input_length": null, "input_dim": null, "subsample_length": 1, "init": "uniform", "bias": true, "nb_filter": 200, "activation": "relu", "W_regularizer": null, "filter_length": 6, "border_mode": "valid", "name": "convolution1d_33_mpq_model", "W_constraint": null, "trainable": true, "b_constraint": null, "activity_regularizer": null, "b_regularizer": null}}, {"class_name": "MaxPooling1D", "config": {"name": "maxpooling1d_33_mpq_model", "trainable": true, "pool_length": 4, "stride": 2, "border_mode": "valid"}}, {"class_name": "Convolution1D", "config": {"input_length": null, "input_dim": null, "subsample_length": 1, "init": "uniform", "bias": true, "nb_filter": 200, "activation": "relu", "W_regularizer": null, "filter_length": 6, "border_mode": "valid", "name": "convolution1d_34_mpq_model", "W_constraint": null, "trainable": true, "b_constraint": null, "activity_regularizer": null, "b_regularizer": null}}]}, {"class_name": "Sequential", "config": [{"class_name": "Embedding", "config": {"input_length": 140, "input_dim": 1576890, "input_dtype": "int32", "init": "uniform", "W_regularizer": null, "mask_zero": false, "name": "embedding_1_semeval_model", "W_constraint": null, "trainable": true, "output_dim": 52, "batch_input_shape": [null, 140], "activity_regularizer": null, "dropout": 0.2}}, {"class_name": "ZeroPadding1D", "config": {"name": "zeropadding1d_1_semeval_model", "trainable": true, "padding": 5}}, {"class_name": "Convolution1D", "config": {"input_length": null, "input_dim": null, "subsample_length": 1, "init": "uniform", "bias": true, "nb_filter": 200, "activation": "relu", "W_regularizer": null, "filter_length": 6, "border_mode": "valid", "name": "convolution1d_1_semeval_model", "W_constraint": null, "trainable": true, "b_constraint": null, "activity_regularizer": null, "b_regularizer": null}}, {"class_name": "MaxPooling1D", "config": {"name": "maxpooling1d_1_semeval_model", "trainable": true, "pool_length": 4, "stride": 2, "border_mode": "valid"}}, {"class_name": "Convolution1D", "config": {"input_length": null, "input_dim": null, "subsample_length": 1, "init": "uniform", "bias": true, "nb_filter": 200, "activation": "relu", "W_regularizer": null, "filter_length": 6, "border_mode": "valid", "name": "convolution1d_2_semeval_model", "W_constraint": null, "trainable": true, "b_constraint": null, "activity_regularizer": null, "b_regularizer": null}}]}], "mode": "concat", "output_shape_type": "raw", "output_shape": null, "mode_type": "raw", "dot_axes": -1, "concat_axis": -1}}, {"class_name": "MaxPooling1D", "config": {"name": "maxpooling1d_1", "trainable": true, "pool_length": 4, "stride": 2, "border_mode": "valid"}}, {"class_name": "Convolution1D", "config": {"input_length": null, "input_dim": null, "init": "uniform", "bias": true, "nb_filter": 200, "activation": "relu", "W_regularizer": null, "filter_length": 6, "border_mode": "valid", "name": "convolution1d_1", "W_constraint": null, "trainable": true, "b_constraint": null, "b_regularizer": null, "activity_regularizer": null, "subsample_length": 1}}, {"class_name": "MaxPooling1D", "config": {"name": "maxpooling1d_2", "trainable": true, "pool_length": 4, "stride": 2, "border_mode": "valid"}}, {"class_name": "Flatten", "config": {"name": "flatten_1", "trainable": true}}, {"class_name": "Dense", "config": {"input_dim": null, "W_regularizer": null, "bias": true, "activation": "linear", "init": "glorot_uniform", "name": "dense_1", "W_constraint": null, "trainable": true, "output_dim": 200, "b_constraint": null, "activity_regularizer": null, "b_regularizer": null}}, {"class_name": "Dropout", "config": {"name": "dropout_1", "trainable": true, "p": 0.2}}, {"class_name": "Activation", "config": {"name": "activation_1", "trainable": true, "activation": "relu"}}, {"class_name": "Dense", "config": {"input_dim": null, "W_regularizer": null, "bias": true, "activation": "softmax", "init": "glorot_uniform", "name": "dense_2", "W_constraint": null, "trainable": true, "output_dim": 3, "b_constraint": null, "activity_regularizer": null, "b_regularizer": null}}]}