{"keras_version": "1.1.1", "class_name": "Sequential", "config": [{"class_name": "Embedding", "config": {"input_length": 140, "input_dtype": "int32", "init": "uniform", "input_dim": 428669, "activity_regularizer": null, "W_constraint": null, "mask_zero": false, "output_dim": 52, "batch_input_shape": [null, 140], "W_regularizer": null, "name": "embedding_2", "dropout": 0.2, "trainable": true}}, {"class_name": "ZeroPadding1D", "config": {"padding": 5, "trainable": true, "name": "zeropadding1d_2"}}, {"class_name": "Convolution1D", "config": {"nb_filter": 200, "filter_length": 6, "b_regularizer": null, "W_constraint": null, "activation": "relu", "input_length": null, "border_mode": "valid", "activity_regularizer": null, "bias": true, "subsample_length": 1, "W_regularizer": null, "name": "convolution1d_3", "input_dim": null, "init": "uniform", "trainable": true, "b_constraint": null}}, {"class_name": "MaxPooling1D", "config": {"pool_length": 4, "border_mode": "valid", "trainable": true, "name": "maxpooling1d_3", "stride": 2}}, {"class_name": "Convolution1D", "config": {"nb_filter": 200, "filter_length": 6, "b_regularizer": null, "W_constraint": null, "activation": "relu", "input_length": null, "border_mode": "valid", "activity_regularizer": null, "bias": true, "subsample_length": 1, "W_regularizer": null, "name": "convolution1d_4", "input_dim": null, "init": "uniform", "trainable": true, "b_constraint": null}}, {"class_name": "MaxPooling1D", "config": {"pool_length": 66, "border_mode": "valid", "trainable": true, "name": "maxpooling1d_4", "stride": 66}}, {"class_name": "Flatten", "config": {"name": "flatten_2", "trainable": true}}, {"class_name": "Dense", "config": {"b_regularizer": null, "input_dim": null, "W_constraint": null, "activation": "linear", "name": "dense_3", "output_dim": 200, "bias": true, "W_regularizer": null, "activity_regularizer": null, "init": "glorot_uniform", "trainable": true, "b_constraint": null}}, {"class_name": "Dropout", "config": {"p": 0.2, "trainable": true, "name": "dropout_2"}}, {"class_name": "Activation", "config": {"activation": "relu", "trainable": true, "name": "activation_2"}}, {"class_name": "Dense", "config": {"b_regularizer": null, "input_dim": null, "W_constraint": null, "activation": "softmax", "name": "dense_4", "output_dim": 3, "bias": true, "W_regularizer": null, "activity_regularizer": null, "init": "glorot_uniform", "trainable": true, "b_constraint": null}}]}