{"keras_version": "1.1.1", "config": [{"config": {"output_shape": null, "name": "merge_1", "output_shape_type": "raw", "mode_type": "raw", "dot_axes": -1, "mode": "concat", "layers": [{"config": [{"config": {"W_regularizer": null, "dropout": 0.2, "mask_zero": false, "name": "embedding_1_dai_model", "input_length": 140, "input_dim": 1576890, "batch_input_shape": [null, 140], "trainable": true, "W_constraint": null, "output_dim": 52, "activity_regularizer": null, "init": "uniform", "input_dtype": "int32"}, "class_name": "Embedding"}, {"config": {"name": "zeropadding1d_1_dai_model", "padding": 5, "trainable": true}, "class_name": "ZeroPadding1D"}, {"config": {"b_constraint": null, "W_regularizer": null, "subsample_length": 1, "b_regularizer": null, "name": "convolution1d_1_dai_model", "activation": "relu", "input_length": null, "activity_regularizer": null, "nb_filter": 200, "filter_length": 6, "trainable": true, "W_constraint": null, "border_mode": "valid", "bias": true, "init": "uniform", "input_dim": null}, "class_name": "Convolution1D"}, {"config": {"name": "maxpooling1d_1_dai_model", "border_mode": "valid", "stride": 2, "trainable": true, "pool_length": 4}, "class_name": "MaxPooling1D"}, {"config": {"b_constraint": null, "W_regularizer": null, "subsample_length": 1, "b_regularizer": null, "name": "convolution1d_2_dai_model", "activation": "relu", "input_length": null, "activity_regularizer": null, "nb_filter": 200, "filter_length": 6, "trainable": true, "W_constraint": null, "border_mode": "valid", "bias": true, "init": "uniform", "input_dim": null}, "class_name": "Convolution1D"}], "class_name": "Sequential"}, {"config": [{"config": {"W_regularizer": null, "dropout": 0.2, "mask_zero": false, "name": "embedding_1_hul_model", "input_length": 140, "input_dim": 1062158, "batch_input_shape": [null, 140], "trainable": true, "W_constraint": null, "output_dim": 52, "activity_regularizer": null, "init": "uniform", "input_dtype": "int32"}, "class_name": "Embedding"}, {"config": {"name": "zeropadding1d_1_hul_model", "padding": 5, "trainable": true}, "class_name": "ZeroPadding1D"}, {"config": {"b_constraint": null, "W_regularizer": null, "subsample_length": 1, "b_regularizer": null, "name": "convolution1d_1_hul_model", "activation": "relu", "input_length": null, "activity_regularizer": null, "nb_filter": 200, "filter_length": 6, "trainable": true, "W_constraint": null, "border_mode": "valid", "bias": true, "init": "uniform", "input_dim": null}, "class_name": "Convolution1D"}, {"config": {"name": "maxpooling1d_1_hul_model", "border_mode": "valid", "stride": 2, "trainable": true, "pool_length": 4}, "class_name": "MaxPooling1D"}, {"config": {"b_constraint": null, "W_regularizer": null, "subsample_length": 1, "b_regularizer": null, "name": "convolution1d_2_hul_model", "activation": "relu", "input_length": null, "activity_regularizer": null, "nb_filter": 200, "filter_length": 6, "trainable": true, "W_constraint": null, "border_mode": "valid", "bias": true, "init": "uniform", "input_dim": null}, "class_name": "Convolution1D"}], "class_name": "Sequential"}, {"config": [{"config": {"W_regularizer": null, "dropout": 0.2, "mask_zero": false, "name": "embedding_17_mpq_model", "input_length": 140, "input_dim": 428669, "batch_input_shape": [null, 140], "trainable": true, "W_constraint": null, "output_dim": 52, "activity_regularizer": null, "init": "uniform", "input_dtype": "int32"}, "class_name": "Embedding"}, {"config": {"name": "zeropadding1d_17_mpq_model", "padding": 5, "trainable": true}, "class_name": "ZeroPadding1D"}, {"config": {"b_constraint": null, "W_regularizer": null, "subsample_length": 1, "b_regularizer": null, "name": "convolution1d_33_mpq_model", "activation": "relu", "input_length": null, "activity_regularizer": null, "nb_filter": 200, "filter_length": 6, "trainable": true, "W_constraint": null, "border_mode": "valid", "bias": true, "init": "uniform", "input_dim": null}, "class_name": "Convolution1D"}, {"config": {"name": "maxpooling1d_33_mpq_model", "border_mode": "valid", "stride": 2, "trainable": true, "pool_length": 4}, "class_name": "MaxPooling1D"}, {"config": {"b_constraint": null, "W_regularizer": null, "subsample_length": 1, "b_regularizer": null, "name": "convolution1d_34_mpq_model", "activation": "relu", "input_length": null, "activity_regularizer": null, "nb_filter": 200, "filter_length": 6, "trainable": true, "W_constraint": null, "border_mode": "valid", "bias": true, "init": "uniform", "input_dim": null}, "class_name": "Convolution1D"}], "class_name": "Sequential"}, {"config": [{"config": {"W_regularizer": null, "dropout": 0.2, "mask_zero": false, "name": "embedding_1_semeval_model", "input_length": 140, "input_dim": 1576890, "batch_input_shape": [null, 140], "trainable": true, "W_constraint": null, "output_dim": 52, "activity_regularizer": null, "init": "uniform", "input_dtype": "int32"}, "class_name": "Embedding"}, {"config": {"name": "zeropadding1d_1_semeval_model", "padding": 5, "trainable": true}, "class_name": "ZeroPadding1D"}, {"config": {"b_constraint": null, "W_regularizer": null, "subsample_length": 1, "b_regularizer": null, "name": "convolution1d_1_semeval_model", "activation": "relu", "input_length": null, "activity_regularizer": null, "nb_filter": 200, "filter_length": 6, "trainable": true, "W_constraint": null, "border_mode": "valid", "bias": true, "init": "uniform", "input_dim": null}, "class_name": "Convolution1D"}, {"config": {"name": "maxpooling1d_1_semeval_model", "border_mode": "valid", "stride": 2, "trainable": true, "pool_length": 4}, "class_name": "MaxPooling1D"}, {"config": {"b_constraint": null, "W_regularizer": null, "subsample_length": 1, "b_regularizer": null, "name": "convolution1d_2_semeval_model", "activation": "relu", "input_length": null, "activity_regularizer": null, "nb_filter": 200, "filter_length": 6, "trainable": true, "W_constraint": null, "border_mode": "valid", "bias": true, "init": "uniform", "input_dim": null}, "class_name": "Convolution1D"}], "class_name": "Sequential"}], "concat_axis": -1}, "class_name": "Merge"}, {"config": {"name": "maxpooling1d_1", "border_mode": "valid", "pool_length": 4, "trainable": true, "stride": 2}, "class_name": "MaxPooling1D"}, {"config": {"W_regularizer": null, "subsample_length": 1, "bias": true, "b_regularizer": null, "name": "convolution1d_1", "activation": "relu", "input_length": null, "input_dim": null, "filter_length": 6, "init": "uniform", "trainable": true, "W_constraint": null, "border_mode": "valid", "activity_regularizer": null, "b_constraint": null, "nb_filter": 200}, "class_name": "Convolution1D"}, {"config": {"name": "maxpooling1d_2", "border_mode": "valid", "pool_length": 4, "trainable": true, "stride": 2}, "class_name": "MaxPooling1D"}, {"config": {"name": "flatten_1", "trainable": true}, "class_name": "Flatten"}, {"config": {"W_regularizer": null, "output_dim": 200, "bias": true, "b_regularizer": null, "name": "dense_1", "activation": "linear", "init": "glorot_uniform", "trainable": true, "W_constraint": null, "activity_regularizer": null, "b_constraint": null, "input_dim": null}, "class_name": "Dense"}, {"config": {"name": "dropout_1", "p": 0.2, "trainable": true}, "class_name": "Dropout"}, {"config": {"name": "activation_1", "activation": "relu", "trainable": true}, "class_name": "Activation"}, {"config": {"W_regularizer": null, "output_dim": 3, "bias": true, "b_regularizer": null, "name": "dense_2", "activation": "softmax", "init": "glorot_uniform", "trainable": true, "W_constraint": null, "activity_regularizer": null, "b_constraint": null, "input_dim": null}, "class_name": "Dense"}], "class_name": "Sequential"}