{"config": [{"config": {"input_dtype": "int32", "trainable": true, "output_dim": 52, "mask_zero": false, "batch_input_shape": [null, 140], "activity_regularizer": null, "dropout": 0.2, "name": "embedding_91", "init": "uniform", "input_dim": 1576890, "W_regularizer": null, "W_constraint": null, "input_length": 140}, "class_name": "Embedding"}, {"config": {"trainable": true, "name": "zeropadding1d_91", "padding": 5}, "class_name": "ZeroPadding1D"}, {"config": {"subsample_length": 1, "trainable": true, "border_mode": "valid", "filter_length": 6, "b_constraint": null, "bias": true, "activity_regularizer": null, "name": "convolution1d_181", "init": "uniform", "activation": "relu", "input_dim": null, "W_regularizer": null, "b_regularizer": null, "W_constraint": null, "nb_filter": 200, "input_length": null}, "class_name": "Convolution1D"}, {"config": {"pool_length": 4, "name": "maxpooling1d_181", "border_mode": "valid", "trainable": true, "stride": 2}, "class_name": "MaxPooling1D"}, {"config": {"subsample_length": 1, "trainable": true, "border_mode": "valid", "filter_length": 6, "b_constraint": null, "bias": true, "activity_regularizer": null, "name": "convolution1d_182", "init": "uniform", "activation": "relu", "input_dim": null, "W_regularizer": null, "b_regularizer": null, "W_constraint": null, "nb_filter": 200, "input_length": null}, "class_name": "Convolution1D"}, {"config": {"pool_length": 66, "name": "maxpooling1d_182", "border_mode": "valid", "trainable": true, "stride": 66}, "class_name": "MaxPooling1D"}, {"config": {"trainable": true, "name": "flatten_91"}, "class_name": "Flatten"}, {"config": {"trainable": true, "output_dim": 200, "activation": "linear", "b_regularizer": null, "bias": true, "activity_regularizer": null, "name": "dense_181", "init": "glorot_uniform", "input_dim": null, "W_regularizer": null, "b_constraint": null, "W_constraint": null}, "class_name": "Dense"}, {"config": {"p": 0.2, "trainable": true, "name": "dropout_91"}, "class_name": "Dropout"}, {"config": {"activation": "relu", "trainable": true, "name": "activation_91"}, "class_name": "Activation"}, {"config": {"trainable": true, "output_dim": 3, "activation": "softmax", "b_regularizer": null, "bias": true, "activity_regularizer": null, "name": "dense_182", "init": "glorot_uniform", "input_dim": null, "W_regularizer": null, "b_constraint": null, "W_constraint": null}, "class_name": "Dense"}], "class_name": "Sequential", "keras_version": "1.1.0"}