{"keras_version": "1.1.1", "config": [{"class_name": "Merge", "config": {"mode": "concat", "mode_type": "raw", "name": "merge_1", "layers": [{"class_name": "Sequential", "config": [{"config": {"name": "embedding_1_dai_model", "activity_regularizer": null, "W_regularizer": null, "dropout": 0.2, "trainable": true, "input_dim": 1576890, "input_dtype": "int32", "init": "uniform", "W_constraint": null, "input_length": 140, "output_dim": 52, "mask_zero": false, "batch_input_shape": [null, 140]}, "class_name": "Embedding"}, {"config": {"trainable": true, "padding": 5, "name": "zeropadding1d_1_dai_model"}, "class_name": "ZeroPadding1D"}, {"config": {"border_mode": "valid", "W_regularizer": null, "activation": "relu", "activity_regularizer": null, "filter_length": 6, "subsample_length": 1, "nb_filter": 200, "name": "convolution1d_1_dai_model", "trainable": true, "bias": true, "init": "uniform", "W_constraint": null, "input_length": null, "b_constraint": null, "b_regularizer": null, "input_dim": null}, "class_name": "Convolution1D"}, {"config": {"border_mode": "valid", "trainable": true, "stride": 2, "pool_length": 4, "name": "maxpooling1d_1_dai_model"}, "class_name": "MaxPooling1D"}, {"config": {"border_mode": "valid", "W_regularizer": null, "activation": "relu", "activity_regularizer": null, "filter_length": 6, "subsample_length": 1, "nb_filter": 200, "name": "convolution1d_2_dai_model", "trainable": true, "bias": true, "init": "uniform", "W_constraint": null, "input_length": null, "b_constraint": null, "b_regularizer": null, "input_dim": null}, "class_name": "Convolution1D"}]}, {"class_name": "Sequential", "config": [{"config": {"name": "embedding_1_hul_model", "activity_regularizer": null, "W_regularizer": null, "dropout": 0.2, "trainable": true, "input_dim": 1062158, "input_dtype": "int32", "init": "uniform", "W_constraint": null, "input_length": 140, "output_dim": 52, "mask_zero": false, "batch_input_shape": [null, 140]}, "class_name": "Embedding"}, {"config": {"trainable": true, "padding": 5, "name": "zeropadding1d_1_hul_model"}, "class_name": "ZeroPadding1D"}, {"config": {"border_mode": "valid", "W_regularizer": null, "activation": "relu", "activity_regularizer": null, "filter_length": 6, "subsample_length": 1, "nb_filter": 200, "name": "convolution1d_1_hul_model", "trainable": true, "bias": true, "init": "uniform", "W_constraint": null, "input_length": null, "b_constraint": null, "b_regularizer": null, "input_dim": null}, "class_name": "Convolution1D"}, {"config": {"border_mode": "valid", "trainable": true, "stride": 2, "pool_length": 4, "name": "maxpooling1d_1_hul_model"}, "class_name": "MaxPooling1D"}, {"config": {"border_mode": "valid", "W_regularizer": null, "activation": "relu", "activity_regularizer": null, "filter_length": 6, "subsample_length": 1, "nb_filter": 200, "name": "convolution1d_2_hul_model", "trainable": true, "bias": true, "init": "uniform", "W_constraint": null, "input_length": null, "b_constraint": null, "b_regularizer": null, "input_dim": null}, "class_name": "Convolution1D"}]}, {"class_name": "Sequential", "config": [{"config": {"name": "embedding_1_semeval_model", "activity_regularizer": null, "W_regularizer": null, "dropout": 0.2, "trainable": true, "input_dim": 1576890, "input_dtype": "int32", "init": "uniform", "W_constraint": null, "input_length": 140, "output_dim": 52, "mask_zero": false, "batch_input_shape": [null, 140]}, "class_name": "Embedding"}, {"config": {"trainable": true, "padding": 5, "name": "zeropadding1d_1_semeval_model"}, "class_name": "ZeroPadding1D"}, {"config": {"border_mode": "valid", "W_regularizer": null, "activation": "relu", "activity_regularizer": null, "filter_length": 6, "subsample_length": 1, "nb_filter": 200, "name": "convolution1d_1_semeval_model", "trainable": true, "bias": true, "init": "uniform", "W_constraint": null, "input_length": null, "b_constraint": null, "b_regularizer": null, "input_dim": null}, "class_name": "Convolution1D"}, {"config": {"border_mode": "valid", "trainable": true, "stride": 2, "pool_length": 4, "name": "maxpooling1d_1_semeval_model"}, "class_name": "MaxPooling1D"}, {"config": {"border_mode": "valid", "W_regularizer": null, "activation": "relu", "activity_regularizer": null, "filter_length": 6, "subsample_length": 1, "nb_filter": 200, "name": "convolution1d_2_semeval_model", "trainable": true, "bias": true, "init": "uniform", "W_constraint": null, "input_length": null, "b_constraint": null, "b_regularizer": null, "input_dim": null}, "class_name": "Convolution1D"}]}, {"class_name": "Sequential", "config": [{"config": {"name": "embedding_1_tac_model", "activity_regularizer": null, "W_regularizer": null, "dropout": 0.2, "trainable": true, "input_dim": 428669, "input_dtype": "int32", "init": "uniform", "W_constraint": null, "input_length": 140, "output_dim": 52, "mask_zero": false, "batch_input_shape": [null, 140]}, "class_name": "Embedding"}, {"config": {"trainable": true, "padding": 5, "name": "zeropadding1d_1_tac_model"}, "class_name": "ZeroPadding1D"}, {"config": {"border_mode": "valid", "W_regularizer": null, "activation": "relu", "activity_regularizer": null, "filter_length": 6, "subsample_length": 1, "nb_filter": 200, "name": "convolution1d_1_tac_model", "trainable": true, "bias": true, "init": "uniform", "W_constraint": null, "input_length": null, "b_constraint": null, "b_regularizer": null, "input_dim": null}, "class_name": "Convolution1D"}, {"config": {"border_mode": "valid", "trainable": true, "stride": 2, "pool_length": 4, "name": "maxpooling1d_1_tac_model"}, "class_name": "MaxPooling1D"}, {"config": {"border_mode": "valid", "W_regularizer": null, "activation": "relu", "activity_regularizer": null, "filter_length": 6, "subsample_length": 1, "nb_filter": 200, "name": "convolution1d_2_tac_model", "trainable": true, "bias": true, "init": "uniform", "W_constraint": null, "input_length": null, "b_constraint": null, "b_regularizer": null, "input_dim": null}, "class_name": "Convolution1D"}]}], "concat_axis": -1, "output_shape_type": "raw", "dot_axes": -1, "output_shape": null}}, {"class_name": "MaxPooling1D", "config": {"border_mode": "valid", "trainable": true, "stride": 2, "name": "maxpooling1d_1", "pool_length": 4}}, {"class_name": "Convolution1D", "config": {"border_mode": "valid", "W_regularizer": null, "activation": "relu", "activity_regularizer": null, "filter_length": 6, "subsample_length": 1, "nb_filter": 200, "name": "convolution1d_1", "trainable": true, "bias": true, "init": "uniform", "W_constraint": null, "input_length": null, "b_constraint": null, "b_regularizer": null, "input_dim": null}}, {"class_name": "MaxPooling1D", "config": {"border_mode": "valid", "trainable": true, "stride": 2, "name": "maxpooling1d_2", "pool_length": 4}}, {"class_name": "Flatten", "config": {"trainable": true, "name": "flatten_1"}}, {"class_name": "Dense", "config": {"W_regularizer": null, "activation": "linear", "activity_regularizer": null, "name": "dense_1", "trainable": true, "bias": true, "init": "glorot_uniform", "W_constraint": null, "b_constraint": null, "output_dim": 200, "b_regularizer": null, "input_dim": null}}, {"class_name": "Dropout", "config": {"trainable": true, "p": 0.2, "name": "dropout_1"}}, {"class_name": "Activation", "config": {"activation": "relu", "trainable": true, "name": "activation_1"}}, {"class_name": "Dense", "config": {"W_regularizer": null, "activation": "softmax", "activity_regularizer": null, "name": "dense_2", "trainable": true, "bias": true, "init": "glorot_uniform", "W_constraint": null, "b_constraint": null, "output_dim": 3, "b_regularizer": null, "input_dim": null}}], "class_name": "Sequential"}