{"class_name": "Sequential", "keras_version": "1.1.1", "config": [{"class_name": "Merge", "config": {"mode": "concat", "output_shape_type": "raw", "concat_axis": -1, "name": "merge_1", "output_shape": null, "mode_type": "raw", "dot_axes": -1, "layers": [{"class_name": "Sequential", "config": [{"class_name": "Embedding", "config": {"W_constraint": null, "activity_regularizer": null, "input_dtype": "int32", "mask_zero": false, "input_dim": 1576890, "trainable": true, "output_dim": 52, "batch_input_shape": [null, 140], "dropout": 0.2, "name": "embedding_1_dai_model", "W_regularizer": null, "input_length": 140, "init": "uniform"}}, {"class_name": "ZeroPadding1D", "config": {"trainable": true, "padding": 5, "name": "zeropadding1d_1_dai_model"}}, {"class_name": "Convolution1D", "config": {"W_constraint": null, "filter_length": 6, "activation": "relu", "activity_regularizer": null, "input_dim": null, "b_regularizer": null, "trainable": true, "bias": true, "border_mode": "valid", "name": "convolution1d_1_dai_model", "b_constraint": null, "nb_filter": 200, "subsample_length": 1, "W_regularizer": null, "input_length": null, "init": "uniform"}}, {"class_name": "MaxPooling1D", "config": {"pool_length": 4, "trainable": true, "border_mode": "valid", "stride": 2, "name": "maxpooling1d_1_dai_model"}}, {"class_name": "Convolution1D", "config": {"W_constraint": null, "filter_length": 6, "activation": "relu", "activity_regularizer": null, "input_dim": null, "b_regularizer": null, "trainable": true, "bias": true, "border_mode": "valid", "name": "convolution1d_2_dai_model", "b_constraint": null, "nb_filter": 200, "subsample_length": 1, "W_regularizer": null, "input_length": null, "init": "uniform"}}]}, {"class_name": "Sequential", "config": [{"class_name": "Embedding", "config": {"W_constraint": null, "activity_regularizer": null, "input_dtype": "int32", "mask_zero": false, "input_dim": 1576890, "trainable": true, "output_dim": 52, "batch_input_shape": [null, 140], "dropout": 0.2, "name": "embedding_1_dil_model", "W_regularizer": null, "input_length": 140, "init": "uniform"}}, {"class_name": "ZeroPadding1D", "config": {"trainable": true, "padding": 5, "name": "zeropadding1d_1_dil_model"}}, {"class_name": "Convolution1D", "config": {"W_constraint": null, "filter_length": 6, "activation": "relu", "activity_regularizer": null, "input_dim": null, "b_regularizer": null, "trainable": true, "bias": true, "border_mode": "valid", "name": "convolution1d_1_dil_model", "b_constraint": null, "nb_filter": 200, "subsample_length": 1, "W_regularizer": null, "input_length": null, "init": "uniform"}}, {"class_name": "MaxPooling1D", "config": {"pool_length": 4, "trainable": true, "border_mode": "valid", "stride": 2, "name": "maxpooling1d_1_dil_model"}}, {"class_name": "Convolution1D", "config": {"W_constraint": null, "filter_length": 6, "activation": "relu", "activity_regularizer": null, "input_dim": null, "b_regularizer": null, "trainable": true, "bias": true, "border_mode": "valid", "name": "convolution1d_2_dil_model", "b_constraint": null, "nb_filter": 200, "subsample_length": 1, "W_regularizer": null, "input_length": null, "init": "uniform"}}]}, {"class_name": "Sequential", "config": [{"class_name": "Embedding", "config": {"W_constraint": null, "activity_regularizer": null, "input_dtype": "int32", "mask_zero": false, "input_dim": 1576890, "trainable": true, "output_dim": 52, "batch_input_shape": [null, 140], "dropout": 0.2, "name": "embedding_1_semeval_model", "W_regularizer": null, "input_length": 140, "init": "uniform"}}, {"class_name": "ZeroPadding1D", "config": {"trainable": true, "padding": 5, "name": "zeropadding1d_1_semeval_model"}}, {"class_name": "Convolution1D", "config": {"W_constraint": null, "filter_length": 6, "activation": "relu", "activity_regularizer": null, "input_dim": null, "b_regularizer": null, "trainable": true, "bias": true, "border_mode": "valid", "name": "convolution1d_1_semeval_model", "b_constraint": null, "nb_filter": 200, "subsample_length": 1, "W_regularizer": null, "input_length": null, "init": "uniform"}}, {"class_name": "MaxPooling1D", "config": {"pool_length": 4, "trainable": true, "border_mode": "valid", "stride": 2, "name": "maxpooling1d_1_semeval_model"}}, {"class_name": "Convolution1D", "config": {"W_constraint": null, "filter_length": 6, "activation": "relu", "activity_regularizer": null, "input_dim": null, "b_regularizer": null, "trainable": true, "bias": true, "border_mode": "valid", "name": "convolution1d_2_semeval_model", "b_constraint": null, "nb_filter": 200, "subsample_length": 1, "W_regularizer": null, "input_length": null, "init": "uniform"}}]}, {"class_name": "Sequential", "config": [{"class_name": "Embedding", "config": {"W_constraint": null, "activity_regularizer": null, "input_dtype": "int32", "mask_zero": false, "input_dim": 428669, "trainable": true, "output_dim": 52, "batch_input_shape": [null, 140], "dropout": 0.2, "name": "embedding_1_tac_model", "W_regularizer": null, "input_length": 140, "init": "uniform"}}, {"class_name": "ZeroPadding1D", "config": {"trainable": true, "padding": 5, "name": "zeropadding1d_1_tac_model"}}, {"class_name": "Convolution1D", "config": {"W_constraint": null, "filter_length": 6, "activation": "relu", "activity_regularizer": null, "input_dim": null, "b_regularizer": null, "trainable": true, "bias": true, "border_mode": "valid", "name": "convolution1d_1_tac_model", "b_constraint": null, "nb_filter": 200, "subsample_length": 1, "W_regularizer": null, "input_length": null, "init": "uniform"}}, {"class_name": "MaxPooling1D", "config": {"pool_length": 4, "trainable": true, "border_mode": "valid", "stride": 2, "name": "maxpooling1d_1_tac_model"}}, {"class_name": "Convolution1D", "config": {"W_constraint": null, "filter_length": 6, "activation": "relu", "activity_regularizer": null, "input_dim": null, "b_regularizer": null, "trainable": true, "bias": true, "border_mode": "valid", "name": "convolution1d_2_tac_model", "b_constraint": null, "nb_filter": 200, "subsample_length": 1, "W_regularizer": null, "input_length": null, "init": "uniform"}}]}]}}, {"class_name": "MaxPooling1D", "config": {"pool_length": 4, "trainable": true, "border_mode": "valid", "stride": 2, "name": "maxpooling1d_1"}}, {"class_name": "Convolution1D", "config": {"W_constraint": null, "filter_length": 6, "activation": "relu", "activity_regularizer": null, "input_dim": null, "b_regularizer": null, "trainable": true, "bias": true, "border_mode": "valid", "name": "convolution1d_1", "b_constraint": null, "nb_filter": 200, "subsample_length": 1, "W_regularizer": null, "input_length": null, "init": "uniform"}}, {"class_name": "MaxPooling1D", "config": {"pool_length": 4, "trainable": true, "border_mode": "valid", "stride": 2, "name": "maxpooling1d_2"}}, {"class_name": "Flatten", "config": {"trainable": true, "name": "flatten_1"}}, {"class_name": "Dense", "config": {"W_constraint": null, "activation": "linear", "activity_regularizer": null, "input_dim": null, "b_regularizer": null, "trainable": true, "bias": true, "output_dim": 200, "name": "dense_1", "b_constraint": null, "W_regularizer": null, "init": "glorot_uniform"}}, {"class_name": "Dropout", "config": {"p": 0.2, "trainable": true, "name": "dropout_1"}}, {"class_name": "Activation", "config": {"activation": "relu", "trainable": true, "name": "activation_1"}}, {"class_name": "Dense", "config": {"W_constraint": null, "activation": "softmax", "activity_regularizer": null, "input_dim": null, "b_regularizer": null, "trainable": true, "bias": true, "output_dim": 3, "name": "dense_2", "b_constraint": null, "W_regularizer": null, "init": "glorot_uniform"}}]}