{"class_name": "Sequential", "config": [{"class_name": "Merge", "config": {"layers": [{"class_name": "Sequential", "config": [{"class_name": "Embedding", "config": {"dropout": 0.2, "W_constraint": null, "input_dim": 1576890, "output_dim": 52, "activity_regularizer": null, "input_length": 140, "trainable": true, "mask_zero": false, "W_regularizer": null, "input_dtype": "int32", "batch_input_shape": [null, 140], "name": "embedding_1_dil_model", "init": "uniform"}}, {"class_name": "ZeroPadding1D", "config": {"name": "zeropadding1d_1_dil_model", "trainable": true, "padding": 5}}, {"class_name": "Convolution1D", "config": {"W_constraint": null, "activation": "relu", "bias": true, "activity_regularizer": null, "b_regularizer": null, "nb_filter": 200, "filter_length": 6, "input_length": null, "border_mode": "valid", "W_regularizer": null, "b_constraint": null, "trainable": true, "subsample_length": 1, "name": "convolution1d_1_dil_model", "init": "uniform", "input_dim": null}}, {"class_name": "MaxPooling1D", "config": {"pool_length": 4, "border_mode": "valid", "name": "maxpooling1d_1_dil_model", "stride": 2, "trainable": true}}, {"class_name": "Convolution1D", "config": {"W_constraint": null, "activation": "relu", "bias": true, "activity_regularizer": null, "b_regularizer": null, "nb_filter": 200, "filter_length": 6, "input_length": null, "border_mode": "valid", "W_regularizer": null, "b_constraint": null, "trainable": true, "subsample_length": 1, "name": "convolution1d_2_dil_model", "init": "uniform", "input_dim": null}}, {"class_name": "MaxPooling1D", "config": {"pool_length": 66, "border_mode": "valid", "name": "maxpooling1d_2_dil_model", "stride": 66, "trainable": true}}, {"class_name": "Flatten", "config": {"name": "flatten_1_dil_model", "trainable": true}}]}, {"class_name": "Sequential", "config": [{"class_name": "Embedding", "config": {"dropout": 0.2, "W_constraint": null, "input_dim": 1576890, "output_dim": 52, "activity_regularizer": null, "input_length": 140, "trainable": true, "mask_zero": false, "W_regularizer": null, "input_dtype": "int32", "batch_input_shape": [null, 140], "name": "embedding_1_dai_model", "init": "uniform"}}, {"class_name": "ZeroPadding1D", "config": {"name": "zeropadding1d_1_dai_model", "trainable": true, "padding": 5}}, {"class_name": "Convolution1D", "config": {"W_constraint": null, "activation": "relu", "bias": true, "activity_regularizer": null, "b_regularizer": null, "nb_filter": 200, "filter_length": 6, "input_length": null, "border_mode": "valid", "W_regularizer": null, "b_constraint": null, "trainable": true, "subsample_length": 1, "name": "convolution1d_1_dai_model", "init": "uniform", "input_dim": null}}, {"class_name": "MaxPooling1D", "config": {"pool_length": 4, "border_mode": "valid", "name": "maxpooling1d_1_dai_model", "stride": 2, "trainable": true}}, {"class_name": "Convolution1D", "config": {"W_constraint": null, "activation": "relu", "bias": true, "activity_regularizer": null, "b_regularizer": null, "nb_filter": 200, "filter_length": 6, "input_length": null, "border_mode": "valid", "W_regularizer": null, "b_constraint": null, "trainable": true, "subsample_length": 1, "name": "convolution1d_2_dai_model", "init": "uniform", "input_dim": null}}, {"class_name": "MaxPooling1D", "config": {"pool_length": 66, "border_mode": "valid", "name": "maxpooling1d_2_dai_model", "stride": 66, "trainable": true}}, {"class_name": "Flatten", "config": {"name": "flatten_1_dai_model", "trainable": true}}]}, {"class_name": "Sequential", "config": [{"class_name": "Embedding", "config": {"dropout": 0.2, "W_constraint": null, "input_dim": 1062158, "output_dim": 52, "activity_regularizer": null, "input_length": 140, "trainable": true, "mask_zero": false, "W_regularizer": null, "input_dtype": "int32", "batch_input_shape": [null, 140], "name": "embedding_1_hul_model", "init": "uniform"}}, {"class_name": "ZeroPadding1D", "config": {"name": "zeropadding1d_1_hul_model", "trainable": true, "padding": 5}}, {"class_name": "Convolution1D", "config": {"W_constraint": null, "activation": "relu", "bias": true, "activity_regularizer": null, "b_regularizer": null, "nb_filter": 200, "filter_length": 6, "input_length": null, "border_mode": "valid", "W_regularizer": null, "b_constraint": null, "trainable": true, "subsample_length": 1, "name": "convolution1d_1_hul_model", "init": "uniform", "input_dim": null}}, {"class_name": "MaxPooling1D", "config": {"pool_length": 4, "border_mode": "valid", "name": "maxpooling1d_1_hul_model", "stride": 2, "trainable": true}}, {"class_name": "Convolution1D", "config": {"W_constraint": null, "activation": "relu", "bias": true, "activity_regularizer": null, "b_regularizer": null, "nb_filter": 200, "filter_length": 6, "input_length": null, "border_mode": "valid", "W_regularizer": null, "b_constraint": null, "trainable": true, "subsample_length": 1, "name": "convolution1d_2_hul_model", "init": "uniform", "input_dim": null}}, {"class_name": "MaxPooling1D", "config": {"pool_length": 66, "border_mode": "valid", "name": "maxpooling1d_2_hul_model", "stride": 66, "trainable": true}}, {"class_name": "Flatten", "config": {"name": "flatten_1_hul_model", "trainable": true}}]}, {"class_name": "Sequential", "config": [{"class_name": "Embedding", "config": {"dropout": 0.2, "W_constraint": null, "input_dim": 428669, "output_dim": 52, "activity_regularizer": null, "input_length": 140, "trainable": true, "mask_zero": false, "W_regularizer": null, "input_dtype": "int32", "batch_input_shape": [null, 140], "name": "embedding_17_mpq_model", "init": "uniform"}}, {"class_name": "ZeroPadding1D", "config": {"name": "zeropadding1d_17_mpq_model", "trainable": true, "padding": 5}}, {"class_name": "Convolution1D", "config": {"W_constraint": null, "activation": "relu", "bias": true, "activity_regularizer": null, "b_regularizer": null, "nb_filter": 200, "filter_length": 6, "input_length": null, "border_mode": "valid", "W_regularizer": null, "b_constraint": null, "trainable": true, "subsample_length": 1, "name": "convolution1d_33_mpq_model", "init": "uniform", "input_dim": null}}, {"class_name": "MaxPooling1D", "config": {"pool_length": 4, "border_mode": "valid", "name": "maxpooling1d_33_mpq_model", "stride": 2, "trainable": true}}, {"class_name": "Convolution1D", "config": {"W_constraint": null, "activation": "relu", "bias": true, "activity_regularizer": null, "b_regularizer": null, "nb_filter": 200, "filter_length": 6, "input_length": null, "border_mode": "valid", "W_regularizer": null, "b_constraint": null, "trainable": true, "subsample_length": 1, "name": "convolution1d_34_mpq_model", "init": "uniform", "input_dim": null}}, {"class_name": "MaxPooling1D", "config": {"pool_length": 66, "border_mode": "valid", "name": "maxpooling1d_34_mpq_model", "stride": 66, "trainable": true}}, {"class_name": "Flatten", "config": {"name": "flatten_17_mpq_model", "trainable": true}}]}, {"class_name": "Sequential", "config": [{"class_name": "Embedding", "config": {"dropout": 0.2, "W_constraint": null, "input_dim": 428669, "output_dim": 52, "activity_regularizer": null, "input_length": 140, "trainable": true, "mask_zero": false, "W_regularizer": null, "input_dtype": "int32", "batch_input_shape": [null, 140], "name": "embedding_1_semeval_model", "init": "uniform"}}, {"class_name": "ZeroPadding1D", "config": {"name": "zeropadding1d_1_semeval_model", "trainable": true, "padding": 5}}, {"class_name": "Convolution1D", "config": {"W_constraint": null, "activation": "relu", "bias": true, "activity_regularizer": null, "b_regularizer": null, "nb_filter": 200, "filter_length": 6, "input_length": null, "border_mode": "valid", "W_regularizer": null, "b_constraint": null, "trainable": true, "subsample_length": 1, "name": "convolution1d_1_semeval_model", "init": "uniform", "input_dim": null}}, {"class_name": "MaxPooling1D", "config": {"pool_length": 4, "border_mode": "valid", "name": "maxpooling1d_1_semeval_model", "stride": 2, "trainable": true}}, {"class_name": "Convolution1D", "config": {"W_constraint": null, "activation": "relu", "bias": true, "activity_regularizer": null, "b_regularizer": null, "nb_filter": 200, "filter_length": 6, "input_length": null, "border_mode": "valid", "W_regularizer": null, "b_constraint": null, "trainable": true, "subsample_length": 1, "name": "convolution1d_2_semeval_model", "init": "uniform", "input_dim": null}}, {"class_name": "MaxPooling1D", "config": {"pool_length": 66, "border_mode": "valid", "name": "maxpooling1d_2_semeval_model", "stride": 66, "trainable": true}}, {"class_name": "Flatten", "config": {"name": "flatten_1_semeval_model", "trainable": true}}]}, {"class_name": "Sequential", "config": [{"class_name": "Embedding", "config": {"dropout": 0.2, "W_constraint": null, "input_dim": 428669, "output_dim": 52, "activity_regularizer": null, "input_length": 140, "trainable": true, "mask_zero": false, "W_regularizer": null, "input_dtype": "int32", "batch_input_shape": [null, 140], "name": "embedding_1_tac_model", "init": "uniform"}}, {"class_name": "ZeroPadding1D", "config": {"name": "zeropadding1d_1_tac_model", "trainable": true, "padding": 5}}, {"class_name": "Convolution1D", "config": {"W_constraint": null, "activation": "relu", "bias": true, "activity_regularizer": null, "b_regularizer": null, "nb_filter": 200, "filter_length": 6, "input_length": null, "border_mode": "valid", "W_regularizer": null, "b_constraint": null, "trainable": true, "subsample_length": 1, "name": "convolution1d_1_tac_model", "init": "uniform", "input_dim": null}}, {"class_name": "MaxPooling1D", "config": {"pool_length": 4, "border_mode": "valid", "name": "maxpooling1d_1_tac_model", "stride": 2, "trainable": true}}, {"class_name": "Convolution1D", "config": {"W_constraint": null, "activation": "relu", "bias": true, "activity_regularizer": null, "b_regularizer": null, "nb_filter": 200, "filter_length": 6, "input_length": null, "border_mode": "valid", "W_regularizer": null, "b_constraint": null, "trainable": true, "subsample_length": 1, "name": "convolution1d_2_tac_model", "init": "uniform", "input_dim": null}}, {"class_name": "MaxPooling1D", "config": {"pool_length": 66, "border_mode": "valid", "name": "maxpooling1d_2_tac_model", "stride": 66, "trainable": true}}, {"class_name": "Flatten", "config": {"name": "flatten_1_tac_model", "trainable": true}}]}], "output_shape": null, "concat_axis": -1, "mode": "concat", "output_shape_type": "raw", "dot_axes": -1, "name": "merge_1", "mode_type": "raw"}}, {"class_name": "Dense", "config": {"W_constraint": null, "bias": true, "activation": "linear", "output_dim": 1028, "activity_regularizer": null, "b_regularizer": null, "trainable": true, "W_regularizer": null, "b_constraint": null, "name": "dense_1", "init": "glorot_uniform", "input_dim": null}}, {"class_name": "Activation", "config": {"name": "activation_1", "activation": "relu", "trainable": true}}, {"class_name": "Dense", "config": {"W_constraint": null, "bias": true, "activation": "softmax", "output_dim": 3, "activity_regularizer": null, "b_regularizer": null, "trainable": true, "W_regularizer": null, "b_constraint": null, "name": "dense_2", "init": "glorot_uniform", "input_dim": null}}], "keras_version": "1.1.1"}