{"class_name": "Sequential", "config": [{"class_name": "Merge", "config": {"dot_axes": -1, "layers": [{"class_name": "Sequential", "config": [{"class_name": "Embedding", "config": {"input_dim": 1576890, "dropout": 0.2, "input_dtype": "int32", "activity_regularizer": null, "W_constraint": null, "trainable": true, "mask_zero": false, "batch_input_shape": [null, 140], "input_length": 140, "output_dim": 52, "W_regularizer": null, "name": "embedding_1_dai_model", "init": "uniform"}}, {"class_name": "ZeroPadding1D", "config": {"padding": 5, "name": "zeropadding1d_1_dai_model", "trainable": true}}, {"class_name": "Convolution1D", "config": {"bias": true, "input_dim": null, "b_constraint": null, "activity_regularizer": null, "filter_length": 6, "subsample_length": 1, "border_mode": "valid", "trainable": true, "W_constraint": null, "b_regularizer": null, "activation": "relu", "input_length": null, "W_regularizer": null, "nb_filter": 200, "name": "convolution1d_1_dai_model", "init": "uniform"}}, {"class_name": "MaxPooling1D", "config": {"stride": 2, "border_mode": "valid", "pool_length": 4, "trainable": true, "name": "maxpooling1d_1_dai_model"}}, {"class_name": "Convolution1D", "config": {"bias": true, "input_dim": null, "b_constraint": null, "activity_regularizer": null, "filter_length": 6, "subsample_length": 1, "border_mode": "valid", "trainable": true, "W_constraint": null, "b_regularizer": null, "activation": "relu", "input_length": null, "W_regularizer": null, "nb_filter": 200, "name": "convolution1d_2_dai_model", "init": "uniform"}}]}, {"class_name": "Sequential", "config": [{"class_name": "Embedding", "config": {"input_dim": 1576890, "dropout": 0.2, "input_dtype": "int32", "activity_regularizer": null, "W_constraint": null, "trainable": true, "mask_zero": false, "batch_input_shape": [null, 140], "input_length": 140, "output_dim": 52, "W_regularizer": null, "name": "embedding_1_dil_model", "init": "uniform"}}, {"class_name": "ZeroPadding1D", "config": {"padding": 5, "name": "zeropadding1d_1_dil_model", "trainable": true}}, {"class_name": "Convolution1D", "config": {"bias": true, "input_dim": null, "b_constraint": null, "activity_regularizer": null, "filter_length": 6, "subsample_length": 1, "border_mode": "valid", "trainable": true, "W_constraint": null, "b_regularizer": null, "activation": "relu", "input_length": null, "W_regularizer": null, "nb_filter": 200, "name": "convolution1d_1_dil_model", "init": "uniform"}}, {"class_name": "MaxPooling1D", "config": {"stride": 2, "border_mode": "valid", "pool_length": 4, "trainable": true, "name": "maxpooling1d_1_dil_model"}}, {"class_name": "Convolution1D", "config": {"bias": true, "input_dim": null, "b_constraint": null, "activity_regularizer": null, "filter_length": 6, "subsample_length": 1, "border_mode": "valid", "trainable": true, "W_constraint": null, "b_regularizer": null, "activation": "relu", "input_length": null, "W_regularizer": null, "nb_filter": 200, "name": "convolution1d_2_dil_model", "init": "uniform"}}]}, {"class_name": "Sequential", "config": [{"class_name": "Embedding", "config": {"input_dim": 428669, "dropout": 0.2, "input_dtype": "int32", "activity_regularizer": null, "W_constraint": null, "trainable": true, "mask_zero": false, "batch_input_shape": [null, 140], "input_length": 140, "output_dim": 52, "W_regularizer": null, "name": "embedding_17_mpq_model", "init": "uniform"}}, {"class_name": "ZeroPadding1D", "config": {"padding": 5, "name": "zeropadding1d_17_mpq_model", "trainable": true}}, {"class_name": "Convolution1D", "config": {"bias": true, "input_dim": null, "b_constraint": null, "activity_regularizer": null, "filter_length": 6, "subsample_length": 1, "border_mode": "valid", "trainable": true, "W_constraint": null, "b_regularizer": null, "activation": "relu", "input_length": null, "W_regularizer": null, "nb_filter": 200, "name": "convolution1d_33_mpq_model", "init": "uniform"}}, {"class_name": "MaxPooling1D", "config": {"stride": 2, "border_mode": "valid", "pool_length": 4, "trainable": true, "name": "maxpooling1d_33_mpq_model"}}, {"class_name": "Convolution1D", "config": {"bias": true, "input_dim": null, "b_constraint": null, "activity_regularizer": null, "filter_length": 6, "subsample_length": 1, "border_mode": "valid", "trainable": true, "W_constraint": null, "b_regularizer": null, "activation": "relu", "input_length": null, "W_regularizer": null, "nb_filter": 200, "name": "convolution1d_34_mpq_model", "init": "uniform"}}]}, {"class_name": "Sequential", "config": [{"class_name": "Embedding", "config": {"input_dim": 428669, "dropout": 0.2, "input_dtype": "int32", "activity_regularizer": null, "W_constraint": null, "trainable": true, "mask_zero": false, "batch_input_shape": [null, 140], "input_length": 140, "output_dim": 52, "W_regularizer": null, "name": "embedding_1_semeval_model", "init": "uniform"}}, {"class_name": "ZeroPadding1D", "config": {"padding": 5, "name": "zeropadding1d_1_semeval_model", "trainable": true}}, {"class_name": "Convolution1D", "config": {"bias": true, "input_dim": null, "b_constraint": null, "activity_regularizer": null, "filter_length": 6, "subsample_length": 1, "border_mode": "valid", "trainable": true, "W_constraint": null, "b_regularizer": null, "activation": "relu", "input_length": null, "W_regularizer": null, "nb_filter": 200, "name": "convolution1d_1_semeval_model", "init": "uniform"}}, {"class_name": "MaxPooling1D", "config": {"stride": 2, "border_mode": "valid", "pool_length": 4, "trainable": true, "name": "maxpooling1d_1_semeval_model"}}, {"class_name": "Convolution1D", "config": {"bias": true, "input_dim": null, "b_constraint": null, "activity_regularizer": null, "filter_length": 6, "subsample_length": 1, "border_mode": "valid", "trainable": true, "W_constraint": null, "b_regularizer": null, "activation": "relu", "input_length": null, "W_regularizer": null, "nb_filter": 200, "name": "convolution1d_2_semeval_model", "init": "uniform"}}]}, {"class_name": "Sequential", "config": [{"class_name": "Embedding", "config": {"input_dim": 428669, "dropout": 0.2, "input_dtype": "int32", "activity_regularizer": null, "W_constraint": null, "trainable": true, "mask_zero": false, "batch_input_shape": [null, 140], "input_length": 140, "output_dim": 52, "W_regularizer": null, "name": "embedding_1_tac_model", "init": "uniform"}}, {"class_name": "ZeroPadding1D", "config": {"padding": 5, "name": "zeropadding1d_1_tac_model", "trainable": true}}, {"class_name": "Convolution1D", "config": {"bias": true, "input_dim": null, "b_constraint": null, "activity_regularizer": null, "filter_length": 6, "subsample_length": 1, "border_mode": "valid", "trainable": true, "W_constraint": null, "b_regularizer": null, "activation": "relu", "input_length": null, "W_regularizer": null, "nb_filter": 200, "name": "convolution1d_1_tac_model", "init": "uniform"}}, {"class_name": "MaxPooling1D", "config": {"stride": 2, "border_mode": "valid", "pool_length": 4, "trainable": true, "name": "maxpooling1d_1_tac_model"}}, {"class_name": "Convolution1D", "config": {"bias": true, "input_dim": null, "b_constraint": null, "activity_regularizer": null, "filter_length": 6, "subsample_length": 1, "border_mode": "valid", "trainable": true, "W_constraint": null, "b_regularizer": null, "activation": "relu", "input_length": null, "W_regularizer": null, "nb_filter": 200, "name": "convolution1d_2_tac_model", "init": "uniform"}}]}], "output_shape": null, "mode_type": "raw", "mode": "concat", "concat_axis": -1, "output_shape_type": "raw", "name": "merge_1"}}, {"class_name": "Flatten", "config": {"name": "flatten_1", "trainable": true}}, {"class_name": "Dense", "config": {"bias": true, "input_dim": null, "init": "glorot_uniform", "activity_regularizer": null, "W_constraint": null, "trainable": true, "name": "dense_1", "b_regularizer": null, "output_dim": 200, "W_regularizer": null, "activation": "linear", "b_constraint": null}}, {"class_name": "Dropout", "config": {"p": 0.2, "name": "dropout_1", "trainable": true}}, {"class_name": "Activation", "config": {"name": "activation_1", "trainable": true, "activation": "relu"}}, {"class_name": "Dense", "config": {"bias": true, "input_dim": null, "init": "glorot_uniform", "activity_regularizer": null, "W_constraint": null, "trainable": true, "name": "dense_2", "b_regularizer": null, "output_dim": 3, "W_regularizer": null, "activation": "softmax", "b_constraint": null}}], "keras_version": "1.1.1"}