{"keras_version": "1.1.1", "class_name": "Sequential", "config": [{"class_name": "Merge", "config": {"mode_type": "raw", "output_shape_type": "raw", "layers": [{"class_name": "Sequential", "config": [{"class_name": "Embedding", "config": {"W_regularizer": null, "input_dim": 1576890, "trainable": true, "activity_regularizer": null, "batch_input_shape": [null, 140], "init": "uniform", "mask_zero": false, "input_length": 140, "output_dim": 52, "input_dtype": "int32", "dropout": 0.2, "name": "embedding_1_dil_model", "W_constraint": null}}, {"class_name": "ZeroPadding1D", "config": {"padding": 5, "trainable": true, "name": "zeropadding1d_1_dil_model"}}, {"class_name": "Convolution1D", "config": {"W_regularizer": null, "trainable": true, "activity_regularizer": null, "filter_length": 6, "border_mode": "valid", "activation": "relu", "subsample_length": 1, "init": "uniform", "nb_filter": 200, "input_length": null, "W_constraint": null, "b_regularizer": null, "bias": true, "b_constraint": null, "name": "convolution1d_1_dil_model", "input_dim": null}}, {"class_name": "MaxPooling1D", "config": {"stride": 2, "pool_length": 4, "trainable": true, "name": "maxpooling1d_1_dil_model", "border_mode": "valid"}}, {"class_name": "Convolution1D", "config": {"W_regularizer": null, "trainable": true, "activity_regularizer": null, "filter_length": 6, "border_mode": "valid", "activation": "relu", "subsample_length": 1, "init": "uniform", "nb_filter": 200, "input_length": null, "W_constraint": null, "b_regularizer": null, "bias": true, "b_constraint": null, "name": "convolution1d_2_dil_model", "input_dim": null}}]}, {"class_name": "Sequential", "config": [{"class_name": "Embedding", "config": {"W_regularizer": null, "input_dim": 1062158, "trainable": true, "activity_regularizer": null, "batch_input_shape": [null, 140], "init": "uniform", "mask_zero": false, "input_length": 140, "output_dim": 52, "input_dtype": "int32", "dropout": 0.2, "name": "embedding_1_hul_model", "W_constraint": null}}, {"class_name": "ZeroPadding1D", "config": {"padding": 5, "trainable": true, "name": "zeropadding1d_1_hul_model"}}, {"class_name": "Convolution1D", "config": {"W_regularizer": null, "trainable": true, "activity_regularizer": null, "filter_length": 6, "border_mode": "valid", "activation": "relu", "subsample_length": 1, "init": "uniform", "nb_filter": 200, "input_length": null, "W_constraint": null, "b_regularizer": null, "bias": true, "b_constraint": null, "name": "convolution1d_1_hul_model", "input_dim": null}}, {"class_name": "MaxPooling1D", "config": {"stride": 2, "pool_length": 4, "trainable": true, "name": "maxpooling1d_1_hul_model", "border_mode": "valid"}}, {"class_name": "Convolution1D", "config": {"W_regularizer": null, "trainable": true, "activity_regularizer": null, "filter_length": 6, "border_mode": "valid", "activation": "relu", "subsample_length": 1, "init": "uniform", "nb_filter": 200, "input_length": null, "W_constraint": null, "b_regularizer": null, "bias": true, "b_constraint": null, "name": "convolution1d_2_hul_model", "input_dim": null}}]}, {"class_name": "Sequential", "config": [{"class_name": "Embedding", "config": {"W_regularizer": null, "input_dim": 1576890, "trainable": true, "activity_regularizer": null, "batch_input_shape": [null, 140], "init": "uniform", "mask_zero": false, "input_length": 140, "output_dim": 52, "input_dtype": "int32", "dropout": 0.2, "name": "embedding_1_semeval_model", "W_constraint": null}}, {"class_name": "ZeroPadding1D", "config": {"padding": 5, "trainable": true, "name": "zeropadding1d_1_semeval_model"}}, {"class_name": "Convolution1D", "config": {"W_regularizer": null, "trainable": true, "activity_regularizer": null, "filter_length": 6, "border_mode": "valid", "activation": "relu", "subsample_length": 1, "init": "uniform", "nb_filter": 200, "input_length": null, "W_constraint": null, "b_regularizer": null, "bias": true, "b_constraint": null, "name": "convolution1d_1_semeval_model", "input_dim": null}}, {"class_name": "MaxPooling1D", "config": {"stride": 2, "pool_length": 4, "trainable": true, "name": "maxpooling1d_1_semeval_model", "border_mode": "valid"}}, {"class_name": "Convolution1D", "config": {"W_regularizer": null, "trainable": true, "activity_regularizer": null, "filter_length": 6, "border_mode": "valid", "activation": "relu", "subsample_length": 1, "init": "uniform", "nb_filter": 200, "input_length": null, "W_constraint": null, "b_regularizer": null, "bias": true, "b_constraint": null, "name": "convolution1d_2_semeval_model", "input_dim": null}}]}, {"class_name": "Sequential", "config": [{"class_name": "Embedding", "config": {"W_regularizer": null, "input_dim": 428669, "trainable": true, "activity_regularizer": null, "batch_input_shape": [null, 140], "init": "uniform", "mask_zero": false, "input_length": 140, "output_dim": 52, "input_dtype": "int32", "dropout": 0.2, "name": "embedding_1_tac_model", "W_constraint": null}}, {"class_name": "ZeroPadding1D", "config": {"padding": 5, "trainable": true, "name": "zeropadding1d_1_tac_model"}}, {"class_name": "Convolution1D", "config": {"W_regularizer": null, "trainable": true, "activity_regularizer": null, "filter_length": 6, "border_mode": "valid", "activation": "relu", "subsample_length": 1, "init": "uniform", "nb_filter": 200, "input_length": null, "W_constraint": null, "b_regularizer": null, "bias": true, "b_constraint": null, "name": "convolution1d_1_tac_model", "input_dim": null}}, {"class_name": "MaxPooling1D", "config": {"stride": 2, "pool_length": 4, "trainable": true, "name": "maxpooling1d_1_tac_model", "border_mode": "valid"}}, {"class_name": "Convolution1D", "config": {"W_regularizer": null, "trainable": true, "activity_regularizer": null, "filter_length": 6, "border_mode": "valid", "activation": "relu", "subsample_length": 1, "init": "uniform", "nb_filter": 200, "input_length": null, "W_constraint": null, "b_regularizer": null, "bias": true, "b_constraint": null, "name": "convolution1d_2_tac_model", "input_dim": null}}]}], "output_shape": null, "mode": "concat", "dot_axes": -1, "concat_axis": -1, "name": "merge_1"}}, {"class_name": "MaxPooling1D", "config": {"pool_length": 4, "stride": 2, "trainable": true, "name": "maxpooling1d_1", "border_mode": "valid"}}, {"class_name": "Convolution1D", "config": {"W_regularizer": null, "trainable": true, "activity_regularizer": null, "name": "convolution1d_1", "filter_length": 6, "border_mode": "valid", "activation": "relu", "subsample_length": 1, "init": "uniform", "nb_filter": 200, "input_length": null, "W_constraint": null, "b_regularizer": null, "bias": true, "b_constraint": null, "input_dim": null}}, {"class_name": "MaxPooling1D", "config": {"pool_length": 4, "stride": 2, "trainable": true, "name": "maxpooling1d_2", "border_mode": "valid"}}, {"class_name": "Flatten", "config": {"trainable": true, "name": "flatten_1"}}, {"class_name": "Dense", "config": {"W_regularizer": null, "trainable": true, "activity_regularizer": null, "init": "glorot_uniform", "bias": true, "activation": "linear", "b_constraint": null, "input_dim": null, "output_dim": 200, "b_regularizer": null, "name": "dense_1", "W_constraint": null}}, {"class_name": "Dropout", "config": {"name": "dropout_1", "trainable": true, "p": 0.2}}, {"class_name": "Activation", "config": {"activation": "relu", "trainable": true, "name": "activation_1"}}, {"class_name": "Dense", "config": {"W_regularizer": null, "trainable": true, "activity_regularizer": null, "init": "glorot_uniform", "bias": true, "activation": "softmax", "b_constraint": null, "input_dim": null, "output_dim": 3, "b_regularizer": null, "name": "dense_2", "W_constraint": null}}]}