{"class_name": "Sequential", "config": [{"class_name": "Merge", "config": {"concat_axis": -1, "output_shape": null, "name": "merge_1", "mode": "concat", "output_shape_type": "raw", "mode_type": "raw", "layers": [{"class_name": "Sequential", "config": [{"class_name": "Embedding", "config": {"dropout": 0.2, "batch_input_shape": [null, 140], "mask_zero": false, "input_length": 140, "init": "uniform", "output_dim": 52, "input_dim": 1062158, "trainable": true, "name": "embedding_1_hul_model", "activity_regularizer": null, "input_dtype": "int32", "W_constraint": null, "W_regularizer": null}}, {"class_name": "ZeroPadding1D", "config": {"trainable": true, "name": "zeropadding1d_1_hul_model", "padding": 5}}, {"class_name": "Convolution1D", "config": {"input_dim": null, "W_constraint": null, "activation": "relu", "init": "uniform", "bias": true, "input_length": null, "border_mode": "valid", "trainable": true, "name": "convolution1d_1_hul_model", "nb_filter": 200, "activity_regularizer": null, "subsample_length": 1, "b_constraint": null, "b_regularizer": null, "W_regularizer": null, "filter_length": 6}}, {"class_name": "MaxPooling1D", "config": {"border_mode": "valid", "trainable": true, "name": "maxpooling1d_1_hul_model", "stride": 2, "pool_length": 4}}, {"class_name": "Convolution1D", "config": {"input_dim": null, "W_constraint": null, "activation": "relu", "init": "uniform", "bias": true, "input_length": null, "border_mode": "valid", "trainable": true, "name": "convolution1d_2_hul_model", "nb_filter": 200, "activity_regularizer": null, "subsample_length": 1, "b_constraint": null, "b_regularizer": null, "W_regularizer": null, "filter_length": 6}}, {"class_name": "MaxPooling1D", "config": {"border_mode": "valid", "trainable": true, "name": "maxpooling1d_2_hul_model", "stride": 66, "pool_length": 66}}, {"class_name": "Flatten", "config": {"trainable": true, "name": "flatten_1_hul_model"}}]}, {"class_name": "Sequential", "config": [{"class_name": "Embedding", "config": {"dropout": 0.2, "batch_input_shape": [null, 140], "mask_zero": false, "input_length": 140, "init": "uniform", "output_dim": 52, "input_dim": 428669, "trainable": true, "name": "embedding_1_semeval_model", "activity_regularizer": null, "input_dtype": "int32", "W_constraint": null, "W_regularizer": null}}, {"class_name": "ZeroPadding1D", "config": {"trainable": true, "name": "zeropadding1d_1_semeval_model", "padding": 5}}, {"class_name": "Convolution1D", "config": {"input_dim": null, "W_constraint": null, "activation": "relu", "init": "uniform", "bias": true, "input_length": null, "border_mode": "valid", "trainable": true, "name": "convolution1d_1_semeval_model", "nb_filter": 200, "activity_regularizer": null, "subsample_length": 1, "b_constraint": null, "b_regularizer": null, "W_regularizer": null, "filter_length": 6}}, {"class_name": "MaxPooling1D", "config": {"border_mode": "valid", "trainable": true, "name": "maxpooling1d_1_semeval_model", "stride": 2, "pool_length": 4}}, {"class_name": "Convolution1D", "config": {"input_dim": null, "W_constraint": null, "activation": "relu", "init": "uniform", "bias": true, "input_length": null, "border_mode": "valid", "trainable": true, "name": "convolution1d_2_semeval_model", "nb_filter": 200, "activity_regularizer": null, "subsample_length": 1, "b_constraint": null, "b_regularizer": null, "W_regularizer": null, "filter_length": 6}}, {"class_name": "MaxPooling1D", "config": {"border_mode": "valid", "trainable": true, "name": "maxpooling1d_2_semeval_model", "stride": 66, "pool_length": 66}}, {"class_name": "Flatten", "config": {"trainable": true, "name": "flatten_1_semeval_model"}}]}, {"class_name": "Sequential", "config": [{"class_name": "Embedding", "config": {"dropout": 0.2, "batch_input_shape": [null, 140], "mask_zero": false, "input_length": 140, "init": "uniform", "output_dim": 52, "input_dim": 428669, "trainable": true, "name": "embedding_17_mpq_model", "activity_regularizer": null, "input_dtype": "int32", "W_constraint": null, "W_regularizer": null}}, {"class_name": "ZeroPadding1D", "config": {"trainable": true, "name": "zeropadding1d_17_mpq_model", "padding": 5}}, {"class_name": "Convolution1D", "config": {"input_dim": null, "W_constraint": null, "activation": "relu", "init": "uniform", "bias": true, "input_length": null, "border_mode": "valid", "trainable": true, "name": "convolution1d_33_mpq_model", "nb_filter": 200, "activity_regularizer": null, "subsample_length": 1, "b_constraint": null, "b_regularizer": null, "W_regularizer": null, "filter_length": 6}}, {"class_name": "MaxPooling1D", "config": {"border_mode": "valid", "trainable": true, "name": "maxpooling1d_33_mpq_model", "stride": 2, "pool_length": 4}}, {"class_name": "Convolution1D", "config": {"input_dim": null, "W_constraint": null, "activation": "relu", "init": "uniform", "bias": true, "input_length": null, "border_mode": "valid", "trainable": true, "name": "convolution1d_34_mpq_model", "nb_filter": 200, "activity_regularizer": null, "subsample_length": 1, "b_constraint": null, "b_regularizer": null, "W_regularizer": null, "filter_length": 6}}, {"class_name": "MaxPooling1D", "config": {"border_mode": "valid", "trainable": true, "name": "maxpooling1d_34_mpq_model", "stride": 66, "pool_length": 66}}, {"class_name": "Flatten", "config": {"trainable": true, "name": "flatten_17_mpq_model"}}]}, {"class_name": "Sequential", "config": [{"class_name": "Embedding", "config": {"dropout": 0.2, "batch_input_shape": [null, 140], "mask_zero": false, "input_length": 140, "init": "uniform", "output_dim": 52, "input_dim": 1576890, "trainable": true, "name": "embedding_1_dil_model", "activity_regularizer": null, "input_dtype": "int32", "W_constraint": null, "W_regularizer": null}}, {"class_name": "ZeroPadding1D", "config": {"trainable": true, "name": "zeropadding1d_1_dil_model", "padding": 5}}, {"class_name": "Convolution1D", "config": {"input_dim": null, "W_constraint": null, "activation": "relu", "init": "uniform", "bias": true, "input_length": null, "border_mode": "valid", "trainable": true, "name": "convolution1d_1_dil_model", "nb_filter": 200, "activity_regularizer": null, "subsample_length": 1, "b_constraint": null, "b_regularizer": null, "W_regularizer": null, "filter_length": 6}}, {"class_name": "MaxPooling1D", "config": {"border_mode": "valid", "trainable": true, "name": "maxpooling1d_1_dil_model", "stride": 2, "pool_length": 4}}, {"class_name": "Convolution1D", "config": {"input_dim": null, "W_constraint": null, "activation": "relu", "init": "uniform", "bias": true, "input_length": null, "border_mode": "valid", "trainable": true, "name": "convolution1d_2_dil_model", "nb_filter": 200, "activity_regularizer": null, "subsample_length": 1, "b_constraint": null, "b_regularizer": null, "W_regularizer": null, "filter_length": 6}}, {"class_name": "MaxPooling1D", "config": {"border_mode": "valid", "trainable": true, "name": "maxpooling1d_2_dil_model", "stride": 66, "pool_length": 66}}, {"class_name": "Flatten", "config": {"trainable": true, "name": "flatten_1_dil_model"}}]}, {"class_name": "Sequential", "config": [{"class_name": "Embedding", "config": {"dropout": 0.2, "batch_input_shape": [null, 140], "mask_zero": false, "input_length": 140, "init": "uniform", "output_dim": 52, "input_dim": 1576890, "trainable": true, "name": "embedding_1_dai_model", "activity_regularizer": null, "input_dtype": "int32", "W_constraint": null, "W_regularizer": null}}, {"class_name": "ZeroPadding1D", "config": {"trainable": true, "name": "zeropadding1d_1_dai_model", "padding": 5}}, {"class_name": "Convolution1D", "config": {"input_dim": null, "W_constraint": null, "activation": "relu", "init": "uniform", "bias": true, "input_length": null, "border_mode": "valid", "trainable": true, "name": "convolution1d_1_dai_model", "nb_filter": 200, "activity_regularizer": null, "subsample_length": 1, "b_constraint": null, "b_regularizer": null, "W_regularizer": null, "filter_length": 6}}, {"class_name": "MaxPooling1D", "config": {"border_mode": "valid", "trainable": true, "name": "maxpooling1d_1_dai_model", "stride": 2, "pool_length": 4}}, {"class_name": "Convolution1D", "config": {"input_dim": null, "W_constraint": null, "activation": "relu", "init": "uniform", "bias": true, "input_length": null, "border_mode": "valid", "trainable": true, "name": "convolution1d_2_dai_model", "nb_filter": 200, "activity_regularizer": null, "subsample_length": 1, "b_constraint": null, "b_regularizer": null, "W_regularizer": null, "filter_length": 6}}, {"class_name": "MaxPooling1D", "config": {"border_mode": "valid", "trainable": true, "name": "maxpooling1d_2_dai_model", "stride": 66, "pool_length": 66}}, {"class_name": "Flatten", "config": {"trainable": true, "name": "flatten_1_dai_model"}}]}, {"class_name": "Sequential", "config": [{"class_name": "Embedding", "config": {"dropout": 0.2, "batch_input_shape": [null, 140], "mask_zero": false, "input_length": 140, "init": "uniform", "output_dim": 52, "input_dim": 428669, "trainable": true, "name": "embedding_1_tac_model", "activity_regularizer": null, "input_dtype": "int32", "W_constraint": null, "W_regularizer": null}}, {"class_name": "ZeroPadding1D", "config": {"trainable": true, "name": "zeropadding1d_1_tac_model", "padding": 5}}, {"class_name": "Convolution1D", "config": {"input_dim": null, "W_constraint": null, "activation": "relu", "init": "uniform", "bias": true, "input_length": null, "border_mode": "valid", "trainable": true, "name": "convolution1d_1_tac_model", "nb_filter": 200, "activity_regularizer": null, "subsample_length": 1, "b_constraint": null, "b_regularizer": null, "W_regularizer": null, "filter_length": 6}}, {"class_name": "MaxPooling1D", "config": {"border_mode": "valid", "trainable": true, "name": "maxpooling1d_1_tac_model", "stride": 2, "pool_length": 4}}, {"class_name": "Convolution1D", "config": {"input_dim": null, "W_constraint": null, "activation": "relu", "init": "uniform", "bias": true, "input_length": null, "border_mode": "valid", "trainable": true, "name": "convolution1d_2_tac_model", "nb_filter": 200, "activity_regularizer": null, "subsample_length": 1, "b_constraint": null, "b_regularizer": null, "W_regularizer": null, "filter_length": 6}}, {"class_name": "MaxPooling1D", "config": {"border_mode": "valid", "trainable": true, "name": "maxpooling1d_2_tac_model", "stride": 66, "pool_length": 66}}, {"class_name": "Flatten", "config": {"trainable": true, "name": "flatten_1_tac_model"}}]}], "dot_axes": -1}}, {"class_name": "Dense", "config": {"W_constraint": null, "activation": "linear", "trainable": true, "bias": true, "output_dim": 1028, "input_dim": null, "init": "glorot_uniform", "name": "dense_1", "activity_regularizer": null, "b_constraint": null, "b_regularizer": null, "W_regularizer": null}}, {"class_name": "Activation", "config": {"trainable": true, "name": "activation_1", "activation": "relu"}}, {"class_name": "Dense", "config": {"W_constraint": null, "activation": "softmax", "trainable": true, "bias": true, "output_dim": 3, "input_dim": null, "init": "glorot_uniform", "name": "dense_2", "activity_regularizer": null, "b_constraint": null, "b_regularizer": null, "W_regularizer": null}}], "keras_version": "1.1.1"}