{"config": [{"class_name": "Merge", "config": {"name": "merge_1", "mode": "concat", "mode_type": "raw", "layers": [{"class_name": "Sequential", "config": [{"config": {"name": "embedding_1_semeval_model", "init": "uniform", "W_regularizer": null, "dropout": 0.2, "input_dtype": "int32", "trainable": false, "output_dim": 52, "W_constraint": null, "input_dim": 428669, "activity_regularizer": null, "input_length": 140, "mask_zero": false, "batch_input_shape": [null, 140]}, "class_name": "Embedding"}, {"config": {"padding": 5, "name": "zeropadding1d_1_semeval_model", "trainable": false}, "class_name": "ZeroPadding1D"}, {"config": {"nb_filter": 200, "name": "convolution1d_1_semeval_model", "b_regularizer": null, "init": "uniform", "border_mode": "valid", "bias": true, "input_length": null, "activation": "relu", "trainable": false, "W_regularizer": null, "input_dim": null, "activity_regularizer": null, "b_constraint": null, "filter_length": 6, "subsample_length": 1, "W_constraint": null}, "class_name": "Convolution1D"}, {"config": {"border_mode": "valid", "trainable": false, "stride": 2, "pool_length": 4, "name": "maxpooling1d_1_semeval_model"}, "class_name": "MaxPooling1D"}, {"config": {"nb_filter": 200, "name": "convolution1d_2_semeval_model", "b_regularizer": null, "init": "uniform", "border_mode": "valid", "bias": true, "input_length": null, "activation": "relu", "trainable": false, "W_regularizer": null, "input_dim": null, "activity_regularizer": null, "b_constraint": null, "filter_length": 6, "subsample_length": 1, "W_constraint": null}, "class_name": "Convolution1D"}, {"config": {"border_mode": "valid", "trainable": false, "stride": 66, "pool_length": 66, "name": "maxpooling1d_2_semeval_model"}, "class_name": "MaxPooling1D"}, {"config": {"name": "flatten_1_semeval_model", "trainable": false}, "class_name": "Flatten"}, {"config": {"name": "dense_1_semeval_model", "b_regularizer": null, "init": "glorot_uniform", "bias": true, "W_regularizer": null, "activation": "linear", "trainable": false, "output_dim": 200, "input_dim": null, "activity_regularizer": null, "b_constraint": null, "W_constraint": null}, "class_name": "Dense"}, {"config": {"name": "dropout_1_semeval_model", "trainable": false, "p": 0.2}, "class_name": "Dropout"}, {"config": {"name": "activation_1_semeval_model", "trainable": false, "activation": "relu"}, "class_name": "Activation"}, {"config": {"name": "dense_2_semeval_model", "b_regularizer": null, "init": "glorot_uniform", "bias": true, "W_regularizer": null, "activation": "softmax", "trainable": false, "output_dim": 3, "input_dim": null, "activity_regularizer": null, "b_constraint": null, "W_constraint": null}, "class_name": "Dense"}]}, {"class_name": "Sequential", "config": [{"config": {"name": "embedding_1_dai_model", "init": "uniform", "W_regularizer": null, "dropout": 0.2, "input_dtype": "int32", "trainable": false, "output_dim": 52, "W_constraint": null, "input_dim": 1576890, "activity_regularizer": null, "input_length": 140, "mask_zero": false, "batch_input_shape": [null, 140]}, "class_name": "Embedding"}, {"config": {"padding": 5, "name": "zeropadding1d_1_dai_model", "trainable": false}, "class_name": "ZeroPadding1D"}, {"config": {"nb_filter": 200, "name": "convolution1d_1_dai_model", "b_regularizer": null, "init": "uniform", "border_mode": "valid", "bias": true, "input_length": null, "activation": "relu", "trainable": false, "W_regularizer": null, "input_dim": null, "activity_regularizer": null, "b_constraint": null, "filter_length": 6, "subsample_length": 1, "W_constraint": null}, "class_name": "Convolution1D"}, {"config": {"border_mode": "valid", "trainable": false, "stride": 2, "pool_length": 4, "name": "maxpooling1d_1_dai_model"}, "class_name": "MaxPooling1D"}, {"config": {"nb_filter": 200, "name": "convolution1d_2_dai_model", "b_regularizer": null, "init": "uniform", "border_mode": "valid", "bias": true, "input_length": null, "activation": "relu", "trainable": false, "W_regularizer": null, "input_dim": null, "activity_regularizer": null, "b_constraint": null, "filter_length": 6, "subsample_length": 1, "W_constraint": null}, "class_name": "Convolution1D"}, {"config": {"border_mode": "valid", "trainable": false, "stride": 66, "pool_length": 66, "name": "maxpooling1d_2_dai_model"}, "class_name": "MaxPooling1D"}, {"config": {"name": "flatten_1_dai_model", "trainable": false}, "class_name": "Flatten"}, {"config": {"name": "dense_1_dai_model", "b_regularizer": null, "init": "glorot_uniform", "bias": true, "W_regularizer": null, "activation": "linear", "trainable": false, "output_dim": 200, "input_dim": null, "activity_regularizer": null, "b_constraint": null, "W_constraint": null}, "class_name": "Dense"}, {"config": {"name": "dropout_1_dai_model", "trainable": false, "p": 0.2}, "class_name": "Dropout"}, {"config": {"name": "activation_1_dai_model", "trainable": false, "activation": "relu"}, "class_name": "Activation"}, {"config": {"name": "dense_2_dai_model", "b_regularizer": null, "init": "glorot_uniform", "bias": true, "W_regularizer": null, "activation": "softmax", "trainable": false, "output_dim": 3, "input_dim": null, "activity_regularizer": null, "b_constraint": null, "W_constraint": null}, "class_name": "Dense"}]}, {"class_name": "Sequential", "config": [{"config": {"name": "embedding_1_hul_model", "init": "uniform", "W_regularizer": null, "dropout": 0.2, "input_dtype": "int32", "trainable": false, "output_dim": 52, "W_constraint": null, "input_dim": 1062158, "activity_regularizer": null, "input_length": 140, "mask_zero": false, "batch_input_shape": [null, 140]}, "class_name": "Embedding"}, {"config": {"padding": 5, "name": "zeropadding1d_1_hul_model", "trainable": false}, "class_name": "ZeroPadding1D"}, {"config": {"nb_filter": 200, "name": "convolution1d_1_hul_model", "b_regularizer": null, "init": "uniform", "border_mode": "valid", "bias": true, "input_length": null, "activation": "relu", "trainable": false, "W_regularizer": null, "input_dim": null, "activity_regularizer": null, "b_constraint": null, "filter_length": 6, "subsample_length": 1, "W_constraint": null}, "class_name": "Convolution1D"}, {"config": {"border_mode": "valid", "trainable": false, "stride": 2, "pool_length": 4, "name": "maxpooling1d_1_hul_model"}, "class_name": "MaxPooling1D"}, {"config": {"nb_filter": 200, "name": "convolution1d_2_hul_model", "b_regularizer": null, "init": "uniform", "border_mode": "valid", "bias": true, "input_length": null, "activation": "relu", "trainable": false, "W_regularizer": null, "input_dim": null, "activity_regularizer": null, "b_constraint": null, "filter_length": 6, "subsample_length": 1, "W_constraint": null}, "class_name": "Convolution1D"}, {"config": {"border_mode": "valid", "trainable": false, "stride": 66, "pool_length": 66, "name": "maxpooling1d_2_hul_model"}, "class_name": "MaxPooling1D"}, {"config": {"name": "flatten_1_hul_model", "trainable": false}, "class_name": "Flatten"}, {"config": {"name": "dense_1_hul_model", "b_regularizer": null, "init": "glorot_uniform", "bias": true, "W_regularizer": null, "activation": "linear", "trainable": false, "output_dim": 200, "input_dim": null, "activity_regularizer": null, "b_constraint": null, "W_constraint": null}, "class_name": "Dense"}, {"config": {"name": "dropout_1_hul_model", "trainable": false, "p": 0.2}, "class_name": "Dropout"}, {"config": {"name": "activation_1_hul_model", "trainable": false, "activation": "relu"}, "class_name": "Activation"}, {"config": {"name": "dense_2_hul_model", "b_regularizer": null, "init": "glorot_uniform", "bias": true, "W_regularizer": null, "activation": "softmax", "trainable": false, "output_dim": 3, "input_dim": null, "activity_regularizer": null, "b_constraint": null, "W_constraint": null}, "class_name": "Dense"}]}, {"class_name": "Sequential", "config": [{"config": {"name": "embedding_1_tac_model", "init": "uniform", "W_regularizer": null, "dropout": 0.2, "input_dtype": "int32", "trainable": false, "output_dim": 52, "W_constraint": null, "input_dim": 428669, "activity_regularizer": null, "input_length": 140, "mask_zero": false, "batch_input_shape": [null, 140]}, "class_name": "Embedding"}, {"config": {"padding": 5, "name": "zeropadding1d_1_tac_model", "trainable": false}, "class_name": "ZeroPadding1D"}, {"config": {"nb_filter": 200, "name": "convolution1d_1_tac_model", "b_regularizer": null, "init": "uniform", "border_mode": "valid", "bias": true, "input_length": null, "activation": "relu", "trainable": false, "W_regularizer": null, "input_dim": null, "activity_regularizer": null, "b_constraint": null, "filter_length": 6, "subsample_length": 1, "W_constraint": null}, "class_name": "Convolution1D"}, {"config": {"border_mode": "valid", "trainable": false, "stride": 2, "pool_length": 4, "name": "maxpooling1d_1_tac_model"}, "class_name": "MaxPooling1D"}, {"config": {"nb_filter": 200, "name": "convolution1d_2_tac_model", "b_regularizer": null, "init": "uniform", "border_mode": "valid", "bias": true, "input_length": null, "activation": "relu", "trainable": false, "W_regularizer": null, "input_dim": null, "activity_regularizer": null, "b_constraint": null, "filter_length": 6, "subsample_length": 1, "W_constraint": null}, "class_name": "Convolution1D"}, {"config": {"border_mode": "valid", "trainable": false, "stride": 66, "pool_length": 66, "name": "maxpooling1d_2_tac_model"}, "class_name": "MaxPooling1D"}, {"config": {"name": "flatten_1_tac_model", "trainable": false}, "class_name": "Flatten"}, {"config": {"name": "dense_1_tac_model", "b_regularizer": null, "init": "glorot_uniform", "bias": true, "W_regularizer": null, "activation": "linear", "trainable": false, "output_dim": 200, "input_dim": null, "activity_regularizer": null, "b_constraint": null, "W_constraint": null}, "class_name": "Dense"}, {"config": {"name": "dropout_1_tac_model", "trainable": false, "p": 0.2}, "class_name": "Dropout"}, {"config": {"name": "activation_1_tac_model", "trainable": false, "activation": "relu"}, "class_name": "Activation"}, {"config": {"name": "dense_2_tac_model", "b_regularizer": null, "init": "glorot_uniform", "bias": true, "W_regularizer": null, "activation": "softmax", "trainable": false, "output_dim": 3, "input_dim": null, "activity_regularizer": null, "b_constraint": null, "W_constraint": null}, "class_name": "Dense"}]}, {"class_name": "Sequential", "config": [{"config": {"name": "embedding_1_dil_model", "init": "uniform", "W_regularizer": null, "dropout": 0.2, "input_dtype": "int32", "trainable": false, "output_dim": 52, "W_constraint": null, "input_dim": 1576890, "activity_regularizer": null, "input_length": 140, "mask_zero": false, "batch_input_shape": [null, 140]}, "class_name": "Embedding"}, {"config": {"padding": 5, "name": "zeropadding1d_1_dil_model", "trainable": false}, "class_name": "ZeroPadding1D"}, {"config": {"nb_filter": 200, "name": "convolution1d_1_dil_model", "b_regularizer": null, "init": "uniform", "border_mode": "valid", "bias": true, "input_length": null, "activation": "relu", "trainable": false, "W_regularizer": null, "input_dim": null, "activity_regularizer": null, "b_constraint": null, "filter_length": 6, "subsample_length": 1, "W_constraint": null}, "class_name": "Convolution1D"}, {"config": {"border_mode": "valid", "trainable": false, "stride": 2, "pool_length": 4, "name": "maxpooling1d_1_dil_model"}, "class_name": "MaxPooling1D"}, {"config": {"nb_filter": 200, "name": "convolution1d_2_dil_model", "b_regularizer": null, "init": "uniform", "border_mode": "valid", "bias": true, "input_length": null, "activation": "relu", "trainable": false, "W_regularizer": null, "input_dim": null, "activity_regularizer": null, "b_constraint": null, "filter_length": 6, "subsample_length": 1, "W_constraint": null}, "class_name": "Convolution1D"}, {"config": {"border_mode": "valid", "trainable": false, "stride": 66, "pool_length": 66, "name": "maxpooling1d_2_dil_model"}, "class_name": "MaxPooling1D"}, {"config": {"name": "flatten_1_dil_model", "trainable": false}, "class_name": "Flatten"}, {"config": {"name": "dense_1_dil_model", "b_regularizer": null, "init": "glorot_uniform", "bias": true, "W_regularizer": null, "activation": "linear", "trainable": false, "output_dim": 200, "input_dim": null, "activity_regularizer": null, "b_constraint": null, "W_constraint": null}, "class_name": "Dense"}, {"config": {"name": "dropout_1_dil_model", "trainable": false, "p": 0.2}, "class_name": "Dropout"}, {"config": {"name": "activation_1_dil_model", "trainable": false, "activation": "relu"}, "class_name": "Activation"}, {"config": {"name": "dense_2_dil_model", "b_regularizer": null, "init": "glorot_uniform", "bias": true, "W_regularizer": null, "activation": "softmax", "trainable": false, "output_dim": 3, "input_dim": null, "activity_regularizer": null, "b_constraint": null, "W_constraint": null}, "class_name": "Dense"}]}, {"class_name": "Sequential", "config": [{"config": {"name": "embedding_17_mpq_model", "init": "uniform", "W_regularizer": null, "dropout": 0.2, "input_dtype": "int32", "trainable": false, "output_dim": 52, "W_constraint": null, "input_dim": 428669, "activity_regularizer": null, "input_length": 140, "mask_zero": false, "batch_input_shape": [null, 140]}, "class_name": "Embedding"}, {"config": {"padding": 5, "name": "zeropadding1d_17_mpq_model", "trainable": false}, "class_name": "ZeroPadding1D"}, {"config": {"nb_filter": 200, "name": "convolution1d_33_mpq_model", "b_regularizer": null, "init": "uniform", "border_mode": "valid", "bias": true, "input_length": null, "activation": "relu", "trainable": false, "W_regularizer": null, "input_dim": null, "activity_regularizer": null, "b_constraint": null, "filter_length": 6, "subsample_length": 1, "W_constraint": null}, "class_name": "Convolution1D"}, {"config": {"border_mode": "valid", "trainable": false, "stride": 2, "pool_length": 4, "name": "maxpooling1d_33_mpq_model"}, "class_name": "MaxPooling1D"}, {"config": {"nb_filter": 200, "name": "convolution1d_34_mpq_model", "b_regularizer": null, "init": "uniform", "border_mode": "valid", "bias": true, "input_length": null, "activation": "relu", "trainable": false, "W_regularizer": null, "input_dim": null, "activity_regularizer": null, "b_constraint": null, "filter_length": 6, "subsample_length": 1, "W_constraint": null}, "class_name": "Convolution1D"}, {"config": {"border_mode": "valid", "trainable": false, "stride": 66, "pool_length": 66, "name": "maxpooling1d_34_mpq_model"}, "class_name": "MaxPooling1D"}, {"config": {"name": "flatten_17_mpq_model", "trainable": false}, "class_name": "Flatten"}, {"config": {"name": "dense_33_mpq_model", "b_regularizer": null, "init": "glorot_uniform", "bias": true, "W_regularizer": null, "activation": "linear", "trainable": false, "output_dim": 200, "input_dim": null, "activity_regularizer": null, "b_constraint": null, "W_constraint": null}, "class_name": "Dense"}, {"config": {"name": "dropout_17_mpq_model", "trainable": false, "p": 0.2}, "class_name": "Dropout"}, {"config": {"name": "activation_17_mpq_model", "trainable": false, "activation": "relu"}, "class_name": "Activation"}, {"config": {"name": "dense_34_mpq_model", "b_regularizer": null, "init": "glorot_uniform", "bias": true, "W_regularizer": null, "activation": "softmax", "trainable": false, "output_dim": 3, "input_dim": null, "activity_regularizer": null, "b_constraint": null, "W_constraint": null}, "class_name": "Dense"}]}], "dot_axes": -1, "output_shape": null, "concat_axis": -1, "output_shape_type": "raw"}}, {"class_name": "Dense", "config": {"name": "dense_1", "b_regularizer": null, "init": "glorot_uniform", "output_dim": 256, "bias": true, "activation": "linear", "trainable": true, "W_regularizer": null, "input_dim": null, "activity_regularizer": null, "b_constraint": null, "W_constraint": null}}, {"class_name": "Activation", "config": {"name": "activation_1", "trainable": true, "activation": "relu"}}, {"class_name": "Dense", "config": {"name": "dense_2", "b_regularizer": null, "init": "glorot_uniform", "output_dim": 3, "bias": true, "activation": "softmax", "trainable": true, "W_regularizer": null, "input_dim": null, "activity_regularizer": null, "b_constraint": null, "W_constraint": null}}], "keras_version": "1.1.1", "class_name": "Sequential"}