{"config": [{"config": {"concat_axis": -1, "output_shape_type": "raw", "name": "merge_1", "mode_type": "raw", "layers": [{"config": [{"config": {"activity_regularizer": null, "batch_input_shape": [null, 140], "input_dim": 1576890, "name": "embedding_1_dai_model", "W_regularizer": null, "init": "uniform", "input_dtype": "int32", "output_dim": 52, "trainable": true, "dropout": 0.2, "mask_zero": false, "input_length": 140, "W_constraint": null}, "class_name": "Embedding"}, {"config": {"padding": 5, "trainable": true, "name": "zeropadding1d_1_dai_model"}, "class_name": "ZeroPadding1D"}, {"config": {"activity_regularizer": null, "border_mode": "valid", "name": "convolution1d_1_dai_model", "W_regularizer": null, "init": "uniform", "b_constraint": null, "subsample_length": 1, "filter_length": 6, "nb_filter": 200, "activation": "relu", "trainable": true, "b_regularizer": null, "input_length": null, "input_dim": null, "W_constraint": null, "bias": true}, "class_name": "Convolution1D"}, {"config": {"pool_length": 4, "trainable": true, "name": "maxpooling1d_1_dai_model", "border_mode": "valid", "stride": 2}, "class_name": "MaxPooling1D"}, {"config": {"activity_regularizer": null, "border_mode": "valid", "name": "convolution1d_2_dai_model", "W_regularizer": null, "init": "uniform", "b_constraint": null, "subsample_length": 1, "filter_length": 6, "nb_filter": 200, "activation": "relu", "trainable": true, "b_regularizer": null, "input_length": null, "input_dim": null, "W_constraint": null, "bias": true}, "class_name": "Convolution1D"}], "class_name": "Sequential"}, {"config": [{"config": {"activity_regularizer": null, "batch_input_shape": [null, 140], "input_dim": 428669, "name": "embedding_17_mpq_model", "W_regularizer": null, "init": "uniform", "input_dtype": "int32", "output_dim": 52, "trainable": true, "dropout": 0.2, "mask_zero": false, "input_length": 140, "W_constraint": null}, "class_name": "Embedding"}, {"config": {"padding": 5, "trainable": true, "name": "zeropadding1d_17_mpq_model"}, "class_name": "ZeroPadding1D"}, {"config": {"activity_regularizer": null, "border_mode": "valid", "name": "convolution1d_33_mpq_model", "W_regularizer": null, "init": "uniform", "b_constraint": null, "subsample_length": 1, "filter_length": 6, "nb_filter": 200, "activation": "relu", "trainable": true, "b_regularizer": null, "input_length": null, "input_dim": null, "W_constraint": null, "bias": true}, "class_name": "Convolution1D"}, {"config": {"pool_length": 4, "trainable": true, "name": "maxpooling1d_33_mpq_model", "border_mode": "valid", "stride": 2}, "class_name": "MaxPooling1D"}, {"config": {"activity_regularizer": null, "border_mode": "valid", "name": "convolution1d_34_mpq_model", "W_regularizer": null, "init": "uniform", "b_constraint": null, "subsample_length": 1, "filter_length": 6, "nb_filter": 200, "activation": "relu", "trainable": true, "b_regularizer": null, "input_length": null, "input_dim": null, "W_constraint": null, "bias": true}, "class_name": "Convolution1D"}], "class_name": "Sequential"}, {"config": [{"config": {"activity_regularizer": null, "batch_input_shape": [null, 140], "input_dim": 428669, "name": "embedding_1_semeval_model", "W_regularizer": null, "init": "uniform", "input_dtype": "int32", "output_dim": 52, "trainable": true, "dropout": 0.2, "mask_zero": false, "input_length": 140, "W_constraint": null}, "class_name": "Embedding"}, {"config": {"padding": 5, "trainable": true, "name": "zeropadding1d_1_semeval_model"}, "class_name": "ZeroPadding1D"}, {"config": {"activity_regularizer": null, "border_mode": "valid", "name": "convolution1d_1_semeval_model", "W_regularizer": null, "init": "uniform", "b_constraint": null, "subsample_length": 1, "filter_length": 6, "nb_filter": 200, "activation": "relu", "trainable": true, "b_regularizer": null, "input_length": null, "input_dim": null, "W_constraint": null, "bias": true}, "class_name": "Convolution1D"}, {"config": {"pool_length": 4, "trainable": true, "name": "maxpooling1d_1_semeval_model", "border_mode": "valid", "stride": 2}, "class_name": "MaxPooling1D"}, {"config": {"activity_regularizer": null, "border_mode": "valid", "name": "convolution1d_2_semeval_model", "W_regularizer": null, "init": "uniform", "b_constraint": null, "subsample_length": 1, "filter_length": 6, "nb_filter": 200, "activation": "relu", "trainable": true, "b_regularizer": null, "input_length": null, "input_dim": null, "W_constraint": null, "bias": true}, "class_name": "Convolution1D"}], "class_name": "Sequential"}, {"config": [{"config": {"activity_regularizer": null, "batch_input_shape": [null, 140], "input_dim": 428669, "name": "embedding_1_tac_model", "W_regularizer": null, "init": "uniform", "input_dtype": "int32", "output_dim": 52, "trainable": true, "dropout": 0.2, "mask_zero": false, "input_length": 140, "W_constraint": null}, "class_name": "Embedding"}, {"config": {"padding": 5, "trainable": true, "name": "zeropadding1d_1_tac_model"}, "class_name": "ZeroPadding1D"}, {"config": {"activity_regularizer": null, "border_mode": "valid", "name": "convolution1d_1_tac_model", "W_regularizer": null, "init": "uniform", "b_constraint": null, "subsample_length": 1, "filter_length": 6, "nb_filter": 200, "activation": "relu", "trainable": true, "b_regularizer": null, "input_length": null, "input_dim": null, "W_constraint": null, "bias": true}, "class_name": "Convolution1D"}, {"config": {"pool_length": 4, "trainable": true, "name": "maxpooling1d_1_tac_model", "border_mode": "valid", "stride": 2}, "class_name": "MaxPooling1D"}, {"config": {"activity_regularizer": null, "border_mode": "valid", "name": "convolution1d_2_tac_model", "W_regularizer": null, "init": "uniform", "b_constraint": null, "subsample_length": 1, "filter_length": 6, "nb_filter": 200, "activation": "relu", "trainable": true, "b_regularizer": null, "input_length": null, "input_dim": null, "W_constraint": null, "bias": true}, "class_name": "Convolution1D"}], "class_name": "Sequential"}, {"config": [{"config": {"activity_regularizer": null, "batch_input_shape": [null, 140], "input_dim": 1576890, "name": "embedding_1_dil_model", "W_regularizer": null, "init": "uniform", "input_dtype": "int32", "output_dim": 52, "trainable": true, "dropout": 0.2, "mask_zero": false, "input_length": 140, "W_constraint": null}, "class_name": "Embedding"}, {"config": {"padding": 5, "trainable": true, "name": "zeropadding1d_1_dil_model"}, "class_name": "ZeroPadding1D"}, {"config": {"activity_regularizer": null, "border_mode": "valid", "name": "convolution1d_1_dil_model", "W_regularizer": null, "init": "uniform", "b_constraint": null, "subsample_length": 1, "filter_length": 6, "nb_filter": 200, "activation": "relu", "trainable": true, "b_regularizer": null, "input_length": null, "input_dim": null, "W_constraint": null, "bias": true}, "class_name": "Convolution1D"}, {"config": {"pool_length": 4, "trainable": true, "name": "maxpooling1d_1_dil_model", "border_mode": "valid", "stride": 2}, "class_name": "MaxPooling1D"}, {"config": {"activity_regularizer": null, "border_mode": "valid", "name": "convolution1d_2_dil_model", "W_regularizer": null, "init": "uniform", "b_constraint": null, "subsample_length": 1, "filter_length": 6, "nb_filter": 200, "activation": "relu", "trainable": true, "b_regularizer": null, "input_length": null, "input_dim": null, "W_constraint": null, "bias": true}, "class_name": "Convolution1D"}], "class_name": "Sequential"}, {"config": [{"config": {"activity_regularizer": null, "batch_input_shape": [null, 140], "input_dim": 1062158, "name": "embedding_1_hul_model", "W_regularizer": null, "init": "uniform", "input_dtype": "int32", "output_dim": 52, "trainable": true, "dropout": 0.2, "mask_zero": false, "input_length": 140, "W_constraint": null}, "class_name": "Embedding"}, {"config": {"padding": 5, "trainable": true, "name": "zeropadding1d_1_hul_model"}, "class_name": "ZeroPadding1D"}, {"config": {"activity_regularizer": null, "border_mode": "valid", "name": "convolution1d_1_hul_model", "W_regularizer": null, "init": "uniform", "b_constraint": null, "subsample_length": 1, "filter_length": 6, "nb_filter": 200, "activation": "relu", "trainable": true, "b_regularizer": null, "input_length": null, "input_dim": null, "W_constraint": null, "bias": true}, "class_name": "Convolution1D"}, {"config": {"pool_length": 4, "trainable": true, "name": "maxpooling1d_1_hul_model", "border_mode": "valid", "stride": 2}, "class_name": "MaxPooling1D"}, {"config": {"activity_regularizer": null, "border_mode": "valid", "name": "convolution1d_2_hul_model", "W_regularizer": null, "init": "uniform", "b_constraint": null, "subsample_length": 1, "filter_length": 6, "nb_filter": 200, "activation": "relu", "trainable": true, "b_regularizer": null, "input_length": null, "input_dim": null, "W_constraint": null, "bias": true}, "class_name": "Convolution1D"}], "class_name": "Sequential"}], "mode": "concat", "output_shape": null, "dot_axes": -1}, "class_name": "Merge"}, {"config": {"trainable": true, "name": "flatten_1"}, "class_name": "Flatten"}, {"config": {"activity_regularizer": null, "input_dim": null, "name": "dense_1", "W_regularizer": null, "b_constraint": null, "init": "glorot_uniform", "output_dim": 200, "activation": "linear", "trainable": true, "b_regularizer": null, "W_constraint": null, "bias": true}, "class_name": "Dense"}, {"config": {"trainable": true, "name": "dropout_1", "p": 0.2}, "class_name": "Dropout"}, {"config": {"activation": "relu", "trainable": true, "name": "activation_1"}, "class_name": "Activation"}, {"config": {"activity_regularizer": null, "input_dim": null, "name": "dense_2", "W_regularizer": null, "b_constraint": null, "init": "glorot_uniform", "output_dim": 3, "activation": "softmax", "trainable": true, "b_regularizer": null, "W_constraint": null, "bias": true}, "class_name": "Dense"}], "class_name": "Sequential", "keras_version": "1.1.1"}