{"class_name": "Sequential", "keras_version": "1.1.1", "config": [{"class_name": "Merge", "config": {"concat_axis": -1, "name": "merge_1", "dot_axes": -1, "output_shape": null, "layers": [{"class_name": "Sequential", "config": [{"class_name": "Embedding", "config": {"W_constraint": null, "input_dim": 1576890, "trainable": true, "input_length": 140, "input_dtype": "int32", "dropout": 0.2, "W_regularizer": null, "mask_zero": false, "init": "uniform", "name": "embedding_1_dai_model", "batch_input_shape": [null, 140], "activity_regularizer": null, "output_dim": 52}}, {"class_name": "ZeroPadding1D", "config": {"name": "zeropadding1d_1_dai_model", "trainable": true, "padding": 5}}, {"class_name": "Convolution1D", "config": {"W_constraint": null, "input_dim": null, "input_length": null, "filter_length": 6, "activation": "relu", "nb_filter": 200, "trainable": true, "b_regularizer": null, "border_mode": "valid", "W_regularizer": null, "init": "uniform", "name": "convolution1d_1_dai_model", "bias": true, "subsample_length": 1, "b_constraint": null, "activity_regularizer": null}}, {"class_name": "MaxPooling1D", "config": {"pool_length": 4, "stride": 2, "name": "maxpooling1d_1_dai_model", "border_mode": "valid", "trainable": true}}, {"class_name": "Convolution1D", "config": {"W_constraint": null, "input_dim": null, "input_length": null, "filter_length": 6, "activation": "relu", "nb_filter": 200, "trainable": true, "b_regularizer": null, "border_mode": "valid", "W_regularizer": null, "init": "uniform", "name": "convolution1d_2_dai_model", "bias": true, "subsample_length": 1, "b_constraint": null, "activity_regularizer": null}}]}, {"class_name": "Sequential", "config": [{"class_name": "Embedding", "config": {"W_constraint": null, "input_dim": 1062158, "trainable": true, "input_length": 140, "input_dtype": "int32", "dropout": 0.2, "W_regularizer": null, "mask_zero": false, "init": "uniform", "name": "embedding_1_hul_model", "batch_input_shape": [null, 140], "activity_regularizer": null, "output_dim": 52}}, {"class_name": "ZeroPadding1D", "config": {"name": "zeropadding1d_1_hul_model", "trainable": true, "padding": 5}}, {"class_name": "Convolution1D", "config": {"W_constraint": null, "input_dim": null, "input_length": null, "filter_length": 6, "activation": "relu", "nb_filter": 200, "trainable": true, "b_regularizer": null, "border_mode": "valid", "W_regularizer": null, "init": "uniform", "name": "convolution1d_1_hul_model", "bias": true, "subsample_length": 1, "b_constraint": null, "activity_regularizer": null}}, {"class_name": "MaxPooling1D", "config": {"pool_length": 4, "stride": 2, "name": "maxpooling1d_1_hul_model", "border_mode": "valid", "trainable": true}}, {"class_name": "Convolution1D", "config": {"W_constraint": null, "input_dim": null, "input_length": null, "filter_length": 6, "activation": "relu", "nb_filter": 200, "trainable": true, "b_regularizer": null, "border_mode": "valid", "W_regularizer": null, "init": "uniform", "name": "convolution1d_2_hul_model", "bias": true, "subsample_length": 1, "b_constraint": null, "activity_regularizer": null}}]}, {"class_name": "Sequential", "config": [{"class_name": "Embedding", "config": {"W_constraint": null, "input_dim": 428669, "trainable": true, "input_length": 140, "input_dtype": "int32", "dropout": 0.2, "W_regularizer": null, "mask_zero": false, "init": "uniform", "name": "embedding_17_mpq_model", "batch_input_shape": [null, 140], "activity_regularizer": null, "output_dim": 52}}, {"class_name": "ZeroPadding1D", "config": {"name": "zeropadding1d_17_mpq_model", "trainable": true, "padding": 5}}, {"class_name": "Convolution1D", "config": {"W_constraint": null, "input_dim": null, "input_length": null, "filter_length": 6, "activation": "relu", "nb_filter": 200, "trainable": true, "b_regularizer": null, "border_mode": "valid", "W_regularizer": null, "init": "uniform", "name": "convolution1d_33_mpq_model", "bias": true, "subsample_length": 1, "b_constraint": null, "activity_regularizer": null}}, {"class_name": "MaxPooling1D", "config": {"pool_length": 4, "stride": 2, "name": "maxpooling1d_33_mpq_model", "border_mode": "valid", "trainable": true}}, {"class_name": "Convolution1D", "config": {"W_constraint": null, "input_dim": null, "input_length": null, "filter_length": 6, "activation": "relu", "nb_filter": 200, "trainable": true, "b_regularizer": null, "border_mode": "valid", "W_regularizer": null, "init": "uniform", "name": "convolution1d_34_mpq_model", "bias": true, "subsample_length": 1, "b_constraint": null, "activity_regularizer": null}}]}, {"class_name": "Sequential", "config": [{"class_name": "Embedding", "config": {"W_constraint": null, "input_dim": 1576890, "trainable": true, "input_length": 140, "input_dtype": "int32", "dropout": 0.2, "W_regularizer": null, "mask_zero": false, "init": "uniform", "name": "embedding_1_semeval_model", "batch_input_shape": [null, 140], "activity_regularizer": null, "output_dim": 52}}, {"class_name": "ZeroPadding1D", "config": {"name": "zeropadding1d_1_semeval_model", "trainable": true, "padding": 5}}, {"class_name": "Convolution1D", "config": {"W_constraint": null, "input_dim": null, "input_length": null, "filter_length": 6, "activation": "relu", "nb_filter": 200, "trainable": true, "b_regularizer": null, "border_mode": "valid", "W_regularizer": null, "init": "uniform", "name": "convolution1d_1_semeval_model", "bias": true, "subsample_length": 1, "b_constraint": null, "activity_regularizer": null}}, {"class_name": "MaxPooling1D", "config": {"pool_length": 4, "stride": 2, "name": "maxpooling1d_1_semeval_model", "border_mode": "valid", "trainable": true}}, {"class_name": "Convolution1D", "config": {"W_constraint": null, "input_dim": null, "input_length": null, "filter_length": 6, "activation": "relu", "nb_filter": 200, "trainable": true, "b_regularizer": null, "border_mode": "valid", "W_regularizer": null, "init": "uniform", "name": "convolution1d_2_semeval_model", "bias": true, "subsample_length": 1, "b_constraint": null, "activity_regularizer": null}}]}, {"class_name": "Sequential", "config": [{"class_name": "Embedding", "config": {"W_constraint": null, "input_dim": 428669, "trainable": true, "input_length": 140, "input_dtype": "int32", "dropout": 0.2, "W_regularizer": null, "mask_zero": false, "init": "uniform", "name": "embedding_1_tac_model", "batch_input_shape": [null, 140], "activity_regularizer": null, "output_dim": 52}}, {"class_name": "ZeroPadding1D", "config": {"name": "zeropadding1d_1_tac_model", "trainable": true, "padding": 5}}, {"class_name": "Convolution1D", "config": {"W_constraint": null, "input_dim": null, "input_length": null, "filter_length": 6, "activation": "relu", "nb_filter": 200, "trainable": true, "b_regularizer": null, "border_mode": "valid", "W_regularizer": null, "init": "uniform", "name": "convolution1d_1_tac_model", "bias": true, "subsample_length": 1, "b_constraint": null, "activity_regularizer": null}}, {"class_name": "MaxPooling1D", "config": {"pool_length": 4, "stride": 2, "name": "maxpooling1d_1_tac_model", "border_mode": "valid", "trainable": true}}, {"class_name": "Convolution1D", "config": {"W_constraint": null, "input_dim": null, "input_length": null, "filter_length": 6, "activation": "relu", "nb_filter": 200, "trainable": true, "b_regularizer": null, "border_mode": "valid", "W_regularizer": null, "init": "uniform", "name": "convolution1d_2_tac_model", "bias": true, "subsample_length": 1, "b_constraint": null, "activity_regularizer": null}}]}], "mode_type": "raw", "output_shape_type": "raw", "mode": "concat"}}, {"class_name": "MaxPooling1D", "config": {"pool_length": 4, "stride": 2, "name": "maxpooling1d_1", "border_mode": "valid", "trainable": true}}, {"class_name": "Convolution1D", "config": {"W_constraint": null, "input_dim": null, "input_length": null, "filter_length": 6, "activation": "relu", "nb_filter": 200, "trainable": true, "b_regularizer": null, "border_mode": "valid", "W_regularizer": null, "init": "uniform", "name": "convolution1d_1", "bias": true, "subsample_length": 1, "b_constraint": null, "activity_regularizer": null}}, {"class_name": "MaxPooling1D", "config": {"pool_length": 4, "stride": 2, "name": "maxpooling1d_2", "border_mode": "valid", "trainable": true}}, {"class_name": "Flatten", "config": {"name": "flatten_1", "trainable": true}}, {"class_name": "Dense", "config": {"W_constraint": null, "input_dim": null, "b_regularizer": null, "bias": true, "trainable": true, "activation": "linear", "W_regularizer": null, "init": "glorot_uniform", "name": "dense_1", "b_constraint": null, "activity_regularizer": null, "output_dim": 200}}, {"class_name": "Dropout", "config": {"p": 0.2, "name": "dropout_1", "trainable": true}}, {"class_name": "Activation", "config": {"name": "activation_1", "activation": "relu", "trainable": true}}, {"class_name": "Dense", "config": {"W_constraint": null, "input_dim": null, "b_regularizer": null, "bias": true, "trainable": true, "activation": "softmax", "W_regularizer": null, "init": "glorot_uniform", "name": "dense_2", "b_constraint": null, "activity_regularizer": null, "output_dim": 3}}]}