{"config": [{"config": {"mask_zero": false, "W_regularizer": null, "W_constraint": null, "dropout": 0.2, "batch_input_shape": [null, 140], "input_dtype": "int32", "trainable": true, "name": "embedding_3", "input_length": 140, "init": "uniform", "input_dim": 1576890, "activity_regularizer": null, "output_dim": 52}, "class_name": "Embedding"}, {"config": {"name": "zeropadding1d_3", "padding": 5, "trainable": true}, "class_name": "ZeroPadding1D"}, {"config": {"nb_filter": 200, "W_regularizer": null, "activation": "relu", "filter_length": 6, "W_constraint": null, "trainable": true, "init": "uniform", "name": "convolution1d_5", "border_mode": "valid", "subsample_length": 1, "bias": true, "input_dim": null, "b_constraint": null, "input_length": null, "b_regularizer": null, "activity_regularizer": null}, "class_name": "Convolution1D"}, {"config": {"name": "maxpooling1d_5", "border_mode": "valid", "trainable": true, "pool_length": 4, "stride": 2}, "class_name": "MaxPooling1D"}, {"config": {"nb_filter": 200, "W_regularizer": null, "activation": "relu", "filter_length": 6, "W_constraint": null, "trainable": true, "init": "uniform", "name": "convolution1d_6", "border_mode": "valid", "subsample_length": 1, "bias": true, "input_dim": null, "b_constraint": null, "input_length": null, "b_regularizer": null, "activity_regularizer": null}, "class_name": "Convolution1D"}, {"config": {"name": "maxpooling1d_6", "border_mode": "valid", "trainable": true, "pool_length": 66, "stride": 66}, "class_name": "MaxPooling1D"}, {"config": {"name": "flatten_3", "trainable": true}, "class_name": "Flatten"}, {"config": {"W_regularizer": null, "activation": "linear", "W_constraint": null, "trainable": true, "name": "dense_5", "init": "glorot_uniform", "bias": true, "b_constraint": null, "input_dim": null, "b_regularizer": null, "activity_regularizer": null, "output_dim": 200}, "class_name": "Dense"}, {"config": {"name": "dropout_3", "trainable": true, "p": 0.2}, "class_name": "Dropout"}, {"config": {"name": "activation_3", "trainable": true, "activation": "relu"}, "class_name": "Activation"}, {"config": {"W_regularizer": null, "activation": "softmax", "W_constraint": null, "trainable": true, "name": "dense_6", "init": "glorot_uniform", "bias": true, "b_constraint": null, "input_dim": null, "b_regularizer": null, "activity_regularizer": null, "output_dim": 3}, "class_name": "Dense"}], "keras_version": "1.1.0", "class_name": "Sequential"}