{"keras_version": "1.1.1", "class_name": "Sequential", "config": [{"class_name": "Merge", "config": {"layers": [{"class_name": "Sequential", "config": [{"class_name": "Embedding", "config": {"batch_input_shape": [null, 140], "input_length": 140, "output_dim": 52, "dropout": 0.2, "mask_zero": false, "W_regularizer": null, "name": "embedding_1_hul_model", "input_dtype": "int32", "trainable": true, "input_dim": 1062158, "W_constraint": null, "init": "uniform", "activity_regularizer": null}}, {"class_name": "ZeroPadding1D", "config": {"padding": 5, "trainable": true, "name": "zeropadding1d_1_hul_model"}}, {"class_name": "Convolution1D", "config": {"bias": true, "subsample_length": 1, "b_constraint": null, "border_mode": "valid", "input_length": null, "W_regularizer": null, "name": "convolution1d_1_hul_model", "filter_length": 6, "activation": "relu", "nb_filter": 200, "trainable": true, "b_regularizer": null, "input_dim": null, "W_constraint": null, "init": "uniform", "activity_regularizer": null}}, {"class_name": "MaxPooling1D", "config": {"border_mode": "valid", "stride": 2, "trainable": true, "pool_length": 4, "name": "maxpooling1d_1_hul_model"}}, {"class_name": "Convolution1D", "config": {"bias": true, "subsample_length": 1, "b_constraint": null, "border_mode": "valid", "input_length": null, "W_regularizer": null, "name": "convolution1d_2_hul_model", "filter_length": 6, "activation": "relu", "nb_filter": 200, "trainable": true, "b_regularizer": null, "input_dim": null, "W_constraint": null, "init": "uniform", "activity_regularizer": null}}, {"class_name": "MaxPooling1D", "config": {"border_mode": "valid", "stride": 66, "trainable": true, "pool_length": 66, "name": "maxpooling1d_2_hul_model"}}, {"class_name": "Flatten", "config": {"trainable": true, "name": "flatten_1_hul_model"}}]}, {"class_name": "Sequential", "config": [{"class_name": "Embedding", "config": {"batch_input_shape": [null, 140], "input_length": 140, "output_dim": 52, "dropout": 0.2, "mask_zero": false, "W_regularizer": null, "name": "embedding_1_dil_model", "input_dtype": "int32", "trainable": true, "input_dim": 1576890, "W_constraint": null, "init": "uniform", "activity_regularizer": null}}, {"class_name": "ZeroPadding1D", "config": {"padding": 5, "trainable": true, "name": "zeropadding1d_1_dil_model"}}, {"class_name": "Convolution1D", "config": {"bias": true, "subsample_length": 1, "b_constraint": null, "border_mode": "valid", "input_length": null, "W_regularizer": null, "name": "convolution1d_1_dil_model", "filter_length": 6, "activation": "relu", "nb_filter": 200, "trainable": true, "b_regularizer": null, "input_dim": null, "W_constraint": null, "init": "uniform", "activity_regularizer": null}}, {"class_name": "MaxPooling1D", "config": {"border_mode": "valid", "stride": 2, "trainable": true, "pool_length": 4, "name": "maxpooling1d_1_dil_model"}}, {"class_name": "Convolution1D", "config": {"bias": true, "subsample_length": 1, "b_constraint": null, "border_mode": "valid", "input_length": null, "W_regularizer": null, "name": "convolution1d_2_dil_model", "filter_length": 6, "activation": "relu", "nb_filter": 200, "trainable": true, "b_regularizer": null, "input_dim": null, "W_constraint": null, "init": "uniform", "activity_regularizer": null}}, {"class_name": "MaxPooling1D", "config": {"border_mode": "valid", "stride": 66, "trainable": true, "pool_length": 66, "name": "maxpooling1d_2_dil_model"}}, {"class_name": "Flatten", "config": {"trainable": true, "name": "flatten_1_dil_model"}}]}, {"class_name": "Sequential", "config": [{"class_name": "Embedding", "config": {"batch_input_shape": [null, 140], "input_length": 140, "output_dim": 52, "dropout": 0.2, "mask_zero": false, "W_regularizer": null, "name": "embedding_1_dai_model", "input_dtype": "int32", "trainable": true, "input_dim": 1576890, "W_constraint": null, "init": "uniform", "activity_regularizer": null}}, {"class_name": "ZeroPadding1D", "config": {"padding": 5, "trainable": true, "name": "zeropadding1d_1_dai_model"}}, {"class_name": "Convolution1D", "config": {"bias": true, "subsample_length": 1, "b_constraint": null, "border_mode": "valid", "input_length": null, "W_regularizer": null, "name": "convolution1d_1_dai_model", "filter_length": 6, "activation": "relu", "nb_filter": 200, "trainable": true, "b_regularizer": null, "input_dim": null, "W_constraint": null, "init": "uniform", "activity_regularizer": null}}, {"class_name": "MaxPooling1D", "config": {"border_mode": "valid", "stride": 2, "trainable": true, "pool_length": 4, "name": "maxpooling1d_1_dai_model"}}, {"class_name": "Convolution1D", "config": {"bias": true, "subsample_length": 1, "b_constraint": null, "border_mode": "valid", "input_length": null, "W_regularizer": null, "name": "convolution1d_2_dai_model", "filter_length": 6, "activation": "relu", "nb_filter": 200, "trainable": true, "b_regularizer": null, "input_dim": null, "W_constraint": null, "init": "uniform", "activity_regularizer": null}}, {"class_name": "MaxPooling1D", "config": {"border_mode": "valid", "stride": 66, "trainable": true, "pool_length": 66, "name": "maxpooling1d_2_dai_model"}}, {"class_name": "Flatten", "config": {"trainable": true, "name": "flatten_1_dai_model"}}]}], "output_shape": null, "output_shape_type": "raw", "dot_axes": -1, "mode_type": "raw", "mode": "concat", "concat_axis": -1, "name": "merge_1"}}, {"class_name": "Dense", "config": {"bias": true, "b_constraint": null, "output_dim": 1028, "W_regularizer": null, "name": "dense_1", "activation": "linear", "trainable": true, "b_regularizer": null, "input_dim": null, "W_constraint": null, "init": "glorot_uniform", "activity_regularizer": null}}, {"class_name": "Activation", "config": {"activation": "relu", "trainable": true, "name": "activation_1"}}, {"class_name": "Dense", "config": {"bias": true, "b_constraint": null, "output_dim": 3, "W_regularizer": null, "name": "dense_2", "activation": "softmax", "trainable": true, "b_regularizer": null, "input_dim": null, "W_constraint": null, "init": "glorot_uniform", "activity_regularizer": null}}]}