{"config": [{"config": {"W_regularizer": null, "output_dim": 52, "batch_input_shape": [null, 140], "init": "uniform", "dropout": 0.2, "input_length": 140, "input_dtype": "int32", "activity_regularizer": null, "W_constraint": null, "trainable": true, "input_dim": 1576890, "mask_zero": false, "name": "embedding_21"}, "class_name": "Embedding"}, {"config": {"trainable": true, "padding": 5, "name": "zeropadding1d_21"}, "class_name": "ZeroPadding1D"}, {"config": {"input_length": null, "bias": true, "W_regularizer": null, "init": "uniform", "activation": "relu", "subsample_length": 1, "border_mode": "valid", "filter_length": 6, "b_constraint": null, "nb_filter": 200, "b_regularizer": null, "W_constraint": null, "trainable": true, "input_dim": null, "activity_regularizer": null, "name": "convolution1d_41"}, "class_name": "Convolution1D"}, {"config": {"stride": 2, "trainable": true, "border_mode": "valid", "pool_length": 4, "name": "maxpooling1d_41"}, "class_name": "MaxPooling1D"}, {"config": {"input_length": null, "bias": true, "W_regularizer": null, "init": "uniform", "activation": "relu", "subsample_length": 1, "border_mode": "valid", "filter_length": 6, "b_constraint": null, "nb_filter": 200, "b_regularizer": null, "W_constraint": null, "trainable": true, "input_dim": null, "activity_regularizer": null, "name": "convolution1d_42"}, "class_name": "Convolution1D"}, {"config": {"stride": 66, "trainable": true, "border_mode": "valid", "pool_length": 66, "name": "maxpooling1d_42"}, "class_name": "MaxPooling1D"}, {"config": {"trainable": true, "name": "flatten_21"}, "class_name": "Flatten"}, {"config": {"b_constraint": null, "bias": true, "W_regularizer": null, "output_dim": 200, "init": "glorot_uniform", "activation": "linear", "input_dim": null, "b_regularizer": null, "W_constraint": null, "trainable": true, "activity_regularizer": null, "name": "dense_41"}, "class_name": "Dense"}, {"config": {"p": 0.2, "trainable": true, "name": "dropout_21"}, "class_name": "Dropout"}, {"config": {"name": "activation_21", "trainable": true, "activation": "relu"}, "class_name": "Activation"}, {"config": {"b_constraint": null, "bias": true, "W_regularizer": null, "output_dim": 3, "init": "glorot_uniform", "activation": "softmax", "input_dim": null, "b_regularizer": null, "W_constraint": null, "trainable": true, "activity_regularizer": null, "name": "dense_42"}, "class_name": "Dense"}], "keras_version": "1.1.0", "class_name": "Sequential"}