{"config": [{"config": {"concat_axis": -1, "layers": [{"config": [{"config": {"input_length": 140, "name": "embedding_17_mpq_model", "batch_input_shape": [null, 140], "input_dtype": "int32", "activity_regularizer": null, "W_constraint": null, "W_regularizer": null, "trainable": true, "input_dim": 428669, "output_dim": 52, "dropout": 0.2, "init": "uniform", "mask_zero": false}, "class_name": "Embedding"}, {"config": {"trainable": true, "padding": 5, "name": "zeropadding1d_17_mpq_model"}, "class_name": "ZeroPadding1D"}, {"config": {"b_regularizer": null, "input_length": null, "name": "convolution1d_33_mpq_model", "border_mode": "valid", "activity_regularizer": null, "subsample_length": 1, "filter_length": 6, "W_regularizer": null, "trainable": true, "input_dim": null, "bias": true, "activation": "relu", "W_constraint": null, "nb_filter": 200, "b_constraint": null, "init": "uniform"}, "class_name": "Convolution1D"}, {"config": {"trainable": true, "stride": 2, "pool_length": 4, "name": "maxpooling1d_33_mpq_model", "border_mode": "valid"}, "class_name": "MaxPooling1D"}, {"config": {"b_regularizer": null, "input_length": null, "name": "convolution1d_34_mpq_model", "border_mode": "valid", "activity_regularizer": null, "subsample_length": 1, "filter_length": 6, "W_regularizer": null, "trainable": true, "input_dim": null, "bias": true, "activation": "relu", "W_constraint": null, "nb_filter": 200, "b_constraint": null, "init": "uniform"}, "class_name": "Convolution1D"}], "class_name": "Sequential"}, {"config": [{"config": {"input_length": 140, "name": "embedding_1_dil_model", "batch_input_shape": [null, 140], "input_dtype": "int32", "activity_regularizer": null, "W_constraint": null, "W_regularizer": null, "trainable": true, "input_dim": 1576890, "output_dim": 52, "dropout": 0.2, "init": "uniform", "mask_zero": false}, "class_name": "Embedding"}, {"config": {"trainable": true, "padding": 5, "name": "zeropadding1d_1_dil_model"}, "class_name": "ZeroPadding1D"}, {"config": {"b_regularizer": null, "input_length": null, "name": "convolution1d_1_dil_model", "border_mode": "valid", "activity_regularizer": null, "subsample_length": 1, "filter_length": 6, "W_regularizer": null, "trainable": true, "input_dim": null, "bias": true, "activation": "relu", "W_constraint": null, "nb_filter": 200, "b_constraint": null, "init": "uniform"}, "class_name": "Convolution1D"}, {"config": {"trainable": true, "stride": 2, "pool_length": 4, "name": "maxpooling1d_1_dil_model", "border_mode": "valid"}, "class_name": "MaxPooling1D"}, {"config": {"b_regularizer": null, "input_length": null, "name": "convolution1d_2_dil_model", "border_mode": "valid", "activity_regularizer": null, "subsample_length": 1, "filter_length": 6, "W_regularizer": null, "trainable": true, "input_dim": null, "bias": true, "activation": "relu", "W_constraint": null, "nb_filter": 200, "b_constraint": null, "init": "uniform"}, "class_name": "Convolution1D"}], "class_name": "Sequential"}, {"config": [{"config": {"input_length": 140, "name": "embedding_1_hul_model", "batch_input_shape": [null, 140], "input_dtype": "int32", "activity_regularizer": null, "W_constraint": null, "W_regularizer": null, "trainable": true, "input_dim": 1062158, "output_dim": 52, "dropout": 0.2, "init": "uniform", "mask_zero": false}, "class_name": "Embedding"}, {"config": {"trainable": true, "padding": 5, "name": "zeropadding1d_1_hul_model"}, "class_name": "ZeroPadding1D"}, {"config": {"b_regularizer": null, "input_length": null, "name": "convolution1d_1_hul_model", "border_mode": "valid", "activity_regularizer": null, "subsample_length": 1, "filter_length": 6, "W_regularizer": null, "trainable": true, "input_dim": null, "bias": true, "activation": "relu", "W_constraint": null, "nb_filter": 200, "b_constraint": null, "init": "uniform"}, "class_name": "Convolution1D"}, {"config": {"trainable": true, "stride": 2, "pool_length": 4, "name": "maxpooling1d_1_hul_model", "border_mode": "valid"}, "class_name": "MaxPooling1D"}, {"config": {"b_regularizer": null, "input_length": null, "name": "convolution1d_2_hul_model", "border_mode": "valid", "activity_regularizer": null, "subsample_length": 1, "filter_length": 6, "W_regularizer": null, "trainable": true, "input_dim": null, "bias": true, "activation": "relu", "W_constraint": null, "nb_filter": 200, "b_constraint": null, "init": "uniform"}, "class_name": "Convolution1D"}], "class_name": "Sequential"}, {"config": [{"config": {"input_length": 140, "name": "embedding_1_semeval_model", "batch_input_shape": [null, 140], "input_dtype": "int32", "activity_regularizer": null, "W_constraint": null, "W_regularizer": null, "trainable": true, "input_dim": 428669, "output_dim": 52, "dropout": 0.2, "init": "uniform", "mask_zero": false}, "class_name": "Embedding"}, {"config": {"trainable": true, "padding": 5, "name": "zeropadding1d_1_semeval_model"}, "class_name": "ZeroPadding1D"}, {"config": {"b_regularizer": null, "input_length": null, "name": "convolution1d_1_semeval_model", "border_mode": "valid", "activity_regularizer": null, "subsample_length": 1, "filter_length": 6, "W_regularizer": null, "trainable": true, "input_dim": null, "bias": true, "activation": "relu", "W_constraint": null, "nb_filter": 200, "b_constraint": null, "init": "uniform"}, "class_name": "Convolution1D"}, {"config": {"trainable": true, "stride": 2, "pool_length": 4, "name": "maxpooling1d_1_semeval_model", "border_mode": "valid"}, "class_name": "MaxPooling1D"}, {"config": {"b_regularizer": null, "input_length": null, "name": "convolution1d_2_semeval_model", "border_mode": "valid", "activity_regularizer": null, "subsample_length": 1, "filter_length": 6, "W_regularizer": null, "trainable": true, "input_dim": null, "bias": true, "activation": "relu", "W_constraint": null, "nb_filter": 200, "b_constraint": null, "init": "uniform"}, "class_name": "Convolution1D"}], "class_name": "Sequential"}, {"config": [{"config": {"input_length": 140, "name": "embedding_1_tac_model", "batch_input_shape": [null, 140], "input_dtype": "int32", "activity_regularizer": null, "W_constraint": null, "W_regularizer": null, "trainable": true, "input_dim": 428669, "output_dim": 52, "dropout": 0.2, "init": "uniform", "mask_zero": false}, "class_name": "Embedding"}, {"config": {"trainable": true, "padding": 5, "name": "zeropadding1d_1_tac_model"}, "class_name": "ZeroPadding1D"}, {"config": {"b_regularizer": null, "input_length": null, "name": "convolution1d_1_tac_model", "border_mode": "valid", "activity_regularizer": null, "subsample_length": 1, "filter_length": 6, "W_regularizer": null, "trainable": true, "input_dim": null, "bias": true, "activation": "relu", "W_constraint": null, "nb_filter": 200, "b_constraint": null, "init": "uniform"}, "class_name": "Convolution1D"}, {"config": {"trainable": true, "stride": 2, "pool_length": 4, "name": "maxpooling1d_1_tac_model", "border_mode": "valid"}, "class_name": "MaxPooling1D"}, {"config": {"b_regularizer": null, "input_length": null, "name": "convolution1d_2_tac_model", "border_mode": "valid", "activity_regularizer": null, "subsample_length": 1, "filter_length": 6, "W_regularizer": null, "trainable": true, "input_dim": null, "bias": true, "activation": "relu", "W_constraint": null, "nb_filter": 200, "b_constraint": null, "init": "uniform"}, "class_name": "Convolution1D"}], "class_name": "Sequential"}, {"config": [{"config": {"input_length": 140, "name": "embedding_1_dai_model", "batch_input_shape": [null, 140], "input_dtype": "int32", "activity_regularizer": null, "W_constraint": null, "W_regularizer": null, "trainable": true, "input_dim": 1576890, "output_dim": 52, "dropout": 0.2, "init": "uniform", "mask_zero": false}, "class_name": "Embedding"}, {"config": {"trainable": true, "padding": 5, "name": "zeropadding1d_1_dai_model"}, "class_name": "ZeroPadding1D"}, {"config": {"b_regularizer": null, "input_length": null, "name": "convolution1d_1_dai_model", "border_mode": "valid", "activity_regularizer": null, "subsample_length": 1, "filter_length": 6, "W_regularizer": null, "trainable": true, "input_dim": null, "bias": true, "activation": "relu", "W_constraint": null, "nb_filter": 200, "b_constraint": null, "init": "uniform"}, "class_name": "Convolution1D"}, {"config": {"trainable": true, "stride": 2, "pool_length": 4, "name": "maxpooling1d_1_dai_model", "border_mode": "valid"}, "class_name": "MaxPooling1D"}, {"config": {"b_regularizer": null, "input_length": null, "name": "convolution1d_2_dai_model", "border_mode": "valid", "activity_regularizer": null, "subsample_length": 1, "filter_length": 6, "W_regularizer": null, "trainable": true, "input_dim": null, "bias": true, "activation": "relu", "W_constraint": null, "nb_filter": 200, "b_constraint": null, "init": "uniform"}, "class_name": "Convolution1D"}], "class_name": "Sequential"}], "dot_axes": -1, "name": "merge_1", "output_shape": null, "output_shape_type": "raw", "mode": "concat", "mode_type": "raw"}, "class_name": "Merge"}, {"config": {"trainable": true, "name": "flatten_1"}, "class_name": "Flatten"}, {"config": {"b_regularizer": null, "name": "dense_1", "activity_regularizer": null, "W_constraint": null, "W_regularizer": null, "trainable": true, "input_dim": null, "bias": true, "output_dim": 200, "activation": "linear", "b_constraint": null, "init": "glorot_uniform"}, "class_name": "Dense"}, {"config": {"trainable": true, "p": 0.2, "name": "dropout_1"}, "class_name": "Dropout"}, {"config": {"activation": "relu", "trainable": true, "name": "activation_1"}, "class_name": "Activation"}, {"config": {"b_regularizer": null, "name": "dense_2", "activity_regularizer": null, "W_constraint": null, "W_regularizer": null, "trainable": true, "input_dim": null, "bias": true, "output_dim": 3, "activation": "softmax", "b_constraint": null, "init": "glorot_uniform"}, "class_name": "Dense"}], "keras_version": "1.1.1", "class_name": "Sequential"}