{"config": [{"config": {"batch_input_shape": [null, 140], "trainable": true, "activity_regularizer": null, "name": "embedding_2", "input_dtype": "int32", "input_dim": 1576890, "W_regularizer": null, "dropout": 0.2, "mask_zero": false, "output_dim": 52, "init": "uniform", "input_length": 140, "W_constraint": null}, "class_name": "Embedding"}, {"config": {"trainable": true, "padding": 5, "name": "zeropadding1d_2"}, "class_name": "ZeroPadding1D"}, {"config": {"W_constraint": null, "trainable": true, "activation": "relu", "border_mode": "valid", "name": "convolution1d_3", "activity_regularizer": null, "filter_length": 6, "b_constraint": null, "input_dim": null, "W_regularizer": null, "bias": true, "nb_filter": 200, "subsample_length": 1, "init": "uniform", "input_length": null, "b_regularizer": null}, "class_name": "Convolution1D"}, {"config": {"trainable": true, "pool_length": 4, "border_mode": "valid", "name": "maxpooling1d_3", "stride": 2}, "class_name": "MaxPooling1D"}, {"config": {"W_constraint": null, "trainable": true, "activation": "relu", "border_mode": "valid", "name": "convolution1d_4", "activity_regularizer": null, "filter_length": 6, "b_constraint": null, "input_dim": null, "W_regularizer": null, "bias": true, "nb_filter": 200, "subsample_length": 1, "init": "uniform", "input_length": null, "b_regularizer": null}, "class_name": "Convolution1D"}, {"config": {"trainable": true, "pool_length": 66, "border_mode": "valid", "name": "maxpooling1d_4", "stride": 66}, "class_name": "MaxPooling1D"}, {"config": {"trainable": true, "name": "flatten_2"}, "class_name": "Flatten"}, {"config": {"W_constraint": null, "trainable": true, "b_constraint": null, "name": "dense_3", "activity_regularizer": null, "activation": "linear", "input_dim": null, "W_regularizer": null, "bias": true, "output_dim": 200, "init": "glorot_uniform", "b_regularizer": null}, "class_name": "Dense"}, {"config": {"trainable": true, "p": 0.2, "name": "dropout_2"}, "class_name": "Dropout"}, {"config": {"trainable": true, "activation": "relu", "name": "activation_2"}, "class_name": "Activation"}, {"config": {"W_constraint": null, "trainable": true, "b_constraint": null, "name": "dense_4", "activity_regularizer": null, "activation": "softmax", "input_dim": null, "W_regularizer": null, "bias": true, "output_dim": 3, "init": "glorot_uniform", "b_regularizer": null}, "class_name": "Dense"}], "keras_version": "1.1.0", "class_name": "Sequential"}