{"class_name": "Sequential", "keras_version": "1.1.0", "config": [{"class_name": "Embedding", "config": {"W_regularizer": null, "trainable": true, "output_dim": 52, "batch_input_shape": [null, 140], "init": "uniform", "mask_zero": false, "input_length": 140, "W_constraint": null, "activity_regularizer": null, "input_dtype": "int32", "input_dim": 1576890, "name": "embedding_50", "dropout": 0.2}}, {"class_name": "ZeroPadding1D", "config": {"padding": 5, "trainable": true, "name": "zeropadding1d_50"}}, {"class_name": "Convolution1D", "config": {"W_regularizer": null, "trainable": true, "b_constraint": null, "subsample_length": 1, "b_regularizer": null, "init": "uniform", "nb_filter": 200, "filter_length": 6, "activation": "relu", "W_constraint": null, "name": "convolution1d_99", "activity_regularizer": null, "input_length": null, "input_dim": null, "border_mode": "valid", "bias": true}}, {"class_name": "MaxPooling1D", "config": {"pool_length": 4, "border_mode": "valid", "trainable": true, "name": "maxpooling1d_99", "stride": 2}}, {"class_name": "Convolution1D", "config": {"W_regularizer": null, "trainable": true, "b_constraint": null, "subsample_length": 1, "b_regularizer": null, "init": "uniform", "nb_filter": 200, "filter_length": 6, "activation": "relu", "W_constraint": null, "name": "convolution1d_100", "activity_regularizer": null, "input_length": null, "input_dim": null, "border_mode": "valid", "bias": true}}, {"class_name": "MaxPooling1D", "config": {"pool_length": 66, "border_mode": "valid", "trainable": true, "name": "maxpooling1d_100", "stride": 66}}, {"class_name": "Flatten", "config": {"trainable": true, "name": "flatten_50"}}, {"class_name": "Dense", "config": {"W_regularizer": null, "trainable": true, "output_dim": 200, "b_constraint": null, "b_regularizer": null, "init": "glorot_uniform", "W_constraint": null, "activation": "linear", "bias": true, "activity_regularizer": null, "input_dim": null, "name": "dense_99"}}, {"class_name": "Dropout", "config": {"trainable": true, "p": 0.2, "name": "dropout_50"}}, {"class_name": "Activation", "config": {"activation": "relu", "trainable": true, "name": "activation_50"}}, {"class_name": "Dense", "config": {"W_regularizer": null, "trainable": true, "output_dim": 3, "b_constraint": null, "b_regularizer": null, "init": "glorot_uniform", "W_constraint": null, "activation": "softmax", "bias": true, "activity_regularizer": null, "input_dim": null, "name": "dense_100"}}]}