{"class_name": "Sequential", "keras_version": "1.1.1", "config": [{"class_name": "Merge", "config": {"concat_axis": -1, "dot_axes": -1, "mode_type": "raw", "name": "merge_1", "mode": "concat", "output_shape_type": "raw", "output_shape": null, "layers": [{"class_name": "Sequential", "config": [{"class_name": "Embedding", "config": {"dropout": 0.2, "W_regularizer": null, "mask_zero": false, "input_length": 140, "activity_regularizer": null, "name": "embedding_17_mpq_model", "input_dtype": "int32", "init": "uniform", "W_constraint": null, "output_dim": 52, "input_dim": 428669, "trainable": true, "batch_input_shape": [null, 140]}}, {"class_name": "ZeroPadding1D", "config": {"padding": 5, "name": "zeropadding1d_17_mpq_model", "trainable": true}}, {"class_name": "Convolution1D", "config": {"W_regularizer": null, "input_length": null, "activity_regularizer": null, "b_regularizer": null, "name": "convolution1d_33_mpq_model", "b_constraint": null, "subsample_length": 1, "nb_filter": 200, "trainable": true, "init": "uniform", "bias": true, "W_constraint": null, "filter_length": 6, "activation": "relu", "input_dim": null, "border_mode": "valid"}}, {"class_name": "MaxPooling1D", "config": {"stride": 2, "pool_length": 4, "name": "maxpooling1d_33_mpq_model", "border_mode": "valid", "trainable": true}}, {"class_name": "Convolution1D", "config": {"W_regularizer": null, "input_length": null, "activity_regularizer": null, "b_regularizer": null, "name": "convolution1d_34_mpq_model", "b_constraint": null, "subsample_length": 1, "nb_filter": 200, "trainable": true, "init": "uniform", "bias": true, "W_constraint": null, "filter_length": 6, "activation": "relu", "input_dim": null, "border_mode": "valid"}}, {"class_name": "MaxPooling1D", "config": {"stride": 66, "pool_length": 66, "name": "maxpooling1d_34_mpq_model", "border_mode": "valid", "trainable": true}}, {"class_name": "Flatten", "config": {"name": "flatten_17_mpq_model", "trainable": true}}]}, {"class_name": "Sequential", "config": [{"class_name": "Embedding", "config": {"dropout": 0.2, "W_regularizer": null, "mask_zero": false, "input_length": 140, "activity_regularizer": null, "name": "embedding_1_tac_model", "input_dtype": "int32", "init": "uniform", "W_constraint": null, "output_dim": 52, "input_dim": 428669, "trainable": true, "batch_input_shape": [null, 140]}}, {"class_name": "ZeroPadding1D", "config": {"padding": 5, "name": "zeropadding1d_1_tac_model", "trainable": true}}, {"class_name": "Convolution1D", "config": {"W_regularizer": null, "input_length": null, "activity_regularizer": null, "b_regularizer": null, "name": "convolution1d_1_tac_model", "b_constraint": null, "subsample_length": 1, "nb_filter": 200, "trainable": true, "init": "uniform", "bias": true, "W_constraint": null, "filter_length": 6, "activation": "relu", "input_dim": null, "border_mode": "valid"}}, {"class_name": "MaxPooling1D", "config": {"stride": 2, "pool_length": 4, "name": "maxpooling1d_1_tac_model", "border_mode": "valid", "trainable": true}}, {"class_name": "Convolution1D", "config": {"W_regularizer": null, "input_length": null, "activity_regularizer": null, "b_regularizer": null, "name": "convolution1d_2_tac_model", "b_constraint": null, "subsample_length": 1, "nb_filter": 200, "trainable": true, "init": "uniform", "bias": true, "W_constraint": null, "filter_length": 6, "activation": "relu", "input_dim": null, "border_mode": "valid"}}, {"class_name": "MaxPooling1D", "config": {"stride": 66, "pool_length": 66, "name": "maxpooling1d_2_tac_model", "border_mode": "valid", "trainable": true}}, {"class_name": "Flatten", "config": {"name": "flatten_1_tac_model", "trainable": true}}]}, {"class_name": "Sequential", "config": [{"class_name": "Embedding", "config": {"dropout": 0.2, "W_regularizer": null, "mask_zero": false, "input_length": 140, "activity_regularizer": null, "name": "embedding_1_hul_model", "input_dtype": "int32", "init": "uniform", "W_constraint": null, "output_dim": 52, "input_dim": 1062158, "trainable": true, "batch_input_shape": [null, 140]}}, {"class_name": "ZeroPadding1D", "config": {"padding": 5, "name": "zeropadding1d_1_hul_model", "trainable": true}}, {"class_name": "Convolution1D", "config": {"W_regularizer": null, "input_length": null, "activity_regularizer": null, "b_regularizer": null, "name": "convolution1d_1_hul_model", "b_constraint": null, "subsample_length": 1, "nb_filter": 200, "trainable": true, "init": "uniform", "bias": true, "W_constraint": null, "filter_length": 6, "activation": "relu", "input_dim": null, "border_mode": "valid"}}, {"class_name": "MaxPooling1D", "config": {"stride": 2, "pool_length": 4, "name": "maxpooling1d_1_hul_model", "border_mode": "valid", "trainable": true}}, {"class_name": "Convolution1D", "config": {"W_regularizer": null, "input_length": null, "activity_regularizer": null, "b_regularizer": null, "name": "convolution1d_2_hul_model", "b_constraint": null, "subsample_length": 1, "nb_filter": 200, "trainable": true, "init": "uniform", "bias": true, "W_constraint": null, "filter_length": 6, "activation": "relu", "input_dim": null, "border_mode": "valid"}}, {"class_name": "MaxPooling1D", "config": {"stride": 66, "pool_length": 66, "name": "maxpooling1d_2_hul_model", "border_mode": "valid", "trainable": true}}, {"class_name": "Flatten", "config": {"name": "flatten_1_hul_model", "trainable": true}}]}, {"class_name": "Sequential", "config": [{"class_name": "Embedding", "config": {"dropout": 0.2, "W_regularizer": null, "mask_zero": false, "input_length": 140, "activity_regularizer": null, "name": "embedding_1_semeval_model", "input_dtype": "int32", "init": "uniform", "W_constraint": null, "output_dim": 52, "input_dim": 428669, "trainable": true, "batch_input_shape": [null, 140]}}, {"class_name": "ZeroPadding1D", "config": {"padding": 5, "name": "zeropadding1d_1_semeval_model", "trainable": true}}, {"class_name": "Convolution1D", "config": {"W_regularizer": null, "input_length": null, "activity_regularizer": null, "b_regularizer": null, "name": "convolution1d_1_semeval_model", "b_constraint": null, "subsample_length": 1, "nb_filter": 200, "trainable": true, "init": "uniform", "bias": true, "W_constraint": null, "filter_length": 6, "activation": "relu", "input_dim": null, "border_mode": "valid"}}, {"class_name": "MaxPooling1D", "config": {"stride": 2, "pool_length": 4, "name": "maxpooling1d_1_semeval_model", "border_mode": "valid", "trainable": true}}, {"class_name": "Convolution1D", "config": {"W_regularizer": null, "input_length": null, "activity_regularizer": null, "b_regularizer": null, "name": "convolution1d_2_semeval_model", "b_constraint": null, "subsample_length": 1, "nb_filter": 200, "trainable": true, "init": "uniform", "bias": true, "W_constraint": null, "filter_length": 6, "activation": "relu", "input_dim": null, "border_mode": "valid"}}, {"class_name": "MaxPooling1D", "config": {"stride": 66, "pool_length": 66, "name": "maxpooling1d_2_semeval_model", "border_mode": "valid", "trainable": true}}, {"class_name": "Flatten", "config": {"name": "flatten_1_semeval_model", "trainable": true}}]}, {"class_name": "Sequential", "config": [{"class_name": "Embedding", "config": {"dropout": 0.2, "W_regularizer": null, "mask_zero": false, "input_length": 140, "activity_regularizer": null, "name": "embedding_1_dil_model", "input_dtype": "int32", "init": "uniform", "W_constraint": null, "output_dim": 52, "input_dim": 1576890, "trainable": true, "batch_input_shape": [null, 140]}}, {"class_name": "ZeroPadding1D", "config": {"padding": 5, "name": "zeropadding1d_1_dil_model", "trainable": true}}, {"class_name": "Convolution1D", "config": {"W_regularizer": null, "input_length": null, "activity_regularizer": null, "b_regularizer": null, "name": "convolution1d_1_dil_model", "b_constraint": null, "subsample_length": 1, "nb_filter": 200, "trainable": true, "init": "uniform", "bias": true, "W_constraint": null, "filter_length": 6, "activation": "relu", "input_dim": null, "border_mode": "valid"}}, {"class_name": "MaxPooling1D", "config": {"stride": 2, "pool_length": 4, "name": "maxpooling1d_1_dil_model", "border_mode": "valid", "trainable": true}}, {"class_name": "Convolution1D", "config": {"W_regularizer": null, "input_length": null, "activity_regularizer": null, "b_regularizer": null, "name": "convolution1d_2_dil_model", "b_constraint": null, "subsample_length": 1, "nb_filter": 200, "trainable": true, "init": "uniform", "bias": true, "W_constraint": null, "filter_length": 6, "activation": "relu", "input_dim": null, "border_mode": "valid"}}, {"class_name": "MaxPooling1D", "config": {"stride": 66, "pool_length": 66, "name": "maxpooling1d_2_dil_model", "border_mode": "valid", "trainable": true}}, {"class_name": "Flatten", "config": {"name": "flatten_1_dil_model", "trainable": true}}]}, {"class_name": "Sequential", "config": [{"class_name": "Embedding", "config": {"dropout": 0.2, "W_regularizer": null, "mask_zero": false, "input_length": 140, "activity_regularizer": null, "name": "embedding_1_dai_model", "input_dtype": "int32", "init": "uniform", "W_constraint": null, "output_dim": 52, "input_dim": 1576890, "trainable": true, "batch_input_shape": [null, 140]}}, {"class_name": "ZeroPadding1D", "config": {"padding": 5, "name": "zeropadding1d_1_dai_model", "trainable": true}}, {"class_name": "Convolution1D", "config": {"W_regularizer": null, "input_length": null, "activity_regularizer": null, "b_regularizer": null, "name": "convolution1d_1_dai_model", "b_constraint": null, "subsample_length": 1, "nb_filter": 200, "trainable": true, "init": "uniform", "bias": true, "W_constraint": null, "filter_length": 6, "activation": "relu", "input_dim": null, "border_mode": "valid"}}, {"class_name": "MaxPooling1D", "config": {"stride": 2, "pool_length": 4, "name": "maxpooling1d_1_dai_model", "border_mode": "valid", "trainable": true}}, {"class_name": "Convolution1D", "config": {"W_regularizer": null, "input_length": null, "activity_regularizer": null, "b_regularizer": null, "name": "convolution1d_2_dai_model", "b_constraint": null, "subsample_length": 1, "nb_filter": 200, "trainable": true, "init": "uniform", "bias": true, "W_constraint": null, "filter_length": 6, "activation": "relu", "input_dim": null, "border_mode": "valid"}}, {"class_name": "MaxPooling1D", "config": {"stride": 66, "pool_length": 66, "name": "maxpooling1d_2_dai_model", "border_mode": "valid", "trainable": true}}, {"class_name": "Flatten", "config": {"name": "flatten_1_dai_model", "trainable": true}}]}]}}, {"class_name": "Dense", "config": {"W_regularizer": null, "output_dim": 1028, "activity_regularizer": null, "b_regularizer": null, "name": "dense_1", "b_constraint": null, "init": "glorot_uniform", "bias": true, "W_constraint": null, "activation": "linear", "input_dim": null, "trainable": true}}, {"class_name": "Activation", "config": {"name": "activation_1", "activation": "relu", "trainable": true}}, {"class_name": "Dense", "config": {"W_regularizer": null, "output_dim": 3, "activity_regularizer": null, "b_regularizer": null, "name": "dense_2", "b_constraint": null, "init": "glorot_uniform", "bias": true, "W_constraint": null, "activation": "softmax", "input_dim": null, "trainable": true}}]}