{"class_name": "Sequential", "config": [{"class_name": "Merge", "config": {"output_shape_type": "raw", "layers": [{"class_name": "Sequential", "config": [{"class_name": "Embedding", "config": {"W_constraint": null, "trainable": false, "dropout": 0.2, "input_length": 140, "W_regularizer": null, "name": "embedding_1_dil_model", "input_dtype": "int32", "init": "uniform", "activity_regularizer": null, "batch_input_shape": [null, 140], "input_dim": 1576890, "mask_zero": false, "output_dim": 52}}, {"class_name": "ZeroPadding1D", "config": {"padding": 5, "trainable": false, "name": "zeropadding1d_1_dil_model"}}, {"class_name": "Convolution1D", "config": {"trainable": false, "activation": "relu", "border_mode": "valid", "input_length": null, "W_regularizer": null, "name": "convolution1d_1_dil_model", "subsample_length": 1, "W_constraint": null, "init": "uniform", "activity_regularizer": null, "nb_filter": 200, "b_regularizer": null, "bias": true, "b_constraint": null, "filter_length": 6, "input_dim": null}}, {"class_name": "MaxPooling1D", "config": {"pool_length": 4, "stride": 2, "trainable": false, "name": "maxpooling1d_1_dil_model", "border_mode": "valid"}}, {"class_name": "Convolution1D", "config": {"trainable": false, "activation": "relu", "border_mode": "valid", "input_length": null, "W_regularizer": null, "name": "convolution1d_2_dil_model", "subsample_length": 1, "W_constraint": null, "init": "uniform", "activity_regularizer": null, "nb_filter": 200, "b_regularizer": null, "bias": true, "b_constraint": null, "filter_length": 6, "input_dim": null}}, {"class_name": "MaxPooling1D", "config": {"pool_length": 66, "stride": 66, "trainable": false, "name": "maxpooling1d_2_dil_model", "border_mode": "valid"}}, {"class_name": "Flatten", "config": {"trainable": false, "name": "flatten_1_dil_model"}}, {"class_name": "Dense", "config": {"trainable": false, "activation": "linear", "W_regularizer": null, "name": "dense_1_dil_model", "W_constraint": null, "init": "glorot_uniform", "activity_regularizer": null, "b_regularizer": null, "bias": true, "b_constraint": null, "input_dim": null, "output_dim": 200}}, {"class_name": "Dropout", "config": {"p": 0.2, "trainable": false, "name": "dropout_1_dil_model"}}, {"class_name": "Activation", "config": {"trainable": false, "name": "activation_1_dil_model", "activation": "relu"}}, {"class_name": "Dense", "config": {"trainable": false, "activation": "softmax", "W_regularizer": null, "name": "dense_2_dil_model", "W_constraint": null, "init": "glorot_uniform", "activity_regularizer": null, "b_regularizer": null, "bias": true, "b_constraint": null, "input_dim": null, "output_dim": 3}}]}, {"class_name": "Sequential", "config": [{"class_name": "Embedding", "config": {"W_constraint": null, "trainable": false, "dropout": 0.2, "input_length": 140, "W_regularizer": null, "name": "embedding_1_tac_model", "input_dtype": "int32", "init": "uniform", "activity_regularizer": null, "batch_input_shape": [null, 140], "input_dim": 428669, "mask_zero": false, "output_dim": 52}}, {"class_name": "ZeroPadding1D", "config": {"padding": 5, "trainable": false, "name": "zeropadding1d_1_tac_model"}}, {"class_name": "Convolution1D", "config": {"trainable": false, "activation": "relu", "border_mode": "valid", "input_length": null, "W_regularizer": null, "name": "convolution1d_1_tac_model", "subsample_length": 1, "W_constraint": null, "init": "uniform", "activity_regularizer": null, "nb_filter": 200, "b_regularizer": null, "bias": true, "b_constraint": null, "filter_length": 6, "input_dim": null}}, {"class_name": "MaxPooling1D", "config": {"pool_length": 4, "stride": 2, "trainable": false, "name": "maxpooling1d_1_tac_model", "border_mode": "valid"}}, {"class_name": "Convolution1D", "config": {"trainable": false, "activation": "relu", "border_mode": "valid", "input_length": null, "W_regularizer": null, "name": "convolution1d_2_tac_model", "subsample_length": 1, "W_constraint": null, "init": "uniform", "activity_regularizer": null, "nb_filter": 200, "b_regularizer": null, "bias": true, "b_constraint": null, "filter_length": 6, "input_dim": null}}, {"class_name": "MaxPooling1D", "config": {"pool_length": 66, "stride": 66, "trainable": false, "name": "maxpooling1d_2_tac_model", "border_mode": "valid"}}, {"class_name": "Flatten", "config": {"trainable": false, "name": "flatten_1_tac_model"}}, {"class_name": "Dense", "config": {"trainable": false, "activation": "linear", "W_regularizer": null, "name": "dense_1_tac_model", "W_constraint": null, "init": "glorot_uniform", "activity_regularizer": null, "b_regularizer": null, "bias": true, "b_constraint": null, "input_dim": null, "output_dim": 200}}, {"class_name": "Dropout", "config": {"p": 0.2, "trainable": false, "name": "dropout_1_tac_model"}}, {"class_name": "Activation", "config": {"trainable": false, "name": "activation_1_tac_model", "activation": "relu"}}, {"class_name": "Dense", "config": {"trainable": false, "activation": "softmax", "W_regularizer": null, "name": "dense_2_tac_model", "W_constraint": null, "init": "glorot_uniform", "activity_regularizer": null, "b_regularizer": null, "bias": true, "b_constraint": null, "input_dim": null, "output_dim": 3}}]}, {"class_name": "Sequential", "config": [{"class_name": "Embedding", "config": {"W_constraint": null, "trainable": false, "dropout": 0.2, "input_length": 140, "W_regularizer": null, "name": "embedding_1_hul_model", "input_dtype": "int32", "init": "uniform", "activity_regularizer": null, "batch_input_shape": [null, 140], "input_dim": 1062158, "mask_zero": false, "output_dim": 52}}, {"class_name": "ZeroPadding1D", "config": {"padding": 5, "trainable": false, "name": "zeropadding1d_1_hul_model"}}, {"class_name": "Convolution1D", "config": {"trainable": false, "activation": "relu", "border_mode": "valid", "input_length": null, "W_regularizer": null, "name": "convolution1d_1_hul_model", "subsample_length": 1, "W_constraint": null, "init": "uniform", "activity_regularizer": null, "nb_filter": 200, "b_regularizer": null, "bias": true, "b_constraint": null, "filter_length": 6, "input_dim": null}}, {"class_name": "MaxPooling1D", "config": {"pool_length": 4, "stride": 2, "trainable": false, "name": "maxpooling1d_1_hul_model", "border_mode": "valid"}}, {"class_name": "Convolution1D", "config": {"trainable": false, "activation": "relu", "border_mode": "valid", "input_length": null, "W_regularizer": null, "name": "convolution1d_2_hul_model", "subsample_length": 1, "W_constraint": null, "init": "uniform", "activity_regularizer": null, "nb_filter": 200, "b_regularizer": null, "bias": true, "b_constraint": null, "filter_length": 6, "input_dim": null}}, {"class_name": "MaxPooling1D", "config": {"pool_length": 66, "stride": 66, "trainable": false, "name": "maxpooling1d_2_hul_model", "border_mode": "valid"}}, {"class_name": "Flatten", "config": {"trainable": false, "name": "flatten_1_hul_model"}}, {"class_name": "Dense", "config": {"trainable": false, "activation": "linear", "W_regularizer": null, "name": "dense_1_hul_model", "W_constraint": null, "init": "glorot_uniform", "activity_regularizer": null, "b_regularizer": null, "bias": true, "b_constraint": null, "input_dim": null, "output_dim": 200}}, {"class_name": "Dropout", "config": {"p": 0.2, "trainable": false, "name": "dropout_1_hul_model"}}, {"class_name": "Activation", "config": {"trainable": false, "name": "activation_1_hul_model", "activation": "relu"}}, {"class_name": "Dense", "config": {"trainable": false, "activation": "softmax", "W_regularizer": null, "name": "dense_2_hul_model", "W_constraint": null, "init": "glorot_uniform", "activity_regularizer": null, "b_regularizer": null, "bias": true, "b_constraint": null, "input_dim": null, "output_dim": 3}}]}, {"class_name": "Sequential", "config": [{"class_name": "Embedding", "config": {"W_constraint": null, "trainable": false, "dropout": 0.2, "input_length": 140, "W_regularizer": null, "name": "embedding_1_semeval_model", "input_dtype": "int32", "init": "uniform", "activity_regularizer": null, "batch_input_shape": [null, 140], "input_dim": 428669, "mask_zero": false, "output_dim": 52}}, {"class_name": "ZeroPadding1D", "config": {"padding": 5, "trainable": false, "name": "zeropadding1d_1_semeval_model"}}, {"class_name": "Convolution1D", "config": {"trainable": false, "activation": "relu", "border_mode": "valid", "input_length": null, "W_regularizer": null, "name": "convolution1d_1_semeval_model", "subsample_length": 1, "W_constraint": null, "init": "uniform", "activity_regularizer": null, "nb_filter": 200, "b_regularizer": null, "bias": true, "b_constraint": null, "filter_length": 6, "input_dim": null}}, {"class_name": "MaxPooling1D", "config": {"pool_length": 4, "stride": 2, "trainable": false, "name": "maxpooling1d_1_semeval_model", "border_mode": "valid"}}, {"class_name": "Convolution1D", "config": {"trainable": false, "activation": "relu", "border_mode": "valid", "input_length": null, "W_regularizer": null, "name": "convolution1d_2_semeval_model", "subsample_length": 1, "W_constraint": null, "init": "uniform", "activity_regularizer": null, "nb_filter": 200, "b_regularizer": null, "bias": true, "b_constraint": null, "filter_length": 6, "input_dim": null}}, {"class_name": "MaxPooling1D", "config": {"pool_length": 66, "stride": 66, "trainable": false, "name": "maxpooling1d_2_semeval_model", "border_mode": "valid"}}, {"class_name": "Flatten", "config": {"trainable": false, "name": "flatten_1_semeval_model"}}, {"class_name": "Dense", "config": {"trainable": false, "activation": "linear", "W_regularizer": null, "name": "dense_1_semeval_model", "W_constraint": null, "init": "glorot_uniform", "activity_regularizer": null, "b_regularizer": null, "bias": true, "b_constraint": null, "input_dim": null, "output_dim": 200}}, {"class_name": "Dropout", "config": {"p": 0.2, "trainable": false, "name": "dropout_1_semeval_model"}}, {"class_name": "Activation", "config": {"trainable": false, "name": "activation_1_semeval_model", "activation": "relu"}}, {"class_name": "Dense", "config": {"trainable": false, "activation": "softmax", "W_regularizer": null, "name": "dense_2_semeval_model", "W_constraint": null, "init": "glorot_uniform", "activity_regularizer": null, "b_regularizer": null, "bias": true, "b_constraint": null, "input_dim": null, "output_dim": 3}}]}, {"class_name": "Sequential", "config": [{"class_name": "Embedding", "config": {"W_constraint": null, "trainable": false, "dropout": 0.2, "input_length": 140, "W_regularizer": null, "name": "embedding_1_dai_model", "input_dtype": "int32", "init": "uniform", "activity_regularizer": null, "batch_input_shape": [null, 140], "input_dim": 1576890, "mask_zero": false, "output_dim": 52}}, {"class_name": "ZeroPadding1D", "config": {"padding": 5, "trainable": false, "name": "zeropadding1d_1_dai_model"}}, {"class_name": "Convolution1D", "config": {"trainable": false, "activation": "relu", "border_mode": "valid", "input_length": null, "W_regularizer": null, "name": "convolution1d_1_dai_model", "subsample_length": 1, "W_constraint": null, "init": "uniform", "activity_regularizer": null, "nb_filter": 200, "b_regularizer": null, "bias": true, "b_constraint": null, "filter_length": 6, "input_dim": null}}, {"class_name": "MaxPooling1D", "config": {"pool_length": 4, "stride": 2, "trainable": false, "name": "maxpooling1d_1_dai_model", "border_mode": "valid"}}, {"class_name": "Convolution1D", "config": {"trainable": false, "activation": "relu", "border_mode": "valid", "input_length": null, "W_regularizer": null, "name": "convolution1d_2_dai_model", "subsample_length": 1, "W_constraint": null, "init": "uniform", "activity_regularizer": null, "nb_filter": 200, "b_regularizer": null, "bias": true, "b_constraint": null, "filter_length": 6, "input_dim": null}}, {"class_name": "MaxPooling1D", "config": {"pool_length": 66, "stride": 66, "trainable": false, "name": "maxpooling1d_2_dai_model", "border_mode": "valid"}}, {"class_name": "Flatten", "config": {"trainable": false, "name": "flatten_1_dai_model"}}, {"class_name": "Dense", "config": {"trainable": false, "activation": "linear", "W_regularizer": null, "name": "dense_1_dai_model", "W_constraint": null, "init": "glorot_uniform", "activity_regularizer": null, "b_regularizer": null, "bias": true, "b_constraint": null, "input_dim": null, "output_dim": 200}}, {"class_name": "Dropout", "config": {"p": 0.2, "trainable": false, "name": "dropout_1_dai_model"}}, {"class_name": "Activation", "config": {"trainable": false, "name": "activation_1_dai_model", "activation": "relu"}}, {"class_name": "Dense", "config": {"trainable": false, "activation": "softmax", "W_regularizer": null, "name": "dense_2_dai_model", "W_constraint": null, "init": "glorot_uniform", "activity_regularizer": null, "b_regularizer": null, "bias": true, "b_constraint": null, "input_dim": null, "output_dim": 3}}]}, {"class_name": "Sequential", "config": [{"class_name": "Embedding", "config": {"W_constraint": null, "trainable": false, "dropout": 0.2, "input_length": 140, "W_regularizer": null, "name": "embedding_17_mpq_model", "input_dtype": "int32", "init": "uniform", "activity_regularizer": null, "batch_input_shape": [null, 140], "input_dim": 428669, "mask_zero": false, "output_dim": 52}}, {"class_name": "ZeroPadding1D", "config": {"padding": 5, "trainable": false, "name": "zeropadding1d_17_mpq_model"}}, {"class_name": "Convolution1D", "config": {"trainable": false, "activation": "relu", "border_mode": "valid", "input_length": null, "W_regularizer": null, "name": "convolution1d_33_mpq_model", "subsample_length": 1, "W_constraint": null, "init": "uniform", "activity_regularizer": null, "nb_filter": 200, "b_regularizer": null, "bias": true, "b_constraint": null, "filter_length": 6, "input_dim": null}}, {"class_name": "MaxPooling1D", "config": {"pool_length": 4, "stride": 2, "trainable": false, "name": "maxpooling1d_33_mpq_model", "border_mode": "valid"}}, {"class_name": "Convolution1D", "config": {"trainable": false, "activation": "relu", "border_mode": "valid", "input_length": null, "W_regularizer": null, "name": "convolution1d_34_mpq_model", "subsample_length": 1, "W_constraint": null, "init": "uniform", "activity_regularizer": null, "nb_filter": 200, "b_regularizer": null, "bias": true, "b_constraint": null, "filter_length": 6, "input_dim": null}}, {"class_name": "MaxPooling1D", "config": {"pool_length": 66, "stride": 66, "trainable": false, "name": "maxpooling1d_34_mpq_model", "border_mode": "valid"}}, {"class_name": "Flatten", "config": {"trainable": false, "name": "flatten_17_mpq_model"}}, {"class_name": "Dense", "config": {"trainable": false, "activation": "linear", "W_regularizer": null, "name": "dense_33_mpq_model", "W_constraint": null, "init": "glorot_uniform", "activity_regularizer": null, "b_regularizer": null, "bias": true, "b_constraint": null, "input_dim": null, "output_dim": 200}}, {"class_name": "Dropout", "config": {"p": 0.2, "trainable": false, "name": "dropout_17_mpq_model"}}, {"class_name": "Activation", "config": {"trainable": false, "name": "activation_17_mpq_model", "activation": "relu"}}, {"class_name": "Dense", "config": {"trainable": false, "activation": "softmax", "W_regularizer": null, "name": "dense_34_mpq_model", "W_constraint": null, "init": "glorot_uniform", "activity_regularizer": null, "b_regularizer": null, "bias": true, "b_constraint": null, "input_dim": null, "output_dim": 3}}]}], "mode": "concat", "dot_axes": -1, "concat_axis": -1, "output_shape": null, "name": "merge_1", "mode_type": "raw"}}, {"class_name": "Dense", "config": {"trainable": true, "activation": "linear", "W_regularizer": null, "name": "dense_1", "W_constraint": null, "init": "glorot_uniform", "activity_regularizer": null, "b_regularizer": null, "bias": true, "b_constraint": null, "input_dim": null, "output_dim": 256}}, {"class_name": "Activation", "config": {"trainable": true, "name": "activation_1", "activation": "relu"}}, {"class_name": "Dense", "config": {"trainable": true, "activation": "softmax", "W_regularizer": null, "name": "dense_2", "W_constraint": null, "init": "glorot_uniform", "activity_regularizer": null, "b_regularizer": null, "bias": true, "b_constraint": null, "input_dim": null, "output_dim": 3}}], "keras_version": "1.1.1"}