{"config": [{"config": {"batch_input_shape": [null, 140], "init": "uniform", "W_regularizer": null, "mask_zero": false, "activity_regularizer": null, "input_length": 140, "name": "embedding_1", "output_dim": 52, "W_constraint": null, "input_dim": 1576890, "input_dtype": "int32", "dropout": 0.2, "trainable": true}, "class_name": "Embedding"}, {"config": {"name": "zeropadding1d_1", "trainable": true, "padding": 5}, "class_name": "ZeroPadding1D"}, {"config": {"filter_length": 6, "subsample_length": 1, "bias": true, "W_regularizer": null, "activation": "relu", "nb_filter": 200, "border_mode": "valid", "activity_regularizer": null, "W_constraint": null, "input_length": null, "name": "convolution1d_1", "init": "uniform", "b_constraint": null, "input_dim": null, "b_regularizer": null, "trainable": true}, "class_name": "Convolution1D"}, {"config": {"pool_length": 4, "name": "maxpooling1d_1", "border_mode": "valid", "trainable": true, "stride": 2}, "class_name": "MaxPooling1D"}, {"config": {"filter_length": 6, "subsample_length": 1, "bias": true, "W_regularizer": null, "activation": "relu", "nb_filter": 200, "border_mode": "valid", "activity_regularizer": null, "W_constraint": null, "input_length": null, "name": "convolution1d_2", "init": "uniform", "b_constraint": null, "input_dim": null, "b_regularizer": null, "trainable": true}, "class_name": "Convolution1D"}, {"config": {"pool_length": 66, "name": "maxpooling1d_2", "border_mode": "valid", "trainable": true, "stride": 66}, "class_name": "MaxPooling1D"}, {"config": {"name": "flatten_1", "trainable": true}, "class_name": "Flatten"}, {"config": {"bias": true, "W_regularizer": null, "activation": "linear", "init": "glorot_uniform", "activity_regularizer": null, "name": "dense_1", "output_dim": 200, "W_constraint": null, "b_constraint": null, "input_dim": null, "b_regularizer": null, "trainable": true}, "class_name": "Dense"}, {"config": {"name": "dropout_1", "p": 0.2, "trainable": true}, "class_name": "Dropout"}, {"config": {"name": "activation_1", "trainable": true, "activation": "relu"}, "class_name": "Activation"}, {"config": {"bias": true, "W_regularizer": null, "activation": "softmax", "init": "glorot_uniform", "activity_regularizer": null, "name": "dense_2", "output_dim": 3, "W_constraint": null, "b_constraint": null, "input_dim": null, "b_regularizer": null, "trainable": true}, "class_name": "Dense"}], "keras_version": "1.1.0", "class_name": "Sequential"}