{"keras_version": "1.1.1", "config": [{"config": {"output_shape_type": "raw", "concat_axis": -1, "layers": [{"config": [{"config": {"input_dim": 1062158, "W_regularizer": null, "W_constraint": null, "name": "embedding_1_hul_model", "mask_zero": false, "trainable": true, "dropout": 0.2, "init": "uniform", "input_dtype": "int32", "output_dim": 52, "input_length": 140, "batch_input_shape": [null, 140], "activity_regularizer": null}, "class_name": "Embedding"}, {"config": {"padding": 5, "trainable": true, "name": "zeropadding1d_1_hul_model"}, "class_name": "ZeroPadding1D"}, {"config": {"border_mode": "valid", "W_regularizer": null, "W_constraint": null, "name": "convolution1d_1_hul_model", "activation": "relu", "b_regularizer": null, "bias": true, "subsample_length": 1, "filter_length": 6, "init": "uniform", "trainable": true, "input_dim": null, "input_length": null, "b_constraint": null, "activity_regularizer": null, "nb_filter": 200}, "class_name": "Convolution1D"}, {"config": {"pool_length": 4, "border_mode": "valid", "trainable": true, "stride": 2, "name": "maxpooling1d_1_hul_model"}, "class_name": "MaxPooling1D"}, {"config": {"border_mode": "valid", "W_regularizer": null, "W_constraint": null, "name": "convolution1d_2_hul_model", "activation": "relu", "b_regularizer": null, "bias": true, "subsample_length": 1, "filter_length": 6, "init": "uniform", "trainable": true, "input_dim": null, "input_length": null, "b_constraint": null, "activity_regularizer": null, "nb_filter": 200}, "class_name": "Convolution1D"}, {"config": {"pool_length": 66, "border_mode": "valid", "trainable": true, "stride": 66, "name": "maxpooling1d_2_hul_model"}, "class_name": "MaxPooling1D"}, {"config": {"trainable": true, "name": "flatten_1_hul_model"}, "class_name": "Flatten"}], "class_name": "Sequential"}, {"config": [{"config": {"input_dim": 428669, "W_regularizer": null, "W_constraint": null, "name": "embedding_1_tac_model", "mask_zero": false, "trainable": true, "dropout": 0.2, "init": "uniform", "input_dtype": "int32", "output_dim": 52, "input_length": 140, "batch_input_shape": [null, 140], "activity_regularizer": null}, "class_name": "Embedding"}, {"config": {"padding": 5, "trainable": true, "name": "zeropadding1d_1_tac_model"}, "class_name": "ZeroPadding1D"}, {"config": {"border_mode": "valid", "W_regularizer": null, "W_constraint": null, "name": "convolution1d_1_tac_model", "activation": "relu", "b_regularizer": null, "bias": true, "subsample_length": 1, "filter_length": 6, "init": "uniform", "trainable": true, "input_dim": null, "input_length": null, "b_constraint": null, "activity_regularizer": null, "nb_filter": 200}, "class_name": "Convolution1D"}, {"config": {"pool_length": 4, "border_mode": "valid", "trainable": true, "stride": 2, "name": "maxpooling1d_1_tac_model"}, "class_name": "MaxPooling1D"}, {"config": {"border_mode": "valid", "W_regularizer": null, "W_constraint": null, "name": "convolution1d_2_tac_model", "activation": "relu", "b_regularizer": null, "bias": true, "subsample_length": 1, "filter_length": 6, "init": "uniform", "trainable": true, "input_dim": null, "input_length": null, "b_constraint": null, "activity_regularizer": null, "nb_filter": 200}, "class_name": "Convolution1D"}, {"config": {"pool_length": 66, "border_mode": "valid", "trainable": true, "stride": 66, "name": "maxpooling1d_2_tac_model"}, "class_name": "MaxPooling1D"}, {"config": {"trainable": true, "name": "flatten_1_tac_model"}, "class_name": "Flatten"}], "class_name": "Sequential"}, {"config": [{"config": {"input_dim": 428669, "W_regularizer": null, "W_constraint": null, "name": "embedding_17_mpq_model", "mask_zero": false, "trainable": true, "dropout": 0.2, "init": "uniform", "input_dtype": "int32", "output_dim": 52, "input_length": 140, "batch_input_shape": [null, 140], "activity_regularizer": null}, "class_name": "Embedding"}, {"config": {"padding": 5, "trainable": true, "name": "zeropadding1d_17_mpq_model"}, "class_name": "ZeroPadding1D"}, {"config": {"border_mode": "valid", "W_regularizer": null, "W_constraint": null, "name": "convolution1d_33_mpq_model", "activation": "relu", "b_regularizer": null, "bias": true, "subsample_length": 1, "filter_length": 6, "init": "uniform", "trainable": true, "input_dim": null, "input_length": null, "b_constraint": null, "activity_regularizer": null, "nb_filter": 200}, "class_name": "Convolution1D"}, {"config": {"pool_length": 4, "border_mode": "valid", "trainable": true, "stride": 2, "name": "maxpooling1d_33_mpq_model"}, "class_name": "MaxPooling1D"}, {"config": {"border_mode": "valid", "W_regularizer": null, "W_constraint": null, "name": "convolution1d_34_mpq_model", "activation": "relu", "b_regularizer": null, "bias": true, "subsample_length": 1, "filter_length": 6, "init": "uniform", "trainable": true, "input_dim": null, "input_length": null, "b_constraint": null, "activity_regularizer": null, "nb_filter": 200}, "class_name": "Convolution1D"}, {"config": {"pool_length": 66, "border_mode": "valid", "trainable": true, "stride": 66, "name": "maxpooling1d_34_mpq_model"}, "class_name": "MaxPooling1D"}, {"config": {"trainable": true, "name": "flatten_17_mpq_model"}, "class_name": "Flatten"}], "class_name": "Sequential"}, {"config": [{"config": {"input_dim": 1576890, "W_regularizer": null, "W_constraint": null, "name": "embedding_1_dai_model", "mask_zero": false, "trainable": true, "dropout": 0.2, "init": "uniform", "input_dtype": "int32", "output_dim": 52, "input_length": 140, "batch_input_shape": [null, 140], "activity_regularizer": null}, "class_name": "Embedding"}, {"config": {"padding": 5, "trainable": true, "name": "zeropadding1d_1_dai_model"}, "class_name": "ZeroPadding1D"}, {"config": {"border_mode": "valid", "W_regularizer": null, "W_constraint": null, "name": "convolution1d_1_dai_model", "activation": "relu", "b_regularizer": null, "bias": true, "subsample_length": 1, "filter_length": 6, "init": "uniform", "trainable": true, "input_dim": null, "input_length": null, "b_constraint": null, "activity_regularizer": null, "nb_filter": 200}, "class_name": "Convolution1D"}, {"config": {"pool_length": 4, "border_mode": "valid", "trainable": true, "stride": 2, "name": "maxpooling1d_1_dai_model"}, "class_name": "MaxPooling1D"}, {"config": {"border_mode": "valid", "W_regularizer": null, "W_constraint": null, "name": "convolution1d_2_dai_model", "activation": "relu", "b_regularizer": null, "bias": true, "subsample_length": 1, "filter_length": 6, "init": "uniform", "trainable": true, "input_dim": null, "input_length": null, "b_constraint": null, "activity_regularizer": null, "nb_filter": 200}, "class_name": "Convolution1D"}, {"config": {"pool_length": 66, "border_mode": "valid", "trainable": true, "stride": 66, "name": "maxpooling1d_2_dai_model"}, "class_name": "MaxPooling1D"}, {"config": {"trainable": true, "name": "flatten_1_dai_model"}, "class_name": "Flatten"}], "class_name": "Sequential"}, {"config": [{"config": {"input_dim": 1576890, "W_regularizer": null, "W_constraint": null, "name": "embedding_1_dil_model", "mask_zero": false, "trainable": true, "dropout": 0.2, "init": "uniform", "input_dtype": "int32", "output_dim": 52, "input_length": 140, "batch_input_shape": [null, 140], "activity_regularizer": null}, "class_name": "Embedding"}, {"config": {"padding": 5, "trainable": true, "name": "zeropadding1d_1_dil_model"}, "class_name": "ZeroPadding1D"}, {"config": {"border_mode": "valid", "W_regularizer": null, "W_constraint": null, "name": "convolution1d_1_dil_model", "activation": "relu", "b_regularizer": null, "bias": true, "subsample_length": 1, "filter_length": 6, "init": "uniform", "trainable": true, "input_dim": null, "input_length": null, "b_constraint": null, "activity_regularizer": null, "nb_filter": 200}, "class_name": "Convolution1D"}, {"config": {"pool_length": 4, "border_mode": "valid", "trainable": true, "stride": 2, "name": "maxpooling1d_1_dil_model"}, "class_name": "MaxPooling1D"}, {"config": {"border_mode": "valid", "W_regularizer": null, "W_constraint": null, "name": "convolution1d_2_dil_model", "activation": "relu", "b_regularizer": null, "bias": true, "subsample_length": 1, "filter_length": 6, "init": "uniform", "trainable": true, "input_dim": null, "input_length": null, "b_constraint": null, "activity_regularizer": null, "nb_filter": 200}, "class_name": "Convolution1D"}, {"config": {"pool_length": 66, "border_mode": "valid", "trainable": true, "stride": 66, "name": "maxpooling1d_2_dil_model"}, "class_name": "MaxPooling1D"}, {"config": {"trainable": true, "name": "flatten_1_dil_model"}, "class_name": "Flatten"}], "class_name": "Sequential"}, {"config": [{"config": {"input_dim": 428669, "W_regularizer": null, "W_constraint": null, "name": "embedding_1_semeval_model", "mask_zero": false, "trainable": true, "dropout": 0.2, "init": "uniform", "input_dtype": "int32", "output_dim": 52, "input_length": 140, "batch_input_shape": [null, 140], "activity_regularizer": null}, "class_name": "Embedding"}, {"config": {"padding": 5, "trainable": true, "name": "zeropadding1d_1_semeval_model"}, "class_name": "ZeroPadding1D"}, {"config": {"border_mode": "valid", "W_regularizer": null, "W_constraint": null, "name": "convolution1d_1_semeval_model", "activation": "relu", "b_regularizer": null, "bias": true, "subsample_length": 1, "filter_length": 6, "init": "uniform", "trainable": true, "input_dim": null, "input_length": null, "b_constraint": null, "activity_regularizer": null, "nb_filter": 200}, "class_name": "Convolution1D"}, {"config": {"pool_length": 4, "border_mode": "valid", "trainable": true, "stride": 2, "name": "maxpooling1d_1_semeval_model"}, "class_name": "MaxPooling1D"}, {"config": {"border_mode": "valid", "W_regularizer": null, "W_constraint": null, "name": "convolution1d_2_semeval_model", "activation": "relu", "b_regularizer": null, "bias": true, "subsample_length": 1, "filter_length": 6, "init": "uniform", "trainable": true, "input_dim": null, "input_length": null, "b_constraint": null, "activity_regularizer": null, "nb_filter": 200}, "class_name": "Convolution1D"}, {"config": {"pool_length": 66, "border_mode": "valid", "trainable": true, "stride": 66, "name": "maxpooling1d_2_semeval_model"}, "class_name": "MaxPooling1D"}, {"config": {"trainable": true, "name": "flatten_1_semeval_model"}, "class_name": "Flatten"}], "class_name": "Sequential"}], "mode_type": "raw", "output_shape": null, "dot_axes": -1, "name": "merge_1", "mode": "concat"}, "class_name": "Merge"}, {"config": {"input_dim": null, "W_regularizer": null, "W_constraint": null, "b_regularizer": null, "activation": "linear", "name": "dense_1", "bias": true, "b_constraint": null, "trainable": true, "output_dim": 1028, "activity_regularizer": null, "init": "glorot_uniform"}, "class_name": "Dense"}, {"config": {"activation": "relu", "trainable": true, "name": "activation_1"}, "class_name": "Activation"}, {"config": {"input_dim": null, "W_regularizer": null, "W_constraint": null, "b_regularizer": null, "activation": "softmax", "name": "dense_2", "bias": true, "b_constraint": null, "trainable": true, "output_dim": 3, "activity_regularizer": null, "init": "glorot_uniform"}, "class_name": "Dense"}], "class_name": "Sequential"}