{"config": [{"config": {"concat_axis": -1, "dot_axes": -1, "output_shape": null, "layers": [{"config": [{"config": {"init": "uniform", "W_regularizer": null, "input_dim": 1576890, "mask_zero": false, "name": "embedding_1_dil_model", "dropout": 0.2, "batch_input_shape": [null, 140], "input_dtype": "int32", "W_constraint": null, "input_length": 140, "trainable": true, "output_dim": 52, "activity_regularizer": null}, "class_name": "Embedding"}, {"config": {"trainable": true, "name": "zeropadding1d_1_dil_model", "padding": 5}, "class_name": "ZeroPadding1D"}, {"config": {"init": "uniform", "nb_filter": 200, "input_dim": null, "filter_length": 6, "W_regularizer": null, "name": "convolution1d_1_dil_model", "border_mode": "valid", "activation": "relu", "b_regularizer": null, "input_length": null, "trainable": true, "W_constraint": null, "activity_regularizer": null, "bias": true, "b_constraint": null, "subsample_length": 1}, "class_name": "Convolution1D"}, {"config": {"trainable": true, "border_mode": "valid", "name": "maxpooling1d_1_dil_model", "stride": 2, "pool_length": 4}, "class_name": "MaxPooling1D"}, {"config": {"init": "uniform", "nb_filter": 200, "input_dim": null, "filter_length": 6, "W_regularizer": null, "name": "convolution1d_2_dil_model", "border_mode": "valid", "activation": "relu", "b_regularizer": null, "input_length": null, "trainable": true, "W_constraint": null, "activity_regularizer": null, "bias": true, "b_constraint": null, "subsample_length": 1}, "class_name": "Convolution1D"}, {"config": {"trainable": true, "border_mode": "valid", "name": "maxpooling1d_2_dil_model", "stride": 66, "pool_length": 66}, "class_name": "MaxPooling1D"}, {"config": {"trainable": true, "name": "flatten_1_dil_model"}, "class_name": "Flatten"}], "class_name": "Sequential"}, {"config": [{"config": {"init": "uniform", "W_regularizer": null, "input_dim": 1062158, "mask_zero": false, "name": "embedding_1_hul_model", "dropout": 0.2, "batch_input_shape": [null, 140], "input_dtype": "int32", "W_constraint": null, "input_length": 140, "trainable": true, "output_dim": 52, "activity_regularizer": null}, "class_name": "Embedding"}, {"config": {"trainable": true, "name": "zeropadding1d_1_hul_model", "padding": 5}, "class_name": "ZeroPadding1D"}, {"config": {"init": "uniform", "nb_filter": 200, "input_dim": null, "filter_length": 6, "W_regularizer": null, "name": "convolution1d_1_hul_model", "border_mode": "valid", "activation": "relu", "b_regularizer": null, "input_length": null, "trainable": true, "W_constraint": null, "activity_regularizer": null, "bias": true, "b_constraint": null, "subsample_length": 1}, "class_name": "Convolution1D"}, {"config": {"trainable": true, "border_mode": "valid", "name": "maxpooling1d_1_hul_model", "stride": 2, "pool_length": 4}, "class_name": "MaxPooling1D"}, {"config": {"init": "uniform", "nb_filter": 200, "input_dim": null, "filter_length": 6, "W_regularizer": null, "name": "convolution1d_2_hul_model", "border_mode": "valid", "activation": "relu", "b_regularizer": null, "input_length": null, "trainable": true, "W_constraint": null, "activity_regularizer": null, "bias": true, "b_constraint": null, "subsample_length": 1}, "class_name": "Convolution1D"}, {"config": {"trainable": true, "border_mode": "valid", "name": "maxpooling1d_2_hul_model", "stride": 66, "pool_length": 66}, "class_name": "MaxPooling1D"}, {"config": {"trainable": true, "name": "flatten_1_hul_model"}, "class_name": "Flatten"}], "class_name": "Sequential"}, {"config": [{"config": {"init": "uniform", "W_regularizer": null, "input_dim": 428669, "mask_zero": false, "name": "embedding_1_tac_model", "dropout": 0.2, "batch_input_shape": [null, 140], "input_dtype": "int32", "W_constraint": null, "input_length": 140, "trainable": true, "output_dim": 52, "activity_regularizer": null}, "class_name": "Embedding"}, {"config": {"trainable": true, "name": "zeropadding1d_1_tac_model", "padding": 5}, "class_name": "ZeroPadding1D"}, {"config": {"init": "uniform", "nb_filter": 200, "input_dim": null, "filter_length": 6, "W_regularizer": null, "name": "convolution1d_1_tac_model", "border_mode": "valid", "activation": "relu", "b_regularizer": null, "input_length": null, "trainable": true, "W_constraint": null, "activity_regularizer": null, "bias": true, "b_constraint": null, "subsample_length": 1}, "class_name": "Convolution1D"}, {"config": {"trainable": true, "border_mode": "valid", "name": "maxpooling1d_1_tac_model", "stride": 2, "pool_length": 4}, "class_name": "MaxPooling1D"}, {"config": {"init": "uniform", "nb_filter": 200, "input_dim": null, "filter_length": 6, "W_regularizer": null, "name": "convolution1d_2_tac_model", "border_mode": "valid", "activation": "relu", "b_regularizer": null, "input_length": null, "trainable": true, "W_constraint": null, "activity_regularizer": null, "bias": true, "b_constraint": null, "subsample_length": 1}, "class_name": "Convolution1D"}, {"config": {"trainable": true, "border_mode": "valid", "name": "maxpooling1d_2_tac_model", "stride": 66, "pool_length": 66}, "class_name": "MaxPooling1D"}, {"config": {"trainable": true, "name": "flatten_1_tac_model"}, "class_name": "Flatten"}], "class_name": "Sequential"}, {"config": [{"config": {"init": "uniform", "W_regularizer": null, "input_dim": 1576890, "mask_zero": false, "name": "embedding_1_dai_model", "dropout": 0.2, "batch_input_shape": [null, 140], "input_dtype": "int32", "W_constraint": null, "input_length": 140, "trainable": true, "output_dim": 52, "activity_regularizer": null}, "class_name": "Embedding"}, {"config": {"trainable": true, "name": "zeropadding1d_1_dai_model", "padding": 5}, "class_name": "ZeroPadding1D"}, {"config": {"init": "uniform", "nb_filter": 200, "input_dim": null, "filter_length": 6, "W_regularizer": null, "name": "convolution1d_1_dai_model", "border_mode": "valid", "activation": "relu", "b_regularizer": null, "input_length": null, "trainable": true, "W_constraint": null, "activity_regularizer": null, "bias": true, "b_constraint": null, "subsample_length": 1}, "class_name": "Convolution1D"}, {"config": {"trainable": true, "border_mode": "valid", "name": "maxpooling1d_1_dai_model", "stride": 2, "pool_length": 4}, "class_name": "MaxPooling1D"}, {"config": {"init": "uniform", "nb_filter": 200, "input_dim": null, "filter_length": 6, "W_regularizer": null, "name": "convolution1d_2_dai_model", "border_mode": "valid", "activation": "relu", "b_regularizer": null, "input_length": null, "trainable": true, "W_constraint": null, "activity_regularizer": null, "bias": true, "b_constraint": null, "subsample_length": 1}, "class_name": "Convolution1D"}, {"config": {"trainable": true, "border_mode": "valid", "name": "maxpooling1d_2_dai_model", "stride": 66, "pool_length": 66}, "class_name": "MaxPooling1D"}, {"config": {"trainable": true, "name": "flatten_1_dai_model"}, "class_name": "Flatten"}], "class_name": "Sequential"}, {"config": [{"config": {"init": "uniform", "W_regularizer": null, "input_dim": 428669, "mask_zero": false, "name": "embedding_1_semeval_model", "dropout": 0.2, "batch_input_shape": [null, 140], "input_dtype": "int32", "W_constraint": null, "input_length": 140, "trainable": true, "output_dim": 52, "activity_regularizer": null}, "class_name": "Embedding"}, {"config": {"trainable": true, "name": "zeropadding1d_1_semeval_model", "padding": 5}, "class_name": "ZeroPadding1D"}, {"config": {"init": "uniform", "nb_filter": 200, "input_dim": null, "filter_length": 6, "W_regularizer": null, "name": "convolution1d_1_semeval_model", "border_mode": "valid", "activation": "relu", "b_regularizer": null, "input_length": null, "trainable": true, "W_constraint": null, "activity_regularizer": null, "bias": true, "b_constraint": null, "subsample_length": 1}, "class_name": "Convolution1D"}, {"config": {"trainable": true, "border_mode": "valid", "name": "maxpooling1d_1_semeval_model", "stride": 2, "pool_length": 4}, "class_name": "MaxPooling1D"}, {"config": {"init": "uniform", "nb_filter": 200, "input_dim": null, "filter_length": 6, "W_regularizer": null, "name": "convolution1d_2_semeval_model", "border_mode": "valid", "activation": "relu", "b_regularizer": null, "input_length": null, "trainable": true, "W_constraint": null, "activity_regularizer": null, "bias": true, "b_constraint": null, "subsample_length": 1}, "class_name": "Convolution1D"}, {"config": {"trainable": true, "border_mode": "valid", "name": "maxpooling1d_2_semeval_model", "stride": 66, "pool_length": 66}, "class_name": "MaxPooling1D"}, {"config": {"trainable": true, "name": "flatten_1_semeval_model"}, "class_name": "Flatten"}], "class_name": "Sequential"}, {"config": [{"config": {"init": "uniform", "W_regularizer": null, "input_dim": 428669, "mask_zero": false, "name": "embedding_17_mpq_model", "dropout": 0.2, "batch_input_shape": [null, 140], "input_dtype": "int32", "W_constraint": null, "input_length": 140, "trainable": true, "output_dim": 52, "activity_regularizer": null}, "class_name": "Embedding"}, {"config": {"trainable": true, "name": "zeropadding1d_17_mpq_model", "padding": 5}, "class_name": "ZeroPadding1D"}, {"config": {"init": "uniform", "nb_filter": 200, "input_dim": null, "filter_length": 6, "W_regularizer": null, "name": "convolution1d_33_mpq_model", "border_mode": "valid", "activation": "relu", "b_regularizer": null, "input_length": null, "trainable": true, "W_constraint": null, "activity_regularizer": null, "bias": true, "b_constraint": null, "subsample_length": 1}, "class_name": "Convolution1D"}, {"config": {"trainable": true, "border_mode": "valid", "name": "maxpooling1d_33_mpq_model", "stride": 2, "pool_length": 4}, "class_name": "MaxPooling1D"}, {"config": {"init": "uniform", "nb_filter": 200, "input_dim": null, "filter_length": 6, "W_regularizer": null, "name": "convolution1d_34_mpq_model", "border_mode": "valid", "activation": "relu", "b_regularizer": null, "input_length": null, "trainable": true, "W_constraint": null, "activity_regularizer": null, "bias": true, "b_constraint": null, "subsample_length": 1}, "class_name": "Convolution1D"}, {"config": {"trainable": true, "border_mode": "valid", "name": "maxpooling1d_34_mpq_model", "stride": 66, "pool_length": 66}, "class_name": "MaxPooling1D"}, {"config": {"trainable": true, "name": "flatten_17_mpq_model"}, "class_name": "Flatten"}], "class_name": "Sequential"}], "mode": "concat", "mode_type": "raw", "name": "merge_1", "output_shape_type": "raw"}, "class_name": "Merge"}, {"config": {"init": "glorot_uniform", "W_regularizer": null, "input_dim": null, "name": "dense_1", "activation": "linear", "b_regularizer": null, "W_constraint": null, "trainable": true, "output_dim": 1028, "activity_regularizer": null, "bias": true, "b_constraint": null}, "class_name": "Dense"}, {"config": {"trainable": true, "name": "activation_1", "activation": "relu"}, "class_name": "Activation"}, {"config": {"init": "glorot_uniform", "W_regularizer": null, "input_dim": null, "name": "dense_2", "activation": "softmax", "b_regularizer": null, "W_constraint": null, "trainable": true, "output_dim": 3, "activity_regularizer": null, "bias": true, "b_constraint": null}, "class_name": "Dense"}], "class_name": "Sequential", "keras_version": "1.1.1"}