{"keras_version": "1.1.0", "config": [{"config": {"input_dtype": "int32", "batch_input_shape": [null, 140], "W_regularizer": null, "activity_regularizer": null, "input_length": 140, "mask_zero": false, "output_dim": 52, "W_constraint": null, "input_dim": 2950660, "trainable": true, "name": "embedding_1", "dropout": 0.2, "init": "uniform"}, "class_name": "Embedding"}, {"config": {"trainable": true, "name": "zeropadding1d_1", "padding": 5}, "class_name": "ZeroPadding1D"}, {"config": {"name": "convolution1d_1", "W_regularizer": null, "activity_regularizer": null, "subsample_length": 1, "input_length": null, "border_mode": "valid", "activation": "relu", "bias": true, "W_constraint": null, "b_regularizer": null, "nb_filter": 200, "input_dim": null, "trainable": true, "filter_length": 6, "b_constraint": null, "init": "uniform"}, "class_name": "Convolution1D"}, {"config": {"pool_length": 4, "trainable": true, "stride": 2, "name": "maxpooling1d_1", "border_mode": "valid"}, "class_name": "MaxPooling1D"}, {"config": {"name": "convolution1d_2", "W_regularizer": null, "activity_regularizer": null, "subsample_length": 1, "input_length": null, "border_mode": "valid", "activation": "relu", "bias": true, "W_constraint": null, "b_regularizer": null, "nb_filter": 200, "input_dim": null, "trainable": true, "filter_length": 6, "b_constraint": null, "init": "uniform"}, "class_name": "Convolution1D"}, {"config": {"pool_length": 66, "trainable": true, "stride": 66, "name": "maxpooling1d_2", "border_mode": "valid"}, "class_name": "MaxPooling1D"}, {"config": {"trainable": true, "name": "flatten_1"}, "class_name": "Flatten"}, {"config": {"W_regularizer": null, "activity_regularizer": null, "activation": "linear", "output_dim": 200, "bias": true, "W_constraint": null, "b_regularizer": null, "input_dim": null, "trainable": true, "name": "dense_1", "b_constraint": null, "init": "glorot_uniform"}, "class_name": "Dense"}, {"config": {"trainable": true, "name": "dropout_1", "p": 0.2}, "class_name": "Dropout"}, {"config": {"trainable": true, "name": "activation_1", "activation": "relu"}, "class_name": "Activation"}, {"config": {"W_regularizer": null, "activity_regularizer": null, "activation": "softmax", "output_dim": 3, "bias": true, "W_constraint": null, "b_regularizer": null, "input_dim": null, "trainable": true, "name": "dense_2", "b_constraint": null, "init": "glorot_uniform"}, "class_name": "Dense"}], "class_name": "Sequential"}