{"keras_version": "1.1.1", "class_name": "Sequential", "config": [{"class_name": "Merge", "config": {"output_shape": null, "output_shape_type": "raw", "mode": "concat", "mode_type": "raw", "concat_axis": -1, "layers": [{"class_name": "Sequential", "config": [{"class_name": "Embedding", "config": {"init": "uniform", "input_length": 140, "trainable": true, "batch_input_shape": [null, 140], "name": "embedding_17_mpq_model", "activity_regularizer": null, "W_regularizer": null, "mask_zero": false, "input_dtype": "int32", "output_dim": 52, "input_dim": 428669, "W_constraint": null, "dropout": 0.2}}, {"class_name": "ZeroPadding1D", "config": {"padding": 5, "trainable": true, "name": "zeropadding1d_17_mpq_model"}}, {"class_name": "Convolution1D", "config": {"b_regularizer": null, "init": "uniform", "input_length": null, "border_mode": "valid", "b_constraint": null, "trainable": true, "activity_regularizer": null, "W_regularizer": null, "bias": true, "subsample_length": 1, "W_constraint": null, "filter_length": 6, "input_dim": null, "name": "convolution1d_33_mpq_model", "nb_filter": 200, "activation": "relu"}}, {"class_name": "MaxPooling1D", "config": {"stride": 2, "pool_length": 4, "border_mode": "valid", "trainable": true, "name": "maxpooling1d_33_mpq_model"}}, {"class_name": "Convolution1D", "config": {"b_regularizer": null, "init": "uniform", "input_length": null, "border_mode": "valid", "b_constraint": null, "trainable": true, "activity_regularizer": null, "W_regularizer": null, "bias": true, "subsample_length": 1, "W_constraint": null, "filter_length": 6, "input_dim": null, "name": "convolution1d_34_mpq_model", "nb_filter": 200, "activation": "relu"}}, {"class_name": "MaxPooling1D", "config": {"stride": 66, "pool_length": 66, "border_mode": "valid", "trainable": true, "name": "maxpooling1d_34_mpq_model"}}, {"class_name": "Flatten", "config": {"trainable": true, "name": "flatten_17_mpq_model"}}]}, {"class_name": "Sequential", "config": [{"class_name": "Embedding", "config": {"init": "uniform", "input_length": 140, "trainable": true, "batch_input_shape": [null, 140], "name": "embedding_1_dai_model", "activity_regularizer": null, "W_regularizer": null, "mask_zero": false, "input_dtype": "int32", "output_dim": 52, "input_dim": 1576890, "W_constraint": null, "dropout": 0.2}}, {"class_name": "ZeroPadding1D", "config": {"padding": 5, "trainable": true, "name": "zeropadding1d_1_dai_model"}}, {"class_name": "Convolution1D", "config": {"b_regularizer": null, "init": "uniform", "input_length": null, "border_mode": "valid", "b_constraint": null, "trainable": true, "activity_regularizer": null, "W_regularizer": null, "bias": true, "subsample_length": 1, "W_constraint": null, "filter_length": 6, "input_dim": null, "name": "convolution1d_1_dai_model", "nb_filter": 200, "activation": "relu"}}, {"class_name": "MaxPooling1D", "config": {"stride": 2, "pool_length": 4, "border_mode": "valid", "trainable": true, "name": "maxpooling1d_1_dai_model"}}, {"class_name": "Convolution1D", "config": {"b_regularizer": null, "init": "uniform", "input_length": null, "border_mode": "valid", "b_constraint": null, "trainable": true, "activity_regularizer": null, "W_regularizer": null, "bias": true, "subsample_length": 1, "W_constraint": null, "filter_length": 6, "input_dim": null, "name": "convolution1d_2_dai_model", "nb_filter": 200, "activation": "relu"}}, {"class_name": "MaxPooling1D", "config": {"stride": 66, "pool_length": 66, "border_mode": "valid", "trainable": true, "name": "maxpooling1d_2_dai_model"}}, {"class_name": "Flatten", "config": {"trainable": true, "name": "flatten_1_dai_model"}}]}, {"class_name": "Sequential", "config": [{"class_name": "Embedding", "config": {"init": "uniform", "input_length": 140, "trainable": true, "batch_input_shape": [null, 140], "name": "embedding_1_hul_model", "activity_regularizer": null, "W_regularizer": null, "mask_zero": false, "input_dtype": "int32", "output_dim": 52, "input_dim": 1062158, "W_constraint": null, "dropout": 0.2}}, {"class_name": "ZeroPadding1D", "config": {"padding": 5, "trainable": true, "name": "zeropadding1d_1_hul_model"}}, {"class_name": "Convolution1D", "config": {"b_regularizer": null, "init": "uniform", "input_length": null, "border_mode": "valid", "b_constraint": null, "trainable": true, "activity_regularizer": null, "W_regularizer": null, "bias": true, "subsample_length": 1, "W_constraint": null, "filter_length": 6, "input_dim": null, "name": "convolution1d_1_hul_model", "nb_filter": 200, "activation": "relu"}}, {"class_name": "MaxPooling1D", "config": {"stride": 2, "pool_length": 4, "border_mode": "valid", "trainable": true, "name": "maxpooling1d_1_hul_model"}}, {"class_name": "Convolution1D", "config": {"b_regularizer": null, "init": "uniform", "input_length": null, "border_mode": "valid", "b_constraint": null, "trainable": true, "activity_regularizer": null, "W_regularizer": null, "bias": true, "subsample_length": 1, "W_constraint": null, "filter_length": 6, "input_dim": null, "name": "convolution1d_2_hul_model", "nb_filter": 200, "activation": "relu"}}, {"class_name": "MaxPooling1D", "config": {"stride": 66, "pool_length": 66, "border_mode": "valid", "trainable": true, "name": "maxpooling1d_2_hul_model"}}, {"class_name": "Flatten", "config": {"trainable": true, "name": "flatten_1_hul_model"}}]}, {"class_name": "Sequential", "config": [{"class_name": "Embedding", "config": {"init": "uniform", "input_length": 140, "trainable": true, "batch_input_shape": [null, 140], "name": "embedding_1_dil_model", "activity_regularizer": null, "W_regularizer": null, "mask_zero": false, "input_dtype": "int32", "output_dim": 52, "input_dim": 1576890, "W_constraint": null, "dropout": 0.2}}, {"class_name": "ZeroPadding1D", "config": {"padding": 5, "trainable": true, "name": "zeropadding1d_1_dil_model"}}, {"class_name": "Convolution1D", "config": {"b_regularizer": null, "init": "uniform", "input_length": null, "border_mode": "valid", "b_constraint": null, "trainable": true, "activity_regularizer": null, "W_regularizer": null, "bias": true, "subsample_length": 1, "W_constraint": null, "filter_length": 6, "input_dim": null, "name": "convolution1d_1_dil_model", "nb_filter": 200, "activation": "relu"}}, {"class_name": "MaxPooling1D", "config": {"stride": 2, "pool_length": 4, "border_mode": "valid", "trainable": true, "name": "maxpooling1d_1_dil_model"}}, {"class_name": "Convolution1D", "config": {"b_regularizer": null, "init": "uniform", "input_length": null, "border_mode": "valid", "b_constraint": null, "trainable": true, "activity_regularizer": null, "W_regularizer": null, "bias": true, "subsample_length": 1, "W_constraint": null, "filter_length": 6, "input_dim": null, "name": "convolution1d_2_dil_model", "nb_filter": 200, "activation": "relu"}}, {"class_name": "MaxPooling1D", "config": {"stride": 66, "pool_length": 66, "border_mode": "valid", "trainable": true, "name": "maxpooling1d_2_dil_model"}}, {"class_name": "Flatten", "config": {"trainable": true, "name": "flatten_1_dil_model"}}]}, {"class_name": "Sequential", "config": [{"class_name": "Embedding", "config": {"init": "uniform", "input_length": 140, "trainable": true, "batch_input_shape": [null, 140], "name": "embedding_1_semeval_model", "activity_regularizer": null, "W_regularizer": null, "mask_zero": false, "input_dtype": "int32", "output_dim": 52, "input_dim": 428669, "W_constraint": null, "dropout": 0.2}}, {"class_name": "ZeroPadding1D", "config": {"padding": 5, "trainable": true, "name": "zeropadding1d_1_semeval_model"}}, {"class_name": "Convolution1D", "config": {"b_regularizer": null, "init": "uniform", "input_length": null, "border_mode": "valid", "b_constraint": null, "trainable": true, "activity_regularizer": null, "W_regularizer": null, "bias": true, "subsample_length": 1, "W_constraint": null, "filter_length": 6, "input_dim": null, "name": "convolution1d_1_semeval_model", "nb_filter": 200, "activation": "relu"}}, {"class_name": "MaxPooling1D", "config": {"stride": 2, "pool_length": 4, "border_mode": "valid", "trainable": true, "name": "maxpooling1d_1_semeval_model"}}, {"class_name": "Convolution1D", "config": {"b_regularizer": null, "init": "uniform", "input_length": null, "border_mode": "valid", "b_constraint": null, "trainable": true, "activity_regularizer": null, "W_regularizer": null, "bias": true, "subsample_length": 1, "W_constraint": null, "filter_length": 6, "input_dim": null, "name": "convolution1d_2_semeval_model", "nb_filter": 200, "activation": "relu"}}, {"class_name": "MaxPooling1D", "config": {"stride": 66, "pool_length": 66, "border_mode": "valid", "trainable": true, "name": "maxpooling1d_2_semeval_model"}}, {"class_name": "Flatten", "config": {"trainable": true, "name": "flatten_1_semeval_model"}}]}, {"class_name": "Sequential", "config": [{"class_name": "Embedding", "config": {"init": "uniform", "input_length": 140, "trainable": true, "batch_input_shape": [null, 140], "name": "embedding_1_tac_model", "activity_regularizer": null, "W_regularizer": null, "mask_zero": false, "input_dtype": "int32", "output_dim": 52, "input_dim": 428669, "W_constraint": null, "dropout": 0.2}}, {"class_name": "ZeroPadding1D", "config": {"padding": 5, "trainable": true, "name": "zeropadding1d_1_tac_model"}}, {"class_name": "Convolution1D", "config": {"b_regularizer": null, "init": "uniform", "input_length": null, "border_mode": "valid", "b_constraint": null, "trainable": true, "activity_regularizer": null, "W_regularizer": null, "bias": true, "subsample_length": 1, "W_constraint": null, "filter_length": 6, "input_dim": null, "name": "convolution1d_1_tac_model", "nb_filter": 200, "activation": "relu"}}, {"class_name": "MaxPooling1D", "config": {"stride": 2, "pool_length": 4, "border_mode": "valid", "trainable": true, "name": "maxpooling1d_1_tac_model"}}, {"class_name": "Convolution1D", "config": {"b_regularizer": null, "init": "uniform", "input_length": null, "border_mode": "valid", "b_constraint": null, "trainable": true, "activity_regularizer": null, "W_regularizer": null, "bias": true, "subsample_length": 1, "W_constraint": null, "filter_length": 6, "input_dim": null, "name": "convolution1d_2_tac_model", "nb_filter": 200, "activation": "relu"}}, {"class_name": "MaxPooling1D", "config": {"stride": 66, "pool_length": 66, "border_mode": "valid", "trainable": true, "name": "maxpooling1d_2_tac_model"}}, {"class_name": "Flatten", "config": {"trainable": true, "name": "flatten_1_tac_model"}}]}], "dot_axes": -1, "name": "merge_1"}}, {"class_name": "Dense", "config": {"b_regularizer": null, "init": "glorot_uniform", "trainable": true, "W_regularizer": null, "name": "dense_1", "activity_regularizer": null, "b_constraint": null, "bias": true, "W_constraint": null, "output_dim": 1028, "input_dim": null, "activation": "linear"}}, {"class_name": "Activation", "config": {"trainable": true, "activation": "relu", "name": "activation_1"}}, {"class_name": "Dense", "config": {"b_regularizer": null, "init": "glorot_uniform", "trainable": true, "W_regularizer": null, "name": "dense_2", "activity_regularizer": null, "b_constraint": null, "bias": true, "W_constraint": null, "output_dim": 3, "input_dim": null, "activation": "softmax"}}]}