{"keras_version": "1.1.0", "config": [{"config": {"input_dim": 2950660, "W_regularizer": null, "input_dtype": "int32", "W_constraint": null, "trainable": true, "batch_input_shape": [null, 140], "name": "embedding_1", "input_length": 140, "mask_zero": false, "init": "uniform", "activity_regularizer": null, "output_dim": 52, "dropout": 0.2}, "class_name": "Embedding"}, {"config": {"padding": 5, "trainable": true, "name": "zeropadding1d_1"}, "class_name": "ZeroPadding1D"}, {"config": {"W_regularizer": null, "input_dim": null, "b_regularizer": null, "W_constraint": null, "trainable": true, "b_constraint": null, "filter_length": 6, "nb_filter": 200, "activation": "relu", "input_length": null, "bias": true, "name": "convolution1d_1", "init": "uniform", "activity_regularizer": null, "subsample_length": 1, "border_mode": "valid"}, "class_name": "Convolution1D"}, {"config": {"pool_length": 4, "name": "maxpooling1d_1", "stride": 2, "border_mode": "valid", "trainable": true}, "class_name": "MaxPooling1D"}, {"config": {"W_regularizer": null, "input_dim": null, "b_regularizer": null, "W_constraint": null, "trainable": true, "b_constraint": null, "filter_length": 6, "nb_filter": 200, "activation": "relu", "input_length": null, "bias": true, "name": "convolution1d_2", "init": "uniform", "activity_regularizer": null, "subsample_length": 1, "border_mode": "valid"}, "class_name": "Convolution1D"}, {"config": {"pool_length": 66, "name": "maxpooling1d_2", "stride": 66, "border_mode": "valid", "trainable": true}, "class_name": "MaxPooling1D"}, {"config": {"trainable": true, "name": "flatten_1"}, "class_name": "Flatten"}, {"config": {"W_regularizer": null, "input_dim": null, "b_regularizer": null, "W_constraint": null, "trainable": true, "name": "dense_1", "activation": "linear", "b_constraint": null, "bias": true, "init": "glorot_uniform", "activity_regularizer": null, "output_dim": 200}, "class_name": "Dense"}, {"config": {"name": "dropout_1", "trainable": true, "p": 0.2}, "class_name": "Dropout"}, {"config": {"trainable": true, "activation": "relu", "name": "activation_1"}, "class_name": "Activation"}, {"config": {"W_regularizer": null, "input_dim": null, "b_regularizer": null, "W_constraint": null, "trainable": true, "name": "dense_2", "activation": "softmax", "b_constraint": null, "bias": true, "init": "glorot_uniform", "activity_regularizer": null, "output_dim": 3}, "class_name": "Dense"}], "class_name": "Sequential"}