{"class_name": "Sequential", "config": [{"class_name": "Merge", "config": {"output_shape_type": "raw", "layers": [{"class_name": "Sequential", "config": [{"class_name": "Embedding", "config": {"output_dim": 52, "input_dim": 1576890, "name": "embedding_1_dai_model", "dropout": 0.2, "init": "uniform", "activity_regularizer": null, "mask_zero": false, "input_dtype": "int32", "input_length": 140, "batch_input_shape": [null, 140], "trainable": true, "W_regularizer": null, "W_constraint": null}}, {"class_name": "ZeroPadding1D", "config": {"trainable": true, "padding": 5, "name": "zeropadding1d_1_dai_model"}}, {"class_name": "Convolution1D", "config": {"activation": "relu", "filter_length": 6, "name": "convolution1d_1_dai_model", "b_constraint": null, "trainable": true, "b_regularizer": null, "activity_regularizer": null, "subsample_length": 1, "W_regularizer": null, "input_length": null, "bias": true, "nb_filter": 200, "init": "uniform", "border_mode": "valid", "W_constraint": null, "input_dim": null}}, {"class_name": "MaxPooling1D", "config": {"pool_length": 4, "trainable": true, "stride": 2, "name": "maxpooling1d_1_dai_model", "border_mode": "valid"}}, {"class_name": "Convolution1D", "config": {"activation": "relu", "filter_length": 6, "name": "convolution1d_2_dai_model", "b_constraint": null, "trainable": true, "b_regularizer": null, "activity_regularizer": null, "subsample_length": 1, "W_regularizer": null, "input_length": null, "bias": true, "nb_filter": 200, "init": "uniform", "border_mode": "valid", "W_constraint": null, "input_dim": null}}]}, {"class_name": "Sequential", "config": [{"class_name": "Embedding", "config": {"output_dim": 52, "input_dim": 1576890, "name": "embedding_1_dil_model", "dropout": 0.2, "init": "uniform", "activity_regularizer": null, "mask_zero": false, "input_dtype": "int32", "input_length": 140, "batch_input_shape": [null, 140], "trainable": true, "W_regularizer": null, "W_constraint": null}}, {"class_name": "ZeroPadding1D", "config": {"trainable": true, "padding": 5, "name": "zeropadding1d_1_dil_model"}}, {"class_name": "Convolution1D", "config": {"activation": "relu", "filter_length": 6, "name": "convolution1d_1_dil_model", "b_constraint": null, "trainable": true, "b_regularizer": null, "activity_regularizer": null, "subsample_length": 1, "W_regularizer": null, "input_length": null, "bias": true, "nb_filter": 200, "init": "uniform", "border_mode": "valid", "W_constraint": null, "input_dim": null}}, {"class_name": "MaxPooling1D", "config": {"pool_length": 4, "trainable": true, "stride": 2, "name": "maxpooling1d_1_dil_model", "border_mode": "valid"}}, {"class_name": "Convolution1D", "config": {"activation": "relu", "filter_length": 6, "name": "convolution1d_2_dil_model", "b_constraint": null, "trainable": true, "b_regularizer": null, "activity_regularizer": null, "subsample_length": 1, "W_regularizer": null, "input_length": null, "bias": true, "nb_filter": 200, "init": "uniform", "border_mode": "valid", "W_constraint": null, "input_dim": null}}]}, {"class_name": "Sequential", "config": [{"class_name": "Embedding", "config": {"output_dim": 52, "input_dim": 428669, "name": "embedding_1_tac_model", "dropout": 0.2, "init": "uniform", "activity_regularizer": null, "mask_zero": false, "input_dtype": "int32", "input_length": 140, "batch_input_shape": [null, 140], "trainable": true, "W_regularizer": null, "W_constraint": null}}, {"class_name": "ZeroPadding1D", "config": {"trainable": true, "padding": 5, "name": "zeropadding1d_1_tac_model"}}, {"class_name": "Convolution1D", "config": {"activation": "relu", "filter_length": 6, "name": "convolution1d_1_tac_model", "b_constraint": null, "trainable": true, "b_regularizer": null, "activity_regularizer": null, "subsample_length": 1, "W_regularizer": null, "input_length": null, "bias": true, "nb_filter": 200, "init": "uniform", "border_mode": "valid", "W_constraint": null, "input_dim": null}}, {"class_name": "MaxPooling1D", "config": {"pool_length": 4, "trainable": true, "stride": 2, "name": "maxpooling1d_1_tac_model", "border_mode": "valid"}}, {"class_name": "Convolution1D", "config": {"activation": "relu", "filter_length": 6, "name": "convolution1d_2_tac_model", "b_constraint": null, "trainable": true, "b_regularizer": null, "activity_regularizer": null, "subsample_length": 1, "W_regularizer": null, "input_length": null, "bias": true, "nb_filter": 200, "init": "uniform", "border_mode": "valid", "W_constraint": null, "input_dim": null}}]}, {"class_name": "Sequential", "config": [{"class_name": "Embedding", "config": {"output_dim": 52, "input_dim": 1062158, "name": "embedding_1_hul_model", "dropout": 0.2, "init": "uniform", "activity_regularizer": null, "mask_zero": false, "input_dtype": "int32", "input_length": 140, "batch_input_shape": [null, 140], "trainable": true, "W_regularizer": null, "W_constraint": null}}, {"class_name": "ZeroPadding1D", "config": {"trainable": true, "padding": 5, "name": "zeropadding1d_1_hul_model"}}, {"class_name": "Convolution1D", "config": {"activation": "relu", "filter_length": 6, "name": "convolution1d_1_hul_model", "b_constraint": null, "trainable": true, "b_regularizer": null, "activity_regularizer": null, "subsample_length": 1, "W_regularizer": null, "input_length": null, "bias": true, "nb_filter": 200, "init": "uniform", "border_mode": "valid", "W_constraint": null, "input_dim": null}}, {"class_name": "MaxPooling1D", "config": {"pool_length": 4, "trainable": true, "stride": 2, "name": "maxpooling1d_1_hul_model", "border_mode": "valid"}}, {"class_name": "Convolution1D", "config": {"activation": "relu", "filter_length": 6, "name": "convolution1d_2_hul_model", "b_constraint": null, "trainable": true, "b_regularizer": null, "activity_regularizer": null, "subsample_length": 1, "W_regularizer": null, "input_length": null, "bias": true, "nb_filter": 200, "init": "uniform", "border_mode": "valid", "W_constraint": null, "input_dim": null}}]}, {"class_name": "Sequential", "config": [{"class_name": "Embedding", "config": {"output_dim": 52, "input_dim": 428669, "name": "embedding_1_semeval_model", "dropout": 0.2, "init": "uniform", "activity_regularizer": null, "mask_zero": false, "input_dtype": "int32", "input_length": 140, "batch_input_shape": [null, 140], "trainable": true, "W_regularizer": null, "W_constraint": null}}, {"class_name": "ZeroPadding1D", "config": {"trainable": true, "padding": 5, "name": "zeropadding1d_1_semeval_model"}}, {"class_name": "Convolution1D", "config": {"activation": "relu", "filter_length": 6, "name": "convolution1d_1_semeval_model", "b_constraint": null, "trainable": true, "b_regularizer": null, "activity_regularizer": null, "subsample_length": 1, "W_regularizer": null, "input_length": null, "bias": true, "nb_filter": 200, "init": "uniform", "border_mode": "valid", "W_constraint": null, "input_dim": null}}, {"class_name": "MaxPooling1D", "config": {"pool_length": 4, "trainable": true, "stride": 2, "name": "maxpooling1d_1_semeval_model", "border_mode": "valid"}}, {"class_name": "Convolution1D", "config": {"activation": "relu", "filter_length": 6, "name": "convolution1d_2_semeval_model", "b_constraint": null, "trainable": true, "b_regularizer": null, "activity_regularizer": null, "subsample_length": 1, "W_regularizer": null, "input_length": null, "bias": true, "nb_filter": 200, "init": "uniform", "border_mode": "valid", "W_constraint": null, "input_dim": null}}]}, {"class_name": "Sequential", "config": [{"class_name": "Embedding", "config": {"output_dim": 52, "input_dim": 428669, "name": "embedding_17_mpq_model", "dropout": 0.2, "init": "uniform", "activity_regularizer": null, "mask_zero": false, "input_dtype": "int32", "input_length": 140, "batch_input_shape": [null, 140], "trainable": true, "W_regularizer": null, "W_constraint": null}}, {"class_name": "ZeroPadding1D", "config": {"trainable": true, "padding": 5, "name": "zeropadding1d_17_mpq_model"}}, {"class_name": "Convolution1D", "config": {"activation": "relu", "filter_length": 6, "name": "convolution1d_33_mpq_model", "b_constraint": null, "trainable": true, "b_regularizer": null, "activity_regularizer": null, "subsample_length": 1, "W_regularizer": null, "input_length": null, "bias": true, "nb_filter": 200, "init": "uniform", "border_mode": "valid", "W_constraint": null, "input_dim": null}}, {"class_name": "MaxPooling1D", "config": {"pool_length": 4, "trainable": true, "stride": 2, "name": "maxpooling1d_33_mpq_model", "border_mode": "valid"}}, {"class_name": "Convolution1D", "config": {"activation": "relu", "filter_length": 6, "name": "convolution1d_34_mpq_model", "b_constraint": null, "trainable": true, "b_regularizer": null, "activity_regularizer": null, "subsample_length": 1, "W_regularizer": null, "input_length": null, "bias": true, "nb_filter": 200, "init": "uniform", "border_mode": "valid", "W_constraint": null, "input_dim": null}}]}], "output_shape": null, "name": "merge_1", "dot_axes": -1, "mode_type": "raw", "mode": "concat", "concat_axis": -1}}, {"class_name": "Flatten", "config": {"trainable": true, "name": "flatten_1"}}, {"class_name": "Dense", "config": {"output_dim": 200, "activation": "linear", "input_dim": null, "name": "dense_1", "b_constraint": null, "trainable": true, "b_regularizer": null, "activity_regularizer": null, "W_regularizer": null, "bias": true, "init": "glorot_uniform", "W_constraint": null}}, {"class_name": "Dropout", "config": {"trainable": true, "p": 0.2, "name": "dropout_1"}}, {"class_name": "Activation", "config": {"trainable": true, "name": "activation_1", "activation": "relu"}}, {"class_name": "Dense", "config": {"output_dim": 3, "activation": "softmax", "input_dim": null, "name": "dense_2", "b_constraint": null, "trainable": true, "b_regularizer": null, "activity_regularizer": null, "W_regularizer": null, "bias": true, "init": "glorot_uniform", "W_constraint": null}}], "keras_version": "1.1.1"}