{"keras_version": "1.1.1", "class_name": "Sequential", "config": [{"class_name": "Merge", "config": {"mode_type": "raw", "mode": "concat", "concat_axis": -1, "layers": [{"class_name": "Sequential", "config": [{"class_name": "Embedding", "config": {"mask_zero": false, "trainable": true, "W_constraint": null, "activity_regularizer": null, "input_length": 140, "init": "uniform", "W_regularizer": null, "name": "embedding_1_dai_model", "output_dim": 52, "batch_input_shape": [null, 140], "input_dim": 1576890, "input_dtype": "int32", "dropout": 0.2}}, {"class_name": "ZeroPadding1D", "config": {"trainable": true, "padding": 5, "name": "zeropadding1d_1_dai_model"}}, {"class_name": "Convolution1D", "config": {"border_mode": "valid", "trainable": true, "W_constraint": null, "b_constraint": null, "filter_length": 6, "activity_regularizer": null, "input_length": null, "init": "uniform", "subsample_length": 1, "W_regularizer": null, "name": "convolution1d_1_dai_model", "bias": true, "b_regularizer": null, "input_dim": null, "nb_filter": 200, "activation": "relu"}}, {"class_name": "MaxPooling1D", "config": {"border_mode": "valid", "pool_length": 4, "trainable": true, "name": "maxpooling1d_1_dai_model", "stride": 2}}, {"class_name": "Convolution1D", "config": {"border_mode": "valid", "trainable": true, "W_constraint": null, "b_constraint": null, "filter_length": 6, "activity_regularizer": null, "input_length": null, "init": "uniform", "subsample_length": 1, "W_regularizer": null, "name": "convolution1d_2_dai_model", "bias": true, "b_regularizer": null, "input_dim": null, "nb_filter": 200, "activation": "relu"}}]}, {"class_name": "Sequential", "config": [{"class_name": "Embedding", "config": {"mask_zero": false, "trainable": true, "W_constraint": null, "activity_regularizer": null, "input_length": 140, "init": "uniform", "W_regularizer": null, "name": "embedding_1_dil_model", "output_dim": 52, "batch_input_shape": [null, 140], "input_dim": 1576890, "input_dtype": "int32", "dropout": 0.2}}, {"class_name": "ZeroPadding1D", "config": {"trainable": true, "padding": 5, "name": "zeropadding1d_1_dil_model"}}, {"class_name": "Convolution1D", "config": {"border_mode": "valid", "trainable": true, "W_constraint": null, "b_constraint": null, "filter_length": 6, "activity_regularizer": null, "input_length": null, "init": "uniform", "subsample_length": 1, "W_regularizer": null, "name": "convolution1d_1_dil_model", "bias": true, "b_regularizer": null, "input_dim": null, "nb_filter": 200, "activation": "relu"}}, {"class_name": "MaxPooling1D", "config": {"border_mode": "valid", "pool_length": 4, "trainable": true, "name": "maxpooling1d_1_dil_model", "stride": 2}}, {"class_name": "Convolution1D", "config": {"border_mode": "valid", "trainable": true, "W_constraint": null, "b_constraint": null, "filter_length": 6, "activity_regularizer": null, "input_length": null, "init": "uniform", "subsample_length": 1, "W_regularizer": null, "name": "convolution1d_2_dil_model", "bias": true, "b_regularizer": null, "input_dim": null, "nb_filter": 200, "activation": "relu"}}]}, {"class_name": "Sequential", "config": [{"class_name": "Embedding", "config": {"mask_zero": false, "trainable": true, "W_constraint": null, "activity_regularizer": null, "input_length": 140, "init": "uniform", "W_regularizer": null, "name": "embedding_1_hul_model", "output_dim": 52, "batch_input_shape": [null, 140], "input_dim": 1062158, "input_dtype": "int32", "dropout": 0.2}}, {"class_name": "ZeroPadding1D", "config": {"trainable": true, "padding": 5, "name": "zeropadding1d_1_hul_model"}}, {"class_name": "Convolution1D", "config": {"border_mode": "valid", "trainable": true, "W_constraint": null, "b_constraint": null, "filter_length": 6, "activity_regularizer": null, "input_length": null, "init": "uniform", "subsample_length": 1, "W_regularizer": null, "name": "convolution1d_1_hul_model", "bias": true, "b_regularizer": null, "input_dim": null, "nb_filter": 200, "activation": "relu"}}, {"class_name": "MaxPooling1D", "config": {"border_mode": "valid", "pool_length": 4, "trainable": true, "name": "maxpooling1d_1_hul_model", "stride": 2}}, {"class_name": "Convolution1D", "config": {"border_mode": "valid", "trainable": true, "W_constraint": null, "b_constraint": null, "filter_length": 6, "activity_regularizer": null, "input_length": null, "init": "uniform", "subsample_length": 1, "W_regularizer": null, "name": "convolution1d_2_hul_model", "bias": true, "b_regularizer": null, "input_dim": null, "nb_filter": 200, "activation": "relu"}}]}, {"class_name": "Sequential", "config": [{"class_name": "Embedding", "config": {"mask_zero": false, "trainable": true, "W_constraint": null, "activity_regularizer": null, "input_length": 140, "init": "uniform", "W_regularizer": null, "name": "embedding_1_semeval_model", "output_dim": 52, "batch_input_shape": [null, 140], "input_dim": 1576890, "input_dtype": "int32", "dropout": 0.2}}, {"class_name": "ZeroPadding1D", "config": {"trainable": true, "padding": 5, "name": "zeropadding1d_1_semeval_model"}}, {"class_name": "Convolution1D", "config": {"border_mode": "valid", "trainable": true, "W_constraint": null, "b_constraint": null, "filter_length": 6, "activity_regularizer": null, "input_length": null, "init": "uniform", "subsample_length": 1, "W_regularizer": null, "name": "convolution1d_1_semeval_model", "bias": true, "b_regularizer": null, "input_dim": null, "nb_filter": 200, "activation": "relu"}}, {"class_name": "MaxPooling1D", "config": {"border_mode": "valid", "pool_length": 4, "trainable": true, "name": "maxpooling1d_1_semeval_model", "stride": 2}}, {"class_name": "Convolution1D", "config": {"border_mode": "valid", "trainable": true, "W_constraint": null, "b_constraint": null, "filter_length": 6, "activity_regularizer": null, "input_length": null, "init": "uniform", "subsample_length": 1, "W_regularizer": null, "name": "convolution1d_2_semeval_model", "bias": true, "b_regularizer": null, "input_dim": null, "nb_filter": 200, "activation": "relu"}}]}, {"class_name": "Sequential", "config": [{"class_name": "Embedding", "config": {"mask_zero": false, "trainable": true, "W_constraint": null, "activity_regularizer": null, "input_length": 140, "init": "uniform", "W_regularizer": null, "name": "embedding_1_tac_model", "output_dim": 52, "batch_input_shape": [null, 140], "input_dim": 428669, "input_dtype": "int32", "dropout": 0.2}}, {"class_name": "ZeroPadding1D", "config": {"trainable": true, "padding": 5, "name": "zeropadding1d_1_tac_model"}}, {"class_name": "Convolution1D", "config": {"border_mode": "valid", "trainable": true, "W_constraint": null, "b_constraint": null, "filter_length": 6, "activity_regularizer": null, "input_length": null, "init": "uniform", "subsample_length": 1, "W_regularizer": null, "name": "convolution1d_1_tac_model", "bias": true, "b_regularizer": null, "input_dim": null, "nb_filter": 200, "activation": "relu"}}, {"class_name": "MaxPooling1D", "config": {"border_mode": "valid", "pool_length": 4, "trainable": true, "name": "maxpooling1d_1_tac_model", "stride": 2}}, {"class_name": "Convolution1D", "config": {"border_mode": "valid", "trainable": true, "W_constraint": null, "b_constraint": null, "filter_length": 6, "activity_regularizer": null, "input_length": null, "init": "uniform", "subsample_length": 1, "W_regularizer": null, "name": "convolution1d_2_tac_model", "bias": true, "b_regularizer": null, "input_dim": null, "nb_filter": 200, "activation": "relu"}}]}], "output_shape_type": "raw", "dot_axes": -1, "output_shape": null, "name": "merge_1"}}, {"class_name": "MaxPooling1D", "config": {"border_mode": "valid", "pool_length": 4, "trainable": true, "name": "maxpooling1d_1", "stride": 2}}, {"class_name": "Convolution1D", "config": {"border_mode": "valid", "trainable": true, "W_constraint": null, "b_constraint": null, "filter_length": 6, "activity_regularizer": null, "input_length": null, "input_dim": null, "subsample_length": 1, "W_regularizer": null, "name": "convolution1d_1", "bias": true, "b_regularizer": null, "init": "uniform", "nb_filter": 200, "activation": "relu"}}, {"class_name": "MaxPooling1D", "config": {"border_mode": "valid", "pool_length": 4, "trainable": true, "name": "maxpooling1d_2", "stride": 2}}, {"class_name": "Flatten", "config": {"trainable": true, "name": "flatten_1"}}, {"class_name": "Dense", "config": {"trainable": true, "W_constraint": null, "b_constraint": null, "activity_regularizer": null, "init": "glorot_uniform", "W_regularizer": null, "name": "dense_1", "output_dim": 200, "bias": true, "b_regularizer": null, "input_dim": null, "activation": "linear"}}, {"class_name": "Dropout", "config": {"p": 0.2, "trainable": true, "name": "dropout_1"}}, {"class_name": "Activation", "config": {"trainable": true, "activation": "relu", "name": "activation_1"}}, {"class_name": "Dense", "config": {"trainable": true, "W_constraint": null, "b_constraint": null, "activity_regularizer": null, "init": "glorot_uniform", "W_regularizer": null, "name": "dense_2", "output_dim": 3, "bias": true, "b_regularizer": null, "input_dim": null, "activation": "softmax"}}]}