{"class_name": "Sequential", "keras_version": "1.1.1", "config": [{"class_name": "Merge", "config": {"concat_axis": -1, "name": "merge_1", "output_shape": null, "layers": [{"class_name": "Sequential", "config": [{"class_name": "Embedding", "config": {"W_constraint": null, "init": "uniform", "trainable": true, "output_dim": 52, "activity_regularizer": null, "input_length": 140, "input_dtype": "int32", "mask_zero": false, "dropout": 0.2, "name": "embedding_1_dai_model", "W_regularizer": null, "batch_input_shape": [null, 140], "input_dim": 1576890}}, {"class_name": "ZeroPadding1D", "config": {"name": "zeropadding1d_1_dai_model", "trainable": true, "padding": 5}}, {"class_name": "Convolution1D", "config": {"W_constraint": null, "init": "uniform", "border_mode": "valid", "b_regularizer": null, "trainable": true, "activation": "relu", "bias": true, "nb_filter": 200, "input_length": null, "W_regularizer": null, "filter_length": 6, "name": "convolution1d_1_dai_model", "b_constraint": null, "activity_regularizer": null, "subsample_length": 1, "input_dim": null}}, {"class_name": "MaxPooling1D", "config": {"pool_length": 4, "name": "maxpooling1d_1_dai_model", "trainable": true, "border_mode": "valid", "stride": 2}}, {"class_name": "Convolution1D", "config": {"W_constraint": null, "init": "uniform", "border_mode": "valid", "b_regularizer": null, "trainable": true, "activation": "relu", "bias": true, "nb_filter": 200, "input_length": null, "W_regularizer": null, "filter_length": 6, "name": "convolution1d_2_dai_model", "b_constraint": null, "activity_regularizer": null, "subsample_length": 1, "input_dim": null}}]}, {"class_name": "Sequential", "config": [{"class_name": "Embedding", "config": {"W_constraint": null, "init": "uniform", "trainable": true, "output_dim": 52, "activity_regularizer": null, "input_length": 140, "input_dtype": "int32", "mask_zero": false, "dropout": 0.2, "name": "embedding_1_dil_model", "W_regularizer": null, "batch_input_shape": [null, 140], "input_dim": 1576890}}, {"class_name": "ZeroPadding1D", "config": {"name": "zeropadding1d_1_dil_model", "trainable": true, "padding": 5}}, {"class_name": "Convolution1D", "config": {"W_constraint": null, "init": "uniform", "border_mode": "valid", "b_regularizer": null, "trainable": true, "activation": "relu", "bias": true, "nb_filter": 200, "input_length": null, "W_regularizer": null, "filter_length": 6, "name": "convolution1d_1_dil_model", "b_constraint": null, "activity_regularizer": null, "subsample_length": 1, "input_dim": null}}, {"class_name": "MaxPooling1D", "config": {"pool_length": 4, "name": "maxpooling1d_1_dil_model", "trainable": true, "border_mode": "valid", "stride": 2}}, {"class_name": "Convolution1D", "config": {"W_constraint": null, "init": "uniform", "border_mode": "valid", "b_regularizer": null, "trainable": true, "activation": "relu", "bias": true, "nb_filter": 200, "input_length": null, "W_regularizer": null, "filter_length": 6, "name": "convolution1d_2_dil_model", "b_constraint": null, "activity_regularizer": null, "subsample_length": 1, "input_dim": null}}]}, {"class_name": "Sequential", "config": [{"class_name": "Embedding", "config": {"W_constraint": null, "init": "uniform", "trainable": true, "output_dim": 52, "activity_regularizer": null, "input_length": 140, "input_dtype": "int32", "mask_zero": false, "dropout": 0.2, "name": "embedding_1_hul_model", "W_regularizer": null, "batch_input_shape": [null, 140], "input_dim": 1062158}}, {"class_name": "ZeroPadding1D", "config": {"name": "zeropadding1d_1_hul_model", "trainable": true, "padding": 5}}, {"class_name": "Convolution1D", "config": {"W_constraint": null, "init": "uniform", "border_mode": "valid", "b_regularizer": null, "trainable": true, "activation": "relu", "bias": true, "nb_filter": 200, "input_length": null, "W_regularizer": null, "filter_length": 6, "name": "convolution1d_1_hul_model", "b_constraint": null, "activity_regularizer": null, "subsample_length": 1, "input_dim": null}}, {"class_name": "MaxPooling1D", "config": {"pool_length": 4, "name": "maxpooling1d_1_hul_model", "trainable": true, "border_mode": "valid", "stride": 2}}, {"class_name": "Convolution1D", "config": {"W_constraint": null, "init": "uniform", "border_mode": "valid", "b_regularizer": null, "trainable": true, "activation": "relu", "bias": true, "nb_filter": 200, "input_length": null, "W_regularizer": null, "filter_length": 6, "name": "convolution1d_2_hul_model", "b_constraint": null, "activity_regularizer": null, "subsample_length": 1, "input_dim": null}}]}, {"class_name": "Sequential", "config": [{"class_name": "Embedding", "config": {"W_constraint": null, "init": "uniform", "trainable": true, "output_dim": 52, "activity_regularizer": null, "input_length": 140, "input_dtype": "int32", "mask_zero": false, "dropout": 0.2, "name": "embedding_1_semeval_model", "W_regularizer": null, "batch_input_shape": [null, 140], "input_dim": 1576890}}, {"class_name": "ZeroPadding1D", "config": {"name": "zeropadding1d_1_semeval_model", "trainable": true, "padding": 5}}, {"class_name": "Convolution1D", "config": {"W_constraint": null, "init": "uniform", "border_mode": "valid", "b_regularizer": null, "trainable": true, "activation": "relu", "bias": true, "nb_filter": 200, "input_length": null, "W_regularizer": null, "filter_length": 6, "name": "convolution1d_1_semeval_model", "b_constraint": null, "activity_regularizer": null, "subsample_length": 1, "input_dim": null}}, {"class_name": "MaxPooling1D", "config": {"pool_length": 4, "name": "maxpooling1d_1_semeval_model", "trainable": true, "border_mode": "valid", "stride": 2}}, {"class_name": "Convolution1D", "config": {"W_constraint": null, "init": "uniform", "border_mode": "valid", "b_regularizer": null, "trainable": true, "activation": "relu", "bias": true, "nb_filter": 200, "input_length": null, "W_regularizer": null, "filter_length": 6, "name": "convolution1d_2_semeval_model", "b_constraint": null, "activity_regularizer": null, "subsample_length": 1, "input_dim": null}}]}], "output_shape_type": "raw", "dot_axes": -1, "mode_type": "raw", "mode": "concat"}}, {"class_name": "MaxPooling1D", "config": {"pool_length": 4, "name": "maxpooling1d_1", "trainable": true, "border_mode": "valid", "stride": 2}}, {"class_name": "Convolution1D", "config": {"W_constraint": null, "init": "uniform", "b_regularizer": null, "trainable": true, "activation": "relu", "bias": true, "nb_filter": 200, "input_length": null, "border_mode": "valid", "W_regularizer": null, "filter_length": 6, "name": "convolution1d_1", "b_constraint": null, "activity_regularizer": null, "subsample_length": 1, "input_dim": null}}, {"class_name": "MaxPooling1D", "config": {"pool_length": 4, "name": "maxpooling1d_2", "trainable": true, "border_mode": "valid", "stride": 2}}, {"class_name": "Flatten", "config": {"name": "flatten_1", "trainable": true}}, {"class_name": "Dense", "config": {"W_constraint": null, "init": "glorot_uniform", "b_regularizer": null, "b_constraint": null, "output_dim": 200, "activation": "linear", "bias": true, "activity_regularizer": null, "W_regularizer": null, "trainable": true, "name": "dense_1", "input_dim": null}}, {"class_name": "Dropout", "config": {"name": "dropout_1", "p": 0.2, "trainable": true}}, {"class_name": "Activation", "config": {"name": "activation_1", "trainable": true, "activation": "relu"}}, {"class_name": "Dense", "config": {"W_constraint": null, "init": "glorot_uniform", "b_regularizer": null, "b_constraint": null, "output_dim": 3, "activation": "softmax", "bias": true, "activity_regularizer": null, "W_regularizer": null, "trainable": true, "name": "dense_2", "input_dim": null}}]}