{"config": [{"config": {"init": "uniform", "input_dim": 1576890, "input_dtype": "int32", "name": "embedding_3", "output_dim": 52, "dropout": 0.2, "activity_regularizer": null, "input_length": 140, "trainable": true, "W_regularizer": null, "mask_zero": false, "batch_input_shape": [null, 140], "W_constraint": null}, "class_name": "Embedding"}, {"config": {"name": "zeropadding1d_3", "trainable": true, "padding": 5}, "class_name": "ZeroPadding1D"}, {"config": {"bias": true, "name": "convolution1d_9", "input_dim": null, "border_mode": "valid", "W_regularizer": null, "activity_regularizer": null, "input_length": null, "trainable": true, "filter_length": 6, "b_regularizer": null, "b_constraint": null, "activation": "relu", "subsample_length": 1, "init": "uniform", "nb_filter": 200, "W_constraint": null}, "class_name": "Convolution1D"}, {"config": {"pool_length": 4, "border_mode": "valid", "trainable": true, "name": "maxpooling1d_9", "stride": 2}, "class_name": "MaxPooling1D"}, {"config": {"bias": true, "name": "convolution1d_10", "input_dim": null, "border_mode": "valid", "W_regularizer": null, "activity_regularizer": null, "input_length": null, "trainable": true, "filter_length": 6, "b_regularizer": null, "b_constraint": null, "activation": "relu", "subsample_length": 1, "init": "uniform", "nb_filter": 200, "W_constraint": null}, "class_name": "Convolution1D"}, {"config": {"pool_length": 4, "border_mode": "valid", "trainable": true, "name": "maxpooling1d_10", "stride": 2}, "class_name": "MaxPooling1D"}, {"config": {"bias": true, "name": "convolution1d_11", "input_dim": null, "border_mode": "valid", "W_regularizer": null, "activity_regularizer": null, "input_length": null, "trainable": true, "filter_length": 6, "b_regularizer": null, "b_constraint": null, "activation": "relu", "subsample_length": 1, "init": "uniform", "nb_filter": 200, "W_constraint": null}, "class_name": "Convolution1D"}, {"config": {"pool_length": 4, "border_mode": "valid", "trainable": true, "name": "maxpooling1d_11", "stride": 2}, "class_name": "MaxPooling1D"}, {"config": {"bias": true, "name": "convolution1d_12", "input_dim": null, "border_mode": "valid", "W_regularizer": null, "activity_regularizer": null, "input_length": null, "trainable": true, "filter_length": 6, "b_regularizer": null, "b_constraint": null, "activation": "relu", "subsample_length": 1, "init": "uniform", "nb_filter": 200, "W_constraint": null}, "class_name": "Convolution1D"}, {"config": {"pool_length": 7, "border_mode": "valid", "trainable": true, "name": "maxpooling1d_12", "stride": 7}, "class_name": "MaxPooling1D"}, {"config": {"name": "flatten_3", "trainable": true}, "class_name": "Flatten"}, {"config": {"W_regularizer": null, "init": "glorot_uniform", "input_dim": null, "name": "dense_5", "output_dim": 200, "bias": true, "activation": "linear", "activity_regularizer": null, "trainable": true, "W_constraint": null, "b_constraint": null, "b_regularizer": null}, "class_name": "Dense"}, {"config": {"name": "dropout_3", "trainable": true, "p": 0.2}, "class_name": "Dropout"}, {"config": {"name": "activation_3", "trainable": true, "activation": "relu"}, "class_name": "Activation"}, {"config": {"W_regularizer": null, "init": "glorot_uniform", "input_dim": null, "name": "dense_6", "output_dim": 3, "bias": true, "activation": "softmax", "activity_regularizer": null, "trainable": true, "W_constraint": null, "b_constraint": null, "b_regularizer": null}, "class_name": "Dense"}], "class_name": "Sequential", "keras_version": "1.1.0"}