{"class_name": "Sequential", "config": [{"class_name": "Merge", "config": {"layers": [{"class_name": "Sequential", "config": [{"class_name": "Embedding", "config": {"input_length": 140, "batch_input_shape": [null, 140], "activity_regularizer": null, "W_constraint": null, "name": "embedding_1_tac_model", "trainable": true, "input_dim": 428669, "mask_zero": false, "W_regularizer": null, "dropout": 0.2, "input_dtype": "int32", "init": "uniform", "output_dim": 52}}, {"class_name": "ZeroPadding1D", "config": {"padding": 5, "name": "zeropadding1d_1_tac_model", "trainable": true}}, {"class_name": "Convolution1D", "config": {"b_constraint": null, "input_length": null, "activity_regularizer": null, "W_constraint": null, "name": "convolution1d_1_tac_model", "border_mode": "valid", "input_dim": null, "trainable": true, "nb_filter": 200, "W_regularizer": null, "b_regularizer": null, "subsample_length": 1, "init": "uniform", "bias": true, "activation": "relu", "filter_length": 6}}, {"class_name": "MaxPooling1D", "config": {"pool_length": 4, "border_mode": "valid", "name": "maxpooling1d_1_tac_model", "trainable": true, "stride": 2}}, {"class_name": "Convolution1D", "config": {"b_constraint": null, "input_length": null, "activity_regularizer": null, "W_constraint": null, "name": "convolution1d_2_tac_model", "border_mode": "valid", "input_dim": null, "trainable": true, "nb_filter": 200, "W_regularizer": null, "b_regularizer": null, "subsample_length": 1, "init": "uniform", "bias": true, "activation": "relu", "filter_length": 6}}, {"class_name": "MaxPooling1D", "config": {"pool_length": 66, "border_mode": "valid", "name": "maxpooling1d_2_tac_model", "trainable": true, "stride": 66}}, {"class_name": "Flatten", "config": {"name": "flatten_1_tac_model", "trainable": true}}]}, {"class_name": "Sequential", "config": [{"class_name": "Embedding", "config": {"input_length": 140, "batch_input_shape": [null, 140], "activity_regularizer": null, "W_constraint": null, "name": "embedding_1_semeval_model", "trainable": true, "input_dim": 428669, "mask_zero": false, "W_regularizer": null, "dropout": 0.2, "input_dtype": "int32", "init": "uniform", "output_dim": 52}}, {"class_name": "ZeroPadding1D", "config": {"padding": 5, "name": "zeropadding1d_1_semeval_model", "trainable": true}}, {"class_name": "Convolution1D", "config": {"b_constraint": null, "input_length": null, "activity_regularizer": null, "W_constraint": null, "name": "convolution1d_1_semeval_model", "border_mode": "valid", "input_dim": null, "trainable": true, "nb_filter": 200, "W_regularizer": null, "b_regularizer": null, "subsample_length": 1, "init": "uniform", "bias": true, "activation": "relu", "filter_length": 6}}, {"class_name": "MaxPooling1D", "config": {"pool_length": 4, "border_mode": "valid", "name": "maxpooling1d_1_semeval_model", "trainable": true, "stride": 2}}, {"class_name": "Convolution1D", "config": {"b_constraint": null, "input_length": null, "activity_regularizer": null, "W_constraint": null, "name": "convolution1d_2_semeval_model", "border_mode": "valid", "input_dim": null, "trainable": true, "nb_filter": 200, "W_regularizer": null, "b_regularizer": null, "subsample_length": 1, "init": "uniform", "bias": true, "activation": "relu", "filter_length": 6}}, {"class_name": "MaxPooling1D", "config": {"pool_length": 66, "border_mode": "valid", "name": "maxpooling1d_2_semeval_model", "trainable": true, "stride": 66}}, {"class_name": "Flatten", "config": {"name": "flatten_1_semeval_model", "trainable": true}}]}, {"class_name": "Sequential", "config": [{"class_name": "Embedding", "config": {"input_length": 140, "batch_input_shape": [null, 140], "activity_regularizer": null, "W_constraint": null, "name": "embedding_1_dai_model", "trainable": true, "input_dim": 1576890, "mask_zero": false, "W_regularizer": null, "dropout": 0.2, "input_dtype": "int32", "init": "uniform", "output_dim": 52}}, {"class_name": "ZeroPadding1D", "config": {"padding": 5, "name": "zeropadding1d_1_dai_model", "trainable": true}}, {"class_name": "Convolution1D", "config": {"b_constraint": null, "input_length": null, "activity_regularizer": null, "W_constraint": null, "name": "convolution1d_1_dai_model", "border_mode": "valid", "input_dim": null, "trainable": true, "nb_filter": 200, "W_regularizer": null, "b_regularizer": null, "subsample_length": 1, "init": "uniform", "bias": true, "activation": "relu", "filter_length": 6}}, {"class_name": "MaxPooling1D", "config": {"pool_length": 4, "border_mode": "valid", "name": "maxpooling1d_1_dai_model", "trainable": true, "stride": 2}}, {"class_name": "Convolution1D", "config": {"b_constraint": null, "input_length": null, "activity_regularizer": null, "W_constraint": null, "name": "convolution1d_2_dai_model", "border_mode": "valid", "input_dim": null, "trainable": true, "nb_filter": 200, "W_regularizer": null, "b_regularizer": null, "subsample_length": 1, "init": "uniform", "bias": true, "activation": "relu", "filter_length": 6}}, {"class_name": "MaxPooling1D", "config": {"pool_length": 66, "border_mode": "valid", "name": "maxpooling1d_2_dai_model", "trainable": true, "stride": 66}}, {"class_name": "Flatten", "config": {"name": "flatten_1_dai_model", "trainable": true}}]}, {"class_name": "Sequential", "config": [{"class_name": "Embedding", "config": {"input_length": 140, "batch_input_shape": [null, 140], "activity_regularizer": null, "W_constraint": null, "name": "embedding_1_dil_model", "trainable": true, "input_dim": 1576890, "mask_zero": false, "W_regularizer": null, "dropout": 0.2, "input_dtype": "int32", "init": "uniform", "output_dim": 52}}, {"class_name": "ZeroPadding1D", "config": {"padding": 5, "name": "zeropadding1d_1_dil_model", "trainable": true}}, {"class_name": "Convolution1D", "config": {"b_constraint": null, "input_length": null, "activity_regularizer": null, "W_constraint": null, "name": "convolution1d_1_dil_model", "border_mode": "valid", "input_dim": null, "trainable": true, "nb_filter": 200, "W_regularizer": null, "b_regularizer": null, "subsample_length": 1, "init": "uniform", "bias": true, "activation": "relu", "filter_length": 6}}, {"class_name": "MaxPooling1D", "config": {"pool_length": 4, "border_mode": "valid", "name": "maxpooling1d_1_dil_model", "trainable": true, "stride": 2}}, {"class_name": "Convolution1D", "config": {"b_constraint": null, "input_length": null, "activity_regularizer": null, "W_constraint": null, "name": "convolution1d_2_dil_model", "border_mode": "valid", "input_dim": null, "trainable": true, "nb_filter": 200, "W_regularizer": null, "b_regularizer": null, "subsample_length": 1, "init": "uniform", "bias": true, "activation": "relu", "filter_length": 6}}, {"class_name": "MaxPooling1D", "config": {"pool_length": 66, "border_mode": "valid", "name": "maxpooling1d_2_dil_model", "trainable": true, "stride": 66}}, {"class_name": "Flatten", "config": {"name": "flatten_1_dil_model", "trainable": true}}]}, {"class_name": "Sequential", "config": [{"class_name": "Embedding", "config": {"input_length": 140, "batch_input_shape": [null, 140], "activity_regularizer": null, "W_constraint": null, "name": "embedding_17_mpq_model", "trainable": true, "input_dim": 428669, "mask_zero": false, "W_regularizer": null, "dropout": 0.2, "input_dtype": "int32", "init": "uniform", "output_dim": 52}}, {"class_name": "ZeroPadding1D", "config": {"padding": 5, "name": "zeropadding1d_17_mpq_model", "trainable": true}}, {"class_name": "Convolution1D", "config": {"b_constraint": null, "input_length": null, "activity_regularizer": null, "W_constraint": null, "name": "convolution1d_33_mpq_model", "border_mode": "valid", "input_dim": null, "trainable": true, "nb_filter": 200, "W_regularizer": null, "b_regularizer": null, "subsample_length": 1, "init": "uniform", "bias": true, "activation": "relu", "filter_length": 6}}, {"class_name": "MaxPooling1D", "config": {"pool_length": 4, "border_mode": "valid", "name": "maxpooling1d_33_mpq_model", "trainable": true, "stride": 2}}, {"class_name": "Convolution1D", "config": {"b_constraint": null, "input_length": null, "activity_regularizer": null, "W_constraint": null, "name": "convolution1d_34_mpq_model", "border_mode": "valid", "input_dim": null, "trainable": true, "nb_filter": 200, "W_regularizer": null, "b_regularizer": null, "subsample_length": 1, "init": "uniform", "bias": true, "activation": "relu", "filter_length": 6}}, {"class_name": "MaxPooling1D", "config": {"pool_length": 66, "border_mode": "valid", "name": "maxpooling1d_34_mpq_model", "trainable": true, "stride": 66}}, {"class_name": "Flatten", "config": {"name": "flatten_17_mpq_model", "trainable": true}}]}, {"class_name": "Sequential", "config": [{"class_name": "Embedding", "config": {"input_length": 140, "batch_input_shape": [null, 140], "activity_regularizer": null, "W_constraint": null, "name": "embedding_1_hul_model", "trainable": true, "input_dim": 1062158, "mask_zero": false, "W_regularizer": null, "dropout": 0.2, "input_dtype": "int32", "init": "uniform", "output_dim": 52}}, {"class_name": "ZeroPadding1D", "config": {"padding": 5, "name": "zeropadding1d_1_hul_model", "trainable": true}}, {"class_name": "Convolution1D", "config": {"b_constraint": null, "input_length": null, "activity_regularizer": null, "W_constraint": null, "name": "convolution1d_1_hul_model", "border_mode": "valid", "input_dim": null, "trainable": true, "nb_filter": 200, "W_regularizer": null, "b_regularizer": null, "subsample_length": 1, "init": "uniform", "bias": true, "activation": "relu", "filter_length": 6}}, {"class_name": "MaxPooling1D", "config": {"pool_length": 4, "border_mode": "valid", "name": "maxpooling1d_1_hul_model", "trainable": true, "stride": 2}}, {"class_name": "Convolution1D", "config": {"b_constraint": null, "input_length": null, "activity_regularizer": null, "W_constraint": null, "name": "convolution1d_2_hul_model", "border_mode": "valid", "input_dim": null, "trainable": true, "nb_filter": 200, "W_regularizer": null, "b_regularizer": null, "subsample_length": 1, "init": "uniform", "bias": true, "activation": "relu", "filter_length": 6}}, {"class_name": "MaxPooling1D", "config": {"pool_length": 66, "border_mode": "valid", "name": "maxpooling1d_2_hul_model", "trainable": true, "stride": 66}}, {"class_name": "Flatten", "config": {"name": "flatten_1_hul_model", "trainable": true}}]}], "concat_axis": -1, "mode_type": "raw", "mode": "concat", "output_shape": null, "output_shape_type": "raw", "dot_axes": -1, "name": "merge_1"}}, {"class_name": "Dense", "config": {"b_constraint": null, "activity_regularizer": null, "W_constraint": null, "name": "dense_1", "trainable": true, "b_regularizer": null, "W_regularizer": null, "input_dim": null, "init": "glorot_uniform", "output_dim": 1028, "bias": true, "activation": "linear"}}, {"class_name": "Activation", "config": {"name": "activation_1", "trainable": true, "activation": "relu"}}, {"class_name": "Dense", "config": {"b_constraint": null, "activity_regularizer": null, "W_constraint": null, "name": "dense_2", "trainable": true, "b_regularizer": null, "W_regularizer": null, "input_dim": null, "init": "glorot_uniform", "output_dim": 3, "bias": true, "activation": "softmax"}}], "keras_version": "1.1.1"}