{"class_name": "Sequential", "keras_version": "1.1.1", "config": [{"class_name": "Merge", "config": {"layers": [{"class_name": "Sequential", "config": [{"class_name": "Embedding", "config": {"mask_zero": false, "activity_regularizer": null, "batch_input_shape": [null, 140], "W_regularizer": null, "input_dim": 1576890, "name": "embedding_1_dil_model", "init": "uniform", "dropout": 0.2, "input_dtype": "int32", "output_dim": 52, "W_constraint": null, "input_length": 140, "trainable": true}}, {"class_name": "ZeroPadding1D", "config": {"padding": 5, "name": "zeropadding1d_1_dil_model", "trainable": true}}, {"class_name": "Convolution1D", "config": {"b_regularizer": null, "activation": "relu", "input_dim": null, "subsample_length": 1, "border_mode": "valid", "W_regularizer": null, "bias": true, "filter_length": 6, "nb_filter": 200, "init": "uniform", "input_length": null, "name": "convolution1d_1_dil_model", "activity_regularizer": null, "W_constraint": null, "b_constraint": null, "trainable": true}}, {"class_name": "MaxPooling1D", "config": {"stride": 2, "pool_length": 4, "name": "maxpooling1d_1_dil_model", "border_mode": "valid", "trainable": true}}, {"class_name": "Convolution1D", "config": {"b_regularizer": null, "activation": "relu", "input_dim": null, "subsample_length": 1, "border_mode": "valid", "W_regularizer": null, "bias": true, "filter_length": 6, "nb_filter": 200, "init": "uniform", "input_length": null, "name": "convolution1d_2_dil_model", "activity_regularizer": null, "W_constraint": null, "b_constraint": null, "trainable": true}}]}, {"class_name": "Sequential", "config": [{"class_name": "Embedding", "config": {"mask_zero": false, "activity_regularizer": null, "batch_input_shape": [null, 140], "W_regularizer": null, "input_dim": 1062158, "name": "embedding_1_hul_model", "init": "uniform", "dropout": 0.2, "input_dtype": "int32", "output_dim": 52, "W_constraint": null, "input_length": 140, "trainable": true}}, {"class_name": "ZeroPadding1D", "config": {"padding": 5, "name": "zeropadding1d_1_hul_model", "trainable": true}}, {"class_name": "Convolution1D", "config": {"b_regularizer": null, "activation": "relu", "input_dim": null, "subsample_length": 1, "border_mode": "valid", "W_regularizer": null, "bias": true, "filter_length": 6, "nb_filter": 200, "init": "uniform", "input_length": null, "name": "convolution1d_1_hul_model", "activity_regularizer": null, "W_constraint": null, "b_constraint": null, "trainable": true}}, {"class_name": "MaxPooling1D", "config": {"stride": 2, "pool_length": 4, "name": "maxpooling1d_1_hul_model", "border_mode": "valid", "trainable": true}}, {"class_name": "Convolution1D", "config": {"b_regularizer": null, "activation": "relu", "input_dim": null, "subsample_length": 1, "border_mode": "valid", "W_regularizer": null, "bias": true, "filter_length": 6, "nb_filter": 200, "init": "uniform", "input_length": null, "name": "convolution1d_2_hul_model", "activity_regularizer": null, "W_constraint": null, "b_constraint": null, "trainable": true}}]}, {"class_name": "Sequential", "config": [{"class_name": "Embedding", "config": {"mask_zero": false, "activity_regularizer": null, "batch_input_shape": [null, 140], "W_regularizer": null, "input_dim": 1576890, "name": "embedding_1_dai_model", "init": "uniform", "dropout": 0.2, "input_dtype": "int32", "output_dim": 52, "W_constraint": null, "input_length": 140, "trainable": true}}, {"class_name": "ZeroPadding1D", "config": {"padding": 5, "name": "zeropadding1d_1_dai_model", "trainable": true}}, {"class_name": "Convolution1D", "config": {"b_regularizer": null, "activation": "relu", "input_dim": null, "subsample_length": 1, "border_mode": "valid", "W_regularizer": null, "bias": true, "filter_length": 6, "nb_filter": 200, "init": "uniform", "input_length": null, "name": "convolution1d_1_dai_model", "activity_regularizer": null, "W_constraint": null, "b_constraint": null, "trainable": true}}, {"class_name": "MaxPooling1D", "config": {"stride": 2, "pool_length": 4, "name": "maxpooling1d_1_dai_model", "border_mode": "valid", "trainable": true}}, {"class_name": "Convolution1D", "config": {"b_regularizer": null, "activation": "relu", "input_dim": null, "subsample_length": 1, "border_mode": "valid", "W_regularizer": null, "bias": true, "filter_length": 6, "nb_filter": 200, "init": "uniform", "input_length": null, "name": "convolution1d_2_dai_model", "activity_regularizer": null, "W_constraint": null, "b_constraint": null, "trainable": true}}]}, {"class_name": "Sequential", "config": [{"class_name": "Embedding", "config": {"mask_zero": false, "activity_regularizer": null, "batch_input_shape": [null, 140], "W_regularizer": null, "input_dim": 428669, "name": "embedding_1_semeval_model", "init": "uniform", "dropout": 0.2, "input_dtype": "int32", "output_dim": 52, "W_constraint": null, "input_length": 140, "trainable": true}}, {"class_name": "ZeroPadding1D", "config": {"padding": 5, "name": "zeropadding1d_1_semeval_model", "trainable": true}}, {"class_name": "Convolution1D", "config": {"b_regularizer": null, "activation": "relu", "input_dim": null, "subsample_length": 1, "border_mode": "valid", "W_regularizer": null, "bias": true, "filter_length": 6, "nb_filter": 200, "init": "uniform", "input_length": null, "name": "convolution1d_1_semeval_model", "activity_regularizer": null, "W_constraint": null, "b_constraint": null, "trainable": true}}, {"class_name": "MaxPooling1D", "config": {"stride": 2, "pool_length": 4, "name": "maxpooling1d_1_semeval_model", "border_mode": "valid", "trainable": true}}, {"class_name": "Convolution1D", "config": {"b_regularizer": null, "activation": "relu", "input_dim": null, "subsample_length": 1, "border_mode": "valid", "W_regularizer": null, "bias": true, "filter_length": 6, "nb_filter": 200, "init": "uniform", "input_length": null, "name": "convolution1d_2_semeval_model", "activity_regularizer": null, "W_constraint": null, "b_constraint": null, "trainable": true}}]}, {"class_name": "Sequential", "config": [{"class_name": "Embedding", "config": {"mask_zero": false, "activity_regularizer": null, "batch_input_shape": [null, 140], "W_regularizer": null, "input_dim": 428669, "name": "embedding_1_tac_model", "init": "uniform", "dropout": 0.2, "input_dtype": "int32", "output_dim": 52, "W_constraint": null, "input_length": 140, "trainable": true}}, {"class_name": "ZeroPadding1D", "config": {"padding": 5, "name": "zeropadding1d_1_tac_model", "trainable": true}}, {"class_name": "Convolution1D", "config": {"b_regularizer": null, "activation": "relu", "input_dim": null, "subsample_length": 1, "border_mode": "valid", "W_regularizer": null, "bias": true, "filter_length": 6, "nb_filter": 200, "init": "uniform", "input_length": null, "name": "convolution1d_1_tac_model", "activity_regularizer": null, "W_constraint": null, "b_constraint": null, "trainable": true}}, {"class_name": "MaxPooling1D", "config": {"stride": 2, "pool_length": 4, "name": "maxpooling1d_1_tac_model", "border_mode": "valid", "trainable": true}}, {"class_name": "Convolution1D", "config": {"b_regularizer": null, "activation": "relu", "input_dim": null, "subsample_length": 1, "border_mode": "valid", "W_regularizer": null, "bias": true, "filter_length": 6, "nb_filter": 200, "init": "uniform", "input_length": null, "name": "convolution1d_2_tac_model", "activity_regularizer": null, "W_constraint": null, "b_constraint": null, "trainable": true}}]}, {"class_name": "Sequential", "config": [{"class_name": "Embedding", "config": {"mask_zero": false, "activity_regularizer": null, "batch_input_shape": [null, 140], "W_regularizer": null, "input_dim": 428669, "name": "embedding_17_mpq_model", "init": "uniform", "dropout": 0.2, "input_dtype": "int32", "output_dim": 52, "W_constraint": null, "input_length": 140, "trainable": true}}, {"class_name": "ZeroPadding1D", "config": {"padding": 5, "name": "zeropadding1d_17_mpq_model", "trainable": true}}, {"class_name": "Convolution1D", "config": {"b_regularizer": null, "activation": "relu", "input_dim": null, "subsample_length": 1, "border_mode": "valid", "W_regularizer": null, "bias": true, "filter_length": 6, "nb_filter": 200, "init": "uniform", "input_length": null, "name": "convolution1d_33_mpq_model", "activity_regularizer": null, "W_constraint": null, "b_constraint": null, "trainable": true}}, {"class_name": "MaxPooling1D", "config": {"stride": 2, "pool_length": 4, "name": "maxpooling1d_33_mpq_model", "border_mode": "valid", "trainable": true}}, {"class_name": "Convolution1D", "config": {"b_regularizer": null, "activation": "relu", "input_dim": null, "subsample_length": 1, "border_mode": "valid", "W_regularizer": null, "bias": true, "filter_length": 6, "nb_filter": 200, "init": "uniform", "input_length": null, "name": "convolution1d_34_mpq_model", "activity_regularizer": null, "W_constraint": null, "b_constraint": null, "trainable": true}}]}], "output_shape_type": "raw", "name": "merge_1", "output_shape": null, "dot_axes": -1, "mode": "concat", "mode_type": "raw", "concat_axis": -1}}, {"class_name": "Flatten", "config": {"name": "flatten_1", "trainable": true}}, {"class_name": "Dense", "config": {"activation": "linear", "bias": true, "W_regularizer": null, "input_dim": null, "b_constraint": null, "trainable": true, "init": "glorot_uniform", "name": "dense_1", "b_regularizer": null, "W_constraint": null, "activity_regularizer": null, "output_dim": 200}}, {"class_name": "Dropout", "config": {"p": 0.2, "name": "dropout_1", "trainable": true}}, {"class_name": "Activation", "config": {"activation": "relu", "name": "activation_1", "trainable": true}}, {"class_name": "Dense", "config": {"activation": "softmax", "bias": true, "W_regularizer": null, "input_dim": null, "b_constraint": null, "trainable": true, "init": "glorot_uniform", "name": "dense_2", "b_regularizer": null, "W_constraint": null, "activity_regularizer": null, "output_dim": 3}}]}