{"keras_version": "1.1.0", "config": [{"config": {"dropout": 0.2, "W_constraint": null, "output_dim": 52, "input_dim": 1576890, "activity_regularizer": null, "mask_zero": false, "W_regularizer": null, "init": "uniform", "name": "embedding_4", "input_length": 140, "trainable": true, "batch_input_shape": [null, 140], "input_dtype": "int32"}, "class_name": "Embedding"}, {"config": {"trainable": true, "name": "zeropadding1d_4", "padding": 5}, "class_name": "ZeroPadding1D"}, {"config": {"b_constraint": null, "W_constraint": null, "input_dim": null, "border_mode": "valid", "nb_filter": 200, "W_regularizer": null, "activation": "relu", "init": "uniform", "name": "convolution1d_7", "bias": true, "subsample_length": 1, "input_length": null, "trainable": true, "filter_length": 6, "activity_regularizer": null, "b_regularizer": null}, "class_name": "Convolution1D"}, {"config": {"pool_length": 4, "stride": 2, "border_mode": "valid", "trainable": true, "name": "maxpooling1d_7"}, "class_name": "MaxPooling1D"}, {"config": {"b_constraint": null, "W_constraint": null, "input_dim": null, "border_mode": "valid", "nb_filter": 200, "W_regularizer": null, "activation": "relu", "init": "uniform", "name": "convolution1d_8", "bias": true, "subsample_length": 1, "input_length": null, "trainable": true, "filter_length": 6, "activity_regularizer": null, "b_regularizer": null}, "class_name": "Convolution1D"}, {"config": {"pool_length": 66, "stride": 66, "border_mode": "valid", "trainable": true, "name": "maxpooling1d_8"}, "class_name": "MaxPooling1D"}, {"config": {"trainable": true, "name": "flatten_4"}, "class_name": "Flatten"}, {"config": {"b_constraint": null, "W_constraint": null, "output_dim": 200, "input_dim": null, "b_regularizer": null, "W_regularizer": null, "activation": "linear", "init": "glorot_uniform", "name": "dense_7", "bias": true, "trainable": true, "activity_regularizer": null}, "class_name": "Dense"}, {"config": {"p": 0.2, "name": "dropout_4", "trainable": true}, "class_name": "Dropout"}, {"config": {"activation": "relu", "trainable": true, "name": "activation_4"}, "class_name": "Activation"}, {"config": {"b_constraint": null, "W_constraint": null, "output_dim": 3, "input_dim": null, "b_regularizer": null, "W_regularizer": null, "activation": "softmax", "init": "glorot_uniform", "name": "dense_8", "bias": true, "trainable": true, "activity_regularizer": null}, "class_name": "Dense"}], "class_name": "Sequential"}