{"config": [{"config": {"layers": [{"config": [{"config": {"input_dim": 428669, "dropout": 0.2, "batch_input_shape": [null, 140], "output_dim": 52, "init": "uniform", "trainable": true, "activity_regularizer": null, "name": "embedding_17_mpq_model", "W_regularizer": null, "W_constraint": null, "mask_zero": false, "input_dtype": "int32", "input_length": 140}, "class_name": "Embedding"}, {"config": {"name": "zeropadding1d_17_mpq_model", "padding": 5, "trainable": true}, "class_name": "ZeroPadding1D"}, {"config": {"subsample_length": 1, "b_regularizer": null, "activation": "relu", "input_dim": null, "b_constraint": null, "bias": true, "init": "uniform", "activity_regularizer": null, "trainable": true, "name": "convolution1d_33_mpq_model", "border_mode": "valid", "W_regularizer": null, "filter_length": 6, "W_constraint": null, "input_length": null, "nb_filter": 200}, "class_name": "Convolution1D"}, {"config": {"name": "maxpooling1d_33_mpq_model", "pool_length": 4, "border_mode": "valid", "stride": 2, "trainable": true}, "class_name": "MaxPooling1D"}, {"config": {"subsample_length": 1, "b_regularizer": null, "activation": "relu", "input_dim": null, "b_constraint": null, "bias": true, "init": "uniform", "activity_regularizer": null, "trainable": true, "name": "convolution1d_34_mpq_model", "border_mode": "valid", "W_regularizer": null, "filter_length": 6, "W_constraint": null, "input_length": null, "nb_filter": 200}, "class_name": "Convolution1D"}, {"config": {"name": "maxpooling1d_34_mpq_model", "pool_length": 66, "border_mode": "valid", "stride": 66, "trainable": true}, "class_name": "MaxPooling1D"}, {"config": {"name": "flatten_17_mpq_model", "trainable": true}, "class_name": "Flatten"}], "class_name": "Sequential"}, {"config": [{"config": {"input_dim": 428669, "dropout": 0.2, "batch_input_shape": [null, 140], "output_dim": 52, "init": "uniform", "trainable": true, "activity_regularizer": null, "name": "embedding_1_semeval_model", "W_regularizer": null, "W_constraint": null, "mask_zero": false, "input_dtype": "int32", "input_length": 140}, "class_name": "Embedding"}, {"config": {"name": "zeropadding1d_1_semeval_model", "padding": 5, "trainable": true}, "class_name": "ZeroPadding1D"}, {"config": {"subsample_length": 1, "b_regularizer": null, "activation": "relu", "input_dim": null, "b_constraint": null, "bias": true, "init": "uniform", "activity_regularizer": null, "trainable": true, "name": "convolution1d_1_semeval_model", "border_mode": "valid", "W_regularizer": null, "filter_length": 6, "W_constraint": null, "input_length": null, "nb_filter": 200}, "class_name": "Convolution1D"}, {"config": {"name": "maxpooling1d_1_semeval_model", "pool_length": 4, "border_mode": "valid", "stride": 2, "trainable": true}, "class_name": "MaxPooling1D"}, {"config": {"subsample_length": 1, "b_regularizer": null, "activation": "relu", "input_dim": null, "b_constraint": null, "bias": true, "init": "uniform", "activity_regularizer": null, "trainable": true, "name": "convolution1d_2_semeval_model", "border_mode": "valid", "W_regularizer": null, "filter_length": 6, "W_constraint": null, "input_length": null, "nb_filter": 200}, "class_name": "Convolution1D"}, {"config": {"name": "maxpooling1d_2_semeval_model", "pool_length": 66, "border_mode": "valid", "stride": 66, "trainable": true}, "class_name": "MaxPooling1D"}, {"config": {"name": "flatten_1_semeval_model", "trainable": true}, "class_name": "Flatten"}], "class_name": "Sequential"}, {"config": [{"config": {"input_dim": 428669, "dropout": 0.2, "batch_input_shape": [null, 140], "output_dim": 52, "init": "uniform", "trainable": true, "activity_regularizer": null, "name": "embedding_1_tac_model", "W_regularizer": null, "W_constraint": null, "mask_zero": false, "input_dtype": "int32", "input_length": 140}, "class_name": "Embedding"}, {"config": {"name": "zeropadding1d_1_tac_model", "padding": 5, "trainable": true}, "class_name": "ZeroPadding1D"}, {"config": {"subsample_length": 1, "b_regularizer": null, "activation": "relu", "input_dim": null, "b_constraint": null, "bias": true, "init": "uniform", "activity_regularizer": null, "trainable": true, "name": "convolution1d_1_tac_model", "border_mode": "valid", "W_regularizer": null, "filter_length": 6, "W_constraint": null, "input_length": null, "nb_filter": 200}, "class_name": "Convolution1D"}, {"config": {"name": "maxpooling1d_1_tac_model", "pool_length": 4, "border_mode": "valid", "stride": 2, "trainable": true}, "class_name": "MaxPooling1D"}, {"config": {"subsample_length": 1, "b_regularizer": null, "activation": "relu", "input_dim": null, "b_constraint": null, "bias": true, "init": "uniform", "activity_regularizer": null, "trainable": true, "name": "convolution1d_2_tac_model", "border_mode": "valid", "W_regularizer": null, "filter_length": 6, "W_constraint": null, "input_length": null, "nb_filter": 200}, "class_name": "Convolution1D"}, {"config": {"name": "maxpooling1d_2_tac_model", "pool_length": 66, "border_mode": "valid", "stride": 66, "trainable": true}, "class_name": "MaxPooling1D"}, {"config": {"name": "flatten_1_tac_model", "trainable": true}, "class_name": "Flatten"}], "class_name": "Sequential"}, {"config": [{"config": {"input_dim": 1576890, "dropout": 0.2, "batch_input_shape": [null, 140], "output_dim": 52, "init": "uniform", "trainable": true, "activity_regularizer": null, "name": "embedding_1_dil_model", "W_regularizer": null, "W_constraint": null, "mask_zero": false, "input_dtype": "int32", "input_length": 140}, "class_name": "Embedding"}, {"config": {"name": "zeropadding1d_1_dil_model", "padding": 5, "trainable": true}, "class_name": "ZeroPadding1D"}, {"config": {"subsample_length": 1, "b_regularizer": null, "activation": "relu", "input_dim": null, "b_constraint": null, "bias": true, "init": "uniform", "activity_regularizer": null, "trainable": true, "name": "convolution1d_1_dil_model", "border_mode": "valid", "W_regularizer": null, "filter_length": 6, "W_constraint": null, "input_length": null, "nb_filter": 200}, "class_name": "Convolution1D"}, {"config": {"name": "maxpooling1d_1_dil_model", "pool_length": 4, "border_mode": "valid", "stride": 2, "trainable": true}, "class_name": "MaxPooling1D"}, {"config": {"subsample_length": 1, "b_regularizer": null, "activation": "relu", "input_dim": null, "b_constraint": null, "bias": true, "init": "uniform", "activity_regularizer": null, "trainable": true, "name": "convolution1d_2_dil_model", "border_mode": "valid", "W_regularizer": null, "filter_length": 6, "W_constraint": null, "input_length": null, "nb_filter": 200}, "class_name": "Convolution1D"}, {"config": {"name": "maxpooling1d_2_dil_model", "pool_length": 66, "border_mode": "valid", "stride": 66, "trainable": true}, "class_name": "MaxPooling1D"}, {"config": {"name": "flatten_1_dil_model", "trainable": true}, "class_name": "Flatten"}], "class_name": "Sequential"}, {"config": [{"config": {"input_dim": 1576890, "dropout": 0.2, "batch_input_shape": [null, 140], "output_dim": 52, "init": "uniform", "trainable": true, "activity_regularizer": null, "name": "embedding_1_dai_model", "W_regularizer": null, "W_constraint": null, "mask_zero": false, "input_dtype": "int32", "input_length": 140}, "class_name": "Embedding"}, {"config": {"name": "zeropadding1d_1_dai_model", "padding": 5, "trainable": true}, "class_name": "ZeroPadding1D"}, {"config": {"subsample_length": 1, "b_regularizer": null, "activation": "relu", "input_dim": null, "b_constraint": null, "bias": true, "init": "uniform", "activity_regularizer": null, "trainable": true, "name": "convolution1d_1_dai_model", "border_mode": "valid", "W_regularizer": null, "filter_length": 6, "W_constraint": null, "input_length": null, "nb_filter": 200}, "class_name": "Convolution1D"}, {"config": {"name": "maxpooling1d_1_dai_model", "pool_length": 4, "border_mode": "valid", "stride": 2, "trainable": true}, "class_name": "MaxPooling1D"}, {"config": {"subsample_length": 1, "b_regularizer": null, "activation": "relu", "input_dim": null, "b_constraint": null, "bias": true, "init": "uniform", "activity_regularizer": null, "trainable": true, "name": "convolution1d_2_dai_model", "border_mode": "valid", "W_regularizer": null, "filter_length": 6, "W_constraint": null, "input_length": null, "nb_filter": 200}, "class_name": "Convolution1D"}, {"config": {"name": "maxpooling1d_2_dai_model", "pool_length": 66, "border_mode": "valid", "stride": 66, "trainable": true}, "class_name": "MaxPooling1D"}, {"config": {"name": "flatten_1_dai_model", "trainable": true}, "class_name": "Flatten"}], "class_name": "Sequential"}, {"config": [{"config": {"input_dim": 1062158, "dropout": 0.2, "batch_input_shape": [null, 140], "output_dim": 52, "init": "uniform", "trainable": true, "activity_regularizer": null, "name": "embedding_1_hul_model", "W_regularizer": null, "W_constraint": null, "mask_zero": false, "input_dtype": "int32", "input_length": 140}, "class_name": "Embedding"}, {"config": {"name": "zeropadding1d_1_hul_model", "padding": 5, "trainable": true}, "class_name": "ZeroPadding1D"}, {"config": {"subsample_length": 1, "b_regularizer": null, "activation": "relu", "input_dim": null, "b_constraint": null, "bias": true, "init": "uniform", "activity_regularizer": null, "trainable": true, "name": "convolution1d_1_hul_model", "border_mode": "valid", "W_regularizer": null, "filter_length": 6, "W_constraint": null, "input_length": null, "nb_filter": 200}, "class_name": "Convolution1D"}, {"config": {"name": "maxpooling1d_1_hul_model", "pool_length": 4, "border_mode": "valid", "stride": 2, "trainable": true}, "class_name": "MaxPooling1D"}, {"config": {"subsample_length": 1, "b_regularizer": null, "activation": "relu", "input_dim": null, "b_constraint": null, "bias": true, "init": "uniform", "activity_regularizer": null, "trainable": true, "name": "convolution1d_2_hul_model", "border_mode": "valid", "W_regularizer": null, "filter_length": 6, "W_constraint": null, "input_length": null, "nb_filter": 200}, "class_name": "Convolution1D"}, {"config": {"name": "maxpooling1d_2_hul_model", "pool_length": 66, "border_mode": "valid", "stride": 66, "trainable": true}, "class_name": "MaxPooling1D"}, {"config": {"name": "flatten_1_hul_model", "trainable": true}, "class_name": "Flatten"}], "class_name": "Sequential"}], "name": "merge_1", "mode_type": "raw", "output_shape_type": "raw", "output_shape": null, "concat_axis": -1, "mode": "concat", "dot_axes": -1}, "class_name": "Merge"}, {"config": {"input_dim": null, "b_regularizer": null, "activation": "linear", "init": "glorot_uniform", "b_constraint": null, "bias": true, "output_dim": 1028, "trainable": true, "activity_regularizer": null, "name": "dense_1", "W_regularizer": null, "W_constraint": null}, "class_name": "Dense"}, {"config": {"name": "activation_1", "trainable": true, "activation": "relu"}, "class_name": "Activation"}, {"config": {"input_dim": null, "b_regularizer": null, "activation": "softmax", "init": "glorot_uniform", "b_constraint": null, "bias": true, "output_dim": 3, "trainable": true, "activity_regularizer": null, "name": "dense_2", "W_regularizer": null, "W_constraint": null}, "class_name": "Dense"}], "keras_version": "1.1.1", "class_name": "Sequential"}