{"class_name": "Sequential", "config": [{"class_name": "Merge", "config": {"name": "merge_1", "layers": [{"class_name": "Sequential", "config": [{"class_name": "Embedding", "config": {"input_length": 140, "name": "embedding_1_dai_model", "W_regularizer": null, "dropout": 0.2, "batch_input_shape": [null, 140], "input_dim": 1576890, "activity_regularizer": null, "mask_zero": false, "W_constraint": null, "init": "uniform", "input_dtype": "int32", "trainable": true, "output_dim": 52}}, {"class_name": "ZeroPadding1D", "config": {"name": "zeropadding1d_1_dai_model", "trainable": true, "padding": 5}}, {"class_name": "Convolution1D", "config": {"filter_length": 6, "name": "convolution1d_1_dai_model", "W_regularizer": null, "input_dim": null, "bias": true, "b_regularizer": null, "activity_regularizer": null, "b_constraint": null, "W_constraint": null, "init": "uniform", "nb_filter": 200, "input_length": null, "activation": "relu", "trainable": true, "border_mode": "valid", "subsample_length": 1}}, {"class_name": "MaxPooling1D", "config": {"stride": 2, "trainable": true, "border_mode": "valid", "pool_length": 4, "name": "maxpooling1d_1_dai_model"}}, {"class_name": "Convolution1D", "config": {"filter_length": 6, "name": "convolution1d_2_dai_model", "W_regularizer": null, "input_dim": null, "bias": true, "b_regularizer": null, "activity_regularizer": null, "b_constraint": null, "W_constraint": null, "init": "uniform", "nb_filter": 200, "input_length": null, "activation": "relu", "trainable": true, "border_mode": "valid", "subsample_length": 1}}, {"class_name": "MaxPooling1D", "config": {"stride": 66, "trainable": true, "border_mode": "valid", "pool_length": 66, "name": "maxpooling1d_2_dai_model"}}, {"class_name": "Flatten", "config": {"name": "flatten_1_dai_model", "trainable": true}}]}, {"class_name": "Sequential", "config": [{"class_name": "Embedding", "config": {"input_length": 140, "name": "embedding_17_mpq_model", "W_regularizer": null, "dropout": 0.2, "batch_input_shape": [null, 140], "input_dim": 428669, "activity_regularizer": null, "mask_zero": false, "W_constraint": null, "init": "uniform", "input_dtype": "int32", "trainable": true, "output_dim": 52}}, {"class_name": "ZeroPadding1D", "config": {"name": "zeropadding1d_17_mpq_model", "trainable": true, "padding": 5}}, {"class_name": "Convolution1D", "config": {"filter_length": 6, "name": "convolution1d_33_mpq_model", "W_regularizer": null, "input_dim": null, "bias": true, "b_regularizer": null, "activity_regularizer": null, "b_constraint": null, "W_constraint": null, "init": "uniform", "nb_filter": 200, "input_length": null, "activation": "relu", "trainable": true, "border_mode": "valid", "subsample_length": 1}}, {"class_name": "MaxPooling1D", "config": {"stride": 2, "trainable": true, "border_mode": "valid", "pool_length": 4, "name": "maxpooling1d_33_mpq_model"}}, {"class_name": "Convolution1D", "config": {"filter_length": 6, "name": "convolution1d_34_mpq_model", "W_regularizer": null, "input_dim": null, "bias": true, "b_regularizer": null, "activity_regularizer": null, "b_constraint": null, "W_constraint": null, "init": "uniform", "nb_filter": 200, "input_length": null, "activation": "relu", "trainable": true, "border_mode": "valid", "subsample_length": 1}}, {"class_name": "MaxPooling1D", "config": {"stride": 66, "trainable": true, "border_mode": "valid", "pool_length": 66, "name": "maxpooling1d_34_mpq_model"}}, {"class_name": "Flatten", "config": {"name": "flatten_17_mpq_model", "trainable": true}}]}, {"class_name": "Sequential", "config": [{"class_name": "Embedding", "config": {"input_length": 140, "name": "embedding_1_dil_model", "W_regularizer": null, "dropout": 0.2, "batch_input_shape": [null, 140], "input_dim": 1576890, "activity_regularizer": null, "mask_zero": false, "W_constraint": null, "init": "uniform", "input_dtype": "int32", "trainable": true, "output_dim": 52}}, {"class_name": "ZeroPadding1D", "config": {"name": "zeropadding1d_1_dil_model", "trainable": true, "padding": 5}}, {"class_name": "Convolution1D", "config": {"filter_length": 6, "name": "convolution1d_1_dil_model", "W_regularizer": null, "input_dim": null, "bias": true, "b_regularizer": null, "activity_regularizer": null, "b_constraint": null, "W_constraint": null, "init": "uniform", "nb_filter": 200, "input_length": null, "activation": "relu", "trainable": true, "border_mode": "valid", "subsample_length": 1}}, {"class_name": "MaxPooling1D", "config": {"stride": 2, "trainable": true, "border_mode": "valid", "pool_length": 4, "name": "maxpooling1d_1_dil_model"}}, {"class_name": "Convolution1D", "config": {"filter_length": 6, "name": "convolution1d_2_dil_model", "W_regularizer": null, "input_dim": null, "bias": true, "b_regularizer": null, "activity_regularizer": null, "b_constraint": null, "W_constraint": null, "init": "uniform", "nb_filter": 200, "input_length": null, "activation": "relu", "trainable": true, "border_mode": "valid", "subsample_length": 1}}, {"class_name": "MaxPooling1D", "config": {"stride": 66, "trainable": true, "border_mode": "valid", "pool_length": 66, "name": "maxpooling1d_2_dil_model"}}, {"class_name": "Flatten", "config": {"name": "flatten_1_dil_model", "trainable": true}}]}, {"class_name": "Sequential", "config": [{"class_name": "Embedding", "config": {"input_length": 140, "name": "embedding_1_tac_model", "W_regularizer": null, "dropout": 0.2, "batch_input_shape": [null, 140], "input_dim": 428669, "activity_regularizer": null, "mask_zero": false, "W_constraint": null, "init": "uniform", "input_dtype": "int32", "trainable": true, "output_dim": 52}}, {"class_name": "ZeroPadding1D", "config": {"name": "zeropadding1d_1_tac_model", "trainable": true, "padding": 5}}, {"class_name": "Convolution1D", "config": {"filter_length": 6, "name": "convolution1d_1_tac_model", "W_regularizer": null, "input_dim": null, "bias": true, "b_regularizer": null, "activity_regularizer": null, "b_constraint": null, "W_constraint": null, "init": "uniform", "nb_filter": 200, "input_length": null, "activation": "relu", "trainable": true, "border_mode": "valid", "subsample_length": 1}}, {"class_name": "MaxPooling1D", "config": {"stride": 2, "trainable": true, "border_mode": "valid", "pool_length": 4, "name": "maxpooling1d_1_tac_model"}}, {"class_name": "Convolution1D", "config": {"filter_length": 6, "name": "convolution1d_2_tac_model", "W_regularizer": null, "input_dim": null, "bias": true, "b_regularizer": null, "activity_regularizer": null, "b_constraint": null, "W_constraint": null, "init": "uniform", "nb_filter": 200, "input_length": null, "activation": "relu", "trainable": true, "border_mode": "valid", "subsample_length": 1}}, {"class_name": "MaxPooling1D", "config": {"stride": 66, "trainable": true, "border_mode": "valid", "pool_length": 66, "name": "maxpooling1d_2_tac_model"}}, {"class_name": "Flatten", "config": {"name": "flatten_1_tac_model", "trainable": true}}]}, {"class_name": "Sequential", "config": [{"class_name": "Embedding", "config": {"input_length": 140, "name": "embedding_1_hul_model", "W_regularizer": null, "dropout": 0.2, "batch_input_shape": [null, 140], "input_dim": 1062158, "activity_regularizer": null, "mask_zero": false, "W_constraint": null, "init": "uniform", "input_dtype": "int32", "trainable": true, "output_dim": 52}}, {"class_name": "ZeroPadding1D", "config": {"name": "zeropadding1d_1_hul_model", "trainable": true, "padding": 5}}, {"class_name": "Convolution1D", "config": {"filter_length": 6, "name": "convolution1d_1_hul_model", "W_regularizer": null, "input_dim": null, "bias": true, "b_regularizer": null, "activity_regularizer": null, "b_constraint": null, "W_constraint": null, "init": "uniform", "nb_filter": 200, "input_length": null, "activation": "relu", "trainable": true, "border_mode": "valid", "subsample_length": 1}}, {"class_name": "MaxPooling1D", "config": {"stride": 2, "trainable": true, "border_mode": "valid", "pool_length": 4, "name": "maxpooling1d_1_hul_model"}}, {"class_name": "Convolution1D", "config": {"filter_length": 6, "name": "convolution1d_2_hul_model", "W_regularizer": null, "input_dim": null, "bias": true, "b_regularizer": null, "activity_regularizer": null, "b_constraint": null, "W_constraint": null, "init": "uniform", "nb_filter": 200, "input_length": null, "activation": "relu", "trainable": true, "border_mode": "valid", "subsample_length": 1}}, {"class_name": "MaxPooling1D", "config": {"stride": 66, "trainable": true, "border_mode": "valid", "pool_length": 66, "name": "maxpooling1d_2_hul_model"}}, {"class_name": "Flatten", "config": {"name": "flatten_1_hul_model", "trainable": true}}]}, {"class_name": "Sequential", "config": [{"class_name": "Embedding", "config": {"input_length": 140, "name": "embedding_1_semeval_model", "W_regularizer": null, "dropout": 0.2, "batch_input_shape": [null, 140], "input_dim": 428669, "activity_regularizer": null, "mask_zero": false, "W_constraint": null, "init": "uniform", "input_dtype": "int32", "trainable": true, "output_dim": 52}}, {"class_name": "ZeroPadding1D", "config": {"name": "zeropadding1d_1_semeval_model", "trainable": true, "padding": 5}}, {"class_name": "Convolution1D", "config": {"filter_length": 6, "name": "convolution1d_1_semeval_model", "W_regularizer": null, "input_dim": null, "bias": true, "b_regularizer": null, "activity_regularizer": null, "b_constraint": null, "W_constraint": null, "init": "uniform", "nb_filter": 200, "input_length": null, "activation": "relu", "trainable": true, "border_mode": "valid", "subsample_length": 1}}, {"class_name": "MaxPooling1D", "config": {"stride": 2, "trainable": true, "border_mode": "valid", "pool_length": 4, "name": "maxpooling1d_1_semeval_model"}}, {"class_name": "Convolution1D", "config": {"filter_length": 6, "name": "convolution1d_2_semeval_model", "W_regularizer": null, "input_dim": null, "bias": true, "b_regularizer": null, "activity_regularizer": null, "b_constraint": null, "W_constraint": null, "init": "uniform", "nb_filter": 200, "input_length": null, "activation": "relu", "trainable": true, "border_mode": "valid", "subsample_length": 1}}, {"class_name": "MaxPooling1D", "config": {"stride": 66, "trainable": true, "border_mode": "valid", "pool_length": 66, "name": "maxpooling1d_2_semeval_model"}}, {"class_name": "Flatten", "config": {"name": "flatten_1_semeval_model", "trainable": true}}]}], "output_shape_type": "raw", "dot_axes": -1, "concat_axis": -1, "mode": "concat", "mode_type": "raw", "output_shape": null}}, {"class_name": "Dense", "config": {"name": "dense_1", "W_regularizer": null, "input_dim": null, "bias": true, "b_regularizer": null, "activity_regularizer": null, "b_constraint": null, "W_constraint": null, "init": "glorot_uniform", "activation": "linear", "trainable": true, "output_dim": 1028}}, {"class_name": "Activation", "config": {"name": "activation_1", "trainable": true, "activation": "relu"}}, {"class_name": "Dense", "config": {"name": "dense_2", "W_regularizer": null, "input_dim": null, "bias": true, "b_regularizer": null, "activity_regularizer": null, "b_constraint": null, "W_constraint": null, "init": "glorot_uniform", "activation": "softmax", "trainable": true, "output_dim": 3}}], "keras_version": "1.1.1"}