{"config": [{"config": {"mode_type": "raw", "dot_axes": -1, "name": "merge_1", "output_shape_type": "raw", "output_shape": null, "concat_axis": -1, "layers": [{"config": [{"config": {"name": "embedding_1_dil_model", "output_dim": 52, "mask_zero": false, "init": "uniform", "batch_input_shape": [null, 140], "input_length": 140, "W_regularizer": null, "trainable": true, "input_dim": 1576890, "input_dtype": "int32", "activity_regularizer": null, "W_constraint": null, "dropout": 0.2}, "class_name": "Embedding"}, {"config": {"padding": 5, "trainable": true, "name": "zeropadding1d_1_dil_model"}, "class_name": "ZeroPadding1D"}, {"config": {"border_mode": "valid", "name": "convolution1d_1_dil_model", "activation": "relu", "init": "uniform", "b_regularizer": null, "b_constraint": null, "input_length": null, "bias": true, "W_regularizer": null, "trainable": true, "input_dim": null, "nb_filter": 200, "subsample_length": 1, "activity_regularizer": null, "W_constraint": null, "filter_length": 6}, "class_name": "Convolution1D"}, {"config": {"stride": 2, "trainable": true, "border_mode": "valid", "pool_length": 4, "name": "maxpooling1d_1_dil_model"}, "class_name": "MaxPooling1D"}, {"config": {"border_mode": "valid", "name": "convolution1d_2_dil_model", "activation": "relu", "init": "uniform", "b_regularizer": null, "b_constraint": null, "input_length": null, "bias": true, "W_regularizer": null, "trainable": true, "input_dim": null, "nb_filter": 200, "subsample_length": 1, "activity_regularizer": null, "W_constraint": null, "filter_length": 6}, "class_name": "Convolution1D"}], "class_name": "Sequential"}, {"config": [{"config": {"name": "embedding_1_semeval_model", "output_dim": 52, "mask_zero": false, "init": "uniform", "batch_input_shape": [null, 140], "input_length": 140, "W_regularizer": null, "trainable": true, "input_dim": 1576890, "input_dtype": "int32", "activity_regularizer": null, "W_constraint": null, "dropout": 0.2}, "class_name": "Embedding"}, {"config": {"padding": 5, "trainable": true, "name": "zeropadding1d_1_semeval_model"}, "class_name": "ZeroPadding1D"}, {"config": {"border_mode": "valid", "name": "convolution1d_1_semeval_model", "activation": "relu", "init": "uniform", "b_regularizer": null, "b_constraint": null, "input_length": null, "bias": true, "W_regularizer": null, "trainable": true, "input_dim": null, "nb_filter": 200, "subsample_length": 1, "activity_regularizer": null, "W_constraint": null, "filter_length": 6}, "class_name": "Convolution1D"}, {"config": {"stride": 2, "trainable": true, "border_mode": "valid", "pool_length": 4, "name": "maxpooling1d_1_semeval_model"}, "class_name": "MaxPooling1D"}, {"config": {"border_mode": "valid", "name": "convolution1d_2_semeval_model", "activation": "relu", "init": "uniform", "b_regularizer": null, "b_constraint": null, "input_length": null, "bias": true, "W_regularizer": null, "trainable": true, "input_dim": null, "nb_filter": 200, "subsample_length": 1, "activity_regularizer": null, "W_constraint": null, "filter_length": 6}, "class_name": "Convolution1D"}], "class_name": "Sequential"}], "mode": "concat"}, "class_name": "Merge"}, {"config": {"stride": 2, "trainable": true, "border_mode": "valid", "pool_length": 4, "name": "maxpooling1d_1"}, "class_name": "MaxPooling1D"}, {"config": {"border_mode": "valid", "name": "convolution1d_1", "activation": "relu", "init": "uniform", "b_regularizer": null, "b_constraint": null, "input_length": null, "bias": true, "W_regularizer": null, "trainable": true, "input_dim": null, "nb_filter": 200, "subsample_length": 1, "activity_regularizer": null, "W_constraint": null, "filter_length": 6}, "class_name": "Convolution1D"}, {"config": {"stride": 2, "trainable": true, "border_mode": "valid", "pool_length": 4, "name": "maxpooling1d_2"}, "class_name": "MaxPooling1D"}, {"config": {"trainable": true, "name": "flatten_1"}, "class_name": "Flatten"}, {"config": {"name": "dense_1", "trainable": true, "activation": "linear", "init": "glorot_uniform", "b_regularizer": null, "b_constraint": null, "bias": true, "W_regularizer": null, "output_dim": 200, "input_dim": null, "activity_regularizer": null, "W_constraint": null}, "class_name": "Dense"}, {"config": {"trainable": true, "p": 0.2, "name": "dropout_1"}, "class_name": "Dropout"}, {"config": {"trainable": true, "activation": "relu", "name": "activation_1"}, "class_name": "Activation"}, {"config": {"name": "dense_2", "trainable": true, "activation": "softmax", "init": "glorot_uniform", "b_regularizer": null, "b_constraint": null, "bias": true, "W_regularizer": null, "output_dim": 3, "input_dim": null, "activity_regularizer": null, "W_constraint": null}, "class_name": "Dense"}], "keras_version": "1.1.1", "class_name": "Sequential"}