{"config": [{"config": {"concat_axis": -1, "mode": "concat", "name": "merge_1", "output_shape": null, "dot_axes": -1, "layers": [{"config": [{"config": {"input_dim": 428669, "name": "embedding_1_tac_model", "W_regularizer": null, "mask_zero": false, "trainable": true, "dropout": 0.2, "W_constraint": null, "batch_input_shape": [null, 140], "input_length": 140, "output_dim": 52, "activity_regularizer": null, "input_dtype": "int32", "init": "uniform"}, "class_name": "Embedding"}, {"config": {"name": "zeropadding1d_1_tac_model", "trainable": true, "padding": 5}, "class_name": "ZeroPadding1D"}, {"config": {"input_dim": null, "name": "convolution1d_1_tac_model", "W_regularizer": null, "subsample_length": 1, "border_mode": "valid", "trainable": true, "nb_filter": 200, "bias": true, "W_constraint": null, "b_constraint": null, "input_length": null, "activity_regularizer": null, "filter_length": 6, "b_regularizer": null, "activation": "relu", "init": "uniform"}, "class_name": "Convolution1D"}, {"config": {"stride": 2, "border_mode": "valid", "trainable": true, "pool_length": 4, "name": "maxpooling1d_1_tac_model"}, "class_name": "MaxPooling1D"}, {"config": {"input_dim": null, "name": "convolution1d_2_tac_model", "W_regularizer": null, "subsample_length": 1, "border_mode": "valid", "trainable": true, "nb_filter": 200, "bias": true, "W_constraint": null, "b_constraint": null, "input_length": null, "activity_regularizer": null, "filter_length": 6, "b_regularizer": null, "activation": "relu", "init": "uniform"}, "class_name": "Convolution1D"}], "class_name": "Sequential"}, {"config": [{"config": {"input_dim": 1576890, "name": "embedding_1_dil_model", "W_regularizer": null, "mask_zero": false, "trainable": true, "dropout": 0.2, "W_constraint": null, "batch_input_shape": [null, 140], "input_length": 140, "output_dim": 52, "activity_regularizer": null, "input_dtype": "int32", "init": "uniform"}, "class_name": "Embedding"}, {"config": {"name": "zeropadding1d_1_dil_model", "trainable": true, "padding": 5}, "class_name": "ZeroPadding1D"}, {"config": {"input_dim": null, "name": "convolution1d_1_dil_model", "W_regularizer": null, "subsample_length": 1, "border_mode": "valid", "trainable": true, "nb_filter": 200, "bias": true, "W_constraint": null, "b_constraint": null, "input_length": null, "activity_regularizer": null, "filter_length": 6, "b_regularizer": null, "activation": "relu", "init": "uniform"}, "class_name": "Convolution1D"}, {"config": {"stride": 2, "border_mode": "valid", "trainable": true, "pool_length": 4, "name": "maxpooling1d_1_dil_model"}, "class_name": "MaxPooling1D"}, {"config": {"input_dim": null, "name": "convolution1d_2_dil_model", "W_regularizer": null, "subsample_length": 1, "border_mode": "valid", "trainable": true, "nb_filter": 200, "bias": true, "W_constraint": null, "b_constraint": null, "input_length": null, "activity_regularizer": null, "filter_length": 6, "b_regularizer": null, "activation": "relu", "init": "uniform"}, "class_name": "Convolution1D"}], "class_name": "Sequential"}, {"config": [{"config": {"input_dim": 1576890, "name": "embedding_1_dai_model", "W_regularizer": null, "mask_zero": false, "trainable": true, "dropout": 0.2, "W_constraint": null, "batch_input_shape": [null, 140], "input_length": 140, "output_dim": 52, "activity_regularizer": null, "input_dtype": "int32", "init": "uniform"}, "class_name": "Embedding"}, {"config": {"name": "zeropadding1d_1_dai_model", "trainable": true, "padding": 5}, "class_name": "ZeroPadding1D"}, {"config": {"input_dim": null, "name": "convolution1d_1_dai_model", "W_regularizer": null, "subsample_length": 1, "border_mode": "valid", "trainable": true, "nb_filter": 200, "bias": true, "W_constraint": null, "b_constraint": null, "input_length": null, "activity_regularizer": null, "filter_length": 6, "b_regularizer": null, "activation": "relu", "init": "uniform"}, "class_name": "Convolution1D"}, {"config": {"stride": 2, "border_mode": "valid", "trainable": true, "pool_length": 4, "name": "maxpooling1d_1_dai_model"}, "class_name": "MaxPooling1D"}, {"config": {"input_dim": null, "name": "convolution1d_2_dai_model", "W_regularizer": null, "subsample_length": 1, "border_mode": "valid", "trainable": true, "nb_filter": 200, "bias": true, "W_constraint": null, "b_constraint": null, "input_length": null, "activity_regularizer": null, "filter_length": 6, "b_regularizer": null, "activation": "relu", "init": "uniform"}, "class_name": "Convolution1D"}], "class_name": "Sequential"}, {"config": [{"config": {"input_dim": 428669, "name": "embedding_1_semeval_model", "W_regularizer": null, "mask_zero": false, "trainable": true, "dropout": 0.2, "W_constraint": null, "batch_input_shape": [null, 140], "input_length": 140, "output_dim": 52, "activity_regularizer": null, "input_dtype": "int32", "init": "uniform"}, "class_name": "Embedding"}, {"config": {"name": "zeropadding1d_1_semeval_model", "trainable": true, "padding": 5}, "class_name": "ZeroPadding1D"}, {"config": {"input_dim": null, "name": "convolution1d_1_semeval_model", "W_regularizer": null, "subsample_length": 1, "border_mode": "valid", "trainable": true, "nb_filter": 200, "bias": true, "W_constraint": null, "b_constraint": null, "input_length": null, "activity_regularizer": null, "filter_length": 6, "b_regularizer": null, "activation": "relu", "init": "uniform"}, "class_name": "Convolution1D"}, {"config": {"stride": 2, "border_mode": "valid", "trainable": true, "pool_length": 4, "name": "maxpooling1d_1_semeval_model"}, "class_name": "MaxPooling1D"}, {"config": {"input_dim": null, "name": "convolution1d_2_semeval_model", "W_regularizer": null, "subsample_length": 1, "border_mode": "valid", "trainable": true, "nb_filter": 200, "bias": true, "W_constraint": null, "b_constraint": null, "input_length": null, "activity_regularizer": null, "filter_length": 6, "b_regularizer": null, "activation": "relu", "init": "uniform"}, "class_name": "Convolution1D"}], "class_name": "Sequential"}, {"config": [{"config": {"input_dim": 1062158, "name": "embedding_1_hul_model", "W_regularizer": null, "mask_zero": false, "trainable": true, "dropout": 0.2, "W_constraint": null, "batch_input_shape": [null, 140], "input_length": 140, "output_dim": 52, "activity_regularizer": null, "input_dtype": "int32", "init": "uniform"}, "class_name": "Embedding"}, {"config": {"name": "zeropadding1d_1_hul_model", "trainable": true, "padding": 5}, "class_name": "ZeroPadding1D"}, {"config": {"input_dim": null, "name": "convolution1d_1_hul_model", "W_regularizer": null, "subsample_length": 1, "border_mode": "valid", "trainable": true, "nb_filter": 200, "bias": true, "W_constraint": null, "b_constraint": null, "input_length": null, "activity_regularizer": null, "filter_length": 6, "b_regularizer": null, "activation": "relu", "init": "uniform"}, "class_name": "Convolution1D"}, {"config": {"stride": 2, "border_mode": "valid", "trainable": true, "pool_length": 4, "name": "maxpooling1d_1_hul_model"}, "class_name": "MaxPooling1D"}, {"config": {"input_dim": null, "name": "convolution1d_2_hul_model", "W_regularizer": null, "subsample_length": 1, "border_mode": "valid", "trainable": true, "nb_filter": 200, "bias": true, "W_constraint": null, "b_constraint": null, "input_length": null, "activity_regularizer": null, "filter_length": 6, "b_regularizer": null, "activation": "relu", "init": "uniform"}, "class_name": "Convolution1D"}], "class_name": "Sequential"}, {"config": [{"config": {"input_dim": 428669, "name": "embedding_17_mpq_model", "W_regularizer": null, "mask_zero": false, "trainable": true, "dropout": 0.2, "W_constraint": null, "batch_input_shape": [null, 140], "input_length": 140, "output_dim": 52, "activity_regularizer": null, "input_dtype": "int32", "init": "uniform"}, "class_name": "Embedding"}, {"config": {"name": "zeropadding1d_17_mpq_model", "trainable": true, "padding": 5}, "class_name": "ZeroPadding1D"}, {"config": {"input_dim": null, "name": "convolution1d_33_mpq_model", "W_regularizer": null, "subsample_length": 1, "border_mode": "valid", "trainable": true, "nb_filter": 200, "bias": true, "W_constraint": null, "b_constraint": null, "input_length": null, "activity_regularizer": null, "filter_length": 6, "b_regularizer": null, "activation": "relu", "init": "uniform"}, "class_name": "Convolution1D"}, {"config": {"stride": 2, "border_mode": "valid", "trainable": true, "pool_length": 4, "name": "maxpooling1d_33_mpq_model"}, "class_name": "MaxPooling1D"}, {"config": {"input_dim": null, "name": "convolution1d_34_mpq_model", "W_regularizer": null, "subsample_length": 1, "border_mode": "valid", "trainable": true, "nb_filter": 200, "bias": true, "W_constraint": null, "b_constraint": null, "input_length": null, "activity_regularizer": null, "filter_length": 6, "b_regularizer": null, "activation": "relu", "init": "uniform"}, "class_name": "Convolution1D"}], "class_name": "Sequential"}], "mode_type": "raw", "output_shape_type": "raw"}, "class_name": "Merge"}, {"config": {"name": "flatten_1", "trainable": true}, "class_name": "Flatten"}, {"config": {"input_dim": null, "name": "dense_1", "W_regularizer": null, "bias": true, "trainable": true, "W_constraint": null, "b_constraint": null, "output_dim": 200, "activity_regularizer": null, "b_regularizer": null, "activation": "linear", "init": "glorot_uniform"}, "class_name": "Dense"}, {"config": {"name": "dropout_1", "trainable": true, "p": 0.2}, "class_name": "Dropout"}, {"config": {"name": "activation_1", "trainable": true, "activation": "relu"}, "class_name": "Activation"}, {"config": {"input_dim": null, "name": "dense_2", "W_regularizer": null, "bias": true, "trainable": true, "W_constraint": null, "b_constraint": null, "output_dim": 3, "activity_regularizer": null, "b_regularizer": null, "activation": "softmax", "init": "glorot_uniform"}, "class_name": "Dense"}], "class_name": "Sequential", "keras_version": "1.1.1"}