{"config": [{"class_name": "Merge", "config": {"dot_axes": -1, "mode": "concat", "concat_axis": -1, "mode_type": "raw", "output_shape": null, "output_shape_type": "raw", "layers": [{"class_name": "Sequential", "config": [{"config": {"mask_zero": false, "output_dim": 52, "input_dim": 1062158, "W_constraint": null, "input_dtype": "int32", "trainable": true, "dropout": 0.2, "init": "uniform", "input_length": 140, "batch_input_shape": [null, 140], "activity_regularizer": null, "W_regularizer": null, "name": "embedding_1_hul_model"}, "class_name": "Embedding"}, {"config": {"trainable": true, "padding": 5, "name": "zeropadding1d_1_hul_model"}, "class_name": "ZeroPadding1D"}, {"config": {"b_constraint": null, "subsample_length": 1, "filter_length": 6, "trainable": true, "input_dim": null, "W_constraint": null, "nb_filter": 200, "b_regularizer": null, "activation": "relu", "border_mode": "valid", "init": "uniform", "input_length": null, "bias": true, "activity_regularizer": null, "W_regularizer": null, "name": "convolution1d_1_hul_model"}, "class_name": "Convolution1D"}, {"config": {"trainable": true, "stride": 2, "pool_length": 4, "border_mode": "valid", "name": "maxpooling1d_1_hul_model"}, "class_name": "MaxPooling1D"}, {"config": {"b_constraint": null, "subsample_length": 1, "filter_length": 6, "trainable": true, "input_dim": null, "W_constraint": null, "nb_filter": 200, "b_regularizer": null, "activation": "relu", "border_mode": "valid", "init": "uniform", "input_length": null, "bias": true, "activity_regularizer": null, "W_regularizer": null, "name": "convolution1d_2_hul_model"}, "class_name": "Convolution1D"}, {"config": {"trainable": true, "stride": 66, "pool_length": 66, "border_mode": "valid", "name": "maxpooling1d_2_hul_model"}, "class_name": "MaxPooling1D"}, {"config": {"trainable": true, "name": "flatten_1_hul_model"}, "class_name": "Flatten"}]}, {"class_name": "Sequential", "config": [{"config": {"mask_zero": false, "output_dim": 52, "input_dim": 428669, "W_constraint": null, "input_dtype": "int32", "trainable": true, "dropout": 0.2, "init": "uniform", "input_length": 140, "batch_input_shape": [null, 140], "activity_regularizer": null, "W_regularizer": null, "name": "embedding_1_tac_model"}, "class_name": "Embedding"}, {"config": {"trainable": true, "padding": 5, "name": "zeropadding1d_1_tac_model"}, "class_name": "ZeroPadding1D"}, {"config": {"b_constraint": null, "subsample_length": 1, "filter_length": 6, "trainable": true, "input_dim": null, "W_constraint": null, "nb_filter": 200, "b_regularizer": null, "activation": "relu", "border_mode": "valid", "init": "uniform", "input_length": null, "bias": true, "activity_regularizer": null, "W_regularizer": null, "name": "convolution1d_1_tac_model"}, "class_name": "Convolution1D"}, {"config": {"trainable": true, "stride": 2, "pool_length": 4, "border_mode": "valid", "name": "maxpooling1d_1_tac_model"}, "class_name": "MaxPooling1D"}, {"config": {"b_constraint": null, "subsample_length": 1, "filter_length": 6, "trainable": true, "input_dim": null, "W_constraint": null, "nb_filter": 200, "b_regularizer": null, "activation": "relu", "border_mode": "valid", "init": "uniform", "input_length": null, "bias": true, "activity_regularizer": null, "W_regularizer": null, "name": "convolution1d_2_tac_model"}, "class_name": "Convolution1D"}, {"config": {"trainable": true, "stride": 66, "pool_length": 66, "border_mode": "valid", "name": "maxpooling1d_2_tac_model"}, "class_name": "MaxPooling1D"}, {"config": {"trainable": true, "name": "flatten_1_tac_model"}, "class_name": "Flatten"}]}, {"class_name": "Sequential", "config": [{"config": {"mask_zero": false, "output_dim": 52, "input_dim": 428669, "W_constraint": null, "input_dtype": "int32", "trainable": true, "dropout": 0.2, "init": "uniform", "input_length": 140, "batch_input_shape": [null, 140], "activity_regularizer": null, "W_regularizer": null, "name": "embedding_1_semeval_model"}, "class_name": "Embedding"}, {"config": {"trainable": true, "padding": 5, "name": "zeropadding1d_1_semeval_model"}, "class_name": "ZeroPadding1D"}, {"config": {"b_constraint": null, "subsample_length": 1, "filter_length": 6, "trainable": true, "input_dim": null, "W_constraint": null, "nb_filter": 200, "b_regularizer": null, "activation": "relu", "border_mode": "valid", "init": "uniform", "input_length": null, "bias": true, "activity_regularizer": null, "W_regularizer": null, "name": "convolution1d_1_semeval_model"}, "class_name": "Convolution1D"}, {"config": {"trainable": true, "stride": 2, "pool_length": 4, "border_mode": "valid", "name": "maxpooling1d_1_semeval_model"}, "class_name": "MaxPooling1D"}, {"config": {"b_constraint": null, "subsample_length": 1, "filter_length": 6, "trainable": true, "input_dim": null, "W_constraint": null, "nb_filter": 200, "b_regularizer": null, "activation": "relu", "border_mode": "valid", "init": "uniform", "input_length": null, "bias": true, "activity_regularizer": null, "W_regularizer": null, "name": "convolution1d_2_semeval_model"}, "class_name": "Convolution1D"}, {"config": {"trainable": true, "stride": 66, "pool_length": 66, "border_mode": "valid", "name": "maxpooling1d_2_semeval_model"}, "class_name": "MaxPooling1D"}, {"config": {"trainable": true, "name": "flatten_1_semeval_model"}, "class_name": "Flatten"}]}, {"class_name": "Sequential", "config": [{"config": {"mask_zero": false, "output_dim": 52, "input_dim": 1576890, "W_constraint": null, "input_dtype": "int32", "trainable": true, "dropout": 0.2, "init": "uniform", "input_length": 140, "batch_input_shape": [null, 140], "activity_regularizer": null, "W_regularizer": null, "name": "embedding_1_dil_model"}, "class_name": "Embedding"}, {"config": {"trainable": true, "padding": 5, "name": "zeropadding1d_1_dil_model"}, "class_name": "ZeroPadding1D"}, {"config": {"b_constraint": null, "subsample_length": 1, "filter_length": 6, "trainable": true, "input_dim": null, "W_constraint": null, "nb_filter": 200, "b_regularizer": null, "activation": "relu", "border_mode": "valid", "init": "uniform", "input_length": null, "bias": true, "activity_regularizer": null, "W_regularizer": null, "name": "convolution1d_1_dil_model"}, "class_name": "Convolution1D"}, {"config": {"trainable": true, "stride": 2, "pool_length": 4, "border_mode": "valid", "name": "maxpooling1d_1_dil_model"}, "class_name": "MaxPooling1D"}, {"config": {"b_constraint": null, "subsample_length": 1, "filter_length": 6, "trainable": true, "input_dim": null, "W_constraint": null, "nb_filter": 200, "b_regularizer": null, "activation": "relu", "border_mode": "valid", "init": "uniform", "input_length": null, "bias": true, "activity_regularizer": null, "W_regularizer": null, "name": "convolution1d_2_dil_model"}, "class_name": "Convolution1D"}, {"config": {"trainable": true, "stride": 66, "pool_length": 66, "border_mode": "valid", "name": "maxpooling1d_2_dil_model"}, "class_name": "MaxPooling1D"}, {"config": {"trainable": true, "name": "flatten_1_dil_model"}, "class_name": "Flatten"}]}, {"class_name": "Sequential", "config": [{"config": {"mask_zero": false, "output_dim": 52, "input_dim": 1576890, "W_constraint": null, "input_dtype": "int32", "trainable": true, "dropout": 0.2, "init": "uniform", "input_length": 140, "batch_input_shape": [null, 140], "activity_regularizer": null, "W_regularizer": null, "name": "embedding_1_dai_model"}, "class_name": "Embedding"}, {"config": {"trainable": true, "padding": 5, "name": "zeropadding1d_1_dai_model"}, "class_name": "ZeroPadding1D"}, {"config": {"b_constraint": null, "subsample_length": 1, "filter_length": 6, "trainable": true, "input_dim": null, "W_constraint": null, "nb_filter": 200, "b_regularizer": null, "activation": "relu", "border_mode": "valid", "init": "uniform", "input_length": null, "bias": true, "activity_regularizer": null, "W_regularizer": null, "name": "convolution1d_1_dai_model"}, "class_name": "Convolution1D"}, {"config": {"trainable": true, "stride": 2, "pool_length": 4, "border_mode": "valid", "name": "maxpooling1d_1_dai_model"}, "class_name": "MaxPooling1D"}, {"config": {"b_constraint": null, "subsample_length": 1, "filter_length": 6, "trainable": true, "input_dim": null, "W_constraint": null, "nb_filter": 200, "b_regularizer": null, "activation": "relu", "border_mode": "valid", "init": "uniform", "input_length": null, "bias": true, "activity_regularizer": null, "W_regularizer": null, "name": "convolution1d_2_dai_model"}, "class_name": "Convolution1D"}, {"config": {"trainable": true, "stride": 66, "pool_length": 66, "border_mode": "valid", "name": "maxpooling1d_2_dai_model"}, "class_name": "MaxPooling1D"}, {"config": {"trainable": true, "name": "flatten_1_dai_model"}, "class_name": "Flatten"}]}, {"class_name": "Sequential", "config": [{"config": {"mask_zero": false, "output_dim": 52, "input_dim": 428669, "W_constraint": null, "input_dtype": "int32", "trainable": true, "dropout": 0.2, "init": "uniform", "input_length": 140, "batch_input_shape": [null, 140], "activity_regularizer": null, "W_regularizer": null, "name": "embedding_17_mpq_model"}, "class_name": "Embedding"}, {"config": {"trainable": true, "padding": 5, "name": "zeropadding1d_17_mpq_model"}, "class_name": "ZeroPadding1D"}, {"config": {"b_constraint": null, "subsample_length": 1, "filter_length": 6, "trainable": true, "input_dim": null, "W_constraint": null, "nb_filter": 200, "b_regularizer": null, "activation": "relu", "border_mode": "valid", "init": "uniform", "input_length": null, "bias": true, "activity_regularizer": null, "W_regularizer": null, "name": "convolution1d_33_mpq_model"}, "class_name": "Convolution1D"}, {"config": {"trainable": true, "stride": 2, "pool_length": 4, "border_mode": "valid", "name": "maxpooling1d_33_mpq_model"}, "class_name": "MaxPooling1D"}, {"config": {"b_constraint": null, "subsample_length": 1, "filter_length": 6, "trainable": true, "input_dim": null, "W_constraint": null, "nb_filter": 200, "b_regularizer": null, "activation": "relu", "border_mode": "valid", "init": "uniform", "input_length": null, "bias": true, "activity_regularizer": null, "W_regularizer": null, "name": "convolution1d_34_mpq_model"}, "class_name": "Convolution1D"}, {"config": {"trainable": true, "stride": 66, "pool_length": 66, "border_mode": "valid", "name": "maxpooling1d_34_mpq_model"}, "class_name": "MaxPooling1D"}, {"config": {"trainable": true, "name": "flatten_17_mpq_model"}, "class_name": "Flatten"}]}], "name": "merge_1"}}, {"class_name": "Dense", "config": {"b_constraint": null, "output_dim": 1028, "input_dim": null, "W_constraint": null, "trainable": true, "b_regularizer": null, "activation": "linear", "W_regularizer": null, "init": "glorot_uniform", "bias": true, "activity_regularizer": null, "name": "dense_1"}}, {"class_name": "Activation", "config": {"trainable": true, "activation": "relu", "name": "activation_1"}}, {"class_name": "Dense", "config": {"b_constraint": null, "output_dim": 3, "input_dim": null, "W_constraint": null, "trainable": true, "b_regularizer": null, "activation": "softmax", "W_regularizer": null, "init": "glorot_uniform", "bias": true, "activity_regularizer": null, "name": "dense_2"}}], "keras_version": "1.1.1", "class_name": "Sequential"}