{"keras_version": "1.1.1", "class_name": "Sequential", "config": [{"class_name": "Merge", "config": {"mode_type": "raw", "output_shape_type": "raw", "mode": "concat", "output_shape": null, "concat_axis": -1, "dot_axes": -1, "name": "merge_1", "layers": [{"class_name": "Sequential", "config": [{"class_name": "Embedding", "config": {"output_dim": 52, "W_regularizer": null, "W_constraint": null, "trainable": true, "input_dim": 1576890, "name": "embedding_1_dai_model", "activity_regularizer": null, "input_dtype": "int32", "dropout": 0.2, "init": "uniform", "input_length": 140, "batch_input_shape": [null, 140], "mask_zero": false}}, {"class_name": "ZeroPadding1D", "config": {"trainable": true, "padding": 5, "name": "zeropadding1d_1_dai_model"}}, {"class_name": "Convolution1D", "config": {"b_constraint": null, "W_regularizer": null, "bias": true, "trainable": true, "b_regularizer": null, "input_dim": null, "subsample_length": 1, "name": "convolution1d_1_dai_model", "W_constraint": null, "activation": "relu", "filter_length": 6, "activity_regularizer": null, "init": "uniform", "border_mode": "valid", "nb_filter": 200, "input_length": null}}, {"class_name": "MaxPooling1D", "config": {"trainable": true, "pool_length": 4, "stride": 2, "name": "maxpooling1d_1_dai_model", "border_mode": "valid"}}, {"class_name": "Convolution1D", "config": {"b_constraint": null, "W_regularizer": null, "bias": true, "trainable": true, "b_regularizer": null, "input_dim": null, "subsample_length": 1, "name": "convolution1d_2_dai_model", "W_constraint": null, "activation": "relu", "filter_length": 6, "activity_regularizer": null, "init": "uniform", "border_mode": "valid", "nb_filter": 200, "input_length": null}}]}, {"class_name": "Sequential", "config": [{"class_name": "Embedding", "config": {"output_dim": 52, "W_regularizer": null, "W_constraint": null, "trainable": true, "input_dim": 1576890, "name": "embedding_1_dil_model", "activity_regularizer": null, "input_dtype": "int32", "dropout": 0.2, "init": "uniform", "input_length": 140, "batch_input_shape": [null, 140], "mask_zero": false}}, {"class_name": "ZeroPadding1D", "config": {"trainable": true, "padding": 5, "name": "zeropadding1d_1_dil_model"}}, {"class_name": "Convolution1D", "config": {"b_constraint": null, "W_regularizer": null, "bias": true, "trainable": true, "b_regularizer": null, "input_dim": null, "subsample_length": 1, "name": "convolution1d_1_dil_model", "W_constraint": null, "activation": "relu", "filter_length": 6, "activity_regularizer": null, "init": "uniform", "border_mode": "valid", "nb_filter": 200, "input_length": null}}, {"class_name": "MaxPooling1D", "config": {"trainable": true, "pool_length": 4, "stride": 2, "name": "maxpooling1d_1_dil_model", "border_mode": "valid"}}, {"class_name": "Convolution1D", "config": {"b_constraint": null, "W_regularizer": null, "bias": true, "trainable": true, "b_regularizer": null, "input_dim": null, "subsample_length": 1, "name": "convolution1d_2_dil_model", "W_constraint": null, "activation": "relu", "filter_length": 6, "activity_regularizer": null, "init": "uniform", "border_mode": "valid", "nb_filter": 200, "input_length": null}}]}, {"class_name": "Sequential", "config": [{"class_name": "Embedding", "config": {"output_dim": 52, "W_regularizer": null, "W_constraint": null, "trainable": true, "input_dim": 1062158, "name": "embedding_1_hul_model", "activity_regularizer": null, "input_dtype": "int32", "dropout": 0.2, "init": "uniform", "input_length": 140, "batch_input_shape": [null, 140], "mask_zero": false}}, {"class_name": "ZeroPadding1D", "config": {"trainable": true, "padding": 5, "name": "zeropadding1d_1_hul_model"}}, {"class_name": "Convolution1D", "config": {"b_constraint": null, "W_regularizer": null, "bias": true, "trainable": true, "b_regularizer": null, "input_dim": null, "subsample_length": 1, "name": "convolution1d_1_hul_model", "W_constraint": null, "activation": "relu", "filter_length": 6, "activity_regularizer": null, "init": "uniform", "border_mode": "valid", "nb_filter": 200, "input_length": null}}, {"class_name": "MaxPooling1D", "config": {"trainable": true, "pool_length": 4, "stride": 2, "name": "maxpooling1d_1_hul_model", "border_mode": "valid"}}, {"class_name": "Convolution1D", "config": {"b_constraint": null, "W_regularizer": null, "bias": true, "trainable": true, "b_regularizer": null, "input_dim": null, "subsample_length": 1, "name": "convolution1d_2_hul_model", "W_constraint": null, "activation": "relu", "filter_length": 6, "activity_regularizer": null, "init": "uniform", "border_mode": "valid", "nb_filter": 200, "input_length": null}}]}, {"class_name": "Sequential", "config": [{"class_name": "Embedding", "config": {"output_dim": 52, "W_regularizer": null, "W_constraint": null, "trainable": true, "input_dim": 428669, "name": "embedding_17_mpq_model", "activity_regularizer": null, "input_dtype": "int32", "dropout": 0.2, "init": "uniform", "input_length": 140, "batch_input_shape": [null, 140], "mask_zero": false}}, {"class_name": "ZeroPadding1D", "config": {"trainable": true, "padding": 5, "name": "zeropadding1d_17_mpq_model"}}, {"class_name": "Convolution1D", "config": {"b_constraint": null, "W_regularizer": null, "bias": true, "trainable": true, "b_regularizer": null, "input_dim": null, "subsample_length": 1, "name": "convolution1d_33_mpq_model", "W_constraint": null, "activation": "relu", "filter_length": 6, "activity_regularizer": null, "init": "uniform", "border_mode": "valid", "nb_filter": 200, "input_length": null}}, {"class_name": "MaxPooling1D", "config": {"trainable": true, "pool_length": 4, "stride": 2, "name": "maxpooling1d_33_mpq_model", "border_mode": "valid"}}, {"class_name": "Convolution1D", "config": {"b_constraint": null, "W_regularizer": null, "bias": true, "trainable": true, "b_regularizer": null, "input_dim": null, "subsample_length": 1, "name": "convolution1d_34_mpq_model", "W_constraint": null, "activation": "relu", "filter_length": 6, "activity_regularizer": null, "init": "uniform", "border_mode": "valid", "nb_filter": 200, "input_length": null}}]}, {"class_name": "Sequential", "config": [{"class_name": "Embedding", "config": {"output_dim": 52, "W_regularizer": null, "W_constraint": null, "trainable": true, "input_dim": 1576890, "name": "embedding_1_semeval_model", "activity_regularizer": null, "input_dtype": "int32", "dropout": 0.2, "init": "uniform", "input_length": 140, "batch_input_shape": [null, 140], "mask_zero": false}}, {"class_name": "ZeroPadding1D", "config": {"trainable": true, "padding": 5, "name": "zeropadding1d_1_semeval_model"}}, {"class_name": "Convolution1D", "config": {"b_constraint": null, "W_regularizer": null, "bias": true, "trainable": true, "b_regularizer": null, "input_dim": null, "subsample_length": 1, "name": "convolution1d_1_semeval_model", "W_constraint": null, "activation": "relu", "filter_length": 6, "activity_regularizer": null, "init": "uniform", "border_mode": "valid", "nb_filter": 200, "input_length": null}}, {"class_name": "MaxPooling1D", "config": {"trainable": true, "pool_length": 4, "stride": 2, "name": "maxpooling1d_1_semeval_model", "border_mode": "valid"}}, {"class_name": "Convolution1D", "config": {"b_constraint": null, "W_regularizer": null, "bias": true, "trainable": true, "b_regularizer": null, "input_dim": null, "subsample_length": 1, "name": "convolution1d_2_semeval_model", "W_constraint": null, "activation": "relu", "filter_length": 6, "activity_regularizer": null, "init": "uniform", "border_mode": "valid", "nb_filter": 200, "input_length": null}}]}, {"class_name": "Sequential", "config": [{"class_name": "Embedding", "config": {"output_dim": 52, "W_regularizer": null, "W_constraint": null, "trainable": true, "input_dim": 428669, "name": "embedding_1_tac_model", "activity_regularizer": null, "input_dtype": "int32", "dropout": 0.2, "init": "uniform", "input_length": 140, "batch_input_shape": [null, 140], "mask_zero": false}}, {"class_name": "ZeroPadding1D", "config": {"trainable": true, "padding": 5, "name": "zeropadding1d_1_tac_model"}}, {"class_name": "Convolution1D", "config": {"b_constraint": null, "W_regularizer": null, "bias": true, "trainable": true, "b_regularizer": null, "input_dim": null, "subsample_length": 1, "name": "convolution1d_1_tac_model", "W_constraint": null, "activation": "relu", "filter_length": 6, "activity_regularizer": null, "init": "uniform", "border_mode": "valid", "nb_filter": 200, "input_length": null}}, {"class_name": "MaxPooling1D", "config": {"trainable": true, "pool_length": 4, "stride": 2, "name": "maxpooling1d_1_tac_model", "border_mode": "valid"}}, {"class_name": "Convolution1D", "config": {"b_constraint": null, "W_regularizer": null, "bias": true, "trainable": true, "b_regularizer": null, "input_dim": null, "subsample_length": 1, "name": "convolution1d_2_tac_model", "W_constraint": null, "activation": "relu", "filter_length": 6, "activity_regularizer": null, "init": "uniform", "border_mode": "valid", "nb_filter": 200, "input_length": null}}]}]}}, {"class_name": "MaxPooling1D", "config": {"trainable": true, "pool_length": 4, "stride": 2, "name": "maxpooling1d_1", "border_mode": "valid"}}, {"class_name": "Convolution1D", "config": {"b_constraint": null, "W_regularizer": null, "W_constraint": null, "trainable": true, "b_regularizer": null, "name": "convolution1d_1", "subsample_length": 1, "input_dim": null, "bias": true, "activation": "relu", "filter_length": 6, "activity_regularizer": null, "init": "uniform", "border_mode": "valid", "nb_filter": 200, "input_length": null}}, {"class_name": "MaxPooling1D", "config": {"trainable": true, "pool_length": 4, "stride": 2, "name": "maxpooling1d_2", "border_mode": "valid"}}, {"class_name": "Flatten", "config": {"trainable": true, "name": "flatten_1"}}, {"class_name": "Dense", "config": {"output_dim": 200, "W_regularizer": null, "activity_regularizer": null, "trainable": true, "b_regularizer": null, "b_constraint": null, "input_dim": null, "name": "dense_1", "bias": true, "activation": "linear", "init": "glorot_uniform", "W_constraint": null}}, {"class_name": "Dropout", "config": {"trainable": true, "p": 0.2, "name": "dropout_1"}}, {"class_name": "Activation", "config": {"trainable": true, "activation": "relu", "name": "activation_1"}}, {"class_name": "Dense", "config": {"output_dim": 3, "W_regularizer": null, "activity_regularizer": null, "trainable": true, "b_regularizer": null, "b_constraint": null, "input_dim": null, "name": "dense_2", "bias": true, "activation": "softmax", "init": "glorot_uniform", "W_constraint": null}}]}