{"class_name": "Sequential", "keras_version": "1.1.1", "config": [{"class_name": "Merge", "config": {"mode": "concat", "layers": [{"class_name": "Sequential", "config": [{"class_name": "Embedding", "config": {"input_length": 140, "trainable": true, "W_regularizer": null, "input_dim": 428669, "dropout": 0.2, "batch_input_shape": [null, 140], "activity_regularizer": null, "init": "uniform", "W_constraint": null, "output_dim": 52, "input_dtype": "int32", "name": "embedding_17_mpq_model", "mask_zero": false}}, {"class_name": "ZeroPadding1D", "config": {"padding": 5, "name": "zeropadding1d_17_mpq_model", "trainable": true}}, {"class_name": "Convolution1D", "config": {"subsample_length": 1, "trainable": true, "nb_filter": 200, "border_mode": "valid", "filter_length": 6, "activation": "relu", "init": "uniform", "b_regularizer": null, "activity_regularizer": null, "bias": true, "W_constraint": null, "input_dim": null, "input_length": null, "b_constraint": null, "name": "convolution1d_33_mpq_model", "W_regularizer": null}}, {"class_name": "MaxPooling1D", "config": {"pool_length": 4, "border_mode": "valid", "trainable": true, "stride": 2, "name": "maxpooling1d_33_mpq_model"}}, {"class_name": "Convolution1D", "config": {"subsample_length": 1, "trainable": true, "nb_filter": 200, "border_mode": "valid", "filter_length": 6, "activation": "relu", "init": "uniform", "b_regularizer": null, "activity_regularizer": null, "bias": true, "W_constraint": null, "input_dim": null, "input_length": null, "b_constraint": null, "name": "convolution1d_34_mpq_model", "W_regularizer": null}}]}, {"class_name": "Sequential", "config": [{"class_name": "Embedding", "config": {"input_length": 140, "trainable": true, "W_regularizer": null, "input_dim": 1576890, "dropout": 0.2, "batch_input_shape": [null, 140], "activity_regularizer": null, "init": "uniform", "W_constraint": null, "output_dim": 52, "input_dtype": "int32", "name": "embedding_1_dil_model", "mask_zero": false}}, {"class_name": "ZeroPadding1D", "config": {"padding": 5, "name": "zeropadding1d_1_dil_model", "trainable": true}}, {"class_name": "Convolution1D", "config": {"subsample_length": 1, "trainable": true, "nb_filter": 200, "border_mode": "valid", "filter_length": 6, "activation": "relu", "init": "uniform", "b_regularizer": null, "activity_regularizer": null, "bias": true, "W_constraint": null, "input_dim": null, "input_length": null, "b_constraint": null, "name": "convolution1d_1_dil_model", "W_regularizer": null}}, {"class_name": "MaxPooling1D", "config": {"pool_length": 4, "border_mode": "valid", "trainable": true, "stride": 2, "name": "maxpooling1d_1_dil_model"}}, {"class_name": "Convolution1D", "config": {"subsample_length": 1, "trainable": true, "nb_filter": 200, "border_mode": "valid", "filter_length": 6, "activation": "relu", "init": "uniform", "b_regularizer": null, "activity_regularizer": null, "bias": true, "W_constraint": null, "input_dim": null, "input_length": null, "b_constraint": null, "name": "convolution1d_2_dil_model", "W_regularizer": null}}]}, {"class_name": "Sequential", "config": [{"class_name": "Embedding", "config": {"input_length": 140, "trainable": true, "W_regularizer": null, "input_dim": 428669, "dropout": 0.2, "batch_input_shape": [null, 140], "activity_regularizer": null, "init": "uniform", "W_constraint": null, "output_dim": 52, "input_dtype": "int32", "name": "embedding_1_semeval_model", "mask_zero": false}}, {"class_name": "ZeroPadding1D", "config": {"padding": 5, "name": "zeropadding1d_1_semeval_model", "trainable": true}}, {"class_name": "Convolution1D", "config": {"subsample_length": 1, "trainable": true, "nb_filter": 200, "border_mode": "valid", "filter_length": 6, "activation": "relu", "init": "uniform", "b_regularizer": null, "activity_regularizer": null, "bias": true, "W_constraint": null, "input_dim": null, "input_length": null, "b_constraint": null, "name": "convolution1d_1_semeval_model", "W_regularizer": null}}, {"class_name": "MaxPooling1D", "config": {"pool_length": 4, "border_mode": "valid", "trainable": true, "stride": 2, "name": "maxpooling1d_1_semeval_model"}}, {"class_name": "Convolution1D", "config": {"subsample_length": 1, "trainable": true, "nb_filter": 200, "border_mode": "valid", "filter_length": 6, "activation": "relu", "init": "uniform", "b_regularizer": null, "activity_regularizer": null, "bias": true, "W_constraint": null, "input_dim": null, "input_length": null, "b_constraint": null, "name": "convolution1d_2_semeval_model", "W_regularizer": null}}]}, {"class_name": "Sequential", "config": [{"class_name": "Embedding", "config": {"input_length": 140, "trainable": true, "W_regularizer": null, "input_dim": 1576890, "dropout": 0.2, "batch_input_shape": [null, 140], "activity_regularizer": null, "init": "uniform", "W_constraint": null, "output_dim": 52, "input_dtype": "int32", "name": "embedding_1_dai_model", "mask_zero": false}}, {"class_name": "ZeroPadding1D", "config": {"padding": 5, "name": "zeropadding1d_1_dai_model", "trainable": true}}, {"class_name": "Convolution1D", "config": {"subsample_length": 1, "trainable": true, "nb_filter": 200, "border_mode": "valid", "filter_length": 6, "activation": "relu", "init": "uniform", "b_regularizer": null, "activity_regularizer": null, "bias": true, "W_constraint": null, "input_dim": null, "input_length": null, "b_constraint": null, "name": "convolution1d_1_dai_model", "W_regularizer": null}}, {"class_name": "MaxPooling1D", "config": {"pool_length": 4, "border_mode": "valid", "trainable": true, "stride": 2, "name": "maxpooling1d_1_dai_model"}}, {"class_name": "Convolution1D", "config": {"subsample_length": 1, "trainable": true, "nb_filter": 200, "border_mode": "valid", "filter_length": 6, "activation": "relu", "init": "uniform", "b_regularizer": null, "activity_regularizer": null, "bias": true, "W_constraint": null, "input_dim": null, "input_length": null, "b_constraint": null, "name": "convolution1d_2_dai_model", "W_regularizer": null}}]}, {"class_name": "Sequential", "config": [{"class_name": "Embedding", "config": {"input_length": 140, "trainable": true, "W_regularizer": null, "input_dim": 428669, "dropout": 0.2, "batch_input_shape": [null, 140], "activity_regularizer": null, "init": "uniform", "W_constraint": null, "output_dim": 52, "input_dtype": "int32", "name": "embedding_1_tac_model", "mask_zero": false}}, {"class_name": "ZeroPadding1D", "config": {"padding": 5, "name": "zeropadding1d_1_tac_model", "trainable": true}}, {"class_name": "Convolution1D", "config": {"subsample_length": 1, "trainable": true, "nb_filter": 200, "border_mode": "valid", "filter_length": 6, "activation": "relu", "init": "uniform", "b_regularizer": null, "activity_regularizer": null, "bias": true, "W_constraint": null, "input_dim": null, "input_length": null, "b_constraint": null, "name": "convolution1d_1_tac_model", "W_regularizer": null}}, {"class_name": "MaxPooling1D", "config": {"pool_length": 4, "border_mode": "valid", "trainable": true, "stride": 2, "name": "maxpooling1d_1_tac_model"}}, {"class_name": "Convolution1D", "config": {"subsample_length": 1, "trainable": true, "nb_filter": 200, "border_mode": "valid", "filter_length": 6, "activation": "relu", "init": "uniform", "b_regularizer": null, "activity_regularizer": null, "bias": true, "W_constraint": null, "input_dim": null, "input_length": null, "b_constraint": null, "name": "convolution1d_2_tac_model", "W_regularizer": null}}]}, {"class_name": "Sequential", "config": [{"class_name": "Embedding", "config": {"input_length": 140, "trainable": true, "W_regularizer": null, "input_dim": 1062158, "dropout": 0.2, "batch_input_shape": [null, 140], "activity_regularizer": null, "init": "uniform", "W_constraint": null, "output_dim": 52, "input_dtype": "int32", "name": "embedding_1_hul_model", "mask_zero": false}}, {"class_name": "ZeroPadding1D", "config": {"padding": 5, "name": "zeropadding1d_1_hul_model", "trainable": true}}, {"class_name": "Convolution1D", "config": {"subsample_length": 1, "trainable": true, "nb_filter": 200, "border_mode": "valid", "filter_length": 6, "activation": "relu", "init": "uniform", "b_regularizer": null, "activity_regularizer": null, "bias": true, "W_constraint": null, "input_dim": null, "input_length": null, "b_constraint": null, "name": "convolution1d_1_hul_model", "W_regularizer": null}}, {"class_name": "MaxPooling1D", "config": {"pool_length": 4, "border_mode": "valid", "trainable": true, "stride": 2, "name": "maxpooling1d_1_hul_model"}}, {"class_name": "Convolution1D", "config": {"subsample_length": 1, "trainable": true, "nb_filter": 200, "border_mode": "valid", "filter_length": 6, "activation": "relu", "init": "uniform", "b_regularizer": null, "activity_regularizer": null, "bias": true, "W_constraint": null, "input_dim": null, "input_length": null, "b_constraint": null, "name": "convolution1d_2_hul_model", "W_regularizer": null}}]}], "mode_type": "raw", "dot_axes": -1, "concat_axis": -1, "output_shape": null, "name": "merge_1", "output_shape_type": "raw"}}, {"class_name": "Flatten", "config": {"name": "flatten_1", "trainable": true}}, {"class_name": "Dense", "config": {"trainable": true, "W_regularizer": null, "input_dim": null, "activation": "linear", "b_regularizer": null, "activity_regularizer": null, "init": "glorot_uniform", "W_constraint": null, "output_dim": 200, "bias": true, "b_constraint": null, "name": "dense_1"}}, {"class_name": "Dropout", "config": {"trainable": true, "name": "dropout_1", "p": 0.2}}, {"class_name": "Activation", "config": {"activation": "relu", "name": "activation_1", "trainable": true}}, {"class_name": "Dense", "config": {"trainable": true, "W_regularizer": null, "input_dim": null, "activation": "softmax", "b_regularizer": null, "activity_regularizer": null, "init": "glorot_uniform", "W_constraint": null, "output_dim": 3, "bias": true, "b_constraint": null, "name": "dense_2"}}]}