{"config": [{"config": {"batch_input_shape": [null, 140], "init": "uniform", "input_length": 140, "W_regularizer": null, "mask_zero": false, "name": "embedding_37", "W_constraint": null, "output_dim": 52, "trainable": true, "dropout": 0.2, "activity_regularizer": null, "input_dtype": "int32", "input_dim": 3059882}, "class_name": "Embedding"}, {"config": {"padding": 5, "name": "zeropadding1d_37", "trainable": true}, "class_name": "ZeroPadding1D"}, {"config": {"init": "uniform", "b_regularizer": null, "W_regularizer": null, "border_mode": "valid", "name": "convolution1d_73", "input_dim": null, "W_constraint": null, "b_constraint": null, "subsample_length": 1, "trainable": true, "activity_regularizer": null, "nb_filter": 200, "bias": true, "filter_length": 6, "activation": "relu", "input_length": null}, "class_name": "Convolution1D"}, {"config": {"name": "maxpooling1d_73", "stride": 2, "trainable": true, "pool_length": 4, "border_mode": "valid"}, "class_name": "MaxPooling1D"}, {"config": {"init": "uniform", "b_regularizer": null, "W_regularizer": null, "border_mode": "valid", "name": "convolution1d_74", "input_dim": null, "W_constraint": null, "b_constraint": null, "subsample_length": 1, "trainable": true, "activity_regularizer": null, "nb_filter": 200, "bias": true, "filter_length": 6, "activation": "relu", "input_length": null}, "class_name": "Convolution1D"}, {"config": {"name": "maxpooling1d_74", "stride": 66, "trainable": true, "pool_length": 66, "border_mode": "valid"}, "class_name": "MaxPooling1D"}, {"config": {"name": "flatten_37", "trainable": true}, "class_name": "Flatten"}, {"config": {"init": "glorot_uniform", "b_regularizer": null, "W_regularizer": null, "output_dim": 200, "name": "dense_73", "input_dim": null, "W_constraint": null, "b_constraint": null, "trainable": true, "activity_regularizer": null, "activation": "linear", "bias": true}, "class_name": "Dense"}, {"config": {"p": 0.2, "name": "dropout_37", "trainable": true}, "class_name": "Dropout"}, {"config": {"name": "activation_37", "trainable": true, "activation": "relu"}, "class_name": "Activation"}, {"config": {"init": "glorot_uniform", "b_regularizer": null, "W_regularizer": null, "output_dim": 3, "name": "dense_74", "input_dim": null, "W_constraint": null, "b_constraint": null, "trainable": true, "activity_regularizer": null, "activation": "softmax", "bias": true}, "class_name": "Dense"}], "class_name": "Sequential", "keras_version": "1.1.0"}