{"keras_version": "1.1.1", "class_name": "Sequential", "config": [{"class_name": "Merge", "config": {"mode_type": "raw", "mode": "concat", "layers": [{"class_name": "Sequential", "config": [{"class_name": "Embedding", "config": {"input_dim": 1576890, "trainable": true, "W_regularizer": null, "input_length": 140, "name": "embedding_1_dai_model", "init": "uniform", "output_dim": 52, "W_constraint": null, "input_dtype": "int32", "batch_input_shape": [null, 140], "activity_regularizer": null, "dropout": 0.2, "mask_zero": false}}, {"class_name": "ZeroPadding1D", "config": {"trainable": true, "padding": 5, "name": "zeropadding1d_1_dai_model"}}, {"class_name": "Convolution1D", "config": {"filter_length": 6, "b_constraint": null, "b_regularizer": null, "bias": true, "nb_filter": 200, "trainable": true, "W_regularizer": null, "input_length": null, "subsample_length": 1, "init": "uniform", "border_mode": "valid", "W_constraint": null, "name": "convolution1d_1_dai_model", "input_dim": null, "activity_regularizer": null, "activation": "relu"}}, {"class_name": "MaxPooling1D", "config": {"pool_length": 4, "trainable": true, "border_mode": "valid", "stride": 2, "name": "maxpooling1d_1_dai_model"}}, {"class_name": "Convolution1D", "config": {"filter_length": 6, "b_constraint": null, "b_regularizer": null, "bias": true, "nb_filter": 200, "trainable": true, "W_regularizer": null, "input_length": null, "subsample_length": 1, "init": "uniform", "border_mode": "valid", "W_constraint": null, "name": "convolution1d_2_dai_model", "input_dim": null, "activity_regularizer": null, "activation": "relu"}}]}, {"class_name": "Sequential", "config": [{"class_name": "Embedding", "config": {"input_dim": 1576890, "trainable": true, "W_regularizer": null, "input_length": 140, "name": "embedding_1_semeval_model", "init": "uniform", "output_dim": 52, "W_constraint": null, "input_dtype": "int32", "batch_input_shape": [null, 140], "activity_regularizer": null, "dropout": 0.2, "mask_zero": false}}, {"class_name": "ZeroPadding1D", "config": {"trainable": true, "padding": 5, "name": "zeropadding1d_1_semeval_model"}}, {"class_name": "Convolution1D", "config": {"filter_length": 6, "b_constraint": null, "b_regularizer": null, "bias": true, "nb_filter": 200, "trainable": true, "W_regularizer": null, "input_length": null, "subsample_length": 1, "init": "uniform", "border_mode": "valid", "W_constraint": null, "name": "convolution1d_1_semeval_model", "input_dim": null, "activity_regularizer": null, "activation": "relu"}}, {"class_name": "MaxPooling1D", "config": {"pool_length": 4, "trainable": true, "border_mode": "valid", "stride": 2, "name": "maxpooling1d_1_semeval_model"}}, {"class_name": "Convolution1D", "config": {"filter_length": 6, "b_constraint": null, "b_regularizer": null, "bias": true, "nb_filter": 200, "trainable": true, "W_regularizer": null, "input_length": null, "subsample_length": 1, "init": "uniform", "border_mode": "valid", "W_constraint": null, "name": "convolution1d_2_semeval_model", "input_dim": null, "activity_regularizer": null, "activation": "relu"}}]}], "concat_axis": -1, "dot_axes": -1, "output_shape": null, "output_shape_type": "raw", "name": "merge_1"}}, {"class_name": "MaxPooling1D", "config": {"pool_length": 4, "trainable": true, "border_mode": "valid", "stride": 2, "name": "maxpooling1d_1"}}, {"class_name": "Convolution1D", "config": {"filter_length": 6, "b_constraint": null, "b_regularizer": null, "bias": true, "nb_filter": 200, "trainable": true, "W_regularizer": null, "input_length": null, "subsample_length": 1, "init": "uniform", "border_mode": "valid", "W_constraint": null, "name": "convolution1d_1", "input_dim": null, "activity_regularizer": null, "activation": "relu"}}, {"class_name": "MaxPooling1D", "config": {"pool_length": 4, "trainable": true, "border_mode": "valid", "stride": 2, "name": "maxpooling1d_2"}}, {"class_name": "Flatten", "config": {"trainable": true, "name": "flatten_1"}}, {"class_name": "Dense", "config": {"bias": true, "b_constraint": null, "b_regularizer": null, "input_dim": null, "trainable": true, "W_regularizer": null, "name": "dense_1", "init": "glorot_uniform", "output_dim": 200, "W_constraint": null, "activation": "linear", "activity_regularizer": null}}, {"class_name": "Dropout", "config": {"trainable": true, "p": 0.2, "name": "dropout_1"}}, {"class_name": "Activation", "config": {"trainable": true, "activation": "relu", "name": "activation_1"}}, {"class_name": "Dense", "config": {"bias": true, "b_constraint": null, "b_regularizer": null, "input_dim": null, "trainable": true, "W_regularizer": null, "name": "dense_2", "init": "glorot_uniform", "output_dim": 3, "W_constraint": null, "activation": "softmax", "activity_regularizer": null}}]}