{"class_name": "Sequential", "config": [{"class_name": "Merge", "config": {"name": "merge_1", "layers": [{"class_name": "Sequential", "config": [{"class_name": "Embedding", "config": {"W_regularizer": null, "name": "embedding_1_dil_model", "trainable": true, "output_dim": 52, "mask_zero": false, "init": "uniform", "input_dtype": "int32", "input_dim": 1576890, "input_length": 140, "dropout": 0.2, "batch_input_shape": [null, 140], "W_constraint": null, "activity_regularizer": null}}, {"class_name": "ZeroPadding1D", "config": {"padding": 5, "name": "zeropadding1d_1_dil_model", "trainable": true}}, {"class_name": "Convolution1D", "config": {"W_regularizer": null, "name": "convolution1d_1_dil_model", "nb_filter": 200, "filter_length": 6, "trainable": true, "bias": true, "W_constraint": null, "subsample_length": 1, "init": "uniform", "input_dim": null, "input_length": null, "border_mode": "valid", "activity_regularizer": null, "b_constraint": null, "activation": "relu", "b_regularizer": null}}, {"class_name": "MaxPooling1D", "config": {"name": "maxpooling1d_1_dil_model", "border_mode": "valid", "stride": 2, "pool_length": 4, "trainable": true}}, {"class_name": "Convolution1D", "config": {"W_regularizer": null, "name": "convolution1d_2_dil_model", "nb_filter": 200, "filter_length": 6, "trainable": true, "bias": true, "W_constraint": null, "subsample_length": 1, "init": "uniform", "input_dim": null, "input_length": null, "border_mode": "valid", "activity_regularizer": null, "b_constraint": null, "activation": "relu", "b_regularizer": null}}]}, {"class_name": "Sequential", "config": [{"class_name": "Embedding", "config": {"W_regularizer": null, "name": "embedding_17_mpq_model", "trainable": true, "output_dim": 52, "mask_zero": false, "init": "uniform", "input_dtype": "int32", "input_dim": 428669, "input_length": 140, "dropout": 0.2, "batch_input_shape": [null, 140], "W_constraint": null, "activity_regularizer": null}}, {"class_name": "ZeroPadding1D", "config": {"padding": 5, "name": "zeropadding1d_17_mpq_model", "trainable": true}}, {"class_name": "Convolution1D", "config": {"W_regularizer": null, "name": "convolution1d_33_mpq_model", "nb_filter": 200, "filter_length": 6, "trainable": true, "bias": true, "W_constraint": null, "subsample_length": 1, "init": "uniform", "input_dim": null, "input_length": null, "border_mode": "valid", "activity_regularizer": null, "b_constraint": null, "activation": "relu", "b_regularizer": null}}, {"class_name": "MaxPooling1D", "config": {"name": "maxpooling1d_33_mpq_model", "border_mode": "valid", "stride": 2, "pool_length": 4, "trainable": true}}, {"class_name": "Convolution1D", "config": {"W_regularizer": null, "name": "convolution1d_34_mpq_model", "nb_filter": 200, "filter_length": 6, "trainable": true, "bias": true, "W_constraint": null, "subsample_length": 1, "init": "uniform", "input_dim": null, "input_length": null, "border_mode": "valid", "activity_regularizer": null, "b_constraint": null, "activation": "relu", "b_regularizer": null}}]}, {"class_name": "Sequential", "config": [{"class_name": "Embedding", "config": {"W_regularizer": null, "name": "embedding_1_semeval_model", "trainable": true, "output_dim": 52, "mask_zero": false, "init": "uniform", "input_dtype": "int32", "input_dim": 1576890, "input_length": 140, "dropout": 0.2, "batch_input_shape": [null, 140], "W_constraint": null, "activity_regularizer": null}}, {"class_name": "ZeroPadding1D", "config": {"padding": 5, "name": "zeropadding1d_1_semeval_model", "trainable": true}}, {"class_name": "Convolution1D", "config": {"W_regularizer": null, "name": "convolution1d_1_semeval_model", "nb_filter": 200, "filter_length": 6, "trainable": true, "bias": true, "W_constraint": null, "subsample_length": 1, "init": "uniform", "input_dim": null, "input_length": null, "border_mode": "valid", "activity_regularizer": null, "b_constraint": null, "activation": "relu", "b_regularizer": null}}, {"class_name": "MaxPooling1D", "config": {"name": "maxpooling1d_1_semeval_model", "border_mode": "valid", "stride": 2, "pool_length": 4, "trainable": true}}, {"class_name": "Convolution1D", "config": {"W_regularizer": null, "name": "convolution1d_2_semeval_model", "nb_filter": 200, "filter_length": 6, "trainable": true, "bias": true, "W_constraint": null, "subsample_length": 1, "init": "uniform", "input_dim": null, "input_length": null, "border_mode": "valid", "activity_regularizer": null, "b_constraint": null, "activation": "relu", "b_regularizer": null}}]}], "output_shape_type": "raw", "mode_type": "raw", "dot_axes": -1, "mode": "concat", "concat_axis": -1, "output_shape": null}}, {"class_name": "MaxPooling1D", "config": {"name": "maxpooling1d_1", "trainable": true, "pool_length": 4, "stride": 2, "border_mode": "valid"}}, {"class_name": "Convolution1D", "config": {"W_regularizer": null, "name": "convolution1d_1", "nb_filter": 200, "filter_length": 6, "trainable": true, "bias": true, "W_constraint": null, "subsample_length": 1, "init": "uniform", "input_dim": null, "input_length": null, "border_mode": "valid", "b_regularizer": null, "b_constraint": null, "activation": "relu", "activity_regularizer": null}}, {"class_name": "MaxPooling1D", "config": {"name": "maxpooling1d_2", "trainable": true, "pool_length": 4, "stride": 2, "border_mode": "valid"}}, {"class_name": "Flatten", "config": {"name": "flatten_1", "trainable": true}}, {"class_name": "Dense", "config": {"W_regularizer": null, "name": "dense_1", "trainable": true, "bias": true, "output_dim": 200, "init": "glorot_uniform", "W_constraint": null, "input_dim": null, "b_regularizer": null, "b_constraint": null, "activation": "linear", "activity_regularizer": null}}, {"class_name": "Dropout", "config": {"name": "dropout_1", "p": 0.2, "trainable": true}}, {"class_name": "Activation", "config": {"name": "activation_1", "activation": "relu", "trainable": true}}, {"class_name": "Dense", "config": {"W_regularizer": null, "name": "dense_2", "trainable": true, "bias": true, "output_dim": 3, "init": "glorot_uniform", "W_constraint": null, "input_dim": null, "b_regularizer": null, "b_constraint": null, "activation": "softmax", "activity_regularizer": null}}], "keras_version": "1.1.1"}