{"config": [{"config": {"layers": [{"config": [{"config": {"input_dtype": "int32", "output_dim": 52, "mask_zero": false, "W_regularizer": null, "activity_regularizer": null, "W_constraint": null, "init": "uniform", "input_length": 140, "batch_input_shape": [null, 140], "input_dim": 1062158, "dropout": 0.2, "trainable": true, "name": "embedding_1_hul_model"}, "class_name": "Embedding"}, {"config": {"padding": 5, "trainable": true, "name": "zeropadding1d_1_hul_model"}, "class_name": "ZeroPadding1D"}, {"config": {"subsample_length": 1, "nb_filter": 200, "W_regularizer": null, "W_constraint": null, "activity_regularizer": null, "filter_length": 6, "init": "uniform", "b_regularizer": null, "b_constraint": null, "input_dim": null, "bias": true, "input_length": null, "activation": "relu", "trainable": true, "name": "convolution1d_1_hul_model", "border_mode": "valid"}, "class_name": "Convolution1D"}, {"config": {"pool_length": 4, "stride": 2, "trainable": true, "name": "maxpooling1d_1_hul_model", "border_mode": "valid"}, "class_name": "MaxPooling1D"}, {"config": {"subsample_length": 1, "nb_filter": 200, "W_regularizer": null, "W_constraint": null, "activity_regularizer": null, "filter_length": 6, "init": "uniform", "b_regularizer": null, "b_constraint": null, "input_dim": null, "bias": true, "input_length": null, "activation": "relu", "trainable": true, "name": "convolution1d_2_hul_model", "border_mode": "valid"}, "class_name": "Convolution1D"}], "class_name": "Sequential"}, {"config": [{"config": {"input_dtype": "int32", "output_dim": 52, "mask_zero": false, "W_regularizer": null, "activity_regularizer": null, "W_constraint": null, "init": "uniform", "input_length": 140, "batch_input_shape": [null, 140], "input_dim": 428669, "dropout": 0.2, "trainable": true, "name": "embedding_1_tac_model"}, "class_name": "Embedding"}, {"config": {"padding": 5, "trainable": true, "name": "zeropadding1d_1_tac_model"}, "class_name": "ZeroPadding1D"}, {"config": {"subsample_length": 1, "nb_filter": 200, "W_regularizer": null, "W_constraint": null, "activity_regularizer": null, "filter_length": 6, "init": "uniform", "b_regularizer": null, "b_constraint": null, "input_dim": null, "bias": true, "input_length": null, "activation": "relu", "trainable": true, "name": "convolution1d_1_tac_model", "border_mode": "valid"}, "class_name": "Convolution1D"}, {"config": {"pool_length": 4, "stride": 2, "trainable": true, "name": "maxpooling1d_1_tac_model", "border_mode": "valid"}, "class_name": "MaxPooling1D"}, {"config": {"subsample_length": 1, "nb_filter": 200, "W_regularizer": null, "W_constraint": null, "activity_regularizer": null, "filter_length": 6, "init": "uniform", "b_regularizer": null, "b_constraint": null, "input_dim": null, "bias": true, "input_length": null, "activation": "relu", "trainable": true, "name": "convolution1d_2_tac_model", "border_mode": "valid"}, "class_name": "Convolution1D"}], "class_name": "Sequential"}, {"config": [{"config": {"input_dtype": "int32", "output_dim": 52, "mask_zero": false, "W_regularizer": null, "activity_regularizer": null, "W_constraint": null, "init": "uniform", "input_length": 140, "batch_input_shape": [null, 140], "input_dim": 428669, "dropout": 0.2, "trainable": true, "name": "embedding_17_mpq_model"}, "class_name": "Embedding"}, {"config": {"padding": 5, "trainable": true, "name": "zeropadding1d_17_mpq_model"}, "class_name": "ZeroPadding1D"}, {"config": {"subsample_length": 1, "nb_filter": 200, "W_regularizer": null, "W_constraint": null, "activity_regularizer": null, "filter_length": 6, "init": "uniform", "b_regularizer": null, "b_constraint": null, "input_dim": null, "bias": true, "input_length": null, "activation": "relu", "trainable": true, "name": "convolution1d_33_mpq_model", "border_mode": "valid"}, "class_name": "Convolution1D"}, {"config": {"pool_length": 4, "stride": 2, "trainable": true, "name": "maxpooling1d_33_mpq_model", "border_mode": "valid"}, "class_name": "MaxPooling1D"}, {"config": {"subsample_length": 1, "nb_filter": 200, "W_regularizer": null, "W_constraint": null, "activity_regularizer": null, "filter_length": 6, "init": "uniform", "b_regularizer": null, "b_constraint": null, "input_dim": null, "bias": true, "input_length": null, "activation": "relu", "trainable": true, "name": "convolution1d_34_mpq_model", "border_mode": "valid"}, "class_name": "Convolution1D"}], "class_name": "Sequential"}, {"config": [{"config": {"input_dtype": "int32", "output_dim": 52, "mask_zero": false, "W_regularizer": null, "activity_regularizer": null, "W_constraint": null, "init": "uniform", "input_length": 140, "batch_input_shape": [null, 140], "input_dim": 1576890, "dropout": 0.2, "trainable": true, "name": "embedding_1_dai_model"}, "class_name": "Embedding"}, {"config": {"padding": 5, "trainable": true, "name": "zeropadding1d_1_dai_model"}, "class_name": "ZeroPadding1D"}, {"config": {"subsample_length": 1, "nb_filter": 200, "W_regularizer": null, "W_constraint": null, "activity_regularizer": null, "filter_length": 6, "init": "uniform", "b_regularizer": null, "b_constraint": null, "input_dim": null, "bias": true, "input_length": null, "activation": "relu", "trainable": true, "name": "convolution1d_1_dai_model", "border_mode": "valid"}, "class_name": "Convolution1D"}, {"config": {"pool_length": 4, "stride": 2, "trainable": true, "name": "maxpooling1d_1_dai_model", "border_mode": "valid"}, "class_name": "MaxPooling1D"}, {"config": {"subsample_length": 1, "nb_filter": 200, "W_regularizer": null, "W_constraint": null, "activity_regularizer": null, "filter_length": 6, "init": "uniform", "b_regularizer": null, "b_constraint": null, "input_dim": null, "bias": true, "input_length": null, "activation": "relu", "trainable": true, "name": "convolution1d_2_dai_model", "border_mode": "valid"}, "class_name": "Convolution1D"}], "class_name": "Sequential"}, {"config": [{"config": {"input_dtype": "int32", "output_dim": 52, "mask_zero": false, "W_regularizer": null, "activity_regularizer": null, "W_constraint": null, "init": "uniform", "input_length": 140, "batch_input_shape": [null, 140], "input_dim": 1576890, "dropout": 0.2, "trainable": true, "name": "embedding_1_dil_model"}, "class_name": "Embedding"}, {"config": {"padding": 5, "trainable": true, "name": "zeropadding1d_1_dil_model"}, "class_name": "ZeroPadding1D"}, {"config": {"subsample_length": 1, "nb_filter": 200, "W_regularizer": null, "W_constraint": null, "activity_regularizer": null, "filter_length": 6, "init": "uniform", "b_regularizer": null, "b_constraint": null, "input_dim": null, "bias": true, "input_length": null, "activation": "relu", "trainable": true, "name": "convolution1d_1_dil_model", "border_mode": "valid"}, "class_name": "Convolution1D"}, {"config": {"pool_length": 4, "stride": 2, "trainable": true, "name": "maxpooling1d_1_dil_model", "border_mode": "valid"}, "class_name": "MaxPooling1D"}, {"config": {"subsample_length": 1, "nb_filter": 200, "W_regularizer": null, "W_constraint": null, "activity_regularizer": null, "filter_length": 6, "init": "uniform", "b_regularizer": null, "b_constraint": null, "input_dim": null, "bias": true, "input_length": null, "activation": "relu", "trainable": true, "name": "convolution1d_2_dil_model", "border_mode": "valid"}, "class_name": "Convolution1D"}], "class_name": "Sequential"}, {"config": [{"config": {"input_dtype": "int32", "output_dim": 52, "mask_zero": false, "W_regularizer": null, "activity_regularizer": null, "W_constraint": null, "init": "uniform", "input_length": 140, "batch_input_shape": [null, 140], "input_dim": 428669, "dropout": 0.2, "trainable": true, "name": "embedding_1_semeval_model"}, "class_name": "Embedding"}, {"config": {"padding": 5, "trainable": true, "name": "zeropadding1d_1_semeval_model"}, "class_name": "ZeroPadding1D"}, {"config": {"subsample_length": 1, "nb_filter": 200, "W_regularizer": null, "W_constraint": null, "activity_regularizer": null, "filter_length": 6, "init": "uniform", "b_regularizer": null, "b_constraint": null, "input_dim": null, "bias": true, "input_length": null, "activation": "relu", "trainable": true, "name": "convolution1d_1_semeval_model", "border_mode": "valid"}, "class_name": "Convolution1D"}, {"config": {"pool_length": 4, "stride": 2, "trainable": true, "name": "maxpooling1d_1_semeval_model", "border_mode": "valid"}, "class_name": "MaxPooling1D"}, {"config": {"subsample_length": 1, "nb_filter": 200, "W_regularizer": null, "W_constraint": null, "activity_regularizer": null, "filter_length": 6, "init": "uniform", "b_regularizer": null, "b_constraint": null, "input_dim": null, "bias": true, "input_length": null, "activation": "relu", "trainable": true, "name": "convolution1d_2_semeval_model", "border_mode": "valid"}, "class_name": "Convolution1D"}], "class_name": "Sequential"}], "mode_type": "raw", "mode": "concat", "concat_axis": -1, "dot_axes": -1, "name": "merge_1", "output_shape_type": "raw", "output_shape": null}, "class_name": "Merge"}, {"config": {"trainable": true, "name": "flatten_1"}, "class_name": "Flatten"}, {"config": {"output_dim": 200, "W_regularizer": null, "activation": "linear", "W_constraint": null, "name": "dense_1", "b_regularizer": null, "b_constraint": null, "input_dim": null, "bias": true, "trainable": true, "init": "glorot_uniform", "activity_regularizer": null}, "class_name": "Dense"}, {"config": {"trainable": true, "name": "dropout_1", "p": 0.2}, "class_name": "Dropout"}, {"config": {"trainable": true, "activation": "relu", "name": "activation_1"}, "class_name": "Activation"}, {"config": {"output_dim": 3, "W_regularizer": null, "activation": "softmax", "W_constraint": null, "name": "dense_2", "b_regularizer": null, "b_constraint": null, "input_dim": null, "bias": true, "trainable": true, "init": "glorot_uniform", "activity_regularizer": null}, "class_name": "Dense"}], "keras_version": "1.1.1", "class_name": "Sequential"}