{"config": [{"config": {"mode": "concat", "name": "merge_1", "output_shape_type": "raw", "output_shape": null, "dot_axes": -1, "mode_type": "raw", "layers": [{"config": [{"config": {"name": "embedding_1_dai_model", "input_dtype": "int32", "trainable": true, "batch_input_shape": [null, 140], "activity_regularizer": null, "input_length": 140, "W_constraint": null, "init": "uniform", "output_dim": 52, "input_dim": 1576890, "dropout": 0.2, "mask_zero": false, "W_regularizer": null}, "class_name": "Embedding"}, {"config": {"name": "zeropadding1d_1_dai_model", "trainable": true, "padding": 5}, "class_name": "ZeroPadding1D"}, {"config": {"name": "convolution1d_1_dai_model", "subsample_length": 1, "bias": true, "b_constraint": null, "trainable": true, "activation": "relu", "init": "uniform", "input_length": null, "W_constraint": null, "nb_filter": 200, "input_dim": null, "border_mode": "valid", "activity_regularizer": null, "filter_length": 6, "W_regularizer": null, "b_regularizer": null}, "class_name": "Convolution1D"}, {"config": {"name": "maxpooling1d_1_dai_model", "stride": 2, "pool_length": 4, "trainable": true, "border_mode": "valid"}, "class_name": "MaxPooling1D"}, {"config": {"name": "convolution1d_2_dai_model", "subsample_length": 1, "bias": true, "b_constraint": null, "trainable": true, "activation": "relu", "init": "uniform", "input_length": null, "W_constraint": null, "nb_filter": 200, "input_dim": null, "border_mode": "valid", "activity_regularizer": null, "filter_length": 6, "W_regularizer": null, "b_regularizer": null}, "class_name": "Convolution1D"}], "class_name": "Sequential"}, {"config": [{"config": {"name": "embedding_1_dil_model", "input_dtype": "int32", "trainable": true, "batch_input_shape": [null, 140], "activity_regularizer": null, "input_length": 140, "W_constraint": null, "init": "uniform", "output_dim": 52, "input_dim": 1576890, "dropout": 0.2, "mask_zero": false, "W_regularizer": null}, "class_name": "Embedding"}, {"config": {"name": "zeropadding1d_1_dil_model", "trainable": true, "padding": 5}, "class_name": "ZeroPadding1D"}, {"config": {"name": "convolution1d_1_dil_model", "subsample_length": 1, "bias": true, "b_constraint": null, "trainable": true, "activation": "relu", "init": "uniform", "input_length": null, "W_constraint": null, "nb_filter": 200, "input_dim": null, "border_mode": "valid", "activity_regularizer": null, "filter_length": 6, "W_regularizer": null, "b_regularizer": null}, "class_name": "Convolution1D"}, {"config": {"name": "maxpooling1d_1_dil_model", "stride": 2, "pool_length": 4, "trainable": true, "border_mode": "valid"}, "class_name": "MaxPooling1D"}, {"config": {"name": "convolution1d_2_dil_model", "subsample_length": 1, "bias": true, "b_constraint": null, "trainable": true, "activation": "relu", "init": "uniform", "input_length": null, "W_constraint": null, "nb_filter": 200, "input_dim": null, "border_mode": "valid", "activity_regularizer": null, "filter_length": 6, "W_regularizer": null, "b_regularizer": null}, "class_name": "Convolution1D"}], "class_name": "Sequential"}, {"config": [{"config": {"name": "embedding_1_hul_model", "input_dtype": "int32", "trainable": true, "batch_input_shape": [null, 140], "activity_regularizer": null, "input_length": 140, "W_constraint": null, "init": "uniform", "output_dim": 52, "input_dim": 1062158, "dropout": 0.2, "mask_zero": false, "W_regularizer": null}, "class_name": "Embedding"}, {"config": {"name": "zeropadding1d_1_hul_model", "trainable": true, "padding": 5}, "class_name": "ZeroPadding1D"}, {"config": {"name": "convolution1d_1_hul_model", "subsample_length": 1, "bias": true, "b_constraint": null, "trainable": true, "activation": "relu", "init": "uniform", "input_length": null, "W_constraint": null, "nb_filter": 200, "input_dim": null, "border_mode": "valid", "activity_regularizer": null, "filter_length": 6, "W_regularizer": null, "b_regularizer": null}, "class_name": "Convolution1D"}, {"config": {"name": "maxpooling1d_1_hul_model", "stride": 2, "pool_length": 4, "trainable": true, "border_mode": "valid"}, "class_name": "MaxPooling1D"}, {"config": {"name": "convolution1d_2_hul_model", "subsample_length": 1, "bias": true, "b_constraint": null, "trainable": true, "activation": "relu", "init": "uniform", "input_length": null, "W_constraint": null, "nb_filter": 200, "input_dim": null, "border_mode": "valid", "activity_regularizer": null, "filter_length": 6, "W_regularizer": null, "b_regularizer": null}, "class_name": "Convolution1D"}], "class_name": "Sequential"}, {"config": [{"config": {"name": "embedding_17_mpq_model", "input_dtype": "int32", "trainable": true, "batch_input_shape": [null, 140], "activity_regularizer": null, "input_length": 140, "W_constraint": null, "init": "uniform", "output_dim": 52, "input_dim": 428669, "dropout": 0.2, "mask_zero": false, "W_regularizer": null}, "class_name": "Embedding"}, {"config": {"name": "zeropadding1d_17_mpq_model", "trainable": true, "padding": 5}, "class_name": "ZeroPadding1D"}, {"config": {"name": "convolution1d_33_mpq_model", "subsample_length": 1, "bias": true, "b_constraint": null, "trainable": true, "activation": "relu", "init": "uniform", "input_length": null, "W_constraint": null, "nb_filter": 200, "input_dim": null, "border_mode": "valid", "activity_regularizer": null, "filter_length": 6, "W_regularizer": null, "b_regularizer": null}, "class_name": "Convolution1D"}, {"config": {"name": "maxpooling1d_33_mpq_model", "stride": 2, "pool_length": 4, "trainable": true, "border_mode": "valid"}, "class_name": "MaxPooling1D"}, {"config": {"name": "convolution1d_34_mpq_model", "subsample_length": 1, "bias": true, "b_constraint": null, "trainable": true, "activation": "relu", "init": "uniform", "input_length": null, "W_constraint": null, "nb_filter": 200, "input_dim": null, "border_mode": "valid", "activity_regularizer": null, "filter_length": 6, "W_regularizer": null, "b_regularizer": null}, "class_name": "Convolution1D"}], "class_name": "Sequential"}, {"config": [{"config": {"name": "embedding_1_semeval_model", "input_dtype": "int32", "trainable": true, "batch_input_shape": [null, 140], "activity_regularizer": null, "input_length": 140, "W_constraint": null, "init": "uniform", "output_dim": 52, "input_dim": 428669, "dropout": 0.2, "mask_zero": false, "W_regularizer": null}, "class_name": "Embedding"}, {"config": {"name": "zeropadding1d_1_semeval_model", "trainable": true, "padding": 5}, "class_name": "ZeroPadding1D"}, {"config": {"name": "convolution1d_1_semeval_model", "subsample_length": 1, "bias": true, "b_constraint": null, "trainable": true, "activation": "relu", "init": "uniform", "input_length": null, "W_constraint": null, "nb_filter": 200, "input_dim": null, "border_mode": "valid", "activity_regularizer": null, "filter_length": 6, "W_regularizer": null, "b_regularizer": null}, "class_name": "Convolution1D"}, {"config": {"name": "maxpooling1d_1_semeval_model", "stride": 2, "pool_length": 4, "trainable": true, "border_mode": "valid"}, "class_name": "MaxPooling1D"}, {"config": {"name": "convolution1d_2_semeval_model", "subsample_length": 1, "bias": true, "b_constraint": null, "trainable": true, "activation": "relu", "init": "uniform", "input_length": null, "W_constraint": null, "nb_filter": 200, "input_dim": null, "border_mode": "valid", "activity_regularizer": null, "filter_length": 6, "W_regularizer": null, "b_regularizer": null}, "class_name": "Convolution1D"}], "class_name": "Sequential"}], "concat_axis": -1}, "class_name": "Merge"}, {"config": {"name": "flatten_1", "trainable": true}, "class_name": "Flatten"}, {"config": {"name": "dense_1", "bias": true, "b_constraint": null, "trainable": true, "activation": "linear", "init": "glorot_uniform", "W_constraint": null, "output_dim": 200, "input_dim": null, "activity_regularizer": null, "W_regularizer": null, "b_regularizer": null}, "class_name": "Dense"}, {"config": {"name": "dropout_1", "p": 0.2, "trainable": true}, "class_name": "Dropout"}, {"config": {"name": "activation_1", "trainable": true, "activation": "relu"}, "class_name": "Activation"}, {"config": {"name": "dense_2", "bias": true, "b_constraint": null, "trainable": true, "activation": "softmax", "init": "glorot_uniform", "W_constraint": null, "output_dim": 3, "input_dim": null, "activity_regularizer": null, "W_regularizer": null, "b_regularizer": null}, "class_name": "Dense"}], "keras_version": "1.1.1", "class_name": "Sequential"}