{"keras_version": "1.1.1", "class_name": "Sequential", "config": [{"class_name": "Merge", "config": {"name": "merge_1", "output_shape_type": "raw", "mode_type": "raw", "dot_axes": -1, "concat_axis": -1, "mode": "concat", "layers": [{"class_name": "Sequential", "config": [{"class_name": "Embedding", "config": {"name": "embedding_1_dil_model", "batch_input_shape": [null, 140], "mask_zero": false, "dropout": 0.2, "init": "uniform", "activity_regularizer": null, "W_regularizer": null, "input_dtype": "int32", "input_dim": 1576890, "input_length": 140, "output_dim": 52, "trainable": true, "W_constraint": null}}, {"class_name": "ZeroPadding1D", "config": {"name": "zeropadding1d_1_dil_model", "padding": 5, "trainable": true}}, {"class_name": "Convolution1D", "config": {"name": "convolution1d_1_dil_model", "subsample_length": 1, "nb_filter": 200, "filter_length": 6, "init": "uniform", "activity_regularizer": null, "activation": "relu", "W_regularizer": null, "b_constraint": null, "bias": true, "b_regularizer": null, "border_mode": "valid", "input_dim": null, "input_length": null, "trainable": true, "W_constraint": null}}, {"class_name": "MaxPooling1D", "config": {"name": "maxpooling1d_1_dil_model", "stride": 2, "pool_length": 4, "border_mode": "valid", "trainable": true}}, {"class_name": "Convolution1D", "config": {"name": "convolution1d_2_dil_model", "subsample_length": 1, "nb_filter": 200, "filter_length": 6, "init": "uniform", "activity_regularizer": null, "activation": "relu", "W_regularizer": null, "b_constraint": null, "bias": true, "b_regularizer": null, "border_mode": "valid", "input_dim": null, "input_length": null, "trainable": true, "W_constraint": null}}]}, {"class_name": "Sequential", "config": [{"class_name": "Embedding", "config": {"name": "embedding_1_hul_model", "batch_input_shape": [null, 140], "mask_zero": false, "dropout": 0.2, "init": "uniform", "activity_regularizer": null, "W_regularizer": null, "input_dtype": "int32", "input_dim": 1062158, "input_length": 140, "output_dim": 52, "trainable": true, "W_constraint": null}}, {"class_name": "ZeroPadding1D", "config": {"name": "zeropadding1d_1_hul_model", "padding": 5, "trainable": true}}, {"class_name": "Convolution1D", "config": {"name": "convolution1d_1_hul_model", "subsample_length": 1, "nb_filter": 200, "filter_length": 6, "init": "uniform", "activity_regularizer": null, "activation": "relu", "W_regularizer": null, "b_constraint": null, "bias": true, "b_regularizer": null, "border_mode": "valid", "input_dim": null, "input_length": null, "trainable": true, "W_constraint": null}}, {"class_name": "MaxPooling1D", "config": {"name": "maxpooling1d_1_hul_model", "stride": 2, "pool_length": 4, "border_mode": "valid", "trainable": true}}, {"class_name": "Convolution1D", "config": {"name": "convolution1d_2_hul_model", "subsample_length": 1, "nb_filter": 200, "filter_length": 6, "init": "uniform", "activity_regularizer": null, "activation": "relu", "W_regularizer": null, "b_constraint": null, "bias": true, "b_regularizer": null, "border_mode": "valid", "input_dim": null, "input_length": null, "trainable": true, "W_constraint": null}}]}, {"class_name": "Sequential", "config": [{"class_name": "Embedding", "config": {"name": "embedding_17_mpq_model", "batch_input_shape": [null, 140], "mask_zero": false, "dropout": 0.2, "init": "uniform", "activity_regularizer": null, "W_regularizer": null, "input_dtype": "int32", "input_dim": 428669, "input_length": 140, "output_dim": 52, "trainable": true, "W_constraint": null}}, {"class_name": "ZeroPadding1D", "config": {"name": "zeropadding1d_17_mpq_model", "padding": 5, "trainable": true}}, {"class_name": "Convolution1D", "config": {"name": "convolution1d_33_mpq_model", "subsample_length": 1, "nb_filter": 200, "filter_length": 6, "init": "uniform", "activity_regularizer": null, "activation": "relu", "W_regularizer": null, "b_constraint": null, "bias": true, "b_regularizer": null, "border_mode": "valid", "input_dim": null, "input_length": null, "trainable": true, "W_constraint": null}}, {"class_name": "MaxPooling1D", "config": {"name": "maxpooling1d_33_mpq_model", "stride": 2, "pool_length": 4, "border_mode": "valid", "trainable": true}}, {"class_name": "Convolution1D", "config": {"name": "convolution1d_34_mpq_model", "subsample_length": 1, "nb_filter": 200, "filter_length": 6, "init": "uniform", "activity_regularizer": null, "activation": "relu", "W_regularizer": null, "b_constraint": null, "bias": true, "b_regularizer": null, "border_mode": "valid", "input_dim": null, "input_length": null, "trainable": true, "W_constraint": null}}]}, {"class_name": "Sequential", "config": [{"class_name": "Embedding", "config": {"name": "embedding_1_semeval_model", "batch_input_shape": [null, 140], "mask_zero": false, "dropout": 0.2, "init": "uniform", "activity_regularizer": null, "W_regularizer": null, "input_dtype": "int32", "input_dim": 428669, "input_length": 140, "output_dim": 52, "trainable": true, "W_constraint": null}}, {"class_name": "ZeroPadding1D", "config": {"name": "zeropadding1d_1_semeval_model", "padding": 5, "trainable": true}}, {"class_name": "Convolution1D", "config": {"name": "convolution1d_1_semeval_model", "subsample_length": 1, "nb_filter": 200, "filter_length": 6, "init": "uniform", "activity_regularizer": null, "activation": "relu", "W_regularizer": null, "b_constraint": null, "bias": true, "b_regularizer": null, "border_mode": "valid", "input_dim": null, "input_length": null, "trainable": true, "W_constraint": null}}, {"class_name": "MaxPooling1D", "config": {"name": "maxpooling1d_1_semeval_model", "stride": 2, "pool_length": 4, "border_mode": "valid", "trainable": true}}, {"class_name": "Convolution1D", "config": {"name": "convolution1d_2_semeval_model", "subsample_length": 1, "nb_filter": 200, "filter_length": 6, "init": "uniform", "activity_regularizer": null, "activation": "relu", "W_regularizer": null, "b_constraint": null, "bias": true, "b_regularizer": null, "border_mode": "valid", "input_dim": null, "input_length": null, "trainable": true, "W_constraint": null}}]}, {"class_name": "Sequential", "config": [{"class_name": "Embedding", "config": {"name": "embedding_1_tac_model", "batch_input_shape": [null, 140], "mask_zero": false, "dropout": 0.2, "init": "uniform", "activity_regularizer": null, "W_regularizer": null, "input_dtype": "int32", "input_dim": 428669, "input_length": 140, "output_dim": 52, "trainable": true, "W_constraint": null}}, {"class_name": "ZeroPadding1D", "config": {"name": "zeropadding1d_1_tac_model", "padding": 5, "trainable": true}}, {"class_name": "Convolution1D", "config": {"name": "convolution1d_1_tac_model", "subsample_length": 1, "nb_filter": 200, "filter_length": 6, "init": "uniform", "activity_regularizer": null, "activation": "relu", "W_regularizer": null, "b_constraint": null, "bias": true, "b_regularizer": null, "border_mode": "valid", "input_dim": null, "input_length": null, "trainable": true, "W_constraint": null}}, {"class_name": "MaxPooling1D", "config": {"name": "maxpooling1d_1_tac_model", "stride": 2, "pool_length": 4, "border_mode": "valid", "trainable": true}}, {"class_name": "Convolution1D", "config": {"name": "convolution1d_2_tac_model", "subsample_length": 1, "nb_filter": 200, "filter_length": 6, "init": "uniform", "activity_regularizer": null, "activation": "relu", "W_regularizer": null, "b_constraint": null, "bias": true, "b_regularizer": null, "border_mode": "valid", "input_dim": null, "input_length": null, "trainable": true, "W_constraint": null}}]}], "output_shape": null}}, {"class_name": "Flatten", "config": {"name": "flatten_1", "trainable": true}}, {"class_name": "Dense", "config": {"name": "dense_1", "activity_regularizer": null, "init": "glorot_uniform", "activation": "linear", "W_regularizer": null, "b_constraint": null, "trainable": true, "b_regularizer": null, "input_dim": null, "output_dim": 200, "bias": true, "W_constraint": null}}, {"class_name": "Dropout", "config": {"name": "dropout_1", "p": 0.2, "trainable": true}}, {"class_name": "Activation", "config": {"name": "activation_1", "activation": "relu", "trainable": true}}, {"class_name": "Dense", "config": {"name": "dense_2", "activity_regularizer": null, "init": "glorot_uniform", "activation": "softmax", "W_regularizer": null, "b_constraint": null, "trainable": true, "b_regularizer": null, "input_dim": null, "output_dim": 3, "bias": true, "W_constraint": null}}]}