{"config": [{"class_name": "Merge", "config": {"name": "merge_1", "layers": [{"class_name": "Sequential", "config": [{"config": {"output_dim": 52, "mask_zero": false, "W_regularizer": null, "batch_input_shape": [null, 140], "trainable": true, "input_dim": 1576890, "input_length": 140, "name": "embedding_1_dai_model", "dropout": 0.2, "W_constraint": null, "input_dtype": "int32", "activity_regularizer": null, "init": "uniform"}, "class_name": "Embedding"}, {"config": {"name": "zeropadding1d_1_dai_model", "padding": 5, "trainable": true}, "class_name": "ZeroPadding1D"}, {"config": {"bias": true, "nb_filter": 200, "subsample_length": 1, "border_mode": "valid", "activation": "relu", "b_constraint": null, "filter_length": 6, "trainable": true, "input_dim": null, "input_length": null, "name": "convolution1d_1_dai_model", "W_constraint": null, "W_regularizer": null, "init": "uniform", "b_regularizer": null, "activity_regularizer": null}, "class_name": "Convolution1D"}, {"config": {"name": "maxpooling1d_1_dai_model", "pool_length": 4, "border_mode": "valid", "trainable": true, "stride": 2}, "class_name": "MaxPooling1D"}, {"config": {"bias": true, "nb_filter": 200, "subsample_length": 1, "border_mode": "valid", "activation": "relu", "b_constraint": null, "filter_length": 6, "trainable": true, "input_dim": null, "input_length": null, "name": "convolution1d_2_dai_model", "W_constraint": null, "W_regularizer": null, "init": "uniform", "b_regularizer": null, "activity_regularizer": null}, "class_name": "Convolution1D"}]}, {"class_name": "Sequential", "config": [{"config": {"output_dim": 52, "mask_zero": false, "W_regularizer": null, "batch_input_shape": [null, 140], "trainable": true, "input_dim": 1576890, "input_length": 140, "name": "embedding_1_dil_model", "dropout": 0.2, "W_constraint": null, "input_dtype": "int32", "activity_regularizer": null, "init": "uniform"}, "class_name": "Embedding"}, {"config": {"name": "zeropadding1d_1_dil_model", "padding": 5, "trainable": true}, "class_name": "ZeroPadding1D"}, {"config": {"bias": true, "nb_filter": 200, "subsample_length": 1, "border_mode": "valid", "activation": "relu", "b_constraint": null, "filter_length": 6, "trainable": true, "input_dim": null, "input_length": null, "name": "convolution1d_1_dil_model", "W_constraint": null, "W_regularizer": null, "init": "uniform", "b_regularizer": null, "activity_regularizer": null}, "class_name": "Convolution1D"}, {"config": {"name": "maxpooling1d_1_dil_model", "pool_length": 4, "border_mode": "valid", "trainable": true, "stride": 2}, "class_name": "MaxPooling1D"}, {"config": {"bias": true, "nb_filter": 200, "subsample_length": 1, "border_mode": "valid", "activation": "relu", "b_constraint": null, "filter_length": 6, "trainable": true, "input_dim": null, "input_length": null, "name": "convolution1d_2_dil_model", "W_constraint": null, "W_regularizer": null, "init": "uniform", "b_regularizer": null, "activity_regularizer": null}, "class_name": "Convolution1D"}]}, {"class_name": "Sequential", "config": [{"config": {"output_dim": 52, "mask_zero": false, "W_regularizer": null, "batch_input_shape": [null, 140], "trainable": true, "input_dim": 1062158, "input_length": 140, "name": "embedding_1_hul_model", "dropout": 0.2, "W_constraint": null, "input_dtype": "int32", "activity_regularizer": null, "init": "uniform"}, "class_name": "Embedding"}, {"config": {"name": "zeropadding1d_1_hul_model", "padding": 5, "trainable": true}, "class_name": "ZeroPadding1D"}, {"config": {"bias": true, "nb_filter": 200, "subsample_length": 1, "border_mode": "valid", "activation": "relu", "b_constraint": null, "filter_length": 6, "trainable": true, "input_dim": null, "input_length": null, "name": "convolution1d_1_hul_model", "W_constraint": null, "W_regularizer": null, "init": "uniform", "b_regularizer": null, "activity_regularizer": null}, "class_name": "Convolution1D"}, {"config": {"name": "maxpooling1d_1_hul_model", "pool_length": 4, "border_mode": "valid", "trainable": true, "stride": 2}, "class_name": "MaxPooling1D"}, {"config": {"bias": true, "nb_filter": 200, "subsample_length": 1, "border_mode": "valid", "activation": "relu", "b_constraint": null, "filter_length": 6, "trainable": true, "input_dim": null, "input_length": null, "name": "convolution1d_2_hul_model", "W_constraint": null, "W_regularizer": null, "init": "uniform", "b_regularizer": null, "activity_regularizer": null}, "class_name": "Convolution1D"}]}, {"class_name": "Sequential", "config": [{"config": {"output_dim": 52, "mask_zero": false, "W_regularizer": null, "batch_input_shape": [null, 140], "trainable": true, "input_dim": 1576890, "input_length": 140, "name": "embedding_1_semeval_model", "dropout": 0.2, "W_constraint": null, "input_dtype": "int32", "activity_regularizer": null, "init": "uniform"}, "class_name": "Embedding"}, {"config": {"name": "zeropadding1d_1_semeval_model", "padding": 5, "trainable": true}, "class_name": "ZeroPadding1D"}, {"config": {"bias": true, "nb_filter": 200, "subsample_length": 1, "border_mode": "valid", "activation": "relu", "b_constraint": null, "filter_length": 6, "trainable": true, "input_dim": null, "input_length": null, "name": "convolution1d_1_semeval_model", "W_constraint": null, "W_regularizer": null, "init": "uniform", "b_regularizer": null, "activity_regularizer": null}, "class_name": "Convolution1D"}, {"config": {"name": "maxpooling1d_1_semeval_model", "pool_length": 4, "border_mode": "valid", "trainable": true, "stride": 2}, "class_name": "MaxPooling1D"}, {"config": {"bias": true, "nb_filter": 200, "subsample_length": 1, "border_mode": "valid", "activation": "relu", "b_constraint": null, "filter_length": 6, "trainable": true, "input_dim": null, "input_length": null, "name": "convolution1d_2_semeval_model", "W_constraint": null, "W_regularizer": null, "init": "uniform", "b_regularizer": null, "activity_regularizer": null}, "class_name": "Convolution1D"}]}, {"class_name": "Sequential", "config": [{"config": {"output_dim": 52, "mask_zero": false, "W_regularizer": null, "batch_input_shape": [null, 140], "trainable": true, "input_dim": 428669, "input_length": 140, "name": "embedding_1_tac_model", "dropout": 0.2, "W_constraint": null, "input_dtype": "int32", "activity_regularizer": null, "init": "uniform"}, "class_name": "Embedding"}, {"config": {"name": "zeropadding1d_1_tac_model", "padding": 5, "trainable": true}, "class_name": "ZeroPadding1D"}, {"config": {"bias": true, "nb_filter": 200, "subsample_length": 1, "border_mode": "valid", "activation": "relu", "b_constraint": null, "filter_length": 6, "trainable": true, "input_dim": null, "input_length": null, "name": "convolution1d_1_tac_model", "W_constraint": null, "W_regularizer": null, "init": "uniform", "b_regularizer": null, "activity_regularizer": null}, "class_name": "Convolution1D"}, {"config": {"name": "maxpooling1d_1_tac_model", "pool_length": 4, "border_mode": "valid", "trainable": true, "stride": 2}, "class_name": "MaxPooling1D"}, {"config": {"bias": true, "nb_filter": 200, "subsample_length": 1, "border_mode": "valid", "activation": "relu", "b_constraint": null, "filter_length": 6, "trainable": true, "input_dim": null, "input_length": null, "name": "convolution1d_2_tac_model", "W_constraint": null, "W_regularizer": null, "init": "uniform", "b_regularizer": null, "activity_regularizer": null}, "class_name": "Convolution1D"}]}], "output_shape_type": "raw", "mode": "concat", "mode_type": "raw", "output_shape": null, "concat_axis": -1, "dot_axes": -1}}, {"class_name": "MaxPooling1D", "config": {"name": "maxpooling1d_1", "pool_length": 4, "border_mode": "valid", "trainable": true, "stride": 2}}, {"class_name": "Convolution1D", "config": {"bias": true, "nb_filter": 200, "subsample_length": 1, "activation": "relu", "filter_length": 6, "b_constraint": null, "input_dim": null, "trainable": true, "name": "convolution1d_1", "input_length": null, "activity_regularizer": null, "W_regularizer": null, "b_regularizer": null, "border_mode": "valid", "W_constraint": null, "init": "uniform"}}, {"class_name": "MaxPooling1D", "config": {"name": "maxpooling1d_2", "pool_length": 4, "border_mode": "valid", "trainable": true, "stride": 2}}, {"class_name": "Flatten", "config": {"name": "flatten_1", "trainable": true}}, {"class_name": "Dense", "config": {"output_dim": 200, "bias": true, "b_constraint": null, "activation": "linear", "input_dim": null, "W_constraint": null, "b_regularizer": null, "name": "dense_1", "activity_regularizer": null, "W_regularizer": null, "trainable": true, "init": "glorot_uniform"}}, {"class_name": "Dropout", "config": {"name": "dropout_1", "trainable": true, "p": 0.2}}, {"class_name": "Activation", "config": {"name": "activation_1", "activation": "relu", "trainable": true}}, {"class_name": "Dense", "config": {"output_dim": 3, "bias": true, "b_constraint": null, "activation": "softmax", "input_dim": null, "W_constraint": null, "b_regularizer": null, "name": "dense_2", "activity_regularizer": null, "W_regularizer": null, "trainable": true, "init": "glorot_uniform"}}], "class_name": "Sequential", "keras_version": "1.1.1"}