{"config": [{"config": {"input_dtype": "int32", "mask_zero": false, "init": "uniform", "W_regularizer": null, "activity_regularizer": null, "dropout": 0.2, "output_dim": 52, "name": "embedding_1", "input_length": 140, "trainable": true, "batch_input_shape": [null, 140], "input_dim": 2950660, "W_constraint": null}, "class_name": "Embedding"}, {"config": {"trainable": true, "padding": 5, "name": "zeropadding1d_1"}, "class_name": "ZeroPadding1D"}, {"config": {"b_constraint": null, "activation": "relu", "filter_length": 6, "init": "uniform", "W_regularizer": null, "b_regularizer": null, "border_mode": "valid", "activity_regularizer": null, "input_dim": null, "subsample_length": 1, "name": "convolution1d_1", "input_length": null, "nb_filter": 200, "trainable": true, "bias": true, "W_constraint": null}, "class_name": "Convolution1D"}, {"config": {"trainable": true, "pool_length": 4, "border_mode": "valid", "name": "maxpooling1d_1", "stride": 2}, "class_name": "MaxPooling1D"}, {"config": {"b_constraint": null, "activation": "relu", "filter_length": 6, "init": "uniform", "W_regularizer": null, "b_regularizer": null, "border_mode": "valid", "activity_regularizer": null, "input_dim": null, "subsample_length": 1, "name": "convolution1d_2", "input_length": null, "nb_filter": 200, "trainable": true, "bias": true, "W_constraint": null}, "class_name": "Convolution1D"}, {"config": {"trainable": true, "pool_length": 66, "border_mode": "valid", "name": "maxpooling1d_2", "stride": 66}, "class_name": "MaxPooling1D"}, {"config": {"trainable": true, "name": "flatten_1"}, "class_name": "Flatten"}, {"config": {"b_constraint": null, "W_constraint": null, "init": "glorot_uniform", "W_regularizer": null, "b_regularizer": null, "activity_regularizer": null, "trainable": true, "output_dim": 200, "name": "dense_1", "activation": "linear", "bias": true, "input_dim": null}, "class_name": "Dense"}, {"config": {"trainable": true, "p": 0.2, "name": "dropout_1"}, "class_name": "Dropout"}, {"config": {"trainable": true, "activation": "relu", "name": "activation_1"}, "class_name": "Activation"}, {"config": {"b_constraint": null, "W_constraint": null, "init": "glorot_uniform", "W_regularizer": null, "b_regularizer": null, "activity_regularizer": null, "trainable": true, "output_dim": 3, "name": "dense_2", "activation": "softmax", "bias": true, "input_dim": null}, "class_name": "Dense"}], "class_name": "Sequential", "keras_version": "1.1.0"}