{"class_name": "Sequential", "keras_version": "1.1.1", "config": [{"class_name": "Merge", "config": {"mode_type": "raw", "output_shape": null, "layers": [{"class_name": "Sequential", "config": [{"class_name": "Embedding", "config": {"trainable": true, "activity_regularizer": null, "mask_zero": false, "batch_input_shape": [null, 140], "input_length": 140, "dropout": 0.2, "init": "uniform", "W_constraint": null, "input_dtype": "int32", "output_dim": 52, "name": "embedding_1_dai_model", "W_regularizer": null, "input_dim": 1576890}}, {"class_name": "ZeroPadding1D", "config": {"name": "zeropadding1d_1_dai_model", "trainable": true, "padding": 5}}, {"class_name": "Convolution1D", "config": {"W_regularizer": null, "trainable": true, "activation": "relu", "activity_regularizer": null, "name": "convolution1d_1_dai_model", "filter_length": 6, "subsample_length": 1, "input_length": null, "init": "uniform", "b_regularizer": null, "W_constraint": null, "bias": true, "b_constraint": null, "border_mode": "valid", "nb_filter": 200, "input_dim": null}}, {"class_name": "MaxPooling1D", "config": {"name": "maxpooling1d_1_dai_model", "stride": 2, "trainable": true, "border_mode": "valid", "pool_length": 4}}, {"class_name": "Convolution1D", "config": {"W_regularizer": null, "trainable": true, "activation": "relu", "activity_regularizer": null, "name": "convolution1d_2_dai_model", "filter_length": 6, "subsample_length": 1, "input_length": null, "init": "uniform", "b_regularizer": null, "W_constraint": null, "bias": true, "b_constraint": null, "border_mode": "valid", "nb_filter": 200, "input_dim": null}}, {"class_name": "MaxPooling1D", "config": {"name": "maxpooling1d_2_dai_model", "stride": 66, "trainable": true, "border_mode": "valid", "pool_length": 66}}, {"class_name": "Flatten", "config": {"trainable": true, "name": "flatten_1_dai_model"}}]}, {"class_name": "Sequential", "config": [{"class_name": "Embedding", "config": {"trainable": true, "activity_regularizer": null, "mask_zero": false, "batch_input_shape": [null, 140], "input_length": 140, "dropout": 0.2, "init": "uniform", "W_constraint": null, "input_dtype": "int32", "output_dim": 52, "name": "embedding_1_dil_model", "W_regularizer": null, "input_dim": 1576890}}, {"class_name": "ZeroPadding1D", "config": {"name": "zeropadding1d_1_dil_model", "trainable": true, "padding": 5}}, {"class_name": "Convolution1D", "config": {"W_regularizer": null, "trainable": true, "activation": "relu", "activity_regularizer": null, "name": "convolution1d_1_dil_model", "filter_length": 6, "subsample_length": 1, "input_length": null, "init": "uniform", "b_regularizer": null, "W_constraint": null, "bias": true, "b_constraint": null, "border_mode": "valid", "nb_filter": 200, "input_dim": null}}, {"class_name": "MaxPooling1D", "config": {"name": "maxpooling1d_1_dil_model", "stride": 2, "trainable": true, "border_mode": "valid", "pool_length": 4}}, {"class_name": "Convolution1D", "config": {"W_regularizer": null, "trainable": true, "activation": "relu", "activity_regularizer": null, "name": "convolution1d_2_dil_model", "filter_length": 6, "subsample_length": 1, "input_length": null, "init": "uniform", "b_regularizer": null, "W_constraint": null, "bias": true, "b_constraint": null, "border_mode": "valid", "nb_filter": 200, "input_dim": null}}, {"class_name": "MaxPooling1D", "config": {"name": "maxpooling1d_2_dil_model", "stride": 66, "trainable": true, "border_mode": "valid", "pool_length": 66}}, {"class_name": "Flatten", "config": {"trainable": true, "name": "flatten_1_dil_model"}}]}, {"class_name": "Sequential", "config": [{"class_name": "Embedding", "config": {"trainable": true, "activity_regularizer": null, "mask_zero": false, "batch_input_shape": [null, 140], "input_length": 140, "dropout": 0.2, "init": "uniform", "W_constraint": null, "input_dtype": "int32", "output_dim": 52, "name": "embedding_1_semeval_model", "W_regularizer": null, "input_dim": 428669}}, {"class_name": "ZeroPadding1D", "config": {"name": "zeropadding1d_1_semeval_model", "trainable": true, "padding": 5}}, {"class_name": "Convolution1D", "config": {"W_regularizer": null, "trainable": true, "activation": "relu", "activity_regularizer": null, "name": "convolution1d_1_semeval_model", "filter_length": 6, "subsample_length": 1, "input_length": null, "init": "uniform", "b_regularizer": null, "W_constraint": null, "bias": true, "b_constraint": null, "border_mode": "valid", "nb_filter": 200, "input_dim": null}}, {"class_name": "MaxPooling1D", "config": {"name": "maxpooling1d_1_semeval_model", "stride": 2, "trainable": true, "border_mode": "valid", "pool_length": 4}}, {"class_name": "Convolution1D", "config": {"W_regularizer": null, "trainable": true, "activation": "relu", "activity_regularizer": null, "name": "convolution1d_2_semeval_model", "filter_length": 6, "subsample_length": 1, "input_length": null, "init": "uniform", "b_regularizer": null, "W_constraint": null, "bias": true, "b_constraint": null, "border_mode": "valid", "nb_filter": 200, "input_dim": null}}, {"class_name": "MaxPooling1D", "config": {"name": "maxpooling1d_2_semeval_model", "stride": 66, "trainable": true, "border_mode": "valid", "pool_length": 66}}, {"class_name": "Flatten", "config": {"trainable": true, "name": "flatten_1_semeval_model"}}]}, {"class_name": "Sequential", "config": [{"class_name": "Embedding", "config": {"trainable": true, "activity_regularizer": null, "mask_zero": false, "batch_input_shape": [null, 140], "input_length": 140, "dropout": 0.2, "init": "uniform", "W_constraint": null, "input_dtype": "int32", "output_dim": 52, "name": "embedding_1_tac_model", "W_regularizer": null, "input_dim": 428669}}, {"class_name": "ZeroPadding1D", "config": {"name": "zeropadding1d_1_tac_model", "trainable": true, "padding": 5}}, {"class_name": "Convolution1D", "config": {"W_regularizer": null, "trainable": true, "activation": "relu", "activity_regularizer": null, "name": "convolution1d_1_tac_model", "filter_length": 6, "subsample_length": 1, "input_length": null, "init": "uniform", "b_regularizer": null, "W_constraint": null, "bias": true, "b_constraint": null, "border_mode": "valid", "nb_filter": 200, "input_dim": null}}, {"class_name": "MaxPooling1D", "config": {"name": "maxpooling1d_1_tac_model", "stride": 2, "trainable": true, "border_mode": "valid", "pool_length": 4}}, {"class_name": "Convolution1D", "config": {"W_regularizer": null, "trainable": true, "activation": "relu", "activity_regularizer": null, "name": "convolution1d_2_tac_model", "filter_length": 6, "subsample_length": 1, "input_length": null, "init": "uniform", "b_regularizer": null, "W_constraint": null, "bias": true, "b_constraint": null, "border_mode": "valid", "nb_filter": 200, "input_dim": null}}, {"class_name": "MaxPooling1D", "config": {"name": "maxpooling1d_2_tac_model", "stride": 66, "trainable": true, "border_mode": "valid", "pool_length": 66}}, {"class_name": "Flatten", "config": {"trainable": true, "name": "flatten_1_tac_model"}}]}, {"class_name": "Sequential", "config": [{"class_name": "Embedding", "config": {"trainable": true, "activity_regularizer": null, "mask_zero": false, "batch_input_shape": [null, 140], "input_length": 140, "dropout": 0.2, "init": "uniform", "W_constraint": null, "input_dtype": "int32", "output_dim": 52, "name": "embedding_1_hul_model", "W_regularizer": null, "input_dim": 1062158}}, {"class_name": "ZeroPadding1D", "config": {"name": "zeropadding1d_1_hul_model", "trainable": true, "padding": 5}}, {"class_name": "Convolution1D", "config": {"W_regularizer": null, "trainable": true, "activation": "relu", "activity_regularizer": null, "name": "convolution1d_1_hul_model", "filter_length": 6, "subsample_length": 1, "input_length": null, "init": "uniform", "b_regularizer": null, "W_constraint": null, "bias": true, "b_constraint": null, "border_mode": "valid", "nb_filter": 200, "input_dim": null}}, {"class_name": "MaxPooling1D", "config": {"name": "maxpooling1d_1_hul_model", "stride": 2, "trainable": true, "border_mode": "valid", "pool_length": 4}}, {"class_name": "Convolution1D", "config": {"W_regularizer": null, "trainable": true, "activation": "relu", "activity_regularizer": null, "name": "convolution1d_2_hul_model", "filter_length": 6, "subsample_length": 1, "input_length": null, "init": "uniform", "b_regularizer": null, "W_constraint": null, "bias": true, "b_constraint": null, "border_mode": "valid", "nb_filter": 200, "input_dim": null}}, {"class_name": "MaxPooling1D", "config": {"name": "maxpooling1d_2_hul_model", "stride": 66, "trainable": true, "border_mode": "valid", "pool_length": 66}}, {"class_name": "Flatten", "config": {"trainable": true, "name": "flatten_1_hul_model"}}]}, {"class_name": "Sequential", "config": [{"class_name": "Embedding", "config": {"trainable": true, "activity_regularizer": null, "mask_zero": false, "batch_input_shape": [null, 140], "input_length": 140, "dropout": 0.2, "init": "uniform", "W_constraint": null, "input_dtype": "int32", "output_dim": 52, "name": "embedding_17_mpq_model", "W_regularizer": null, "input_dim": 428669}}, {"class_name": "ZeroPadding1D", "config": {"name": "zeropadding1d_17_mpq_model", "trainable": true, "padding": 5}}, {"class_name": "Convolution1D", "config": {"W_regularizer": null, "trainable": true, "activation": "relu", "activity_regularizer": null, "name": "convolution1d_33_mpq_model", "filter_length": 6, "subsample_length": 1, "input_length": null, "init": "uniform", "b_regularizer": null, "W_constraint": null, "bias": true, "b_constraint": null, "border_mode": "valid", "nb_filter": 200, "input_dim": null}}, {"class_name": "MaxPooling1D", "config": {"name": "maxpooling1d_33_mpq_model", "stride": 2, "trainable": true, "border_mode": "valid", "pool_length": 4}}, {"class_name": "Convolution1D", "config": {"W_regularizer": null, "trainable": true, "activation": "relu", "activity_regularizer": null, "name": "convolution1d_34_mpq_model", "filter_length": 6, "subsample_length": 1, "input_length": null, "init": "uniform", "b_regularizer": null, "W_constraint": null, "bias": true, "b_constraint": null, "border_mode": "valid", "nb_filter": 200, "input_dim": null}}, {"class_name": "MaxPooling1D", "config": {"name": "maxpooling1d_34_mpq_model", "stride": 66, "trainable": true, "border_mode": "valid", "pool_length": 66}}, {"class_name": "Flatten", "config": {"trainable": true, "name": "flatten_17_mpq_model"}}]}], "concat_axis": -1, "mode": "concat", "output_shape_type": "raw", "name": "merge_1", "dot_axes": -1}}, {"class_name": "Dense", "config": {"trainable": true, "activation": "linear", "activity_regularizer": null, "name": "dense_1", "init": "glorot_uniform", "b_regularizer": null, "W_constraint": null, "bias": true, "b_constraint": null, "output_dim": 1028, "W_regularizer": null, "input_dim": null}}, {"class_name": "Activation", "config": {"trainable": true, "name": "activation_1", "activation": "relu"}}, {"class_name": "Dense", "config": {"trainable": true, "activation": "softmax", "activity_regularizer": null, "name": "dense_2", "init": "glorot_uniform", "b_regularizer": null, "W_constraint": null, "bias": true, "b_constraint": null, "output_dim": 3, "W_regularizer": null, "input_dim": null}}]}