{"class_name": "Sequential", "keras_version": "1.1.1", "config": [{"class_name": "Merge", "config": {"dot_axes": -1, "output_shape": null, "name": "merge_1", "concat_axis": -1, "mode_type": "raw", "mode": "concat", "output_shape_type": "raw", "layers": [{"class_name": "Sequential", "config": [{"class_name": "Embedding", "config": {"input_dim": 1576890, "trainable": true, "mask_zero": false, "activity_regularizer": null, "init": "uniform", "output_dim": 52, "name": "embedding_1_dil_model", "input_length": 140, "W_constraint": null, "W_regularizer": null, "input_dtype": "int32", "dropout": 0.2, "batch_input_shape": [null, 140]}}, {"class_name": "ZeroPadding1D", "config": {"name": "zeropadding1d_1_dil_model", "trainable": true, "padding": 5}}, {"class_name": "Convolution1D", "config": {"border_mode": "valid", "b_regularizer": null, "b_constraint": null, "trainable": true, "activity_regularizer": null, "bias": true, "init": "uniform", "name": "convolution1d_1_dil_model", "filter_length": 6, "input_length": null, "W_constraint": null, "activation": "relu", "W_regularizer": null, "nb_filter": 200, "input_dim": null, "subsample_length": 1}}, {"class_name": "MaxPooling1D", "config": {"border_mode": "valid", "name": "maxpooling1d_1_dil_model", "pool_length": 4, "trainable": true, "stride": 2}}, {"class_name": "Convolution1D", "config": {"border_mode": "valid", "b_regularizer": null, "b_constraint": null, "trainable": true, "activity_regularizer": null, "bias": true, "init": "uniform", "name": "convolution1d_2_dil_model", "filter_length": 6, "input_length": null, "W_constraint": null, "activation": "relu", "W_regularizer": null, "nb_filter": 200, "input_dim": null, "subsample_length": 1}}]}, {"class_name": "Sequential", "config": [{"class_name": "Embedding", "config": {"input_dim": 1062158, "trainable": true, "mask_zero": false, "activity_regularizer": null, "init": "uniform", "output_dim": 52, "name": "embedding_1_hul_model", "input_length": 140, "W_constraint": null, "W_regularizer": null, "input_dtype": "int32", "dropout": 0.2, "batch_input_shape": [null, 140]}}, {"class_name": "ZeroPadding1D", "config": {"name": "zeropadding1d_1_hul_model", "trainable": true, "padding": 5}}, {"class_name": "Convolution1D", "config": {"border_mode": "valid", "b_regularizer": null, "b_constraint": null, "trainable": true, "activity_regularizer": null, "bias": true, "init": "uniform", "name": "convolution1d_1_hul_model", "filter_length": 6, "input_length": null, "W_constraint": null, "activation": "relu", "W_regularizer": null, "nb_filter": 200, "input_dim": null, "subsample_length": 1}}, {"class_name": "MaxPooling1D", "config": {"border_mode": "valid", "name": "maxpooling1d_1_hul_model", "pool_length": 4, "trainable": true, "stride": 2}}, {"class_name": "Convolution1D", "config": {"border_mode": "valid", "b_regularizer": null, "b_constraint": null, "trainable": true, "activity_regularizer": null, "bias": true, "init": "uniform", "name": "convolution1d_2_hul_model", "filter_length": 6, "input_length": null, "W_constraint": null, "activation": "relu", "W_regularizer": null, "nb_filter": 200, "input_dim": null, "subsample_length": 1}}]}, {"class_name": "Sequential", "config": [{"class_name": "Embedding", "config": {"input_dim": 428669, "trainable": true, "mask_zero": false, "activity_regularizer": null, "init": "uniform", "output_dim": 52, "name": "embedding_17_mpq_model", "input_length": 140, "W_constraint": null, "W_regularizer": null, "input_dtype": "int32", "dropout": 0.2, "batch_input_shape": [null, 140]}}, {"class_name": "ZeroPadding1D", "config": {"name": "zeropadding1d_17_mpq_model", "trainable": true, "padding": 5}}, {"class_name": "Convolution1D", "config": {"border_mode": "valid", "b_regularizer": null, "b_constraint": null, "trainable": true, "activity_regularizer": null, "bias": true, "init": "uniform", "name": "convolution1d_33_mpq_model", "filter_length": 6, "input_length": null, "W_constraint": null, "activation": "relu", "W_regularizer": null, "nb_filter": 200, "input_dim": null, "subsample_length": 1}}, {"class_name": "MaxPooling1D", "config": {"border_mode": "valid", "name": "maxpooling1d_33_mpq_model", "pool_length": 4, "trainable": true, "stride": 2}}, {"class_name": "Convolution1D", "config": {"border_mode": "valid", "b_regularizer": null, "b_constraint": null, "trainable": true, "activity_regularizer": null, "bias": true, "init": "uniform", "name": "convolution1d_34_mpq_model", "filter_length": 6, "input_length": null, "W_constraint": null, "activation": "relu", "W_regularizer": null, "nb_filter": 200, "input_dim": null, "subsample_length": 1}}]}, {"class_name": "Sequential", "config": [{"class_name": "Embedding", "config": {"input_dim": 1576890, "trainable": true, "mask_zero": false, "activity_regularizer": null, "init": "uniform", "output_dim": 52, "name": "embedding_1_semeval_model", "input_length": 140, "W_constraint": null, "W_regularizer": null, "input_dtype": "int32", "dropout": 0.2, "batch_input_shape": [null, 140]}}, {"class_name": "ZeroPadding1D", "config": {"name": "zeropadding1d_1_semeval_model", "trainable": true, "padding": 5}}, {"class_name": "Convolution1D", "config": {"border_mode": "valid", "b_regularizer": null, "b_constraint": null, "trainable": true, "activity_regularizer": null, "bias": true, "init": "uniform", "name": "convolution1d_1_semeval_model", "filter_length": 6, "input_length": null, "W_constraint": null, "activation": "relu", "W_regularizer": null, "nb_filter": 200, "input_dim": null, "subsample_length": 1}}, {"class_name": "MaxPooling1D", "config": {"border_mode": "valid", "name": "maxpooling1d_1_semeval_model", "pool_length": 4, "trainable": true, "stride": 2}}, {"class_name": "Convolution1D", "config": {"border_mode": "valid", "b_regularizer": null, "b_constraint": null, "trainable": true, "activity_regularizer": null, "bias": true, "init": "uniform", "name": "convolution1d_2_semeval_model", "filter_length": 6, "input_length": null, "W_constraint": null, "activation": "relu", "W_regularizer": null, "nb_filter": 200, "input_dim": null, "subsample_length": 1}}]}]}}, {"class_name": "MaxPooling1D", "config": {"border_mode": "valid", "trainable": true, "pool_length": 4, "name": "maxpooling1d_1", "stride": 2}}, {"class_name": "Convolution1D", "config": {"border_mode": "valid", "b_regularizer": null, "b_constraint": null, "trainable": true, "activity_regularizer": null, "bias": true, "init": "uniform", "name": "convolution1d_1", "filter_length": 6, "input_length": null, "W_constraint": null, "activation": "relu", "W_regularizer": null, "nb_filter": 200, "input_dim": null, "subsample_length": 1}}, {"class_name": "MaxPooling1D", "config": {"border_mode": "valid", "trainable": true, "pool_length": 4, "name": "maxpooling1d_2", "stride": 2}}, {"class_name": "Flatten", "config": {"name": "flatten_1", "trainable": true}}, {"class_name": "Dense", "config": {"input_dim": null, "b_regularizer": null, "trainable": true, "activity_regularizer": null, "bias": true, "init": "glorot_uniform", "output_dim": 200, "b_constraint": null, "name": "dense_1", "W_constraint": null, "activation": "linear", "W_regularizer": null}}, {"class_name": "Dropout", "config": {"trainable": true, "name": "dropout_1", "p": 0.2}}, {"class_name": "Activation", "config": {"trainable": true, "activation": "relu", "name": "activation_1"}}, {"class_name": "Dense", "config": {"input_dim": null, "b_regularizer": null, "trainable": true, "activity_regularizer": null, "bias": true, "init": "glorot_uniform", "output_dim": 3, "b_constraint": null, "name": "dense_2", "W_constraint": null, "activation": "softmax", "W_regularizer": null}}]}