{"class_name": "Sequential", "keras_version": "1.1.1", "config": [{"class_name": "Embedding", "config": {"name": "embedding_1", "input_length": 140, "init": "uniform", "W_regularizer": null, "W_constraint": null, "activity_regularizer": null, "batch_input_shape": [null, 140], "trainable": true, "input_dtype": "int32", "input_dim": 1576890, "output_dim": 52, "dropout": 0.2, "mask_zero": false}}, {"class_name": "ZeroPadding1D", "config": {"name": "zeropadding1d_1", "padding": 5, "trainable": true}}, {"class_name": "Convolution1D", "config": {"name": "convolution1d_1", "nb_filter": 200, "init": "uniform", "W_regularizer": null, "W_constraint": null, "activity_regularizer": null, "subsample_length": 1, "border_mode": "valid", "trainable": true, "bias": true, "b_regularizer": null, "b_constraint": null, "input_dim": null, "input_length": null, "filter_length": 6, "activation": "relu"}}, {"class_name": "MaxPooling1D", "config": {"name": "maxpooling1d_1", "pool_length": 4, "border_mode": "valid", "trainable": true, "stride": 2}}, {"class_name": "Convolution1D", "config": {"name": "convolution1d_2", "nb_filter": 200, "init": "uniform", "W_regularizer": null, "W_constraint": null, "activity_regularizer": null, "subsample_length": 1, "border_mode": "valid", "trainable": true, "bias": true, "b_regularizer": null, "b_constraint": null, "input_dim": null, "input_length": null, "filter_length": 6, "activation": "relu"}}, {"class_name": "MaxPooling1D", "config": {"name": "maxpooling1d_2", "pool_length": 66, "border_mode": "valid", "trainable": true, "stride": 66}}, {"class_name": "Flatten", "config": {"name": "flatten_1", "trainable": true}}, {"class_name": "Dense", "config": {"name": "dense_1", "init": "glorot_uniform", "W_regularizer": null, "W_constraint": null, "activity_regularizer": null, "trainable": true, "bias": true, "b_regularizer": null, "b_constraint": null, "input_dim": null, "output_dim": 200, "activation": "linear"}}, {"class_name": "Dropout", "config": {"name": "dropout_1", "p": 0.2, "trainable": true}}, {"class_name": "Activation", "config": {"name": "activation_1", "trainable": true, "activation": "relu"}}, {"class_name": "Dense", "config": {"name": "dense_2", "init": "glorot_uniform", "W_regularizer": null, "W_constraint": null, "activity_regularizer": null, "trainable": true, "bias": true, "b_regularizer": null, "b_constraint": null, "input_dim": null, "output_dim": 3, "activation": "softmax"}}]}