{"class_name": "Sequential", "config": [{"class_name": "Merge", "config": {"output_shape_type": "raw", "name": "merge_1", "concat_axis": -1, "layers": [{"class_name": "Sequential", "config": [{"class_name": "Embedding", "config": {"init": "uniform", "name": "embedding_1_semeval_model", "mask_zero": false, "input_dtype": "int32", "input_dim": 428669, "trainable": true, "input_length": 140, "W_constraint": null, "W_regularizer": null, "dropout": 0.2, "output_dim": 52, "batch_input_shape": [null, 140], "activity_regularizer": null}}, {"class_name": "ZeroPadding1D", "config": {"name": "zeropadding1d_1_semeval_model", "trainable": true, "padding": 5}}, {"class_name": "Convolution1D", "config": {"init": "uniform", "name": "convolution1d_1_semeval_model", "filter_length": 6, "nb_filter": 200, "input_dim": null, "trainable": true, "b_regularizer": null, "input_length": null, "bias": true, "W_constraint": null, "W_regularizer": null, "border_mode": "valid", "b_constraint": null, "subsample_length": 1, "activation": "relu", "activity_regularizer": null}}, {"class_name": "MaxPooling1D", "config": {"name": "maxpooling1d_1_semeval_model", "pool_length": 4, "stride": 2, "trainable": true, "border_mode": "valid"}}, {"class_name": "Convolution1D", "config": {"init": "uniform", "name": "convolution1d_2_semeval_model", "filter_length": 6, "nb_filter": 200, "input_dim": null, "trainable": true, "b_regularizer": null, "input_length": null, "bias": true, "W_constraint": null, "W_regularizer": null, "border_mode": "valid", "b_constraint": null, "subsample_length": 1, "activation": "relu", "activity_regularizer": null}}]}, {"class_name": "Sequential", "config": [{"class_name": "Embedding", "config": {"init": "uniform", "name": "embedding_1_dai_model", "mask_zero": false, "input_dtype": "int32", "input_dim": 1576890, "trainable": true, "input_length": 140, "W_constraint": null, "W_regularizer": null, "dropout": 0.2, "output_dim": 52, "batch_input_shape": [null, 140], "activity_regularizer": null}}, {"class_name": "ZeroPadding1D", "config": {"name": "zeropadding1d_1_dai_model", "trainable": true, "padding": 5}}, {"class_name": "Convolution1D", "config": {"init": "uniform", "name": "convolution1d_1_dai_model", "filter_length": 6, "nb_filter": 200, "input_dim": null, "trainable": true, "b_regularizer": null, "input_length": null, "bias": true, "W_constraint": null, "W_regularizer": null, "border_mode": "valid", "b_constraint": null, "subsample_length": 1, "activation": "relu", "activity_regularizer": null}}, {"class_name": "MaxPooling1D", "config": {"name": "maxpooling1d_1_dai_model", "pool_length": 4, "stride": 2, "trainable": true, "border_mode": "valid"}}, {"class_name": "Convolution1D", "config": {"init": "uniform", "name": "convolution1d_2_dai_model", "filter_length": 6, "nb_filter": 200, "input_dim": null, "trainable": true, "b_regularizer": null, "input_length": null, "bias": true, "W_constraint": null, "W_regularizer": null, "border_mode": "valid", "b_constraint": null, "subsample_length": 1, "activation": "relu", "activity_regularizer": null}}]}, {"class_name": "Sequential", "config": [{"class_name": "Embedding", "config": {"init": "uniform", "name": "embedding_1_dil_model", "mask_zero": false, "input_dtype": "int32", "input_dim": 1576890, "trainable": true, "input_length": 140, "W_constraint": null, "W_regularizer": null, "dropout": 0.2, "output_dim": 52, "batch_input_shape": [null, 140], "activity_regularizer": null}}, {"class_name": "ZeroPadding1D", "config": {"name": "zeropadding1d_1_dil_model", "trainable": true, "padding": 5}}, {"class_name": "Convolution1D", "config": {"init": "uniform", "name": "convolution1d_1_dil_model", "filter_length": 6, "nb_filter": 200, "input_dim": null, "trainable": true, "b_regularizer": null, "input_length": null, "bias": true, "W_constraint": null, "W_regularizer": null, "border_mode": "valid", "b_constraint": null, "subsample_length": 1, "activation": "relu", "activity_regularizer": null}}, {"class_name": "MaxPooling1D", "config": {"name": "maxpooling1d_1_dil_model", "pool_length": 4, "stride": 2, "trainable": true, "border_mode": "valid"}}, {"class_name": "Convolution1D", "config": {"init": "uniform", "name": "convolution1d_2_dil_model", "filter_length": 6, "nb_filter": 200, "input_dim": null, "trainable": true, "b_regularizer": null, "input_length": null, "bias": true, "W_constraint": null, "W_regularizer": null, "border_mode": "valid", "b_constraint": null, "subsample_length": 1, "activation": "relu", "activity_regularizer": null}}]}, {"class_name": "Sequential", "config": [{"class_name": "Embedding", "config": {"init": "uniform", "name": "embedding_1_tac_model", "mask_zero": false, "input_dtype": "int32", "input_dim": 428669, "trainable": true, "input_length": 140, "W_constraint": null, "W_regularizer": null, "dropout": 0.2, "output_dim": 52, "batch_input_shape": [null, 140], "activity_regularizer": null}}, {"class_name": "ZeroPadding1D", "config": {"name": "zeropadding1d_1_tac_model", "trainable": true, "padding": 5}}, {"class_name": "Convolution1D", "config": {"init": "uniform", "name": "convolution1d_1_tac_model", "filter_length": 6, "nb_filter": 200, "input_dim": null, "trainable": true, "b_regularizer": null, "input_length": null, "bias": true, "W_constraint": null, "W_regularizer": null, "border_mode": "valid", "b_constraint": null, "subsample_length": 1, "activation": "relu", "activity_regularizer": null}}, {"class_name": "MaxPooling1D", "config": {"name": "maxpooling1d_1_tac_model", "pool_length": 4, "stride": 2, "trainable": true, "border_mode": "valid"}}, {"class_name": "Convolution1D", "config": {"init": "uniform", "name": "convolution1d_2_tac_model", "filter_length": 6, "nb_filter": 200, "input_dim": null, "trainable": true, "b_regularizer": null, "input_length": null, "bias": true, "W_constraint": null, "W_regularizer": null, "border_mode": "valid", "b_constraint": null, "subsample_length": 1, "activation": "relu", "activity_regularizer": null}}]}, {"class_name": "Sequential", "config": [{"class_name": "Embedding", "config": {"init": "uniform", "name": "embedding_1_hul_model", "mask_zero": false, "input_dtype": "int32", "input_dim": 1062158, "trainable": true, "input_length": 140, "W_constraint": null, "W_regularizer": null, "dropout": 0.2, "output_dim": 52, "batch_input_shape": [null, 140], "activity_regularizer": null}}, {"class_name": "ZeroPadding1D", "config": {"name": "zeropadding1d_1_hul_model", "trainable": true, "padding": 5}}, {"class_name": "Convolution1D", "config": {"init": "uniform", "name": "convolution1d_1_hul_model", "filter_length": 6, "nb_filter": 200, "input_dim": null, "trainable": true, "b_regularizer": null, "input_length": null, "bias": true, "W_constraint": null, "W_regularizer": null, "border_mode": "valid", "b_constraint": null, "subsample_length": 1, "activation": "relu", "activity_regularizer": null}}, {"class_name": "MaxPooling1D", "config": {"name": "maxpooling1d_1_hul_model", "pool_length": 4, "stride": 2, "trainable": true, "border_mode": "valid"}}, {"class_name": "Convolution1D", "config": {"init": "uniform", "name": "convolution1d_2_hul_model", "filter_length": 6, "nb_filter": 200, "input_dim": null, "trainable": true, "b_regularizer": null, "input_length": null, "bias": true, "W_constraint": null, "W_regularizer": null, "border_mode": "valid", "b_constraint": null, "subsample_length": 1, "activation": "relu", "activity_regularizer": null}}]}, {"class_name": "Sequential", "config": [{"class_name": "Embedding", "config": {"init": "uniform", "name": "embedding_17_mpq_model", "mask_zero": false, "input_dtype": "int32", "input_dim": 428669, "trainable": true, "input_length": 140, "W_constraint": null, "W_regularizer": null, "dropout": 0.2, "output_dim": 52, "batch_input_shape": [null, 140], "activity_regularizer": null}}, {"class_name": "ZeroPadding1D", "config": {"name": "zeropadding1d_17_mpq_model", "trainable": true, "padding": 5}}, {"class_name": "Convolution1D", "config": {"init": "uniform", "name": "convolution1d_33_mpq_model", "filter_length": 6, "nb_filter": 200, "input_dim": null, "trainable": true, "b_regularizer": null, "input_length": null, "bias": true, "W_constraint": null, "W_regularizer": null, "border_mode": "valid", "b_constraint": null, "subsample_length": 1, "activation": "relu", "activity_regularizer": null}}, {"class_name": "MaxPooling1D", "config": {"name": "maxpooling1d_33_mpq_model", "pool_length": 4, "stride": 2, "trainable": true, "border_mode": "valid"}}, {"class_name": "Convolution1D", "config": {"init": "uniform", "name": "convolution1d_34_mpq_model", "filter_length": 6, "nb_filter": 200, "input_dim": null, "trainable": true, "b_regularizer": null, "input_length": null, "bias": true, "W_constraint": null, "W_regularizer": null, "border_mode": "valid", "b_constraint": null, "subsample_length": 1, "activation": "relu", "activity_regularizer": null}}]}], "mode_type": "raw", "mode": "concat", "output_shape": null, "dot_axes": -1}}, {"class_name": "Flatten", "config": {"name": "flatten_1", "trainable": true}}, {"class_name": "Dense", "config": {"init": "glorot_uniform", "name": "dense_1", "input_dim": null, "activation": "linear", "trainable": true, "bias": true, "b_regularizer": null, "W_constraint": null, "W_regularizer": null, "b_constraint": null, "output_dim": 200, "activity_regularizer": null}}, {"class_name": "Dropout", "config": {"name": "dropout_1", "p": 0.2, "trainable": true}}, {"class_name": "Activation", "config": {"trainable": true, "name": "activation_1", "activation": "relu"}}, {"class_name": "Dense", "config": {"init": "glorot_uniform", "name": "dense_2", "input_dim": null, "activation": "softmax", "trainable": true, "bias": true, "b_regularizer": null, "W_constraint": null, "W_regularizer": null, "b_constraint": null, "output_dim": 3, "activity_regularizer": null}}], "keras_version": "1.1.1"}