{"config": [{"class_name": "Merge", "config": {"layers": [{"class_name": "Sequential", "config": [{"config": {"trainable": true, "W_constraint": null, "init": "uniform", "batch_input_shape": [null, 140], "dropout": 0.2, "output_dim": 52, "activity_regularizer": null, "input_length": 140, "name": "embedding_1_dil_model", "input_dtype": "int32", "input_dim": 1576890, "W_regularizer": null, "mask_zero": false}, "class_name": "Embedding"}, {"config": {"name": "zeropadding1d_1_dil_model", "padding": 5, "trainable": true}, "class_name": "ZeroPadding1D"}, {"config": {"border_mode": "valid", "W_constraint": null, "init": "uniform", "trainable": true, "activity_regularizer": null, "activation": "relu", "filter_length": 6, "name": "convolution1d_1_dil_model", "b_constraint": null, "input_dim": null, "W_regularizer": null, "bias": true, "input_length": null, "b_regularizer": null, "nb_filter": 200, "subsample_length": 1}, "class_name": "Convolution1D"}, {"config": {"pool_length": 4, "name": "maxpooling1d_1_dil_model", "border_mode": "valid", "stride": 2, "trainable": true}, "class_name": "MaxPooling1D"}, {"config": {"border_mode": "valid", "W_constraint": null, "init": "uniform", "trainable": true, "activity_regularizer": null, "activation": "relu", "filter_length": 6, "name": "convolution1d_2_dil_model", "b_constraint": null, "input_dim": null, "W_regularizer": null, "bias": true, "input_length": null, "b_regularizer": null, "nb_filter": 200, "subsample_length": 1}, "class_name": "Convolution1D"}]}, {"class_name": "Sequential", "config": [{"config": {"trainable": true, "W_constraint": null, "init": "uniform", "batch_input_shape": [null, 140], "dropout": 0.2, "output_dim": 52, "activity_regularizer": null, "input_length": 140, "name": "embedding_1_hul_model", "input_dtype": "int32", "input_dim": 1062158, "W_regularizer": null, "mask_zero": false}, "class_name": "Embedding"}, {"config": {"name": "zeropadding1d_1_hul_model", "padding": 5, "trainable": true}, "class_name": "ZeroPadding1D"}, {"config": {"border_mode": "valid", "W_constraint": null, "init": "uniform", "trainable": true, "activity_regularizer": null, "activation": "relu", "filter_length": 6, "name": "convolution1d_1_hul_model", "b_constraint": null, "input_dim": null, "W_regularizer": null, "bias": true, "input_length": null, "b_regularizer": null, "nb_filter": 200, "subsample_length": 1}, "class_name": "Convolution1D"}, {"config": {"pool_length": 4, "name": "maxpooling1d_1_hul_model", "border_mode": "valid", "stride": 2, "trainable": true}, "class_name": "MaxPooling1D"}, {"config": {"border_mode": "valid", "W_constraint": null, "init": "uniform", "trainable": true, "activity_regularizer": null, "activation": "relu", "filter_length": 6, "name": "convolution1d_2_hul_model", "b_constraint": null, "input_dim": null, "W_regularizer": null, "bias": true, "input_length": null, "b_regularizer": null, "nb_filter": 200, "subsample_length": 1}, "class_name": "Convolution1D"}]}, {"class_name": "Sequential", "config": [{"config": {"trainable": true, "W_constraint": null, "init": "uniform", "batch_input_shape": [null, 140], "dropout": 0.2, "output_dim": 52, "activity_regularizer": null, "input_length": 140, "name": "embedding_17_mpq_model", "input_dtype": "int32", "input_dim": 428669, "W_regularizer": null, "mask_zero": false}, "class_name": "Embedding"}, {"config": {"name": "zeropadding1d_17_mpq_model", "padding": 5, "trainable": true}, "class_name": "ZeroPadding1D"}, {"config": {"border_mode": "valid", "W_constraint": null, "init": "uniform", "trainable": true, "activity_regularizer": null, "activation": "relu", "filter_length": 6, "name": "convolution1d_33_mpq_model", "b_constraint": null, "input_dim": null, "W_regularizer": null, "bias": true, "input_length": null, "b_regularizer": null, "nb_filter": 200, "subsample_length": 1}, "class_name": "Convolution1D"}, {"config": {"pool_length": 4, "name": "maxpooling1d_33_mpq_model", "border_mode": "valid", "stride": 2, "trainable": true}, "class_name": "MaxPooling1D"}, {"config": {"border_mode": "valid", "W_constraint": null, "init": "uniform", "trainable": true, "activity_regularizer": null, "activation": "relu", "filter_length": 6, "name": "convolution1d_34_mpq_model", "b_constraint": null, "input_dim": null, "W_regularizer": null, "bias": true, "input_length": null, "b_regularizer": null, "nb_filter": 200, "subsample_length": 1}, "class_name": "Convolution1D"}]}, {"class_name": "Sequential", "config": [{"config": {"trainable": true, "W_constraint": null, "init": "uniform", "batch_input_shape": [null, 140], "dropout": 0.2, "output_dim": 52, "activity_regularizer": null, "input_length": 140, "name": "embedding_1_semeval_model", "input_dtype": "int32", "input_dim": 1576890, "W_regularizer": null, "mask_zero": false}, "class_name": "Embedding"}, {"config": {"name": "zeropadding1d_1_semeval_model", "padding": 5, "trainable": true}, "class_name": "ZeroPadding1D"}, {"config": {"border_mode": "valid", "W_constraint": null, "init": "uniform", "trainable": true, "activity_regularizer": null, "activation": "relu", "filter_length": 6, "name": "convolution1d_1_semeval_model", "b_constraint": null, "input_dim": null, "W_regularizer": null, "bias": true, "input_length": null, "b_regularizer": null, "nb_filter": 200, "subsample_length": 1}, "class_name": "Convolution1D"}, {"config": {"pool_length": 4, "name": "maxpooling1d_1_semeval_model", "border_mode": "valid", "stride": 2, "trainable": true}, "class_name": "MaxPooling1D"}, {"config": {"border_mode": "valid", "W_constraint": null, "init": "uniform", "trainable": true, "activity_regularizer": null, "activation": "relu", "filter_length": 6, "name": "convolution1d_2_semeval_model", "b_constraint": null, "input_dim": null, "W_regularizer": null, "bias": true, "input_length": null, "b_regularizer": null, "nb_filter": 200, "subsample_length": 1}, "class_name": "Convolution1D"}]}], "name": "merge_1", "output_shape": null, "mode_type": "raw", "dot_axes": -1, "output_shape_type": "raw", "mode": "concat", "concat_axis": -1}}, {"class_name": "MaxPooling1D", "config": {"name": "maxpooling1d_1", "border_mode": "valid", "stride": 2, "pool_length": 4, "trainable": true}}, {"class_name": "Convolution1D", "config": {"border_mode": "valid", "W_constraint": null, "init": "uniform", "bias": true, "trainable": true, "activity_regularizer": null, "activation": "relu", "input_length": null, "filter_length": 6, "name": "convolution1d_1", "input_dim": null, "W_regularizer": null, "b_constraint": null, "b_regularizer": null, "nb_filter": 200, "subsample_length": 1}}, {"class_name": "MaxPooling1D", "config": {"name": "maxpooling1d_2", "border_mode": "valid", "stride": 2, "pool_length": 4, "trainable": true}}, {"class_name": "Flatten", "config": {"name": "flatten_1", "trainable": true}}, {"class_name": "Dense", "config": {"trainable": true, "W_constraint": null, "init": "glorot_uniform", "output_dim": 200, "activity_regularizer": null, "activation": "linear", "b_constraint": null, "name": "dense_1", "input_dim": null, "W_regularizer": null, "b_regularizer": null, "bias": true}}, {"class_name": "Dropout", "config": {"p": 0.2, "name": "dropout_1", "trainable": true}}, {"class_name": "Activation", "config": {"name": "activation_1", "trainable": true, "activation": "relu"}}, {"class_name": "Dense", "config": {"trainable": true, "W_constraint": null, "init": "glorot_uniform", "output_dim": 3, "activity_regularizer": null, "activation": "softmax", "b_constraint": null, "name": "dense_2", "input_dim": null, "W_regularizer": null, "b_regularizer": null, "bias": true}}], "class_name": "Sequential", "keras_version": "1.1.1"}