{"keras_version": "1.1.0", "config": [{"config": {"input_length": 140, "mask_zero": false, "output_dim": 52, "W_regularizer": null, "name": "embedding_1", "init": "uniform", "W_constraint": null, "input_dim": 1576890, "activity_regularizer": null, "dropout": 0.2, "trainable": true, "batch_input_shape": [null, 140], "input_dtype": "int32"}, "class_name": "Embedding"}, {"config": {"padding": 5, "trainable": true, "name": "zeropadding1d_1"}, "class_name": "ZeroPadding1D"}, {"config": {"border_mode": "valid", "W_constraint": null, "trainable": true, "b_constraint": null, "init": "uniform", "W_regularizer": null, "name": "convolution1d_1", "subsample_length": 1, "b_regularizer": null, "input_dim": null, "activity_regularizer": null, "activation": "relu", "input_length": null, "bias": true, "nb_filter": 200, "filter_length": 6}, "class_name": "Convolution1D"}, {"config": {"border_mode": "valid", "pool_length": 4, "trainable": true, "name": "maxpooling1d_1", "stride": 2}, "class_name": "MaxPooling1D"}, {"config": {"border_mode": "valid", "W_constraint": null, "trainable": true, "b_constraint": null, "init": "uniform", "W_regularizer": null, "name": "convolution1d_2", "subsample_length": 1, "b_regularizer": null, "input_dim": null, "activity_regularizer": null, "activation": "relu", "input_length": null, "bias": true, "nb_filter": 200, "filter_length": 6}, "class_name": "Convolution1D"}, {"config": {"border_mode": "valid", "pool_length": 66, "trainable": true, "name": "maxpooling1d_2", "stride": 66}, "class_name": "MaxPooling1D"}, {"config": {"name": "flatten_1", "trainable": true}, "class_name": "Flatten"}, {"config": {"b_regularizer": null, "init": "glorot_uniform", "W_regularizer": null, "name": "dense_1", "output_dim": 200, "W_constraint": null, "input_dim": null, "activity_regularizer": null, "activation": "linear", "trainable": true, "bias": true, "b_constraint": null}, "class_name": "Dense"}, {"config": {"trainable": true, "name": "dropout_1", "p": 0.2}, "class_name": "Dropout"}, {"config": {"activation": "relu", "trainable": true, "name": "activation_1"}, "class_name": "Activation"}, {"config": {"b_regularizer": null, "init": "glorot_uniform", "W_regularizer": null, "name": "dense_2", "output_dim": 3, "W_constraint": null, "input_dim": null, "activity_regularizer": null, "activation": "softmax", "trainable": true, "bias": true, "b_constraint": null}, "class_name": "Dense"}], "class_name": "Sequential"}