{"config": [{"class_name": "Merge", "config": {"layers": [{"class_name": "Sequential", "config": [{"config": {"name": "embedding_17_mpq_model", "output_dim": 52, "W_regularizer": null, "mask_zero": false, "trainable": true, "batch_input_shape": [null, 140], "dropout": 0.2, "input_dim": 428669, "input_dtype": "int32", "W_constraint": null, "init": "uniform", "input_length": 140, "activity_regularizer": null}, "class_name": "Embedding"}, {"config": {"name": "zeropadding1d_17_mpq_model", "trainable": true, "padding": 5}, "class_name": "ZeroPadding1D"}, {"config": {"name": "convolution1d_33_mpq_model", "b_regularizer": null, "border_mode": "valid", "W_regularizer": null, "trainable": true, "activity_regularizer": null, "filter_length": 6, "input_dim": null, "subsample_length": 1, "b_constraint": null, "W_constraint": null, "init": "uniform", "nb_filter": 200, "input_length": null, "bias": true, "activation": "relu"}, "class_name": "Convolution1D"}, {"config": {"border_mode": "valid", "stride": 2, "name": "maxpooling1d_33_mpq_model", "pool_length": 4, "trainable": true}, "class_name": "MaxPooling1D"}, {"config": {"name": "convolution1d_34_mpq_model", "b_regularizer": null, "border_mode": "valid", "W_regularizer": null, "trainable": true, "activity_regularizer": null, "filter_length": 6, "input_dim": null, "subsample_length": 1, "b_constraint": null, "W_constraint": null, "init": "uniform", "nb_filter": 200, "input_length": null, "bias": true, "activation": "relu"}, "class_name": "Convolution1D"}]}, {"class_name": "Sequential", "config": [{"config": {"name": "embedding_1_dil_model", "output_dim": 52, "W_regularizer": null, "mask_zero": false, "trainable": true, "batch_input_shape": [null, 140], "dropout": 0.2, "input_dim": 1576890, "input_dtype": "int32", "W_constraint": null, "init": "uniform", "input_length": 140, "activity_regularizer": null}, "class_name": "Embedding"}, {"config": {"name": "zeropadding1d_1_dil_model", "trainable": true, "padding": 5}, "class_name": "ZeroPadding1D"}, {"config": {"name": "convolution1d_1_dil_model", "b_regularizer": null, "border_mode": "valid", "W_regularizer": null, "trainable": true, "activity_regularizer": null, "filter_length": 6, "input_dim": null, "subsample_length": 1, "b_constraint": null, "W_constraint": null, "init": "uniform", "nb_filter": 200, "input_length": null, "bias": true, "activation": "relu"}, "class_name": "Convolution1D"}, {"config": {"border_mode": "valid", "stride": 2, "name": "maxpooling1d_1_dil_model", "pool_length": 4, "trainable": true}, "class_name": "MaxPooling1D"}, {"config": {"name": "convolution1d_2_dil_model", "b_regularizer": null, "border_mode": "valid", "W_regularizer": null, "trainable": true, "activity_regularizer": null, "filter_length": 6, "input_dim": null, "subsample_length": 1, "b_constraint": null, "W_constraint": null, "init": "uniform", "nb_filter": 200, "input_length": null, "bias": true, "activation": "relu"}, "class_name": "Convolution1D"}]}, {"class_name": "Sequential", "config": [{"config": {"name": "embedding_1_tac_model", "output_dim": 52, "W_regularizer": null, "mask_zero": false, "trainable": true, "batch_input_shape": [null, 140], "dropout": 0.2, "input_dim": 428669, "input_dtype": "int32", "W_constraint": null, "init": "uniform", "input_length": 140, "activity_regularizer": null}, "class_name": "Embedding"}, {"config": {"name": "zeropadding1d_1_tac_model", "trainable": true, "padding": 5}, "class_name": "ZeroPadding1D"}, {"config": {"name": "convolution1d_1_tac_model", "b_regularizer": null, "border_mode": "valid", "W_regularizer": null, "trainable": true, "activity_regularizer": null, "filter_length": 6, "input_dim": null, "subsample_length": 1, "b_constraint": null, "W_constraint": null, "init": "uniform", "nb_filter": 200, "input_length": null, "bias": true, "activation": "relu"}, "class_name": "Convolution1D"}, {"config": {"border_mode": "valid", "stride": 2, "name": "maxpooling1d_1_tac_model", "pool_length": 4, "trainable": true}, "class_name": "MaxPooling1D"}, {"config": {"name": "convolution1d_2_tac_model", "b_regularizer": null, "border_mode": "valid", "W_regularizer": null, "trainable": true, "activity_regularizer": null, "filter_length": 6, "input_dim": null, "subsample_length": 1, "b_constraint": null, "W_constraint": null, "init": "uniform", "nb_filter": 200, "input_length": null, "bias": true, "activation": "relu"}, "class_name": "Convolution1D"}]}, {"class_name": "Sequential", "config": [{"config": {"name": "embedding_1_hul_model", "output_dim": 52, "W_regularizer": null, "mask_zero": false, "trainable": true, "batch_input_shape": [null, 140], "dropout": 0.2, "input_dim": 1062158, "input_dtype": "int32", "W_constraint": null, "init": "uniform", "input_length": 140, "activity_regularizer": null}, "class_name": "Embedding"}, {"config": {"name": "zeropadding1d_1_hul_model", "trainable": true, "padding": 5}, "class_name": "ZeroPadding1D"}, {"config": {"name": "convolution1d_1_hul_model", "b_regularizer": null, "border_mode": "valid", "W_regularizer": null, "trainable": true, "activity_regularizer": null, "filter_length": 6, "input_dim": null, "subsample_length": 1, "b_constraint": null, "W_constraint": null, "init": "uniform", "nb_filter": 200, "input_length": null, "bias": true, "activation": "relu"}, "class_name": "Convolution1D"}, {"config": {"border_mode": "valid", "stride": 2, "name": "maxpooling1d_1_hul_model", "pool_length": 4, "trainable": true}, "class_name": "MaxPooling1D"}, {"config": {"name": "convolution1d_2_hul_model", "b_regularizer": null, "border_mode": "valid", "W_regularizer": null, "trainable": true, "activity_regularizer": null, "filter_length": 6, "input_dim": null, "subsample_length": 1, "b_constraint": null, "W_constraint": null, "init": "uniform", "nb_filter": 200, "input_length": null, "bias": true, "activation": "relu"}, "class_name": "Convolution1D"}]}, {"class_name": "Sequential", "config": [{"config": {"name": "embedding_1_semeval_model", "output_dim": 52, "W_regularizer": null, "mask_zero": false, "trainable": true, "batch_input_shape": [null, 140], "dropout": 0.2, "input_dim": 428669, "input_dtype": "int32", "W_constraint": null, "init": "uniform", "input_length": 140, "activity_regularizer": null}, "class_name": "Embedding"}, {"config": {"name": "zeropadding1d_1_semeval_model", "trainable": true, "padding": 5}, "class_name": "ZeroPadding1D"}, {"config": {"name": "convolution1d_1_semeval_model", "b_regularizer": null, "border_mode": "valid", "W_regularizer": null, "trainable": true, "activity_regularizer": null, "filter_length": 6, "input_dim": null, "subsample_length": 1, "b_constraint": null, "W_constraint": null, "init": "uniform", "nb_filter": 200, "input_length": null, "bias": true, "activation": "relu"}, "class_name": "Convolution1D"}, {"config": {"border_mode": "valid", "stride": 2, "name": "maxpooling1d_1_semeval_model", "pool_length": 4, "trainable": true}, "class_name": "MaxPooling1D"}, {"config": {"name": "convolution1d_2_semeval_model", "b_regularizer": null, "border_mode": "valid", "W_regularizer": null, "trainable": true, "activity_regularizer": null, "filter_length": 6, "input_dim": null, "subsample_length": 1, "b_constraint": null, "W_constraint": null, "init": "uniform", "nb_filter": 200, "input_length": null, "bias": true, "activation": "relu"}, "class_name": "Convolution1D"}]}, {"class_name": "Sequential", "config": [{"config": {"name": "embedding_1_dai_model", "output_dim": 52, "W_regularizer": null, "mask_zero": false, "trainable": true, "batch_input_shape": [null, 140], "dropout": 0.2, "input_dim": 1576890, "input_dtype": "int32", "W_constraint": null, "init": "uniform", "input_length": 140, "activity_regularizer": null}, "class_name": "Embedding"}, {"config": {"name": "zeropadding1d_1_dai_model", "trainable": true, "padding": 5}, "class_name": "ZeroPadding1D"}, {"config": {"name": "convolution1d_1_dai_model", "b_regularizer": null, "border_mode": "valid", "W_regularizer": null, "trainable": true, "activity_regularizer": null, "filter_length": 6, "input_dim": null, "subsample_length": 1, "b_constraint": null, "W_constraint": null, "init": "uniform", "nb_filter": 200, "input_length": null, "bias": true, "activation": "relu"}, "class_name": "Convolution1D"}, {"config": {"border_mode": "valid", "stride": 2, "name": "maxpooling1d_1_dai_model", "pool_length": 4, "trainable": true}, "class_name": "MaxPooling1D"}, {"config": {"name": "convolution1d_2_dai_model", "b_regularizer": null, "border_mode": "valid", "W_regularizer": null, "trainable": true, "activity_regularizer": null, "filter_length": 6, "input_dim": null, "subsample_length": 1, "b_constraint": null, "W_constraint": null, "init": "uniform", "nb_filter": 200, "input_length": null, "bias": true, "activation": "relu"}, "class_name": "Convolution1D"}]}], "mode_type": "raw", "dot_axes": -1, "output_shape_type": "raw", "name": "merge_1", "concat_axis": -1, "mode": "concat", "output_shape": null}}, {"class_name": "Flatten", "config": {"name": "flatten_1", "trainable": true}}, {"class_name": "Dense", "config": {"name": "dense_1", "output_dim": 200, "W_regularizer": null, "trainable": true, "activity_regularizer": null, "bias": true, "input_dim": null, "b_regularizer": null, "b_constraint": null, "init": "glorot_uniform", "W_constraint": null, "activation": "linear"}}, {"class_name": "Dropout", "config": {"name": "dropout_1", "trainable": true, "p": 0.2}}, {"class_name": "Activation", "config": {"name": "activation_1", "trainable": true, "activation": "relu"}}, {"class_name": "Dense", "config": {"name": "dense_2", "output_dim": 3, "W_regularizer": null, "trainable": true, "activity_regularizer": null, "bias": true, "input_dim": null, "b_regularizer": null, "b_constraint": null, "init": "glorot_uniform", "W_constraint": null, "activation": "softmax"}}], "class_name": "Sequential", "keras_version": "1.1.1"}