{"class_name": "Sequential", "keras_version": "1.1.1", "config": [{"class_name": "Merge", "config": {"output_shape": null, "layers": [{"class_name": "Sequential", "config": [{"class_name": "Embedding", "config": {"trainable": true, "init": "uniform", "dropout": 0.2, "activity_regularizer": null, "input_length": 140, "mask_zero": false, "W_regularizer": null, "input_dtype": "int32", "name": "embedding_1_dai_model", "batch_input_shape": [null, 140], "output_dim": 52, "W_constraint": null, "input_dim": 1576890}}, {"class_name": "ZeroPadding1D", "config": {"trainable": true, "name": "zeropadding1d_1_dai_model", "padding": 5}}, {"class_name": "Convolution1D", "config": {"trainable": true, "init": "uniform", "W_constraint": null, "activity_regularizer": null, "input_length": null, "b_regularizer": null, "b_constraint": null, "nb_filter": 200, "W_regularizer": null, "activation": "relu", "filter_length": 6, "name": "convolution1d_1_dai_model", "bias": true, "subsample_length": 1, "border_mode": "valid", "input_dim": null}}, {"class_name": "MaxPooling1D", "config": {"trainable": true, "name": "maxpooling1d_1_dai_model", "border_mode": "valid", "pool_length": 4, "stride": 2}}, {"class_name": "Convolution1D", "config": {"trainable": true, "init": "uniform", "W_constraint": null, "activity_regularizer": null, "input_length": null, "b_regularizer": null, "b_constraint": null, "nb_filter": 200, "W_regularizer": null, "activation": "relu", "filter_length": 6, "name": "convolution1d_2_dai_model", "bias": true, "subsample_length": 1, "border_mode": "valid", "input_dim": null}}]}, {"class_name": "Sequential", "config": [{"class_name": "Embedding", "config": {"trainable": true, "init": "uniform", "dropout": 0.2, "activity_regularizer": null, "input_length": 140, "mask_zero": false, "W_regularizer": null, "input_dtype": "int32", "name": "embedding_1_dil_model", "batch_input_shape": [null, 140], "output_dim": 52, "W_constraint": null, "input_dim": 1576890}}, {"class_name": "ZeroPadding1D", "config": {"trainable": true, "name": "zeropadding1d_1_dil_model", "padding": 5}}, {"class_name": "Convolution1D", "config": {"trainable": true, "init": "uniform", "W_constraint": null, "activity_regularizer": null, "input_length": null, "b_regularizer": null, "b_constraint": null, "nb_filter": 200, "W_regularizer": null, "activation": "relu", "filter_length": 6, "name": "convolution1d_1_dil_model", "bias": true, "subsample_length": 1, "border_mode": "valid", "input_dim": null}}, {"class_name": "MaxPooling1D", "config": {"trainable": true, "name": "maxpooling1d_1_dil_model", "border_mode": "valid", "pool_length": 4, "stride": 2}}, {"class_name": "Convolution1D", "config": {"trainable": true, "init": "uniform", "W_constraint": null, "activity_regularizer": null, "input_length": null, "b_regularizer": null, "b_constraint": null, "nb_filter": 200, "W_regularizer": null, "activation": "relu", "filter_length": 6, "name": "convolution1d_2_dil_model", "bias": true, "subsample_length": 1, "border_mode": "valid", "input_dim": null}}]}, {"class_name": "Sequential", "config": [{"class_name": "Embedding", "config": {"trainable": true, "init": "uniform", "dropout": 0.2, "activity_regularizer": null, "input_length": 140, "mask_zero": false, "W_regularizer": null, "input_dtype": "int32", "name": "embedding_1_hul_model", "batch_input_shape": [null, 140], "output_dim": 52, "W_constraint": null, "input_dim": 1062158}}, {"class_name": "ZeroPadding1D", "config": {"trainable": true, "name": "zeropadding1d_1_hul_model", "padding": 5}}, {"class_name": "Convolution1D", "config": {"trainable": true, "init": "uniform", "W_constraint": null, "activity_regularizer": null, "input_length": null, "b_regularizer": null, "b_constraint": null, "nb_filter": 200, "W_regularizer": null, "activation": "relu", "filter_length": 6, "name": "convolution1d_1_hul_model", "bias": true, "subsample_length": 1, "border_mode": "valid", "input_dim": null}}, {"class_name": "MaxPooling1D", "config": {"trainable": true, "name": "maxpooling1d_1_hul_model", "border_mode": "valid", "pool_length": 4, "stride": 2}}, {"class_name": "Convolution1D", "config": {"trainable": true, "init": "uniform", "W_constraint": null, "activity_regularizer": null, "input_length": null, "b_regularizer": null, "b_constraint": null, "nb_filter": 200, "W_regularizer": null, "activation": "relu", "filter_length": 6, "name": "convolution1d_2_hul_model", "bias": true, "subsample_length": 1, "border_mode": "valid", "input_dim": null}}]}, {"class_name": "Sequential", "config": [{"class_name": "Embedding", "config": {"trainable": true, "init": "uniform", "dropout": 0.2, "activity_regularizer": null, "input_length": 140, "mask_zero": false, "W_regularizer": null, "input_dtype": "int32", "name": "embedding_17_mpq_model", "batch_input_shape": [null, 140], "output_dim": 52, "W_constraint": null, "input_dim": 428669}}, {"class_name": "ZeroPadding1D", "config": {"trainable": true, "name": "zeropadding1d_17_mpq_model", "padding": 5}}, {"class_name": "Convolution1D", "config": {"trainable": true, "init": "uniform", "W_constraint": null, "activity_regularizer": null, "input_length": null, "b_regularizer": null, "b_constraint": null, "nb_filter": 200, "W_regularizer": null, "activation": "relu", "filter_length": 6, "name": "convolution1d_33_mpq_model", "bias": true, "subsample_length": 1, "border_mode": "valid", "input_dim": null}}, {"class_name": "MaxPooling1D", "config": {"trainable": true, "name": "maxpooling1d_33_mpq_model", "border_mode": "valid", "pool_length": 4, "stride": 2}}, {"class_name": "Convolution1D", "config": {"trainable": true, "init": "uniform", "W_constraint": null, "activity_regularizer": null, "input_length": null, "b_regularizer": null, "b_constraint": null, "nb_filter": 200, "W_regularizer": null, "activation": "relu", "filter_length": 6, "name": "convolution1d_34_mpq_model", "bias": true, "subsample_length": 1, "border_mode": "valid", "input_dim": null}}]}, {"class_name": "Sequential", "config": [{"class_name": "Embedding", "config": {"trainable": true, "init": "uniform", "dropout": 0.2, "activity_regularizer": null, "input_length": 140, "mask_zero": false, "W_regularizer": null, "input_dtype": "int32", "name": "embedding_1_semeval_model", "batch_input_shape": [null, 140], "output_dim": 52, "W_constraint": null, "input_dim": 428669}}, {"class_name": "ZeroPadding1D", "config": {"trainable": true, "name": "zeropadding1d_1_semeval_model", "padding": 5}}, {"class_name": "Convolution1D", "config": {"trainable": true, "init": "uniform", "W_constraint": null, "activity_regularizer": null, "input_length": null, "b_regularizer": null, "b_constraint": null, "nb_filter": 200, "W_regularizer": null, "activation": "relu", "filter_length": 6, "name": "convolution1d_1_semeval_model", "bias": true, "subsample_length": 1, "border_mode": "valid", "input_dim": null}}, {"class_name": "MaxPooling1D", "config": {"trainable": true, "name": "maxpooling1d_1_semeval_model", "border_mode": "valid", "pool_length": 4, "stride": 2}}, {"class_name": "Convolution1D", "config": {"trainable": true, "init": "uniform", "W_constraint": null, "activity_regularizer": null, "input_length": null, "b_regularizer": null, "b_constraint": null, "nb_filter": 200, "W_regularizer": null, "activation": "relu", "filter_length": 6, "name": "convolution1d_2_semeval_model", "bias": true, "subsample_length": 1, "border_mode": "valid", "input_dim": null}}]}], "name": "merge_1", "mode": "concat", "dot_axes": -1, "concat_axis": -1, "mode_type": "raw", "output_shape_type": "raw"}}, {"class_name": "Flatten", "config": {"trainable": true, "name": "flatten_1"}}, {"class_name": "Dense", "config": {"trainable": true, "init": "glorot_uniform", "activity_regularizer": null, "b_regularizer": null, "b_constraint": null, "W_regularizer": null, "activation": "linear", "bias": true, "name": "dense_1", "output_dim": 200, "W_constraint": null, "input_dim": null}}, {"class_name": "Dropout", "config": {"trainable": true, "name": "dropout_1", "p": 0.2}}, {"class_name": "Activation", "config": {"activation": "relu", "trainable": true, "name": "activation_1"}}, {"class_name": "Dense", "config": {"trainable": true, "init": "glorot_uniform", "activity_regularizer": null, "b_regularizer": null, "b_constraint": null, "W_regularizer": null, "activation": "softmax", "bias": true, "name": "dense_2", "output_dim": 3, "W_constraint": null, "input_dim": null}}]}