{"class_name": "Sequential", "keras_version": "1.1.1", "config": [{"class_name": "Merge", "config": {"layers": [{"class_name": "Sequential", "config": [{"class_name": "Embedding", "config": {"activity_regularizer": null, "mask_zero": false, "trainable": true, "input_dim": 1062158, "name": "embedding_1_hul_model", "dropout": 0.2, "W_regularizer": null, "input_length": 140, "init": "uniform", "output_dim": 52, "W_constraint": null, "batch_input_shape": [null, 140], "input_dtype": "int32"}}, {"class_name": "ZeroPadding1D", "config": {"padding": 5, "trainable": true, "name": "zeropadding1d_1_hul_model"}}, {"class_name": "Convolution1D", "config": {"activity_regularizer": null, "filter_length": 6, "input_length": null, "trainable": true, "subsample_length": 1, "b_constraint": null, "input_dim": null, "name": "convolution1d_1_hul_model", "border_mode": "valid", "bias": true, "b_regularizer": null, "W_regularizer": null, "W_constraint": null, "nb_filter": 200, "init": "uniform", "activation": "relu"}}, {"class_name": "MaxPooling1D", "config": {"stride": 2, "trainable": true, "name": "maxpooling1d_1_hul_model", "border_mode": "valid", "pool_length": 4}}, {"class_name": "Convolution1D", "config": {"activity_regularizer": null, "filter_length": 6, "input_length": null, "trainable": true, "subsample_length": 1, "b_constraint": null, "input_dim": null, "name": "convolution1d_2_hul_model", "border_mode": "valid", "bias": true, "b_regularizer": null, "W_regularizer": null, "W_constraint": null, "nb_filter": 200, "init": "uniform", "activation": "relu"}}, {"class_name": "MaxPooling1D", "config": {"stride": 66, "trainable": true, "name": "maxpooling1d_2_hul_model", "border_mode": "valid", "pool_length": 66}}, {"class_name": "Flatten", "config": {"trainable": true, "name": "flatten_1_hul_model"}}]}, {"class_name": "Sequential", "config": [{"class_name": "Embedding", "config": {"activity_regularizer": null, "mask_zero": false, "trainable": true, "input_dim": 428669, "name": "embedding_17_mpq_model", "dropout": 0.2, "W_regularizer": null, "input_length": 140, "init": "uniform", "output_dim": 52, "W_constraint": null, "batch_input_shape": [null, 140], "input_dtype": "int32"}}, {"class_name": "ZeroPadding1D", "config": {"padding": 5, "trainable": true, "name": "zeropadding1d_17_mpq_model"}}, {"class_name": "Convolution1D", "config": {"activity_regularizer": null, "filter_length": 6, "input_length": null, "trainable": true, "subsample_length": 1, "b_constraint": null, "input_dim": null, "name": "convolution1d_33_mpq_model", "border_mode": "valid", "bias": true, "b_regularizer": null, "W_regularizer": null, "W_constraint": null, "nb_filter": 200, "init": "uniform", "activation": "relu"}}, {"class_name": "MaxPooling1D", "config": {"stride": 2, "trainable": true, "name": "maxpooling1d_33_mpq_model", "border_mode": "valid", "pool_length": 4}}, {"class_name": "Convolution1D", "config": {"activity_regularizer": null, "filter_length": 6, "input_length": null, "trainable": true, "subsample_length": 1, "b_constraint": null, "input_dim": null, "name": "convolution1d_34_mpq_model", "border_mode": "valid", "bias": true, "b_regularizer": null, "W_regularizer": null, "W_constraint": null, "nb_filter": 200, "init": "uniform", "activation": "relu"}}, {"class_name": "MaxPooling1D", "config": {"stride": 66, "trainable": true, "name": "maxpooling1d_34_mpq_model", "border_mode": "valid", "pool_length": 66}}, {"class_name": "Flatten", "config": {"trainable": true, "name": "flatten_17_mpq_model"}}]}, {"class_name": "Sequential", "config": [{"class_name": "Embedding", "config": {"activity_regularizer": null, "mask_zero": false, "trainable": true, "input_dim": 428669, "name": "embedding_1_semeval_model", "dropout": 0.2, "W_regularizer": null, "input_length": 140, "init": "uniform", "output_dim": 52, "W_constraint": null, "batch_input_shape": [null, 140], "input_dtype": "int32"}}, {"class_name": "ZeroPadding1D", "config": {"padding": 5, "trainable": true, "name": "zeropadding1d_1_semeval_model"}}, {"class_name": "Convolution1D", "config": {"activity_regularizer": null, "filter_length": 6, "input_length": null, "trainable": true, "subsample_length": 1, "b_constraint": null, "input_dim": null, "name": "convolution1d_1_semeval_model", "border_mode": "valid", "bias": true, "b_regularizer": null, "W_regularizer": null, "W_constraint": null, "nb_filter": 200, "init": "uniform", "activation": "relu"}}, {"class_name": "MaxPooling1D", "config": {"stride": 2, "trainable": true, "name": "maxpooling1d_1_semeval_model", "border_mode": "valid", "pool_length": 4}}, {"class_name": "Convolution1D", "config": {"activity_regularizer": null, "filter_length": 6, "input_length": null, "trainable": true, "subsample_length": 1, "b_constraint": null, "input_dim": null, "name": "convolution1d_2_semeval_model", "border_mode": "valid", "bias": true, "b_regularizer": null, "W_regularizer": null, "W_constraint": null, "nb_filter": 200, "init": "uniform", "activation": "relu"}}, {"class_name": "MaxPooling1D", "config": {"stride": 66, "trainable": true, "name": "maxpooling1d_2_semeval_model", "border_mode": "valid", "pool_length": 66}}, {"class_name": "Flatten", "config": {"trainable": true, "name": "flatten_1_semeval_model"}}]}], "mode_type": "raw", "concat_axis": -1, "output_shape": null, "dot_axes": -1, "name": "merge_17", "mode": "concat", "output_shape_type": "raw"}}, {"class_name": "Dense", "config": {"activity_regularizer": null, "trainable": true, "b_constraint": null, "input_dim": null, "name": "dense_33", "activation": "linear", "bias": true, "W_regularizer": null, "W_constraint": null, "init": "glorot_uniform", "output_dim": 1028, "b_regularizer": null}}, {"class_name": "Activation", "config": {"trainable": true, "name": "activation_17", "activation": "relu"}}, {"class_name": "Dense", "config": {"activity_regularizer": null, "trainable": true, "b_constraint": null, "input_dim": null, "name": "dense_34", "activation": "softmax", "bias": true, "W_regularizer": null, "W_constraint": null, "init": "glorot_uniform", "output_dim": 3, "b_regularizer": null}}]}