{"keras_version": "1.1.1", "config": [{"class_name": "Embedding", "config": {"trainable": true, "batch_input_shape": [null, 140], "mask_zero": false, "W_constraint": null, "activity_regularizer": null, "input_length": 140, "dropout": 0.2, "input_dim": 1576890, "W_regularizer": null, "init": "uniform", "name": "embedding_1", "output_dim": 52, "input_dtype": "int32"}}, {"class_name": "ZeroPadding1D", "config": {"trainable": true, "padding": 5, "name": "zeropadding1d_1"}}, {"class_name": "Convolution1D", "config": {"trainable": true, "input_length": null, "W_regularizer": null, "nb_filter": 200, "init": "uniform", "filter_length": 6, "name": "convolution1d_1", "activation": "relu", "activity_regularizer": null, "bias": true, "subsample_length": 1, "b_regularizer": null, "border_mode": "valid", "W_constraint": null, "input_dim": null, "b_constraint": null}}, {"class_name": "MaxPooling1D", "config": {"trainable": true, "pool_length": 4, "border_mode": "valid", "stride": 2, "name": "maxpooling1d_1"}}, {"class_name": "Convolution1D", "config": {"trainable": true, "input_length": null, "W_regularizer": null, "nb_filter": 200, "init": "uniform", "filter_length": 6, "name": "convolution1d_2", "activation": "relu", "activity_regularizer": null, "bias": true, "subsample_length": 1, "b_regularizer": null, "border_mode": "valid", "W_constraint": null, "input_dim": null, "b_constraint": null}}, {"class_name": "MaxPooling1D", "config": {"trainable": true, "pool_length": 66, "border_mode": "valid", "stride": 66, "name": "maxpooling1d_2"}}, {"class_name": "Flatten", "config": {"trainable": true, "name": "flatten_1"}}, {"class_name": "Dense", "config": {"trainable": true, "W_regularizer": null, "output_dim": 200, "b_constraint": null, "init": "glorot_uniform", "input_dim": null, "name": "dense_1", "activation": "linear", "activity_regularizer": null, "bias": true, "b_regularizer": null, "W_constraint": null}}, {"class_name": "Dropout", "config": {"trainable": true, "name": "dropout_1", "p": 0.2}}, {"class_name": "Activation", "config": {"trainable": true, "activation": "relu", "name": "activation_1"}}, {"class_name": "Dense", "config": {"trainable": true, "W_regularizer": null, "output_dim": 3, "b_constraint": null, "init": "glorot_uniform", "input_dim": null, "name": "dense_2", "activation": "softmax", "activity_regularizer": null, "bias": true, "b_regularizer": null, "W_constraint": null}}], "class_name": "Sequential"}