{"config": [{"config": {"dot_axes": -1, "concat_axis": -1, "mode": "concat", "name": "merge_1", "output_shape_type": "raw", "output_shape": null, "mode_type": "raw", "layers": [{"config": [{"config": {"dropout": 0.2, "input_length": 140, "mask_zero": false, "batch_input_shape": [null, 140], "activity_regularizer": null, "trainable": true, "W_constraint": null, "input_dim": 1576890, "init": "uniform", "W_regularizer": null, "input_dtype": "int32", "output_dim": 52, "name": "embedding_1_dai_model"}, "class_name": "Embedding"}, {"config": {"name": "zeropadding1d_1_dai_model", "trainable": true, "padding": 5}, "class_name": "ZeroPadding1D"}, {"config": {"nb_filter": 200, "input_length": null, "filter_length": 6, "activation": "relu", "subsample_length": 1, "name": "convolution1d_1_dai_model", "trainable": true, "W_constraint": null, "input_dim": null, "b_regularizer": null, "W_regularizer": null, "b_constraint": null, "border_mode": "valid", "init": "uniform", "activity_regularizer": null, "bias": true}, "class_name": "Convolution1D"}, {"config": {"stride": 2, "name": "maxpooling1d_1_dai_model", "trainable": true, "pool_length": 4, "border_mode": "valid"}, "class_name": "MaxPooling1D"}, {"config": {"nb_filter": 200, "input_length": null, "filter_length": 6, "activation": "relu", "subsample_length": 1, "name": "convolution1d_2_dai_model", "trainable": true, "W_constraint": null, "input_dim": null, "b_regularizer": null, "W_regularizer": null, "b_constraint": null, "border_mode": "valid", "init": "uniform", "activity_regularizer": null, "bias": true}, "class_name": "Convolution1D"}], "class_name": "Sequential"}, {"config": [{"config": {"dropout": 0.2, "input_length": 140, "mask_zero": false, "batch_input_shape": [null, 140], "activity_regularizer": null, "trainable": true, "W_constraint": null, "input_dim": 1576890, "init": "uniform", "W_regularizer": null, "input_dtype": "int32", "output_dim": 52, "name": "embedding_1_dil_model"}, "class_name": "Embedding"}, {"config": {"name": "zeropadding1d_1_dil_model", "trainable": true, "padding": 5}, "class_name": "ZeroPadding1D"}, {"config": {"nb_filter": 200, "input_length": null, "filter_length": 6, "activation": "relu", "subsample_length": 1, "name": "convolution1d_1_dil_model", "trainable": true, "W_constraint": null, "input_dim": null, "b_regularizer": null, "W_regularizer": null, "b_constraint": null, "border_mode": "valid", "init": "uniform", "activity_regularizer": null, "bias": true}, "class_name": "Convolution1D"}, {"config": {"stride": 2, "name": "maxpooling1d_1_dil_model", "trainable": true, "pool_length": 4, "border_mode": "valid"}, "class_name": "MaxPooling1D"}, {"config": {"nb_filter": 200, "input_length": null, "filter_length": 6, "activation": "relu", "subsample_length": 1, "name": "convolution1d_2_dil_model", "trainable": true, "W_constraint": null, "input_dim": null, "b_regularizer": null, "W_regularizer": null, "b_constraint": null, "border_mode": "valid", "init": "uniform", "activity_regularizer": null, "bias": true}, "class_name": "Convolution1D"}], "class_name": "Sequential"}, {"config": [{"config": {"dropout": 0.2, "input_length": 140, "mask_zero": false, "batch_input_shape": [null, 140], "activity_regularizer": null, "trainable": true, "W_constraint": null, "input_dim": 1062158, "init": "uniform", "W_regularizer": null, "input_dtype": "int32", "output_dim": 52, "name": "embedding_1_hul_model"}, "class_name": "Embedding"}, {"config": {"name": "zeropadding1d_1_hul_model", "trainable": true, "padding": 5}, "class_name": "ZeroPadding1D"}, {"config": {"nb_filter": 200, "input_length": null, "filter_length": 6, "activation": "relu", "subsample_length": 1, "name": "convolution1d_1_hul_model", "trainable": true, "W_constraint": null, "input_dim": null, "b_regularizer": null, "W_regularizer": null, "b_constraint": null, "border_mode": "valid", "init": "uniform", "activity_regularizer": null, "bias": true}, "class_name": "Convolution1D"}, {"config": {"stride": 2, "name": "maxpooling1d_1_hul_model", "trainable": true, "pool_length": 4, "border_mode": "valid"}, "class_name": "MaxPooling1D"}, {"config": {"nb_filter": 200, "input_length": null, "filter_length": 6, "activation": "relu", "subsample_length": 1, "name": "convolution1d_2_hul_model", "trainable": true, "W_constraint": null, "input_dim": null, "b_regularizer": null, "W_regularizer": null, "b_constraint": null, "border_mode": "valid", "init": "uniform", "activity_regularizer": null, "bias": true}, "class_name": "Convolution1D"}], "class_name": "Sequential"}, {"config": [{"config": {"dropout": 0.2, "input_length": 140, "mask_zero": false, "batch_input_shape": [null, 140], "activity_regularizer": null, "trainable": true, "W_constraint": null, "input_dim": 1576890, "init": "uniform", "W_regularizer": null, "input_dtype": "int32", "output_dim": 52, "name": "embedding_1_semeval_model"}, "class_name": "Embedding"}, {"config": {"name": "zeropadding1d_1_semeval_model", "trainable": true, "padding": 5}, "class_name": "ZeroPadding1D"}, {"config": {"nb_filter": 200, "input_length": null, "filter_length": 6, "activation": "relu", "subsample_length": 1, "name": "convolution1d_1_semeval_model", "trainable": true, "W_constraint": null, "input_dim": null, "b_regularizer": null, "W_regularizer": null, "b_constraint": null, "border_mode": "valid", "init": "uniform", "activity_regularizer": null, "bias": true}, "class_name": "Convolution1D"}, {"config": {"stride": 2, "name": "maxpooling1d_1_semeval_model", "trainable": true, "pool_length": 4, "border_mode": "valid"}, "class_name": "MaxPooling1D"}, {"config": {"nb_filter": 200, "input_length": null, "filter_length": 6, "activation": "relu", "subsample_length": 1, "name": "convolution1d_2_semeval_model", "trainable": true, "W_constraint": null, "input_dim": null, "b_regularizer": null, "W_regularizer": null, "b_constraint": null, "border_mode": "valid", "init": "uniform", "activity_regularizer": null, "bias": true}, "class_name": "Convolution1D"}], "class_name": "Sequential"}]}, "class_name": "Merge"}, {"config": {"stride": 2, "name": "maxpooling1d_1", "trainable": true, "pool_length": 4, "border_mode": "valid"}, "class_name": "MaxPooling1D"}, {"config": {"nb_filter": 200, "input_length": null, "filter_length": 6, "activation": "relu", "subsample_length": 1, "name": "convolution1d_1", "trainable": true, "W_constraint": null, "input_dim": null, "b_regularizer": null, "W_regularizer": null, "b_constraint": null, "border_mode": "valid", "init": "uniform", "activity_regularizer": null, "bias": true}, "class_name": "Convolution1D"}, {"config": {"stride": 2, "name": "maxpooling1d_2", "trainable": true, "pool_length": 4, "border_mode": "valid"}, "class_name": "MaxPooling1D"}, {"config": {"name": "flatten_1", "trainable": true}, "class_name": "Flatten"}, {"config": {"activation": "linear", "input_dim": null, "name": "dense_1", "trainable": true, "W_constraint": null, "b_regularizer": null, "W_regularizer": null, "b_constraint": null, "bias": true, "init": "glorot_uniform", "activity_regularizer": null, "output_dim": 200}, "class_name": "Dense"}, {"config": {"name": "dropout_1", "trainable": true, "p": 0.2}, "class_name": "Dropout"}, {"config": {"name": "activation_1", "trainable": true, "activation": "relu"}, "class_name": "Activation"}, {"config": {"activation": "softmax", "input_dim": null, "name": "dense_2", "trainable": true, "W_constraint": null, "b_regularizer": null, "W_regularizer": null, "b_constraint": null, "bias": true, "init": "glorot_uniform", "activity_regularizer": null, "output_dim": 3}, "class_name": "Dense"}], "class_name": "Sequential", "keras_version": "1.1.1"}