{"keras_version": "1.1.1", "class_name": "Sequential", "config": [{"class_name": "Merge", "config": {"output_shape": null, "name": "merge_1", "layers": [{"class_name": "Sequential", "config": [{"class_name": "Embedding", "config": {"dropout": 0.2, "batch_input_shape": [null, 140], "init": "uniform", "name": "embedding_1_dai_model", "input_dtype": "int32", "trainable": true, "W_constraint": null, "W_regularizer": null, "mask_zero": false, "activity_regularizer": null, "input_length": 140, "input_dim": 1576890, "output_dim": 52}}, {"class_name": "ZeroPadding1D", "config": {"name": "zeropadding1d_1_dai_model", "padding": 5, "trainable": true}}, {"class_name": "Convolution1D", "config": {"activation": "relu", "init": "uniform", "subsample_length": 1, "W_regularizer": null, "input_length": null, "nb_filter": 200, "trainable": true, "W_constraint": null, "name": "convolution1d_1_dai_model", "border_mode": "valid", "b_regularizer": null, "bias": true, "activity_regularizer": null, "input_dim": null, "filter_length": 6, "b_constraint": null}}, {"class_name": "MaxPooling1D", "config": {"stride": 2, "name": "maxpooling1d_1_dai_model", "border_mode": "valid", "pool_length": 4, "trainable": true}}, {"class_name": "Convolution1D", "config": {"activation": "relu", "init": "uniform", "subsample_length": 1, "W_regularizer": null, "input_length": null, "nb_filter": 200, "trainable": true, "W_constraint": null, "name": "convolution1d_2_dai_model", "border_mode": "valid", "b_regularizer": null, "bias": true, "activity_regularizer": null, "input_dim": null, "filter_length": 6, "b_constraint": null}}]}, {"class_name": "Sequential", "config": [{"class_name": "Embedding", "config": {"dropout": 0.2, "batch_input_shape": [null, 140], "init": "uniform", "name": "embedding_1_dil_model", "input_dtype": "int32", "trainable": true, "W_constraint": null, "W_regularizer": null, "mask_zero": false, "activity_regularizer": null, "input_length": 140, "input_dim": 1576890, "output_dim": 52}}, {"class_name": "ZeroPadding1D", "config": {"name": "zeropadding1d_1_dil_model", "padding": 5, "trainable": true}}, {"class_name": "Convolution1D", "config": {"activation": "relu", "init": "uniform", "subsample_length": 1, "W_regularizer": null, "input_length": null, "nb_filter": 200, "trainable": true, "W_constraint": null, "name": "convolution1d_1_dil_model", "border_mode": "valid", "b_regularizer": null, "bias": true, "activity_regularizer": null, "input_dim": null, "filter_length": 6, "b_constraint": null}}, {"class_name": "MaxPooling1D", "config": {"stride": 2, "name": "maxpooling1d_1_dil_model", "border_mode": "valid", "pool_length": 4, "trainable": true}}, {"class_name": "Convolution1D", "config": {"activation": "relu", "init": "uniform", "subsample_length": 1, "W_regularizer": null, "input_length": null, "nb_filter": 200, "trainable": true, "W_constraint": null, "name": "convolution1d_2_dil_model", "border_mode": "valid", "b_regularizer": null, "bias": true, "activity_regularizer": null, "input_dim": null, "filter_length": 6, "b_constraint": null}}]}, {"class_name": "Sequential", "config": [{"class_name": "Embedding", "config": {"dropout": 0.2, "batch_input_shape": [null, 140], "init": "uniform", "name": "embedding_1_semeval_model", "input_dtype": "int32", "trainable": true, "W_constraint": null, "W_regularizer": null, "mask_zero": false, "activity_regularizer": null, "input_length": 140, "input_dim": 1576890, "output_dim": 52}}, {"class_name": "ZeroPadding1D", "config": {"name": "zeropadding1d_1_semeval_model", "padding": 5, "trainable": true}}, {"class_name": "Convolution1D", "config": {"activation": "relu", "init": "uniform", "subsample_length": 1, "W_regularizer": null, "input_length": null, "nb_filter": 200, "trainable": true, "W_constraint": null, "name": "convolution1d_1_semeval_model", "border_mode": "valid", "b_regularizer": null, "bias": true, "activity_regularizer": null, "input_dim": null, "filter_length": 6, "b_constraint": null}}, {"class_name": "MaxPooling1D", "config": {"stride": 2, "name": "maxpooling1d_1_semeval_model", "border_mode": "valid", "pool_length": 4, "trainable": true}}, {"class_name": "Convolution1D", "config": {"activation": "relu", "init": "uniform", "subsample_length": 1, "W_regularizer": null, "input_length": null, "nb_filter": 200, "trainable": true, "W_constraint": null, "name": "convolution1d_2_semeval_model", "border_mode": "valid", "b_regularizer": null, "bias": true, "activity_regularizer": null, "input_dim": null, "filter_length": 6, "b_constraint": null}}]}], "mode": "concat", "output_shape_type": "raw", "concat_axis": -1, "dot_axes": -1, "mode_type": "raw"}}, {"class_name": "MaxPooling1D", "config": {"stride": 2, "name": "maxpooling1d_1", "border_mode": "valid", "trainable": true, "pool_length": 4}}, {"class_name": "Convolution1D", "config": {"activation": "relu", "init": "uniform", "subsample_length": 1, "name": "convolution1d_1", "nb_filter": 200, "trainable": true, "W_constraint": null, "W_regularizer": null, "border_mode": "valid", "b_regularizer": null, "bias": true, "input_length": null, "activity_regularizer": null, "input_dim": null, "filter_length": 6, "b_constraint": null}}, {"class_name": "MaxPooling1D", "config": {"stride": 2, "name": "maxpooling1d_2", "border_mode": "valid", "trainable": true, "pool_length": 4}}, {"class_name": "Flatten", "config": {"name": "flatten_1", "trainable": true}}, {"class_name": "Dense", "config": {"activation": "linear", "init": "glorot_uniform", "name": "dense_1", "trainable": true, "W_constraint": null, "W_regularizer": null, "activity_regularizer": null, "b_regularizer": null, "bias": true, "input_dim": null, "b_constraint": null, "output_dim": 200}}, {"class_name": "Dropout", "config": {"name": "dropout_1", "p": 0.2, "trainable": true}}, {"class_name": "Activation", "config": {"name": "activation_1", "activation": "relu", "trainable": true}}, {"class_name": "Dense", "config": {"activation": "softmax", "init": "glorot_uniform", "name": "dense_2", "trainable": true, "W_constraint": null, "W_regularizer": null, "activity_regularizer": null, "b_regularizer": null, "bias": true, "input_dim": null, "b_constraint": null, "output_dim": 3}}]}