{"keras_version": "1.1.1", "config": [{"class_name": "Merge", "config": {"name": "merge_1", "output_shape": null, "mode": "concat", "dot_axes": -1, "concat_axis": -1, "layers": [{"class_name": "Sequential", "config": [{"config": {"name": "embedding_1_hul_model", "init": "uniform", "dropout": 0.2, "batch_input_shape": [null, 140], "input_dim": 1062158, "input_dtype": "int32", "W_regularizer": null, "output_dim": 52, "trainable": true, "mask_zero": false, "input_length": 140, "W_constraint": null, "activity_regularizer": null}, "class_name": "Embedding"}, {"config": {"padding": 5, "name": "zeropadding1d_1_hul_model", "trainable": true}, "class_name": "ZeroPadding1D"}, {"config": {"name": "convolution1d_1_hul_model", "init": "uniform", "nb_filter": 200, "W_constraint": null, "filter_length": 6, "input_dim": null, "subsample_length": 1, "b_regularizer": null, "activation": "relu", "trainable": true, "W_regularizer": null, "b_constraint": null, "bias": true, "activity_regularizer": null, "border_mode": "valid", "input_length": null}, "class_name": "Convolution1D"}, {"config": {"stride": 2, "name": "maxpooling1d_1_hul_model", "pool_length": 4, "trainable": true, "border_mode": "valid"}, "class_name": "MaxPooling1D"}, {"config": {"name": "convolution1d_2_hul_model", "init": "uniform", "nb_filter": 200, "W_constraint": null, "filter_length": 6, "input_dim": null, "subsample_length": 1, "b_regularizer": null, "activation": "relu", "trainable": true, "W_regularizer": null, "b_constraint": null, "bias": true, "activity_regularizer": null, "border_mode": "valid", "input_length": null}, "class_name": "Convolution1D"}]}, {"class_name": "Sequential", "config": [{"config": {"name": "embedding_1_tac_model", "init": "uniform", "dropout": 0.2, "batch_input_shape": [null, 140], "input_dim": 428669, "input_dtype": "int32", "W_regularizer": null, "output_dim": 52, "trainable": true, "mask_zero": false, "input_length": 140, "W_constraint": null, "activity_regularizer": null}, "class_name": "Embedding"}, {"config": {"padding": 5, "name": "zeropadding1d_1_tac_model", "trainable": true}, "class_name": "ZeroPadding1D"}, {"config": {"name": "convolution1d_1_tac_model", "init": "uniform", "nb_filter": 200, "W_constraint": null, "filter_length": 6, "input_dim": null, "subsample_length": 1, "b_regularizer": null, "activation": "relu", "trainable": true, "W_regularizer": null, "b_constraint": null, "bias": true, "activity_regularizer": null, "border_mode": "valid", "input_length": null}, "class_name": "Convolution1D"}, {"config": {"stride": 2, "name": "maxpooling1d_1_tac_model", "pool_length": 4, "trainable": true, "border_mode": "valid"}, "class_name": "MaxPooling1D"}, {"config": {"name": "convolution1d_2_tac_model", "init": "uniform", "nb_filter": 200, "W_constraint": null, "filter_length": 6, "input_dim": null, "subsample_length": 1, "b_regularizer": null, "activation": "relu", "trainable": true, "W_regularizer": null, "b_constraint": null, "bias": true, "activity_regularizer": null, "border_mode": "valid", "input_length": null}, "class_name": "Convolution1D"}]}, {"class_name": "Sequential", "config": [{"config": {"name": "embedding_1_dil_model", "init": "uniform", "dropout": 0.2, "batch_input_shape": [null, 140], "input_dim": 1576890, "input_dtype": "int32", "W_regularizer": null, "output_dim": 52, "trainable": true, "mask_zero": false, "input_length": 140, "W_constraint": null, "activity_regularizer": null}, "class_name": "Embedding"}, {"config": {"padding": 5, "name": "zeropadding1d_1_dil_model", "trainable": true}, "class_name": "ZeroPadding1D"}, {"config": {"name": "convolution1d_1_dil_model", "init": "uniform", "nb_filter": 200, "W_constraint": null, "filter_length": 6, "input_dim": null, "subsample_length": 1, "b_regularizer": null, "activation": "relu", "trainable": true, "W_regularizer": null, "b_constraint": null, "bias": true, "activity_regularizer": null, "border_mode": "valid", "input_length": null}, "class_name": "Convolution1D"}, {"config": {"stride": 2, "name": "maxpooling1d_1_dil_model", "pool_length": 4, "trainable": true, "border_mode": "valid"}, "class_name": "MaxPooling1D"}, {"config": {"name": "convolution1d_2_dil_model", "init": "uniform", "nb_filter": 200, "W_constraint": null, "filter_length": 6, "input_dim": null, "subsample_length": 1, "b_regularizer": null, "activation": "relu", "trainable": true, "W_regularizer": null, "b_constraint": null, "bias": true, "activity_regularizer": null, "border_mode": "valid", "input_length": null}, "class_name": "Convolution1D"}]}, {"class_name": "Sequential", "config": [{"config": {"name": "embedding_17_mpq_model", "init": "uniform", "dropout": 0.2, "batch_input_shape": [null, 140], "input_dim": 428669, "input_dtype": "int32", "W_regularizer": null, "output_dim": 52, "trainable": true, "mask_zero": false, "input_length": 140, "W_constraint": null, "activity_regularizer": null}, "class_name": "Embedding"}, {"config": {"padding": 5, "name": "zeropadding1d_17_mpq_model", "trainable": true}, "class_name": "ZeroPadding1D"}, {"config": {"name": "convolution1d_33_mpq_model", "init": "uniform", "nb_filter": 200, "W_constraint": null, "filter_length": 6, "input_dim": null, "subsample_length": 1, "b_regularizer": null, "activation": "relu", "trainable": true, "W_regularizer": null, "b_constraint": null, "bias": true, "activity_regularizer": null, "border_mode": "valid", "input_length": null}, "class_name": "Convolution1D"}, {"config": {"stride": 2, "name": "maxpooling1d_33_mpq_model", "pool_length": 4, "trainable": true, "border_mode": "valid"}, "class_name": "MaxPooling1D"}, {"config": {"name": "convolution1d_34_mpq_model", "init": "uniform", "nb_filter": 200, "W_constraint": null, "filter_length": 6, "input_dim": null, "subsample_length": 1, "b_regularizer": null, "activation": "relu", "trainable": true, "W_regularizer": null, "b_constraint": null, "bias": true, "activity_regularizer": null, "border_mode": "valid", "input_length": null}, "class_name": "Convolution1D"}]}, {"class_name": "Sequential", "config": [{"config": {"name": "embedding_1_dai_model", "init": "uniform", "dropout": 0.2, "batch_input_shape": [null, 140], "input_dim": 1576890, "input_dtype": "int32", "W_regularizer": null, "output_dim": 52, "trainable": true, "mask_zero": false, "input_length": 140, "W_constraint": null, "activity_regularizer": null}, "class_name": "Embedding"}, {"config": {"padding": 5, "name": "zeropadding1d_1_dai_model", "trainable": true}, "class_name": "ZeroPadding1D"}, {"config": {"name": "convolution1d_1_dai_model", "init": "uniform", "nb_filter": 200, "W_constraint": null, "filter_length": 6, "input_dim": null, "subsample_length": 1, "b_regularizer": null, "activation": "relu", "trainable": true, "W_regularizer": null, "b_constraint": null, "bias": true, "activity_regularizer": null, "border_mode": "valid", "input_length": null}, "class_name": "Convolution1D"}, {"config": {"stride": 2, "name": "maxpooling1d_1_dai_model", "pool_length": 4, "trainable": true, "border_mode": "valid"}, "class_name": "MaxPooling1D"}, {"config": {"name": "convolution1d_2_dai_model", "init": "uniform", "nb_filter": 200, "W_constraint": null, "filter_length": 6, "input_dim": null, "subsample_length": 1, "b_regularizer": null, "activation": "relu", "trainable": true, "W_regularizer": null, "b_constraint": null, "bias": true, "activity_regularizer": null, "border_mode": "valid", "input_length": null}, "class_name": "Convolution1D"}]}, {"class_name": "Sequential", "config": [{"config": {"name": "embedding_1_semeval_model", "init": "uniform", "dropout": 0.2, "batch_input_shape": [null, 140], "input_dim": 428669, "input_dtype": "int32", "W_regularizer": null, "output_dim": 52, "trainable": true, "mask_zero": false, "input_length": 140, "W_constraint": null, "activity_regularizer": null}, "class_name": "Embedding"}, {"config": {"padding": 5, "name": "zeropadding1d_1_semeval_model", "trainable": true}, "class_name": "ZeroPadding1D"}, {"config": {"name": "convolution1d_1_semeval_model", "init": "uniform", "nb_filter": 200, "W_constraint": null, "filter_length": 6, "input_dim": null, "subsample_length": 1, "b_regularizer": null, "activation": "relu", "trainable": true, "W_regularizer": null, "b_constraint": null, "bias": true, "activity_regularizer": null, "border_mode": "valid", "input_length": null}, "class_name": "Convolution1D"}, {"config": {"stride": 2, "name": "maxpooling1d_1_semeval_model", "pool_length": 4, "trainable": true, "border_mode": "valid"}, "class_name": "MaxPooling1D"}, {"config": {"name": "convolution1d_2_semeval_model", "init": "uniform", "nb_filter": 200, "W_constraint": null, "filter_length": 6, "input_dim": null, "subsample_length": 1, "b_regularizer": null, "activation": "relu", "trainable": true, "W_regularizer": null, "b_constraint": null, "bias": true, "activity_regularizer": null, "border_mode": "valid", "input_length": null}, "class_name": "Convolution1D"}]}], "output_shape_type": "raw", "mode_type": "raw"}}, {"class_name": "Flatten", "config": {"name": "flatten_1", "trainable": true}}, {"class_name": "Dense", "config": {"name": "dense_1", "init": "glorot_uniform", "activation": "linear", "output_dim": 200, "input_dim": null, "W_regularizer": null, "b_regularizer": null, "trainable": true, "bias": true, "b_constraint": null, "W_constraint": null, "activity_regularizer": null}}, {"class_name": "Dropout", "config": {"name": "dropout_1", "trainable": true, "p": 0.2}}, {"class_name": "Activation", "config": {"name": "activation_1", "activation": "relu", "trainable": true}}, {"class_name": "Dense", "config": {"name": "dense_2", "init": "glorot_uniform", "activation": "softmax", "output_dim": 3, "input_dim": null, "W_regularizer": null, "b_regularizer": null, "trainable": true, "bias": true, "b_constraint": null, "W_constraint": null, "activity_regularizer": null}}], "class_name": "Sequential"}