{"keras_version": "1.1.1", "class_name": "Sequential", "config": [{"class_name": "Merge", "config": {"concat_axis": -1, "dot_axes": -1, "output_shape": null, "output_shape_type": "raw", "mode": "concat", "layers": [{"class_name": "Sequential", "config": [{"class_name": "Embedding", "config": {"output_dim": 52, "batch_input_shape": [null, 140], "mask_zero": false, "name": "embedding_1_dai_model", "W_constraint": null, "input_length": 140, "input_dtype": "int32", "W_regularizer": null, "input_dim": 1576890, "activity_regularizer": null, "init": "uniform", "trainable": true, "dropout": 0.2}}, {"class_name": "ZeroPadding1D", "config": {"trainable": true, "padding": 5, "name": "zeropadding1d_1_dai_model"}}, {"class_name": "Convolution1D", "config": {"bias": true, "b_regularizer": null, "activation": "relu", "input_length": null, "W_constraint": null, "name": "convolution1d_1_dai_model", "border_mode": "valid", "W_regularizer": null, "b_constraint": null, "input_dim": null, "activity_regularizer": null, "init": "uniform", "filter_length": 6, "subsample_length": 1, "trainable": true, "nb_filter": 200}}, {"class_name": "MaxPooling1D", "config": {"border_mode": "valid", "pool_length": 4, "stride": 2, "name": "maxpooling1d_1_dai_model", "trainable": true}}, {"class_name": "Convolution1D", "config": {"bias": true, "b_regularizer": null, "activation": "relu", "input_length": null, "W_constraint": null, "name": "convolution1d_2_dai_model", "border_mode": "valid", "W_regularizer": null, "b_constraint": null, "input_dim": null, "activity_regularizer": null, "init": "uniform", "filter_length": 6, "subsample_length": 1, "trainable": true, "nb_filter": 200}}]}, {"class_name": "Sequential", "config": [{"class_name": "Embedding", "config": {"output_dim": 52, "batch_input_shape": [null, 140], "mask_zero": false, "name": "embedding_1_dil_model", "W_constraint": null, "input_length": 140, "input_dtype": "int32", "W_regularizer": null, "input_dim": 1576890, "activity_regularizer": null, "init": "uniform", "trainable": true, "dropout": 0.2}}, {"class_name": "ZeroPadding1D", "config": {"trainable": true, "padding": 5, "name": "zeropadding1d_1_dil_model"}}, {"class_name": "Convolution1D", "config": {"bias": true, "b_regularizer": null, "activation": "relu", "input_length": null, "W_constraint": null, "name": "convolution1d_1_dil_model", "border_mode": "valid", "W_regularizer": null, "b_constraint": null, "input_dim": null, "activity_regularizer": null, "init": "uniform", "filter_length": 6, "subsample_length": 1, "trainable": true, "nb_filter": 200}}, {"class_name": "MaxPooling1D", "config": {"border_mode": "valid", "pool_length": 4, "stride": 2, "name": "maxpooling1d_1_dil_model", "trainable": true}}, {"class_name": "Convolution1D", "config": {"bias": true, "b_regularizer": null, "activation": "relu", "input_length": null, "W_constraint": null, "name": "convolution1d_2_dil_model", "border_mode": "valid", "W_regularizer": null, "b_constraint": null, "input_dim": null, "activity_regularizer": null, "init": "uniform", "filter_length": 6, "subsample_length": 1, "trainable": true, "nb_filter": 200}}]}, {"class_name": "Sequential", "config": [{"class_name": "Embedding", "config": {"output_dim": 52, "batch_input_shape": [null, 140], "mask_zero": false, "name": "embedding_1_hul_model", "W_constraint": null, "input_length": 140, "input_dtype": "int32", "W_regularizer": null, "input_dim": 1062158, "activity_regularizer": null, "init": "uniform", "trainable": true, "dropout": 0.2}}, {"class_name": "ZeroPadding1D", "config": {"trainable": true, "padding": 5, "name": "zeropadding1d_1_hul_model"}}, {"class_name": "Convolution1D", "config": {"bias": true, "b_regularizer": null, "activation": "relu", "input_length": null, "W_constraint": null, "name": "convolution1d_1_hul_model", "border_mode": "valid", "W_regularizer": null, "b_constraint": null, "input_dim": null, "activity_regularizer": null, "init": "uniform", "filter_length": 6, "subsample_length": 1, "trainable": true, "nb_filter": 200}}, {"class_name": "MaxPooling1D", "config": {"border_mode": "valid", "pool_length": 4, "stride": 2, "name": "maxpooling1d_1_hul_model", "trainable": true}}, {"class_name": "Convolution1D", "config": {"bias": true, "b_regularizer": null, "activation": "relu", "input_length": null, "W_constraint": null, "name": "convolution1d_2_hul_model", "border_mode": "valid", "W_regularizer": null, "b_constraint": null, "input_dim": null, "activity_regularizer": null, "init": "uniform", "filter_length": 6, "subsample_length": 1, "trainable": true, "nb_filter": 200}}]}, {"class_name": "Sequential", "config": [{"class_name": "Embedding", "config": {"output_dim": 52, "batch_input_shape": [null, 140], "mask_zero": false, "name": "embedding_17_mpq_model", "W_constraint": null, "input_length": 140, "input_dtype": "int32", "W_regularizer": null, "input_dim": 428669, "activity_regularizer": null, "init": "uniform", "trainable": true, "dropout": 0.2}}, {"class_name": "ZeroPadding1D", "config": {"trainable": true, "padding": 5, "name": "zeropadding1d_17_mpq_model"}}, {"class_name": "Convolution1D", "config": {"bias": true, "b_regularizer": null, "activation": "relu", "input_length": null, "W_constraint": null, "name": "convolution1d_33_mpq_model", "border_mode": "valid", "W_regularizer": null, "b_constraint": null, "input_dim": null, "activity_regularizer": null, "init": "uniform", "filter_length": 6, "subsample_length": 1, "trainable": true, "nb_filter": 200}}, {"class_name": "MaxPooling1D", "config": {"border_mode": "valid", "pool_length": 4, "stride": 2, "name": "maxpooling1d_33_mpq_model", "trainable": true}}, {"class_name": "Convolution1D", "config": {"bias": true, "b_regularizer": null, "activation": "relu", "input_length": null, "W_constraint": null, "name": "convolution1d_34_mpq_model", "border_mode": "valid", "W_regularizer": null, "b_constraint": null, "input_dim": null, "activity_regularizer": null, "init": "uniform", "filter_length": 6, "subsample_length": 1, "trainable": true, "nb_filter": 200}}]}, {"class_name": "Sequential", "config": [{"class_name": "Embedding", "config": {"output_dim": 52, "batch_input_shape": [null, 140], "mask_zero": false, "name": "embedding_1_semeval_model", "W_constraint": null, "input_length": 140, "input_dtype": "int32", "W_regularizer": null, "input_dim": 428669, "activity_regularizer": null, "init": "uniform", "trainable": true, "dropout": 0.2}}, {"class_name": "ZeroPadding1D", "config": {"trainable": true, "padding": 5, "name": "zeropadding1d_1_semeval_model"}}, {"class_name": "Convolution1D", "config": {"bias": true, "b_regularizer": null, "activation": "relu", "input_length": null, "W_constraint": null, "name": "convolution1d_1_semeval_model", "border_mode": "valid", "W_regularizer": null, "b_constraint": null, "input_dim": null, "activity_regularizer": null, "init": "uniform", "filter_length": 6, "subsample_length": 1, "trainable": true, "nb_filter": 200}}, {"class_name": "MaxPooling1D", "config": {"border_mode": "valid", "pool_length": 4, "stride": 2, "name": "maxpooling1d_1_semeval_model", "trainable": true}}, {"class_name": "Convolution1D", "config": {"bias": true, "b_regularizer": null, "activation": "relu", "input_length": null, "W_constraint": null, "name": "convolution1d_2_semeval_model", "border_mode": "valid", "W_regularizer": null, "b_constraint": null, "input_dim": null, "activity_regularizer": null, "init": "uniform", "filter_length": 6, "subsample_length": 1, "trainable": true, "nb_filter": 200}}]}], "name": "merge_1", "mode_type": "raw"}}, {"class_name": "Flatten", "config": {"trainable": true, "name": "flatten_1"}}, {"class_name": "Dense", "config": {"bias": true, "b_regularizer": null, "activation": "linear", "output_dim": 200, "W_constraint": null, "name": "dense_1", "W_regularizer": null, "b_constraint": null, "input_dim": null, "activity_regularizer": null, "init": "glorot_uniform", "trainable": true}}, {"class_name": "Dropout", "config": {"trainable": true, "p": 0.2, "name": "dropout_1"}}, {"class_name": "Activation", "config": {"activation": "relu", "trainable": true, "name": "activation_1"}}, {"class_name": "Dense", "config": {"bias": true, "b_regularizer": null, "activation": "softmax", "output_dim": 3, "W_constraint": null, "name": "dense_2", "W_regularizer": null, "b_constraint": null, "input_dim": null, "activity_regularizer": null, "init": "glorot_uniform", "trainable": true}}]}