{"class_name": "Sequential", "keras_version": "1.1.1", "config": [{"class_name": "Merge", "config": {"concat_axis": -1, "name": "merge_1", "dot_axes": -1, "mode_type": "raw", "mode": "concat", "layers": [{"class_name": "Sequential", "config": [{"class_name": "Embedding", "config": {"output_dim": 52, "input_length": 140, "activity_regularizer": null, "init": "uniform", "input_dtype": "int32", "trainable": true, "name": "embedding_1_hul_model", "W_constraint": null, "input_dim": 1062158, "dropout": 0.2, "W_regularizer": null, "mask_zero": false, "batch_input_shape": [null, 140]}}, {"class_name": "ZeroPadding1D", "config": {"trainable": true, "name": "zeropadding1d_1_hul_model", "padding": 5}}, {"class_name": "Convolution1D", "config": {"border_mode": "valid", "W_regularizer": null, "nb_filter": 200, "bias": true, "input_length": null, "activity_regularizer": null, "init": "uniform", "trainable": true, "name": "convolution1d_1_hul_model", "b_constraint": null, "subsample_length": 1, "W_constraint": null, "activation": "relu", "input_dim": null, "b_regularizer": null, "filter_length": 6}}, {"class_name": "MaxPooling1D", "config": {"trainable": true, "name": "maxpooling1d_1_hul_model", "border_mode": "valid", "stride": 2, "pool_length": 4}}, {"class_name": "Convolution1D", "config": {"border_mode": "valid", "W_regularizer": null, "nb_filter": 200, "bias": true, "input_length": null, "activity_regularizer": null, "init": "uniform", "trainable": true, "name": "convolution1d_2_hul_model", "b_constraint": null, "subsample_length": 1, "W_constraint": null, "activation": "relu", "input_dim": null, "b_regularizer": null, "filter_length": 6}}]}, {"class_name": "Sequential", "config": [{"class_name": "Embedding", "config": {"output_dim": 52, "input_length": 140, "activity_regularizer": null, "init": "uniform", "input_dtype": "int32", "trainable": true, "name": "embedding_1_dai_model", "W_constraint": null, "input_dim": 1576890, "dropout": 0.2, "W_regularizer": null, "mask_zero": false, "batch_input_shape": [null, 140]}}, {"class_name": "ZeroPadding1D", "config": {"trainable": true, "name": "zeropadding1d_1_dai_model", "padding": 5}}, {"class_name": "Convolution1D", "config": {"border_mode": "valid", "W_regularizer": null, "nb_filter": 200, "bias": true, "input_length": null, "activity_regularizer": null, "init": "uniform", "trainable": true, "name": "convolution1d_1_dai_model", "b_constraint": null, "subsample_length": 1, "W_constraint": null, "activation": "relu", "input_dim": null, "b_regularizer": null, "filter_length": 6}}, {"class_name": "MaxPooling1D", "config": {"trainable": true, "name": "maxpooling1d_1_dai_model", "border_mode": "valid", "stride": 2, "pool_length": 4}}, {"class_name": "Convolution1D", "config": {"border_mode": "valid", "W_regularizer": null, "nb_filter": 200, "bias": true, "input_length": null, "activity_regularizer": null, "init": "uniform", "trainable": true, "name": "convolution1d_2_dai_model", "b_constraint": null, "subsample_length": 1, "W_constraint": null, "activation": "relu", "input_dim": null, "b_regularizer": null, "filter_length": 6}}]}, {"class_name": "Sequential", "config": [{"class_name": "Embedding", "config": {"output_dim": 52, "input_length": 140, "activity_regularizer": null, "init": "uniform", "input_dtype": "int32", "trainable": true, "name": "embedding_17_mpq_model", "W_constraint": null, "input_dim": 428669, "dropout": 0.2, "W_regularizer": null, "mask_zero": false, "batch_input_shape": [null, 140]}}, {"class_name": "ZeroPadding1D", "config": {"trainable": true, "name": "zeropadding1d_17_mpq_model", "padding": 5}}, {"class_name": "Convolution1D", "config": {"border_mode": "valid", "W_regularizer": null, "nb_filter": 200, "bias": true, "input_length": null, "activity_regularizer": null, "init": "uniform", "trainable": true, "name": "convolution1d_33_mpq_model", "b_constraint": null, "subsample_length": 1, "W_constraint": null, "activation": "relu", "input_dim": null, "b_regularizer": null, "filter_length": 6}}, {"class_name": "MaxPooling1D", "config": {"trainable": true, "name": "maxpooling1d_33_mpq_model", "border_mode": "valid", "stride": 2, "pool_length": 4}}, {"class_name": "Convolution1D", "config": {"border_mode": "valid", "W_regularizer": null, "nb_filter": 200, "bias": true, "input_length": null, "activity_regularizer": null, "init": "uniform", "trainable": true, "name": "convolution1d_34_mpq_model", "b_constraint": null, "subsample_length": 1, "W_constraint": null, "activation": "relu", "input_dim": null, "b_regularizer": null, "filter_length": 6}}]}, {"class_name": "Sequential", "config": [{"class_name": "Embedding", "config": {"output_dim": 52, "input_length": 140, "activity_regularizer": null, "init": "uniform", "input_dtype": "int32", "trainable": true, "name": "embedding_1_dil_model", "W_constraint": null, "input_dim": 1576890, "dropout": 0.2, "W_regularizer": null, "mask_zero": false, "batch_input_shape": [null, 140]}}, {"class_name": "ZeroPadding1D", "config": {"trainable": true, "name": "zeropadding1d_1_dil_model", "padding": 5}}, {"class_name": "Convolution1D", "config": {"border_mode": "valid", "W_regularizer": null, "nb_filter": 200, "bias": true, "input_length": null, "activity_regularizer": null, "init": "uniform", "trainable": true, "name": "convolution1d_1_dil_model", "b_constraint": null, "subsample_length": 1, "W_constraint": null, "activation": "relu", "input_dim": null, "b_regularizer": null, "filter_length": 6}}, {"class_name": "MaxPooling1D", "config": {"trainable": true, "name": "maxpooling1d_1_dil_model", "border_mode": "valid", "stride": 2, "pool_length": 4}}, {"class_name": "Convolution1D", "config": {"border_mode": "valid", "W_regularizer": null, "nb_filter": 200, "bias": true, "input_length": null, "activity_regularizer": null, "init": "uniform", "trainable": true, "name": "convolution1d_2_dil_model", "b_constraint": null, "subsample_length": 1, "W_constraint": null, "activation": "relu", "input_dim": null, "b_regularizer": null, "filter_length": 6}}]}, {"class_name": "Sequential", "config": [{"class_name": "Embedding", "config": {"output_dim": 52, "input_length": 140, "activity_regularizer": null, "init": "uniform", "input_dtype": "int32", "trainable": true, "name": "embedding_1_tac_model", "W_constraint": null, "input_dim": 428669, "dropout": 0.2, "W_regularizer": null, "mask_zero": false, "batch_input_shape": [null, 140]}}, {"class_name": "ZeroPadding1D", "config": {"trainable": true, "name": "zeropadding1d_1_tac_model", "padding": 5}}, {"class_name": "Convolution1D", "config": {"border_mode": "valid", "W_regularizer": null, "nb_filter": 200, "bias": true, "input_length": null, "activity_regularizer": null, "init": "uniform", "trainable": true, "name": "convolution1d_1_tac_model", "b_constraint": null, "subsample_length": 1, "W_constraint": null, "activation": "relu", "input_dim": null, "b_regularizer": null, "filter_length": 6}}, {"class_name": "MaxPooling1D", "config": {"trainable": true, "name": "maxpooling1d_1_tac_model", "border_mode": "valid", "stride": 2, "pool_length": 4}}, {"class_name": "Convolution1D", "config": {"border_mode": "valid", "W_regularizer": null, "nb_filter": 200, "bias": true, "input_length": null, "activity_regularizer": null, "init": "uniform", "trainable": true, "name": "convolution1d_2_tac_model", "b_constraint": null, "subsample_length": 1, "W_constraint": null, "activation": "relu", "input_dim": null, "b_regularizer": null, "filter_length": 6}}]}, {"class_name": "Sequential", "config": [{"class_name": "Embedding", "config": {"output_dim": 52, "input_length": 140, "activity_regularizer": null, "init": "uniform", "input_dtype": "int32", "trainable": true, "name": "embedding_1_semeval_model", "W_constraint": null, "input_dim": 428669, "dropout": 0.2, "W_regularizer": null, "mask_zero": false, "batch_input_shape": [null, 140]}}, {"class_name": "ZeroPadding1D", "config": {"trainable": true, "name": "zeropadding1d_1_semeval_model", "padding": 5}}, {"class_name": "Convolution1D", "config": {"border_mode": "valid", "W_regularizer": null, "nb_filter": 200, "bias": true, "input_length": null, "activity_regularizer": null, "init": "uniform", "trainable": true, "name": "convolution1d_1_semeval_model", "b_constraint": null, "subsample_length": 1, "W_constraint": null, "activation": "relu", "input_dim": null, "b_regularizer": null, "filter_length": 6}}, {"class_name": "MaxPooling1D", "config": {"trainable": true, "name": "maxpooling1d_1_semeval_model", "border_mode": "valid", "stride": 2, "pool_length": 4}}, {"class_name": "Convolution1D", "config": {"border_mode": "valid", "W_regularizer": null, "nb_filter": 200, "bias": true, "input_length": null, "activity_regularizer": null, "init": "uniform", "trainable": true, "name": "convolution1d_2_semeval_model", "b_constraint": null, "subsample_length": 1, "W_constraint": null, "activation": "relu", "input_dim": null, "b_regularizer": null, "filter_length": 6}}]}], "output_shape": null, "output_shape_type": "raw"}}, {"class_name": "Flatten", "config": {"trainable": true, "name": "flatten_1"}}, {"class_name": "Dense", "config": {"output_dim": 200, "b_constraint": null, "W_regularizer": null, "bias": true, "activity_regularizer": null, "init": "glorot_uniform", "trainable": true, "name": "dense_1", "W_constraint": null, "activation": "linear", "input_dim": null, "b_regularizer": null}}, {"class_name": "Dropout", "config": {"trainable": true, "name": "dropout_1", "p": 0.2}}, {"class_name": "Activation", "config": {"trainable": true, "activation": "relu", "name": "activation_1"}}, {"class_name": "Dense", "config": {"output_dim": 3, "b_constraint": null, "W_regularizer": null, "bias": true, "activity_regularizer": null, "init": "glorot_uniform", "trainable": true, "name": "dense_2", "W_constraint": null, "activation": "softmax", "input_dim": null, "b_regularizer": null}}]}