{"keras_version": "1.1.1", "config": [{"config": {"dot_axes": -1, "name": "merge_1", "output_shape_type": "raw", "mode_type": "raw", "layers": [{"config": [{"config": {"init": "uniform", "W_regularizer": null, "dropout": 0.2, "mask_zero": false, "activity_regularizer": null, "trainable": true, "batch_input_shape": [null, 140], "name": "embedding_1_dil_model", "input_dtype": "int32", "W_constraint": null, "output_dim": 52, "input_length": 140, "input_dim": 1576890}, "class_name": "Embedding"}, {"config": {"trainable": true, "padding": 5, "name": "zeropadding1d_1_dil_model"}, "class_name": "ZeroPadding1D"}, {"config": {"bias": true, "activation": "relu", "init": "uniform", "b_regularizer": null, "W_regularizer": null, "activity_regularizer": null, "trainable": true, "b_constraint": null, "name": "convolution1d_1_dil_model", "border_mode": "valid", "filter_length": 6, "nb_filter": 200, "W_constraint": null, "subsample_length": 1, "input_length": null, "input_dim": null}, "class_name": "Convolution1D"}, {"config": {"trainable": true, "stride": 2, "name": "maxpooling1d_1_dil_model", "border_mode": "valid", "pool_length": 4}, "class_name": "MaxPooling1D"}, {"config": {"bias": true, "activation": "relu", "init": "uniform", "b_regularizer": null, "W_regularizer": null, "activity_regularizer": null, "trainable": true, "b_constraint": null, "name": "convolution1d_2_dil_model", "border_mode": "valid", "filter_length": 6, "nb_filter": 200, "W_constraint": null, "subsample_length": 1, "input_length": null, "input_dim": null}, "class_name": "Convolution1D"}], "class_name": "Sequential"}, {"config": [{"config": {"init": "uniform", "W_regularizer": null, "dropout": 0.2, "mask_zero": false, "activity_regularizer": null, "trainable": true, "batch_input_shape": [null, 140], "name": "embedding_1_hul_model", "input_dtype": "int32", "W_constraint": null, "output_dim": 52, "input_length": 140, "input_dim": 1062158}, "class_name": "Embedding"}, {"config": {"trainable": true, "padding": 5, "name": "zeropadding1d_1_hul_model"}, "class_name": "ZeroPadding1D"}, {"config": {"bias": true, "activation": "relu", "init": "uniform", "b_regularizer": null, "W_regularizer": null, "activity_regularizer": null, "trainable": true, "b_constraint": null, "name": "convolution1d_1_hul_model", "border_mode": "valid", "filter_length": 6, "nb_filter": 200, "W_constraint": null, "subsample_length": 1, "input_length": null, "input_dim": null}, "class_name": "Convolution1D"}, {"config": {"trainable": true, "stride": 2, "name": "maxpooling1d_1_hul_model", "border_mode": "valid", "pool_length": 4}, "class_name": "MaxPooling1D"}, {"config": {"bias": true, "activation": "relu", "init": "uniform", "b_regularizer": null, "W_regularizer": null, "activity_regularizer": null, "trainable": true, "b_constraint": null, "name": "convolution1d_2_hul_model", "border_mode": "valid", "filter_length": 6, "nb_filter": 200, "W_constraint": null, "subsample_length": 1, "input_length": null, "input_dim": null}, "class_name": "Convolution1D"}], "class_name": "Sequential"}, {"config": [{"config": {"init": "uniform", "W_regularizer": null, "dropout": 0.2, "mask_zero": false, "activity_regularizer": null, "trainable": true, "batch_input_shape": [null, 140], "name": "embedding_1_tac_model", "input_dtype": "int32", "W_constraint": null, "output_dim": 52, "input_length": 140, "input_dim": 428669}, "class_name": "Embedding"}, {"config": {"trainable": true, "padding": 5, "name": "zeropadding1d_1_tac_model"}, "class_name": "ZeroPadding1D"}, {"config": {"bias": true, "activation": "relu", "init": "uniform", "b_regularizer": null, "W_regularizer": null, "activity_regularizer": null, "trainable": true, "b_constraint": null, "name": "convolution1d_1_tac_model", "border_mode": "valid", "filter_length": 6, "nb_filter": 200, "W_constraint": null, "subsample_length": 1, "input_length": null, "input_dim": null}, "class_name": "Convolution1D"}, {"config": {"trainable": true, "stride": 2, "name": "maxpooling1d_1_tac_model", "border_mode": "valid", "pool_length": 4}, "class_name": "MaxPooling1D"}, {"config": {"bias": true, "activation": "relu", "init": "uniform", "b_regularizer": null, "W_regularizer": null, "activity_regularizer": null, "trainable": true, "b_constraint": null, "name": "convolution1d_2_tac_model", "border_mode": "valid", "filter_length": 6, "nb_filter": 200, "W_constraint": null, "subsample_length": 1, "input_length": null, "input_dim": null}, "class_name": "Convolution1D"}], "class_name": "Sequential"}, {"config": [{"config": {"init": "uniform", "W_regularizer": null, "dropout": 0.2, "mask_zero": false, "activity_regularizer": null, "trainable": true, "batch_input_shape": [null, 140], "name": "embedding_1_dai_model", "input_dtype": "int32", "W_constraint": null, "output_dim": 52, "input_length": 140, "input_dim": 1576890}, "class_name": "Embedding"}, {"config": {"trainable": true, "padding": 5, "name": "zeropadding1d_1_dai_model"}, "class_name": "ZeroPadding1D"}, {"config": {"bias": true, "activation": "relu", "init": "uniform", "b_regularizer": null, "W_regularizer": null, "activity_regularizer": null, "trainable": true, "b_constraint": null, "name": "convolution1d_1_dai_model", "border_mode": "valid", "filter_length": 6, "nb_filter": 200, "W_constraint": null, "subsample_length": 1, "input_length": null, "input_dim": null}, "class_name": "Convolution1D"}, {"config": {"trainable": true, "stride": 2, "name": "maxpooling1d_1_dai_model", "border_mode": "valid", "pool_length": 4}, "class_name": "MaxPooling1D"}, {"config": {"bias": true, "activation": "relu", "init": "uniform", "b_regularizer": null, "W_regularizer": null, "activity_regularizer": null, "trainable": true, "b_constraint": null, "name": "convolution1d_2_dai_model", "border_mode": "valid", "filter_length": 6, "nb_filter": 200, "W_constraint": null, "subsample_length": 1, "input_length": null, "input_dim": null}, "class_name": "Convolution1D"}], "class_name": "Sequential"}, {"config": [{"config": {"init": "uniform", "W_regularizer": null, "dropout": 0.2, "mask_zero": false, "activity_regularizer": null, "trainable": true, "batch_input_shape": [null, 140], "name": "embedding_1_semeval_model", "input_dtype": "int32", "W_constraint": null, "output_dim": 52, "input_length": 140, "input_dim": 428669}, "class_name": "Embedding"}, {"config": {"trainable": true, "padding": 5, "name": "zeropadding1d_1_semeval_model"}, "class_name": "ZeroPadding1D"}, {"config": {"bias": true, "activation": "relu", "init": "uniform", "b_regularizer": null, "W_regularizer": null, "activity_regularizer": null, "trainable": true, "b_constraint": null, "name": "convolution1d_1_semeval_model", "border_mode": "valid", "filter_length": 6, "nb_filter": 200, "W_constraint": null, "subsample_length": 1, "input_length": null, "input_dim": null}, "class_name": "Convolution1D"}, {"config": {"trainable": true, "stride": 2, "name": "maxpooling1d_1_semeval_model", "border_mode": "valid", "pool_length": 4}, "class_name": "MaxPooling1D"}, {"config": {"bias": true, "activation": "relu", "init": "uniform", "b_regularizer": null, "W_regularizer": null, "activity_regularizer": null, "trainable": true, "b_constraint": null, "name": "convolution1d_2_semeval_model", "border_mode": "valid", "filter_length": 6, "nb_filter": 200, "W_constraint": null, "subsample_length": 1, "input_length": null, "input_dim": null}, "class_name": "Convolution1D"}], "class_name": "Sequential"}, {"config": [{"config": {"init": "uniform", "W_regularizer": null, "dropout": 0.2, "mask_zero": false, "activity_regularizer": null, "trainable": true, "batch_input_shape": [null, 140], "name": "embedding_17_mpq_model", "input_dtype": "int32", "W_constraint": null, "output_dim": 52, "input_length": 140, "input_dim": 428669}, "class_name": "Embedding"}, {"config": {"trainable": true, "padding": 5, "name": "zeropadding1d_17_mpq_model"}, "class_name": "ZeroPadding1D"}, {"config": {"bias": true, "activation": "relu", "init": "uniform", "b_regularizer": null, "W_regularizer": null, "activity_regularizer": null, "trainable": true, "b_constraint": null, "name": "convolution1d_33_mpq_model", "border_mode": "valid", "filter_length": 6, "nb_filter": 200, "W_constraint": null, "subsample_length": 1, "input_length": null, "input_dim": null}, "class_name": "Convolution1D"}, {"config": {"trainable": true, "stride": 2, "name": "maxpooling1d_33_mpq_model", "border_mode": "valid", "pool_length": 4}, "class_name": "MaxPooling1D"}, {"config": {"bias": true, "activation": "relu", "init": "uniform", "b_regularizer": null, "W_regularizer": null, "activity_regularizer": null, "trainable": true, "b_constraint": null, "name": "convolution1d_34_mpq_model", "border_mode": "valid", "filter_length": 6, "nb_filter": 200, "W_constraint": null, "subsample_length": 1, "input_length": null, "input_dim": null}, "class_name": "Convolution1D"}], "class_name": "Sequential"}], "mode": "concat", "output_shape": null, "concat_axis": -1}, "class_name": "Merge"}, {"config": {"trainable": true, "name": "flatten_1"}, "class_name": "Flatten"}, {"config": {"bias": true, "activation": "linear", "init": "glorot_uniform", "b_regularizer": null, "W_regularizer": null, "activity_regularizer": null, "trainable": true, "b_constraint": null, "name": "dense_1", "W_constraint": null, "output_dim": 200, "input_dim": null}, "class_name": "Dense"}, {"config": {"trainable": true, "p": 0.2, "name": "dropout_1"}, "class_name": "Dropout"}, {"config": {"trainable": true, "activation": "relu", "name": "activation_1"}, "class_name": "Activation"}, {"config": {"bias": true, "activation": "softmax", "init": "glorot_uniform", "b_regularizer": null, "W_regularizer": null, "activity_regularizer": null, "trainable": true, "b_constraint": null, "name": "dense_2", "W_constraint": null, "output_dim": 3, "input_dim": null}, "class_name": "Dense"}], "class_name": "Sequential"}