{"config": [{"config": {"name": "embedding_1", "W_constraint": null, "batch_input_shape": [null, 140], "input_length": 140, "input_dtype": "int32", "init": "uniform", "trainable": true, "activity_regularizer": null, "output_dim": 52, "mask_zero": false, "input_dim": 428669, "dropout": 0.2, "W_regularizer": null}, "class_name": "Embedding"}, {"config": {"trainable": true, "name": "zeropadding1d_1", "padding": 5}, "class_name": "ZeroPadding1D"}, {"config": {"name": "convolution1d_1", "subsample_length": 1, "input_length": null, "nb_filter": 200, "bias": true, "activation": "relu", "filter_length": 6, "activity_regularizer": null, "trainable": true, "W_constraint": null, "b_constraint": null, "input_dim": null, "init": "uniform", "b_regularizer": null, "W_regularizer": null, "border_mode": "valid"}, "class_name": "Convolution1D"}, {"config": {"trainable": true, "name": "maxpooling1d_1", "stride": 2, "pool_length": 4, "border_mode": "valid"}, "class_name": "MaxPooling1D"}, {"config": {"name": "convolution1d_2", "subsample_length": 1, "input_length": null, "nb_filter": 200, "bias": true, "activation": "relu", "filter_length": 6, "activity_regularizer": null, "trainable": true, "W_constraint": null, "b_constraint": null, "input_dim": null, "init": "uniform", "b_regularizer": null, "W_regularizer": null, "border_mode": "valid"}, "class_name": "Convolution1D"}, {"config": {"trainable": true, "name": "maxpooling1d_2", "stride": 66, "pool_length": 66, "border_mode": "valid"}, "class_name": "MaxPooling1D"}, {"config": {"trainable": true, "name": "flatten_1"}, "class_name": "Flatten"}, {"config": {"name": "dense_1", "W_constraint": null, "bias": true, "activation": "linear", "input_dim": null, "activity_regularizer": null, "trainable": true, "b_constraint": null, "output_dim": 200, "init": "glorot_uniform", "b_regularizer": null, "W_regularizer": null}, "class_name": "Dense"}, {"config": {"trainable": true, "name": "dropout_1", "p": 0.2}, "class_name": "Dropout"}, {"config": {"trainable": true, "name": "activation_1", "activation": "relu"}, "class_name": "Activation"}, {"config": {"name": "dense_2", "W_constraint": null, "bias": true, "activation": "softmax", "input_dim": null, "activity_regularizer": null, "trainable": true, "b_constraint": null, "output_dim": 3, "init": "glorot_uniform", "b_regularizer": null, "W_regularizer": null}, "class_name": "Dense"}], "class_name": "Sequential", "keras_version": "1.1.1"}