{"class_name": "Sequential", "config": [{"class_name": "Merge", "config": {"layers": [{"class_name": "Sequential", "config": [{"class_name": "Embedding", "config": {"input_dim": 1576890, "dropout": 0.2, "activity_regularizer": null, "input_length": 140, "trainable": true, "batch_input_shape": [null, 140], "init": "uniform", "name": "embedding_1_dil_model", "W_regularizer": null, "mask_zero": false, "W_constraint": null, "input_dtype": "int32", "output_dim": 52}}, {"class_name": "ZeroPadding1D", "config": {"trainable": true, "name": "zeropadding1d_1_dil_model", "padding": 5}}, {"class_name": "Convolution1D", "config": {"b_regularizer": null, "input_dim": null, "filter_length": 6, "activity_regularizer": null, "input_length": null, "b_constraint": null, "border_mode": "valid", "bias": true, "trainable": true, "name": "convolution1d_1_dil_model", "nb_filter": 200, "init": "uniform", "W_regularizer": null, "W_constraint": null, "subsample_length": 1, "activation": "relu"}}, {"class_name": "MaxPooling1D", "config": {"trainable": true, "stride": 2, "name": "maxpooling1d_1_dil_model", "border_mode": "valid", "pool_length": 4}}, {"class_name": "Convolution1D", "config": {"b_regularizer": null, "input_dim": null, "filter_length": 6, "activity_regularizer": null, "input_length": null, "b_constraint": null, "border_mode": "valid", "bias": true, "trainable": true, "name": "convolution1d_2_dil_model", "nb_filter": 200, "init": "uniform", "W_regularizer": null, "W_constraint": null, "subsample_length": 1, "activation": "relu"}}]}, {"class_name": "Sequential", "config": [{"class_name": "Embedding", "config": {"input_dim": 428669, "dropout": 0.2, "activity_regularizer": null, "input_length": 140, "trainable": true, "batch_input_shape": [null, 140], "init": "uniform", "name": "embedding_1_semeval_model", "W_regularizer": null, "mask_zero": false, "W_constraint": null, "input_dtype": "int32", "output_dim": 52}}, {"class_name": "ZeroPadding1D", "config": {"trainable": true, "name": "zeropadding1d_1_semeval_model", "padding": 5}}, {"class_name": "Convolution1D", "config": {"b_regularizer": null, "input_dim": null, "filter_length": 6, "activity_regularizer": null, "input_length": null, "b_constraint": null, "border_mode": "valid", "bias": true, "trainable": true, "name": "convolution1d_1_semeval_model", "nb_filter": 200, "init": "uniform", "W_regularizer": null, "W_constraint": null, "subsample_length": 1, "activation": "relu"}}, {"class_name": "MaxPooling1D", "config": {"trainable": true, "stride": 2, "name": "maxpooling1d_1_semeval_model", "border_mode": "valid", "pool_length": 4}}, {"class_name": "Convolution1D", "config": {"b_regularizer": null, "input_dim": null, "filter_length": 6, "activity_regularizer": null, "input_length": null, "b_constraint": null, "border_mode": "valid", "bias": true, "trainable": true, "name": "convolution1d_2_semeval_model", "nb_filter": 200, "init": "uniform", "W_regularizer": null, "W_constraint": null, "subsample_length": 1, "activation": "relu"}}]}, {"class_name": "Sequential", "config": [{"class_name": "Embedding", "config": {"input_dim": 1062158, "dropout": 0.2, "activity_regularizer": null, "input_length": 140, "trainable": true, "batch_input_shape": [null, 140], "init": "uniform", "name": "embedding_1_hul_model", "W_regularizer": null, "mask_zero": false, "W_constraint": null, "input_dtype": "int32", "output_dim": 52}}, {"class_name": "ZeroPadding1D", "config": {"trainable": true, "name": "zeropadding1d_1_hul_model", "padding": 5}}, {"class_name": "Convolution1D", "config": {"b_regularizer": null, "input_dim": null, "filter_length": 6, "activity_regularizer": null, "input_length": null, "b_constraint": null, "border_mode": "valid", "bias": true, "trainable": true, "name": "convolution1d_1_hul_model", "nb_filter": 200, "init": "uniform", "W_regularizer": null, "W_constraint": null, "subsample_length": 1, "activation": "relu"}}, {"class_name": "MaxPooling1D", "config": {"trainable": true, "stride": 2, "name": "maxpooling1d_1_hul_model", "border_mode": "valid", "pool_length": 4}}, {"class_name": "Convolution1D", "config": {"b_regularizer": null, "input_dim": null, "filter_length": 6, "activity_regularizer": null, "input_length": null, "b_constraint": null, "border_mode": "valid", "bias": true, "trainable": true, "name": "convolution1d_2_hul_model", "nb_filter": 200, "init": "uniform", "W_regularizer": null, "W_constraint": null, "subsample_length": 1, "activation": "relu"}}]}, {"class_name": "Sequential", "config": [{"class_name": "Embedding", "config": {"input_dim": 428669, "dropout": 0.2, "activity_regularizer": null, "input_length": 140, "trainable": true, "batch_input_shape": [null, 140], "init": "uniform", "name": "embedding_1_tac_model", "W_regularizer": null, "mask_zero": false, "W_constraint": null, "input_dtype": "int32", "output_dim": 52}}, {"class_name": "ZeroPadding1D", "config": {"trainable": true, "name": "zeropadding1d_1_tac_model", "padding": 5}}, {"class_name": "Convolution1D", "config": {"b_regularizer": null, "input_dim": null, "filter_length": 6, "activity_regularizer": null, "input_length": null, "b_constraint": null, "border_mode": "valid", "bias": true, "trainable": true, "name": "convolution1d_1_tac_model", "nb_filter": 200, "init": "uniform", "W_regularizer": null, "W_constraint": null, "subsample_length": 1, "activation": "relu"}}, {"class_name": "MaxPooling1D", "config": {"trainable": true, "stride": 2, "name": "maxpooling1d_1_tac_model", "border_mode": "valid", "pool_length": 4}}, {"class_name": "Convolution1D", "config": {"b_regularizer": null, "input_dim": null, "filter_length": 6, "activity_regularizer": null, "input_length": null, "b_constraint": null, "border_mode": "valid", "bias": true, "trainable": true, "name": "convolution1d_2_tac_model", "nb_filter": 200, "init": "uniform", "W_regularizer": null, "W_constraint": null, "subsample_length": 1, "activation": "relu"}}]}, {"class_name": "Sequential", "config": [{"class_name": "Embedding", "config": {"input_dim": 1576890, "dropout": 0.2, "activity_regularizer": null, "input_length": 140, "trainable": true, "batch_input_shape": [null, 140], "init": "uniform", "name": "embedding_1_dai_model", "W_regularizer": null, "mask_zero": false, "W_constraint": null, "input_dtype": "int32", "output_dim": 52}}, {"class_name": "ZeroPadding1D", "config": {"trainable": true, "name": "zeropadding1d_1_dai_model", "padding": 5}}, {"class_name": "Convolution1D", "config": {"b_regularizer": null, "input_dim": null, "filter_length": 6, "activity_regularizer": null, "input_length": null, "b_constraint": null, "border_mode": "valid", "bias": true, "trainable": true, "name": "convolution1d_1_dai_model", "nb_filter": 200, "init": "uniform", "W_regularizer": null, "W_constraint": null, "subsample_length": 1, "activation": "relu"}}, {"class_name": "MaxPooling1D", "config": {"trainable": true, "stride": 2, "name": "maxpooling1d_1_dai_model", "border_mode": "valid", "pool_length": 4}}, {"class_name": "Convolution1D", "config": {"b_regularizer": null, "input_dim": null, "filter_length": 6, "activity_regularizer": null, "input_length": null, "b_constraint": null, "border_mode": "valid", "bias": true, "trainable": true, "name": "convolution1d_2_dai_model", "nb_filter": 200, "init": "uniform", "W_regularizer": null, "W_constraint": null, "subsample_length": 1, "activation": "relu"}}]}, {"class_name": "Sequential", "config": [{"class_name": "Embedding", "config": {"input_dim": 428669, "dropout": 0.2, "activity_regularizer": null, "input_length": 140, "trainable": true, "batch_input_shape": [null, 140], "init": "uniform", "name": "embedding_17_mpq_model", "W_regularizer": null, "mask_zero": false, "W_constraint": null, "input_dtype": "int32", "output_dim": 52}}, {"class_name": "ZeroPadding1D", "config": {"trainable": true, "name": "zeropadding1d_17_mpq_model", "padding": 5}}, {"class_name": "Convolution1D", "config": {"b_regularizer": null, "input_dim": null, "filter_length": 6, "activity_regularizer": null, "input_length": null, "b_constraint": null, "border_mode": "valid", "bias": true, "trainable": true, "name": "convolution1d_33_mpq_model", "nb_filter": 200, "init": "uniform", "W_regularizer": null, "W_constraint": null, "subsample_length": 1, "activation": "relu"}}, {"class_name": "MaxPooling1D", "config": {"trainable": true, "stride": 2, "name": "maxpooling1d_33_mpq_model", "border_mode": "valid", "pool_length": 4}}, {"class_name": "Convolution1D", "config": {"b_regularizer": null, "input_dim": null, "filter_length": 6, "activity_regularizer": null, "input_length": null, "b_constraint": null, "border_mode": "valid", "bias": true, "trainable": true, "name": "convolution1d_34_mpq_model", "nb_filter": 200, "init": "uniform", "W_regularizer": null, "W_constraint": null, "subsample_length": 1, "activation": "relu"}}]}], "name": "merge_1", "output_shape": null, "output_shape_type": "raw", "concat_axis": -1, "mode": "concat", "mode_type": "raw", "dot_axes": -1}}, {"class_name": "Flatten", "config": {"trainable": true, "name": "flatten_1"}}, {"class_name": "Dense", "config": {"trainable": true, "input_dim": null, "activity_regularizer": null, "b_constraint": null, "bias": true, "b_regularizer": null, "init": "glorot_uniform", "name": "dense_1", "W_regularizer": null, "W_constraint": null, "output_dim": 200, "activation": "linear"}}, {"class_name": "Dropout", "config": {"trainable": true, "name": "dropout_1", "p": 0.2}}, {"class_name": "Activation", "config": {"trainable": true, "name": "activation_1", "activation": "relu"}}, {"class_name": "Dense", "config": {"trainable": true, "input_dim": null, "activity_regularizer": null, "b_constraint": null, "bias": true, "b_regularizer": null, "init": "glorot_uniform", "name": "dense_2", "W_regularizer": null, "W_constraint": null, "output_dim": 3, "activation": "softmax"}}], "keras_version": "1.1.1"}