{"keras_version": "1.1.1", "config": [{"config": {"concat_axis": -1, "output_shape": null, "mode_type": "raw", "mode": "concat", "output_shape_type": "raw", "layers": [{"config": [{"config": {"batch_input_shape": [null, 140], "name": "embedding_1_dil_model", "mask_zero": false, "input_dtype": "int32", "input_dim": 1576890, "trainable": true, "output_dim": 52, "init": "uniform", "input_length": 140, "W_constraint": null, "dropout": 0.2, "W_regularizer": null, "activity_regularizer": null}, "class_name": "Embedding"}, {"config": {"name": "zeropadding1d_1_dil_model", "trainable": true, "padding": 5}, "class_name": "ZeroPadding1D"}, {"config": {"b_constraint": null, "bias": true, "nb_filter": 200, "input_dim": null, "W_constraint": null, "b_regularizer": null, "activation": "relu", "filter_length": 6, "input_length": null, "trainable": true, "W_regularizer": null, "border_mode": "valid", "name": "convolution1d_1_dil_model", "init": "uniform", "subsample_length": 1, "activity_regularizer": null}, "class_name": "Convolution1D"}, {"config": {"stride": 2, "pool_length": 4, "name": "maxpooling1d_1_dil_model", "border_mode": "valid", "trainable": true}, "class_name": "MaxPooling1D"}, {"config": {"b_constraint": null, "bias": true, "nb_filter": 200, "input_dim": null, "W_constraint": null, "b_regularizer": null, "activation": "relu", "filter_length": 6, "input_length": null, "trainable": true, "W_regularizer": null, "border_mode": "valid", "name": "convolution1d_2_dil_model", "init": "uniform", "subsample_length": 1, "activity_regularizer": null}, "class_name": "Convolution1D"}, {"config": {"stride": 66, "pool_length": 66, "name": "maxpooling1d_2_dil_model", "border_mode": "valid", "trainable": true}, "class_name": "MaxPooling1D"}, {"config": {"name": "flatten_1_dil_model", "trainable": true}, "class_name": "Flatten"}], "class_name": "Sequential"}, {"config": [{"config": {"batch_input_shape": [null, 140], "name": "embedding_17_mpq_model", "mask_zero": false, "input_dtype": "int32", "input_dim": 428669, "trainable": true, "output_dim": 52, "init": "uniform", "input_length": 140, "W_constraint": null, "dropout": 0.2, "W_regularizer": null, "activity_regularizer": null}, "class_name": "Embedding"}, {"config": {"name": "zeropadding1d_17_mpq_model", "trainable": true, "padding": 5}, "class_name": "ZeroPadding1D"}, {"config": {"b_constraint": null, "bias": true, "nb_filter": 200, "input_dim": null, "W_constraint": null, "b_regularizer": null, "activation": "relu", "filter_length": 6, "input_length": null, "trainable": true, "W_regularizer": null, "border_mode": "valid", "name": "convolution1d_33_mpq_model", "init": "uniform", "subsample_length": 1, "activity_regularizer": null}, "class_name": "Convolution1D"}, {"config": {"stride": 2, "pool_length": 4, "name": "maxpooling1d_33_mpq_model", "border_mode": "valid", "trainable": true}, "class_name": "MaxPooling1D"}, {"config": {"b_constraint": null, "bias": true, "nb_filter": 200, "input_dim": null, "W_constraint": null, "b_regularizer": null, "activation": "relu", "filter_length": 6, "input_length": null, "trainable": true, "W_regularizer": null, "border_mode": "valid", "name": "convolution1d_34_mpq_model", "init": "uniform", "subsample_length": 1, "activity_regularizer": null}, "class_name": "Convolution1D"}, {"config": {"stride": 66, "pool_length": 66, "name": "maxpooling1d_34_mpq_model", "border_mode": "valid", "trainable": true}, "class_name": "MaxPooling1D"}, {"config": {"name": "flatten_17_mpq_model", "trainable": true}, "class_name": "Flatten"}], "class_name": "Sequential"}, {"config": [{"config": {"batch_input_shape": [null, 140], "name": "embedding_1_dai_model", "mask_zero": false, "input_dtype": "int32", "input_dim": 1576890, "trainable": true, "output_dim": 52, "init": "uniform", "input_length": 140, "W_constraint": null, "dropout": 0.2, "W_regularizer": null, "activity_regularizer": null}, "class_name": "Embedding"}, {"config": {"name": "zeropadding1d_1_dai_model", "trainable": true, "padding": 5}, "class_name": "ZeroPadding1D"}, {"config": {"b_constraint": null, "bias": true, "nb_filter": 200, "input_dim": null, "W_constraint": null, "b_regularizer": null, "activation": "relu", "filter_length": 6, "input_length": null, "trainable": true, "W_regularizer": null, "border_mode": "valid", "name": "convolution1d_1_dai_model", "init": "uniform", "subsample_length": 1, "activity_regularizer": null}, "class_name": "Convolution1D"}, {"config": {"stride": 2, "pool_length": 4, "name": "maxpooling1d_1_dai_model", "border_mode": "valid", "trainable": true}, "class_name": "MaxPooling1D"}, {"config": {"b_constraint": null, "bias": true, "nb_filter": 200, "input_dim": null, "W_constraint": null, "b_regularizer": null, "activation": "relu", "filter_length": 6, "input_length": null, "trainable": true, "W_regularizer": null, "border_mode": "valid", "name": "convolution1d_2_dai_model", "init": "uniform", "subsample_length": 1, "activity_regularizer": null}, "class_name": "Convolution1D"}, {"config": {"stride": 66, "pool_length": 66, "name": "maxpooling1d_2_dai_model", "border_mode": "valid", "trainable": true}, "class_name": "MaxPooling1D"}, {"config": {"name": "flatten_1_dai_model", "trainable": true}, "class_name": "Flatten"}], "class_name": "Sequential"}, {"config": [{"config": {"batch_input_shape": [null, 140], "name": "embedding_1_hul_model", "mask_zero": false, "input_dtype": "int32", "input_dim": 1062158, "trainable": true, "output_dim": 52, "init": "uniform", "input_length": 140, "W_constraint": null, "dropout": 0.2, "W_regularizer": null, "activity_regularizer": null}, "class_name": "Embedding"}, {"config": {"name": "zeropadding1d_1_hul_model", "trainable": true, "padding": 5}, "class_name": "ZeroPadding1D"}, {"config": {"b_constraint": null, "bias": true, "nb_filter": 200, "input_dim": null, "W_constraint": null, "b_regularizer": null, "activation": "relu", "filter_length": 6, "input_length": null, "trainable": true, "W_regularizer": null, "border_mode": "valid", "name": "convolution1d_1_hul_model", "init": "uniform", "subsample_length": 1, "activity_regularizer": null}, "class_name": "Convolution1D"}, {"config": {"stride": 2, "pool_length": 4, "name": "maxpooling1d_1_hul_model", "border_mode": "valid", "trainable": true}, "class_name": "MaxPooling1D"}, {"config": {"b_constraint": null, "bias": true, "nb_filter": 200, "input_dim": null, "W_constraint": null, "b_regularizer": null, "activation": "relu", "filter_length": 6, "input_length": null, "trainable": true, "W_regularizer": null, "border_mode": "valid", "name": "convolution1d_2_hul_model", "init": "uniform", "subsample_length": 1, "activity_regularizer": null}, "class_name": "Convolution1D"}, {"config": {"stride": 66, "pool_length": 66, "name": "maxpooling1d_2_hul_model", "border_mode": "valid", "trainable": true}, "class_name": "MaxPooling1D"}, {"config": {"name": "flatten_1_hul_model", "trainable": true}, "class_name": "Flatten"}], "class_name": "Sequential"}, {"config": [{"config": {"batch_input_shape": [null, 140], "name": "embedding_1_semeval_model", "mask_zero": false, "input_dtype": "int32", "input_dim": 428669, "trainable": true, "output_dim": 52, "init": "uniform", "input_length": 140, "W_constraint": null, "dropout": 0.2, "W_regularizer": null, "activity_regularizer": null}, "class_name": "Embedding"}, {"config": {"name": "zeropadding1d_1_semeval_model", "trainable": true, "padding": 5}, "class_name": "ZeroPadding1D"}, {"config": {"b_constraint": null, "bias": true, "nb_filter": 200, "input_dim": null, "W_constraint": null, "b_regularizer": null, "activation": "relu", "filter_length": 6, "input_length": null, "trainable": true, "W_regularizer": null, "border_mode": "valid", "name": "convolution1d_1_semeval_model", "init": "uniform", "subsample_length": 1, "activity_regularizer": null}, "class_name": "Convolution1D"}, {"config": {"stride": 2, "pool_length": 4, "name": "maxpooling1d_1_semeval_model", "border_mode": "valid", "trainable": true}, "class_name": "MaxPooling1D"}, {"config": {"b_constraint": null, "bias": true, "nb_filter": 200, "input_dim": null, "W_constraint": null, "b_regularizer": null, "activation": "relu", "filter_length": 6, "input_length": null, "trainable": true, "W_regularizer": null, "border_mode": "valid", "name": "convolution1d_2_semeval_model", "init": "uniform", "subsample_length": 1, "activity_regularizer": null}, "class_name": "Convolution1D"}, {"config": {"stride": 66, "pool_length": 66, "name": "maxpooling1d_2_semeval_model", "border_mode": "valid", "trainable": true}, "class_name": "MaxPooling1D"}, {"config": {"name": "flatten_1_semeval_model", "trainable": true}, "class_name": "Flatten"}], "class_name": "Sequential"}, {"config": [{"config": {"batch_input_shape": [null, 140], "name": "embedding_1_tac_model", "mask_zero": false, "input_dtype": "int32", "input_dim": 428669, "trainable": true, "output_dim": 52, "init": "uniform", "input_length": 140, "W_constraint": null, "dropout": 0.2, "W_regularizer": null, "activity_regularizer": null}, "class_name": "Embedding"}, {"config": {"name": "zeropadding1d_1_tac_model", "trainable": true, "padding": 5}, "class_name": "ZeroPadding1D"}, {"config": {"b_constraint": null, "bias": true, "nb_filter": 200, "input_dim": null, "W_constraint": null, "b_regularizer": null, "activation": "relu", "filter_length": 6, "input_length": null, "trainable": true, "W_regularizer": null, "border_mode": "valid", "name": "convolution1d_1_tac_model", "init": "uniform", "subsample_length": 1, "activity_regularizer": null}, "class_name": "Convolution1D"}, {"config": {"stride": 2, "pool_length": 4, "name": "maxpooling1d_1_tac_model", "border_mode": "valid", "trainable": true}, "class_name": "MaxPooling1D"}, {"config": {"b_constraint": null, "bias": true, "nb_filter": 200, "input_dim": null, "W_constraint": null, "b_regularizer": null, "activation": "relu", "filter_length": 6, "input_length": null, "trainable": true, "W_regularizer": null, "border_mode": "valid", "name": "convolution1d_2_tac_model", "init": "uniform", "subsample_length": 1, "activity_regularizer": null}, "class_name": "Convolution1D"}, {"config": {"stride": 66, "pool_length": 66, "name": "maxpooling1d_2_tac_model", "border_mode": "valid", "trainable": true}, "class_name": "MaxPooling1D"}, {"config": {"name": "flatten_1_tac_model", "trainable": true}, "class_name": "Flatten"}], "class_name": "Sequential"}], "dot_axes": -1, "name": "merge_1"}, "class_name": "Merge"}, {"config": {"b_constraint": null, "bias": true, "output_dim": 1028, "activity_regularizer": null, "name": "dense_1", "input_dim": null, "W_constraint": null, "b_regularizer": null, "activation": "linear", "trainable": true, "W_regularizer": null, "init": "glorot_uniform"}, "class_name": "Dense"}, {"config": {"activation": "relu", "name": "activation_1", "trainable": true}, "class_name": "Activation"}, {"config": {"b_constraint": null, "bias": true, "output_dim": 3, "activity_regularizer": null, "name": "dense_2", "input_dim": null, "W_constraint": null, "b_regularizer": null, "activation": "softmax", "trainable": true, "W_regularizer": null, "init": "glorot_uniform"}, "class_name": "Dense"}], "class_name": "Sequential"}