{"keras_version": "1.1.1", "class_name": "Sequential", "config": [{"class_name": "Merge", "config": {"name": "merge_1", "mode_type": "raw", "output_shape": null, "concat_axis": -1, "output_shape_type": "raw", "mode": "concat", "layers": [{"class_name": "Sequential", "config": [{"class_name": "Embedding", "config": {"trainable": true, "output_dim": 52, "input_dim": 1576890, "input_length": 140, "init": "uniform", "name": "embedding_1_dai_model", "batch_input_shape": [null, 140], "input_dtype": "int32", "W_constraint": null, "dropout": 0.2, "mask_zero": false, "W_regularizer": null, "activity_regularizer": null}}, {"class_name": "ZeroPadding1D", "config": {"name": "zeropadding1d_1_dai_model", "trainable": true, "padding": 5}}, {"class_name": "Convolution1D", "config": {"trainable": true, "nb_filter": 200, "input_dim": null, "border_mode": "valid", "input_length": null, "init": "uniform", "bias": true, "name": "convolution1d_1_dai_model", "b_regularizer": null, "W_constraint": null, "subsample_length": 1, "b_constraint": null, "activity_regularizer": null, "W_regularizer": null, "filter_length": 6, "activation": "relu"}}, {"class_name": "MaxPooling1D", "config": {"name": "maxpooling1d_1_dai_model", "pool_length": 4, "trainable": true, "stride": 2, "border_mode": "valid"}}, {"class_name": "Convolution1D", "config": {"trainable": true, "nb_filter": 200, "input_dim": null, "border_mode": "valid", "input_length": null, "init": "uniform", "bias": true, "name": "convolution1d_2_dai_model", "b_regularizer": null, "W_constraint": null, "subsample_length": 1, "b_constraint": null, "activity_regularizer": null, "W_regularizer": null, "filter_length": 6, "activation": "relu"}}]}, {"class_name": "Sequential", "config": [{"class_name": "Embedding", "config": {"trainable": true, "output_dim": 52, "input_dim": 1576890, "input_length": 140, "init": "uniform", "name": "embedding_1_dil_model", "batch_input_shape": [null, 140], "input_dtype": "int32", "W_constraint": null, "dropout": 0.2, "mask_zero": false, "W_regularizer": null, "activity_regularizer": null}}, {"class_name": "ZeroPadding1D", "config": {"name": "zeropadding1d_1_dil_model", "trainable": true, "padding": 5}}, {"class_name": "Convolution1D", "config": {"trainable": true, "nb_filter": 200, "input_dim": null, "border_mode": "valid", "input_length": null, "init": "uniform", "bias": true, "name": "convolution1d_1_dil_model", "b_regularizer": null, "W_constraint": null, "subsample_length": 1, "b_constraint": null, "activity_regularizer": null, "W_regularizer": null, "filter_length": 6, "activation": "relu"}}, {"class_name": "MaxPooling1D", "config": {"name": "maxpooling1d_1_dil_model", "pool_length": 4, "trainable": true, "stride": 2, "border_mode": "valid"}}, {"class_name": "Convolution1D", "config": {"trainable": true, "nb_filter": 200, "input_dim": null, "border_mode": "valid", "input_length": null, "init": "uniform", "bias": true, "name": "convolution1d_2_dil_model", "b_regularizer": null, "W_constraint": null, "subsample_length": 1, "b_constraint": null, "activity_regularizer": null, "W_regularizer": null, "filter_length": 6, "activation": "relu"}}]}, {"class_name": "Sequential", "config": [{"class_name": "Embedding", "config": {"trainable": true, "output_dim": 52, "input_dim": 1576890, "input_length": 140, "init": "uniform", "name": "embedding_1_semeval_model", "batch_input_shape": [null, 140], "input_dtype": "int32", "W_constraint": null, "dropout": 0.2, "mask_zero": false, "W_regularizer": null, "activity_regularizer": null}}, {"class_name": "ZeroPadding1D", "config": {"name": "zeropadding1d_1_semeval_model", "trainable": true, "padding": 5}}, {"class_name": "Convolution1D", "config": {"trainable": true, "nb_filter": 200, "input_dim": null, "border_mode": "valid", "input_length": null, "init": "uniform", "bias": true, "name": "convolution1d_1_semeval_model", "b_regularizer": null, "W_constraint": null, "subsample_length": 1, "b_constraint": null, "activity_regularizer": null, "W_regularizer": null, "filter_length": 6, "activation": "relu"}}, {"class_name": "MaxPooling1D", "config": {"name": "maxpooling1d_1_semeval_model", "pool_length": 4, "trainable": true, "stride": 2, "border_mode": "valid"}}, {"class_name": "Convolution1D", "config": {"trainable": true, "nb_filter": 200, "input_dim": null, "border_mode": "valid", "input_length": null, "init": "uniform", "bias": true, "name": "convolution1d_2_semeval_model", "b_regularizer": null, "W_constraint": null, "subsample_length": 1, "b_constraint": null, "activity_regularizer": null, "W_regularizer": null, "filter_length": 6, "activation": "relu"}}]}], "dot_axes": -1}}, {"class_name": "MaxPooling1D", "config": {"name": "maxpooling1d_1", "pool_length": 4, "trainable": true, "stride": 2, "border_mode": "valid"}}, {"class_name": "Convolution1D", "config": {"trainable": true, "nb_filter": 200, "input_dim": null, "border_mode": "valid", "input_length": null, "init": "uniform", "bias": true, "name": "convolution1d_1", "filter_length": 6, "W_constraint": null, "subsample_length": 1, "b_constraint": null, "activation": "relu", "W_regularizer": null, "b_regularizer": null, "activity_regularizer": null}}, {"class_name": "MaxPooling1D", "config": {"name": "maxpooling1d_2", "pool_length": 4, "trainable": true, "stride": 2, "border_mode": "valid"}}, {"class_name": "Flatten", "config": {"name": "flatten_1", "trainable": true}}, {"class_name": "Dense", "config": {"trainable": true, "output_dim": 200, "input_dim": null, "init": "glorot_uniform", "bias": true, "name": "dense_1", "W_constraint": null, "b_constraint": null, "activity_regularizer": null, "W_regularizer": null, "b_regularizer": null, "activation": "linear"}}, {"class_name": "Dropout", "config": {"name": "dropout_1", "trainable": true, "p": 0.2}}, {"class_name": "Activation", "config": {"name": "activation_1", "trainable": true, "activation": "relu"}}, {"class_name": "Dense", "config": {"trainable": true, "output_dim": 3, "input_dim": null, "init": "glorot_uniform", "bias": true, "name": "dense_2", "W_constraint": null, "b_constraint": null, "activity_regularizer": null, "W_regularizer": null, "b_regularizer": null, "activation": "softmax"}}]}