{"keras_version": "1.1.1", "class_name": "Sequential", "config": [{"class_name": "Merge", "config": {"layers": [{"class_name": "Sequential", "config": [{"class_name": "Embedding", "config": {"output_dim": 52, "init": "uniform", "mask_zero": false, "W_regularizer": null, "batch_input_shape": [null, 140], "W_constraint": null, "trainable": true, "name": "embedding_1_dai_model", "dropout": 0.2, "input_dim": 1576890, "activity_regularizer": null, "input_length": 140, "input_dtype": "int32"}}, {"class_name": "ZeroPadding1D", "config": {"padding": 5, "trainable": true, "name": "zeropadding1d_1_dai_model"}}, {"class_name": "Convolution1D", "config": {"init": "uniform", "border_mode": "valid", "W_regularizer": null, "activation": "relu", "filter_length": 6, "bias": true, "b_regularizer": null, "W_constraint": null, "trainable": true, "subsample_length": 1, "nb_filter": 200, "input_dim": null, "activity_regularizer": null, "input_length": null, "name": "convolution1d_1_dai_model", "b_constraint": null}}, {"class_name": "MaxPooling1D", "config": {"stride": 2, "border_mode": "valid", "pool_length": 4, "name": "maxpooling1d_1_dai_model", "trainable": true}}, {"class_name": "Convolution1D", "config": {"init": "uniform", "border_mode": "valid", "W_regularizer": null, "activation": "relu", "filter_length": 6, "bias": true, "b_regularizer": null, "W_constraint": null, "trainable": true, "subsample_length": 1, "nb_filter": 200, "input_dim": null, "activity_regularizer": null, "input_length": null, "name": "convolution1d_2_dai_model", "b_constraint": null}}]}, {"class_name": "Sequential", "config": [{"class_name": "Embedding", "config": {"output_dim": 52, "init": "uniform", "mask_zero": false, "W_regularizer": null, "batch_input_shape": [null, 140], "W_constraint": null, "trainable": true, "name": "embedding_1_hul_model", "dropout": 0.2, "input_dim": 1062158, "activity_regularizer": null, "input_length": 140, "input_dtype": "int32"}}, {"class_name": "ZeroPadding1D", "config": {"padding": 5, "trainable": true, "name": "zeropadding1d_1_hul_model"}}, {"class_name": "Convolution1D", "config": {"init": "uniform", "border_mode": "valid", "W_regularizer": null, "activation": "relu", "filter_length": 6, "bias": true, "b_regularizer": null, "W_constraint": null, "trainable": true, "subsample_length": 1, "nb_filter": 200, "input_dim": null, "activity_regularizer": null, "input_length": null, "name": "convolution1d_1_hul_model", "b_constraint": null}}, {"class_name": "MaxPooling1D", "config": {"stride": 2, "border_mode": "valid", "pool_length": 4, "name": "maxpooling1d_1_hul_model", "trainable": true}}, {"class_name": "Convolution1D", "config": {"init": "uniform", "border_mode": "valid", "W_regularizer": null, "activation": "relu", "filter_length": 6, "bias": true, "b_regularizer": null, "W_constraint": null, "trainable": true, "subsample_length": 1, "nb_filter": 200, "input_dim": null, "activity_regularizer": null, "input_length": null, "name": "convolution1d_2_hul_model", "b_constraint": null}}]}, {"class_name": "Sequential", "config": [{"class_name": "Embedding", "config": {"output_dim": 52, "init": "uniform", "mask_zero": false, "W_regularizer": null, "batch_input_shape": [null, 140], "W_constraint": null, "trainable": true, "name": "embedding_17_mpq_model", "dropout": 0.2, "input_dim": 428669, "activity_regularizer": null, "input_length": 140, "input_dtype": "int32"}}, {"class_name": "ZeroPadding1D", "config": {"padding": 5, "trainable": true, "name": "zeropadding1d_17_mpq_model"}}, {"class_name": "Convolution1D", "config": {"init": "uniform", "border_mode": "valid", "W_regularizer": null, "activation": "relu", "filter_length": 6, "bias": true, "b_regularizer": null, "W_constraint": null, "trainable": true, "subsample_length": 1, "nb_filter": 200, "input_dim": null, "activity_regularizer": null, "input_length": null, "name": "convolution1d_33_mpq_model", "b_constraint": null}}, {"class_name": "MaxPooling1D", "config": {"stride": 2, "border_mode": "valid", "pool_length": 4, "name": "maxpooling1d_33_mpq_model", "trainable": true}}, {"class_name": "Convolution1D", "config": {"init": "uniform", "border_mode": "valid", "W_regularizer": null, "activation": "relu", "filter_length": 6, "bias": true, "b_regularizer": null, "W_constraint": null, "trainable": true, "subsample_length": 1, "nb_filter": 200, "input_dim": null, "activity_regularizer": null, "input_length": null, "name": "convolution1d_34_mpq_model", "b_constraint": null}}]}, {"class_name": "Sequential", "config": [{"class_name": "Embedding", "config": {"output_dim": 52, "init": "uniform", "mask_zero": false, "W_regularizer": null, "batch_input_shape": [null, 140], "W_constraint": null, "trainable": true, "name": "embedding_1_semeval_model", "dropout": 0.2, "input_dim": 1576890, "activity_regularizer": null, "input_length": 140, "input_dtype": "int32"}}, {"class_name": "ZeroPadding1D", "config": {"padding": 5, "trainable": true, "name": "zeropadding1d_1_semeval_model"}}, {"class_name": "Convolution1D", "config": {"init": "uniform", "border_mode": "valid", "W_regularizer": null, "activation": "relu", "filter_length": 6, "bias": true, "b_regularizer": null, "W_constraint": null, "trainable": true, "subsample_length": 1, "nb_filter": 200, "input_dim": null, "activity_regularizer": null, "input_length": null, "name": "convolution1d_1_semeval_model", "b_constraint": null}}, {"class_name": "MaxPooling1D", "config": {"stride": 2, "border_mode": "valid", "pool_length": 4, "name": "maxpooling1d_1_semeval_model", "trainable": true}}, {"class_name": "Convolution1D", "config": {"init": "uniform", "border_mode": "valid", "W_regularizer": null, "activation": "relu", "filter_length": 6, "bias": true, "b_regularizer": null, "W_constraint": null, "trainable": true, "subsample_length": 1, "nb_filter": 200, "input_dim": null, "activity_regularizer": null, "input_length": null, "name": "convolution1d_2_semeval_model", "b_constraint": null}}]}, {"class_name": "Sequential", "config": [{"class_name": "Embedding", "config": {"output_dim": 52, "init": "uniform", "mask_zero": false, "W_regularizer": null, "batch_input_shape": [null, 140], "W_constraint": null, "trainable": true, "name": "embedding_1_tac_model", "dropout": 0.2, "input_dim": 428669, "activity_regularizer": null, "input_length": 140, "input_dtype": "int32"}}, {"class_name": "ZeroPadding1D", "config": {"padding": 5, "trainable": true, "name": "zeropadding1d_1_tac_model"}}, {"class_name": "Convolution1D", "config": {"init": "uniform", "border_mode": "valid", "W_regularizer": null, "activation": "relu", "filter_length": 6, "bias": true, "b_regularizer": null, "W_constraint": null, "trainable": true, "subsample_length": 1, "nb_filter": 200, "input_dim": null, "activity_regularizer": null, "input_length": null, "name": "convolution1d_1_tac_model", "b_constraint": null}}, {"class_name": "MaxPooling1D", "config": {"stride": 2, "border_mode": "valid", "pool_length": 4, "name": "maxpooling1d_1_tac_model", "trainable": true}}, {"class_name": "Convolution1D", "config": {"init": "uniform", "border_mode": "valid", "W_regularizer": null, "activation": "relu", "filter_length": 6, "bias": true, "b_regularizer": null, "W_constraint": null, "trainable": true, "subsample_length": 1, "nb_filter": 200, "input_dim": null, "activity_regularizer": null, "input_length": null, "name": "convolution1d_2_tac_model", "b_constraint": null}}]}], "concat_axis": -1, "mode_type": "raw", "output_shape": null, "mode": "concat", "output_shape_type": "raw", "name": "merge_1", "dot_axes": -1}}, {"class_name": "MaxPooling1D", "config": {"pool_length": 4, "border_mode": "valid", "stride": 2, "name": "maxpooling1d_1", "trainable": true}}, {"class_name": "Convolution1D", "config": {"init": "uniform", "input_length": null, "W_regularizer": null, "activity_regularizer": null, "activation": "relu", "filter_length": 6, "bias": true, "b_regularizer": null, "W_constraint": null, "trainable": true, "subsample_length": 1, "nb_filter": 200, "input_dim": null, "border_mode": "valid", "name": "convolution1d_1", "b_constraint": null}}, {"class_name": "MaxPooling1D", "config": {"pool_length": 4, "border_mode": "valid", "stride": 2, "name": "maxpooling1d_2", "trainable": true}}, {"class_name": "Flatten", "config": {"name": "flatten_1", "trainable": true}}, {"class_name": "Dense", "config": {"output_dim": 200, "init": "glorot_uniform", "W_regularizer": null, "activation": "linear", "bias": true, "b_regularizer": null, "W_constraint": null, "trainable": true, "input_dim": null, "activity_regularizer": null, "name": "dense_1", "b_constraint": null}}, {"class_name": "Dropout", "config": {"p": 0.2, "name": "dropout_1", "trainable": true}}, {"class_name": "Activation", "config": {"name": "activation_1", "activation": "relu", "trainable": true}}, {"class_name": "Dense", "config": {"output_dim": 3, "init": "glorot_uniform", "W_regularizer": null, "activation": "softmax", "bias": true, "b_regularizer": null, "W_constraint": null, "trainable": true, "input_dim": null, "activity_regularizer": null, "name": "dense_2", "b_constraint": null}}]}