{"config": [{"config": {"mode_type": "raw", "output_shape": null, "dot_axes": -1, "layers": [{"config": [{"config": {"init": "uniform", "mask_zero": false, "activity_regularizer": null, "input_length": 140, "trainable": true, "output_dim": 52, "input_dtype": "int32", "W_constraint": null, "input_dim": 1576890, "name": "embedding_1_dai_model", "W_regularizer": null, "dropout": 0.2, "batch_input_shape": [null, 140]}, "class_name": "Embedding"}, {"config": {"trainable": true, "name": "zeropadding1d_1_dai_model", "padding": 5}, "class_name": "ZeroPadding1D"}, {"config": {"bias": true, "b_constraint": null, "nb_filter": 200, "b_regularizer": null, "activation": "relu", "activity_regularizer": null, "input_length": null, "trainable": true, "filter_length": 6, "subsample_length": 1, "border_mode": "valid", "W_constraint": null, "input_dim": null, "name": "convolution1d_1_dai_model", "W_regularizer": null, "init": "uniform"}, "class_name": "Convolution1D"}, {"config": {"trainable": true, "name": "maxpooling1d_1_dai_model", "pool_length": 4, "border_mode": "valid", "stride": 2}, "class_name": "MaxPooling1D"}, {"config": {"bias": true, "b_constraint": null, "nb_filter": 200, "b_regularizer": null, "activation": "relu", "activity_regularizer": null, "input_length": null, "trainable": true, "filter_length": 6, "subsample_length": 1, "border_mode": "valid", "W_constraint": null, "input_dim": null, "name": "convolution1d_2_dai_model", "W_regularizer": null, "init": "uniform"}, "class_name": "Convolution1D"}], "class_name": "Sequential"}, {"config": [{"config": {"init": "uniform", "mask_zero": false, "activity_regularizer": null, "input_length": 140, "trainable": true, "output_dim": 52, "input_dtype": "int32", "W_constraint": null, "input_dim": 1062158, "name": "embedding_1_hul_model", "W_regularizer": null, "dropout": 0.2, "batch_input_shape": [null, 140]}, "class_name": "Embedding"}, {"config": {"trainable": true, "name": "zeropadding1d_1_hul_model", "padding": 5}, "class_name": "ZeroPadding1D"}, {"config": {"bias": true, "b_constraint": null, "nb_filter": 200, "b_regularizer": null, "activation": "relu", "activity_regularizer": null, "input_length": null, "trainable": true, "filter_length": 6, "subsample_length": 1, "border_mode": "valid", "W_constraint": null, "input_dim": null, "name": "convolution1d_1_hul_model", "W_regularizer": null, "init": "uniform"}, "class_name": "Convolution1D"}, {"config": {"trainable": true, "name": "maxpooling1d_1_hul_model", "pool_length": 4, "border_mode": "valid", "stride": 2}, "class_name": "MaxPooling1D"}, {"config": {"bias": true, "b_constraint": null, "nb_filter": 200, "b_regularizer": null, "activation": "relu", "activity_regularizer": null, "input_length": null, "trainable": true, "filter_length": 6, "subsample_length": 1, "border_mode": "valid", "W_constraint": null, "input_dim": null, "name": "convolution1d_2_hul_model", "W_regularizer": null, "init": "uniform"}, "class_name": "Convolution1D"}], "class_name": "Sequential"}, {"config": [{"config": {"init": "uniform", "mask_zero": false, "activity_regularizer": null, "input_length": 140, "trainable": true, "output_dim": 52, "input_dtype": "int32", "W_constraint": null, "input_dim": 1576890, "name": "embedding_1_semeval_model", "W_regularizer": null, "dropout": 0.2, "batch_input_shape": [null, 140]}, "class_name": "Embedding"}, {"config": {"trainable": true, "name": "zeropadding1d_1_semeval_model", "padding": 5}, "class_name": "ZeroPadding1D"}, {"config": {"bias": true, "b_constraint": null, "nb_filter": 200, "b_regularizer": null, "activation": "relu", "activity_regularizer": null, "input_length": null, "trainable": true, "filter_length": 6, "subsample_length": 1, "border_mode": "valid", "W_constraint": null, "input_dim": null, "name": "convolution1d_1_semeval_model", "W_regularizer": null, "init": "uniform"}, "class_name": "Convolution1D"}, {"config": {"trainable": true, "name": "maxpooling1d_1_semeval_model", "pool_length": 4, "border_mode": "valid", "stride": 2}, "class_name": "MaxPooling1D"}, {"config": {"bias": true, "b_constraint": null, "nb_filter": 200, "b_regularizer": null, "activation": "relu", "activity_regularizer": null, "input_length": null, "trainable": true, "filter_length": 6, "subsample_length": 1, "border_mode": "valid", "W_constraint": null, "input_dim": null, "name": "convolution1d_2_semeval_model", "W_regularizer": null, "init": "uniform"}, "class_name": "Convolution1D"}], "class_name": "Sequential"}], "mode": "concat", "name": "merge_1", "concat_axis": -1, "output_shape_type": "raw"}, "class_name": "Merge"}, {"config": {"trainable": true, "name": "maxpooling1d_1", "stride": 2, "border_mode": "valid", "pool_length": 4}, "class_name": "MaxPooling1D"}, {"config": {"bias": true, "b_constraint": null, "nb_filter": 200, "b_regularizer": null, "activation": "relu", "activity_regularizer": null, "init": "uniform", "input_length": null, "trainable": true, "filter_length": 6, "subsample_length": 1, "border_mode": "valid", "W_constraint": null, "name": "convolution1d_1", "W_regularizer": null, "input_dim": null}, "class_name": "Convolution1D"}, {"config": {"trainable": true, "name": "maxpooling1d_2", "stride": 2, "border_mode": "valid", "pool_length": 4}, "class_name": "MaxPooling1D"}, {"config": {"trainable": true, "name": "flatten_1"}, "class_name": "Flatten"}, {"config": {"bias": true, "b_constraint": null, "b_regularizer": null, "activation": "linear", "activity_regularizer": null, "init": "glorot_uniform", "output_dim": 200, "W_constraint": null, "trainable": true, "name": "dense_1", "W_regularizer": null, "input_dim": null}, "class_name": "Dense"}, {"config": {"trainable": true, "name": "dropout_1", "p": 0.2}, "class_name": "Dropout"}, {"config": {"trainable": true, "name": "activation_1", "activation": "relu"}, "class_name": "Activation"}, {"config": {"bias": true, "b_constraint": null, "b_regularizer": null, "activation": "softmax", "activity_regularizer": null, "init": "glorot_uniform", "output_dim": 3, "W_constraint": null, "trainable": true, "name": "dense_2", "W_regularizer": null, "input_dim": null}, "class_name": "Dense"}], "keras_version": "1.1.1", "class_name": "Sequential"}