{"class_name": "Sequential", "keras_version": "1.1.1", "config": [{"class_name": "Merge", "config": {"concat_axis": -1, "dot_axes": -1, "name": "merge_1", "layers": [{"class_name": "Sequential", "config": [{"class_name": "Embedding", "config": {"dropout": 0.2, "batch_input_shape": [null, 140], "mask_zero": false, "output_dim": 52, "name": "embedding_1_dil_model", "init": "uniform", "W_regularizer": null, "input_dim": 1576890, "trainable": true, "activity_regularizer": null, "W_constraint": null, "input_length": 140, "input_dtype": "int32"}}, {"class_name": "ZeroPadding1D", "config": {"name": "zeropadding1d_1_dil_model", "trainable": true, "padding": 5}}, {"class_name": "Convolution1D", "config": {"filter_length": 6, "name": "convolution1d_1_dil_model", "nb_filter": 200, "init": "uniform", "W_regularizer": null, "b_regularizer": null, "activation": "relu", "trainable": true, "input_dim": null, "bias": true, "b_constraint": null, "subsample_length": 1, "W_constraint": null, "input_length": null, "activity_regularizer": null, "border_mode": "valid"}}, {"class_name": "MaxPooling1D", "config": {"name": "maxpooling1d_1_dil_model", "trainable": true, "stride": 2, "pool_length": 4, "border_mode": "valid"}}, {"class_name": "Convolution1D", "config": {"filter_length": 6, "name": "convolution1d_2_dil_model", "nb_filter": 200, "init": "uniform", "W_regularizer": null, "b_regularizer": null, "activation": "relu", "trainable": true, "input_dim": null, "bias": true, "b_constraint": null, "subsample_length": 1, "W_constraint": null, "input_length": null, "activity_regularizer": null, "border_mode": "valid"}}, {"class_name": "MaxPooling1D", "config": {"name": "maxpooling1d_2_dil_model", "trainable": true, "stride": 66, "pool_length": 66, "border_mode": "valid"}}, {"class_name": "Flatten", "config": {"name": "flatten_1_dil_model", "trainable": true}}, {"class_name": "Dense", "config": {"output_dim": 200, "name": "dense_1_dil_model", "init": "glorot_uniform", "W_constraint": null, "b_regularizer": null, "activation": "linear", "bias": true, "input_dim": null, "trainable": true, "b_constraint": null, "W_regularizer": null, "activity_regularizer": null}}, {"class_name": "Dropout", "config": {"name": "dropout_1_dil_model", "trainable": true, "p": 0.2}}, {"class_name": "Activation", "config": {"name": "activation_1_dil_model", "trainable": true, "activation": "relu"}}, {"class_name": "Dense", "config": {"output_dim": 3, "name": "dense_2_dil_model", "init": "glorot_uniform", "W_constraint": null, "b_regularizer": null, "activation": "softmax", "bias": true, "input_dim": null, "trainable": true, "b_constraint": null, "W_regularizer": null, "activity_regularizer": null}}]}, {"class_name": "Sequential", "config": [{"class_name": "Embedding", "config": {"dropout": 0.2, "batch_input_shape": [null, 140], "mask_zero": false, "output_dim": 52, "name": "embedding_17_mpq_model", "init": "uniform", "W_regularizer": null, "input_dim": 428669, "trainable": true, "activity_regularizer": null, "W_constraint": null, "input_length": 140, "input_dtype": "int32"}}, {"class_name": "ZeroPadding1D", "config": {"name": "zeropadding1d_17_mpq_model", "trainable": true, "padding": 5}}, {"class_name": "Convolution1D", "config": {"filter_length": 6, "name": "convolution1d_33_mpq_model", "nb_filter": 200, "init": "uniform", "W_regularizer": null, "b_regularizer": null, "activation": "relu", "trainable": true, "input_dim": null, "bias": true, "b_constraint": null, "subsample_length": 1, "W_constraint": null, "input_length": null, "activity_regularizer": null, "border_mode": "valid"}}, {"class_name": "MaxPooling1D", "config": {"name": "maxpooling1d_33_mpq_model", "trainable": true, "stride": 2, "pool_length": 4, "border_mode": "valid"}}, {"class_name": "Convolution1D", "config": {"filter_length": 6, "name": "convolution1d_34_mpq_model", "nb_filter": 200, "init": "uniform", "W_regularizer": null, "b_regularizer": null, "activation": "relu", "trainable": true, "input_dim": null, "bias": true, "b_constraint": null, "subsample_length": 1, "W_constraint": null, "input_length": null, "activity_regularizer": null, "border_mode": "valid"}}, {"class_name": "MaxPooling1D", "config": {"name": "maxpooling1d_34_mpq_model", "trainable": true, "stride": 66, "pool_length": 66, "border_mode": "valid"}}, {"class_name": "Flatten", "config": {"name": "flatten_17_mpq_model", "trainable": true}}, {"class_name": "Dense", "config": {"output_dim": 200, "name": "dense_33_mpq_model", "init": "glorot_uniform", "W_constraint": null, "b_regularizer": null, "activation": "linear", "bias": true, "input_dim": null, "trainable": true, "b_constraint": null, "W_regularizer": null, "activity_regularizer": null}}, {"class_name": "Dropout", "config": {"name": "dropout_17_mpq_model", "trainable": true, "p": 0.2}}, {"class_name": "Activation", "config": {"name": "activation_17_mpq_model", "trainable": true, "activation": "relu"}}, {"class_name": "Dense", "config": {"output_dim": 3, "name": "dense_34_mpq_model", "init": "glorot_uniform", "W_constraint": null, "b_regularizer": null, "activation": "softmax", "bias": true, "input_dim": null, "trainable": true, "b_constraint": null, "W_regularizer": null, "activity_regularizer": null}}]}, {"class_name": "Sequential", "config": [{"class_name": "Embedding", "config": {"dropout": 0.2, "batch_input_shape": [null, 140], "mask_zero": false, "output_dim": 52, "name": "embedding_1_hul_model", "init": "uniform", "W_regularizer": null, "input_dim": 1062158, "trainable": true, "activity_regularizer": null, "W_constraint": null, "input_length": 140, "input_dtype": "int32"}}, {"class_name": "ZeroPadding1D", "config": {"name": "zeropadding1d_1_hul_model", "trainable": true, "padding": 5}}, {"class_name": "Convolution1D", "config": {"filter_length": 6, "name": "convolution1d_1_hul_model", "nb_filter": 200, "init": "uniform", "W_regularizer": null, "b_regularizer": null, "activation": "relu", "trainable": true, "input_dim": null, "bias": true, "b_constraint": null, "subsample_length": 1, "W_constraint": null, "input_length": null, "activity_regularizer": null, "border_mode": "valid"}}, {"class_name": "MaxPooling1D", "config": {"name": "maxpooling1d_1_hul_model", "trainable": true, "stride": 2, "pool_length": 4, "border_mode": "valid"}}, {"class_name": "Convolution1D", "config": {"filter_length": 6, "name": "convolution1d_2_hul_model", "nb_filter": 200, "init": "uniform", "W_regularizer": null, "b_regularizer": null, "activation": "relu", "trainable": true, "input_dim": null, "bias": true, "b_constraint": null, "subsample_length": 1, "W_constraint": null, "input_length": null, "activity_regularizer": null, "border_mode": "valid"}}, {"class_name": "MaxPooling1D", "config": {"name": "maxpooling1d_2_hul_model", "trainable": true, "stride": 66, "pool_length": 66, "border_mode": "valid"}}, {"class_name": "Flatten", "config": {"name": "flatten_1_hul_model", "trainable": true}}, {"class_name": "Dense", "config": {"output_dim": 200, "name": "dense_1_hul_model", "init": "glorot_uniform", "W_constraint": null, "b_regularizer": null, "activation": "linear", "bias": true, "input_dim": null, "trainable": true, "b_constraint": null, "W_regularizer": null, "activity_regularizer": null}}, {"class_name": "Dropout", "config": {"name": "dropout_1_hul_model", "trainable": true, "p": 0.2}}, {"class_name": "Activation", "config": {"name": "activation_1_hul_model", "trainable": true, "activation": "relu"}}, {"class_name": "Dense", "config": {"output_dim": 3, "name": "dense_2_hul_model", "init": "glorot_uniform", "W_constraint": null, "b_regularizer": null, "activation": "softmax", "bias": true, "input_dim": null, "trainable": true, "b_constraint": null, "W_regularizer": null, "activity_regularizer": null}}]}, {"class_name": "Sequential", "config": [{"class_name": "Embedding", "config": {"dropout": 0.2, "batch_input_shape": [null, 140], "mask_zero": false, "output_dim": 52, "name": "embedding_1_tac_model", "init": "uniform", "W_regularizer": null, "input_dim": 428669, "trainable": true, "activity_regularizer": null, "W_constraint": null, "input_length": 140, "input_dtype": "int32"}}, {"class_name": "ZeroPadding1D", "config": {"name": "zeropadding1d_1_tac_model", "trainable": true, "padding": 5}}, {"class_name": "Convolution1D", "config": {"filter_length": 6, "name": "convolution1d_1_tac_model", "nb_filter": 200, "init": "uniform", "W_regularizer": null, "b_regularizer": null, "activation": "relu", "trainable": true, "input_dim": null, "bias": true, "b_constraint": null, "subsample_length": 1, "W_constraint": null, "input_length": null, "activity_regularizer": null, "border_mode": "valid"}}, {"class_name": "MaxPooling1D", "config": {"name": "maxpooling1d_1_tac_model", "trainable": true, "stride": 2, "pool_length": 4, "border_mode": "valid"}}, {"class_name": "Convolution1D", "config": {"filter_length": 6, "name": "convolution1d_2_tac_model", "nb_filter": 200, "init": "uniform", "W_regularizer": null, "b_regularizer": null, "activation": "relu", "trainable": true, "input_dim": null, "bias": true, "b_constraint": null, "subsample_length": 1, "W_constraint": null, "input_length": null, "activity_regularizer": null, "border_mode": "valid"}}, {"class_name": "MaxPooling1D", "config": {"name": "maxpooling1d_2_tac_model", "trainable": true, "stride": 66, "pool_length": 66, "border_mode": "valid"}}, {"class_name": "Flatten", "config": {"name": "flatten_1_tac_model", "trainable": true}}, {"class_name": "Dense", "config": {"output_dim": 200, "name": "dense_1_tac_model", "init": "glorot_uniform", "W_constraint": null, "b_regularizer": null, "activation": "linear", "bias": true, "input_dim": null, "trainable": true, "b_constraint": null, "W_regularizer": null, "activity_regularizer": null}}, {"class_name": "Dropout", "config": {"name": "dropout_1_tac_model", "trainable": true, "p": 0.2}}, {"class_name": "Activation", "config": {"name": "activation_1_tac_model", "trainable": true, "activation": "relu"}}, {"class_name": "Dense", "config": {"output_dim": 3, "name": "dense_2_tac_model", "init": "glorot_uniform", "W_constraint": null, "b_regularizer": null, "activation": "softmax", "bias": true, "input_dim": null, "trainable": true, "b_constraint": null, "W_regularizer": null, "activity_regularizer": null}}]}, {"class_name": "Sequential", "config": [{"class_name": "Embedding", "config": {"dropout": 0.2, "batch_input_shape": [null, 140], "mask_zero": false, "output_dim": 52, "name": "embedding_1_dai_model", "init": "uniform", "W_regularizer": null, "input_dim": 1576890, "trainable": true, "activity_regularizer": null, "W_constraint": null, "input_length": 140, "input_dtype": "int32"}}, {"class_name": "ZeroPadding1D", "config": {"name": "zeropadding1d_1_dai_model", "trainable": true, "padding": 5}}, {"class_name": "Convolution1D", "config": {"filter_length": 6, "name": "convolution1d_1_dai_model", "nb_filter": 200, "init": "uniform", "W_regularizer": null, "b_regularizer": null, "activation": "relu", "trainable": true, "input_dim": null, "bias": true, "b_constraint": null, "subsample_length": 1, "W_constraint": null, "input_length": null, "activity_regularizer": null, "border_mode": "valid"}}, {"class_name": "MaxPooling1D", "config": {"name": "maxpooling1d_1_dai_model", "trainable": true, "stride": 2, "pool_length": 4, "border_mode": "valid"}}, {"class_name": "Convolution1D", "config": {"filter_length": 6, "name": "convolution1d_2_dai_model", "nb_filter": 200, "init": "uniform", "W_regularizer": null, "b_regularizer": null, "activation": "relu", "trainable": true, "input_dim": null, "bias": true, "b_constraint": null, "subsample_length": 1, "W_constraint": null, "input_length": null, "activity_regularizer": null, "border_mode": "valid"}}, {"class_name": "MaxPooling1D", "config": {"name": "maxpooling1d_2_dai_model", "trainable": true, "stride": 66, "pool_length": 66, "border_mode": "valid"}}, {"class_name": "Flatten", "config": {"name": "flatten_1_dai_model", "trainable": true}}, {"class_name": "Dense", "config": {"output_dim": 200, "name": "dense_1_dai_model", "init": "glorot_uniform", "W_constraint": null, "b_regularizer": null, "activation": "linear", "bias": true, "input_dim": null, "trainable": true, "b_constraint": null, "W_regularizer": null, "activity_regularizer": null}}, {"class_name": "Dropout", "config": {"name": "dropout_1_dai_model", "trainable": true, "p": 0.2}}, {"class_name": "Activation", "config": {"name": "activation_1_dai_model", "trainable": true, "activation": "relu"}}, {"class_name": "Dense", "config": {"output_dim": 3, "name": "dense_2_dai_model", "init": "glorot_uniform", "W_constraint": null, "b_regularizer": null, "activation": "softmax", "bias": true, "input_dim": null, "trainable": true, "b_constraint": null, "W_regularizer": null, "activity_regularizer": null}}]}, {"class_name": "Sequential", "config": [{"class_name": "Embedding", "config": {"dropout": 0.2, "batch_input_shape": [null, 140], "mask_zero": false, "output_dim": 52, "name": "embedding_1_semeval_model", "init": "uniform", "W_regularizer": null, "input_dim": 428669, "trainable": true, "activity_regularizer": null, "W_constraint": null, "input_length": 140, "input_dtype": "int32"}}, {"class_name": "ZeroPadding1D", "config": {"name": "zeropadding1d_1_semeval_model", "trainable": true, "padding": 5}}, {"class_name": "Convolution1D", "config": {"filter_length": 6, "name": "convolution1d_1_semeval_model", "nb_filter": 200, "init": "uniform", "W_regularizer": null, "b_regularizer": null, "activation": "relu", "trainable": true, "input_dim": null, "bias": true, "b_constraint": null, "subsample_length": 1, "W_constraint": null, "input_length": null, "activity_regularizer": null, "border_mode": "valid"}}, {"class_name": "MaxPooling1D", "config": {"name": "maxpooling1d_1_semeval_model", "trainable": true, "stride": 2, "pool_length": 4, "border_mode": "valid"}}, {"class_name": "Convolution1D", "config": {"filter_length": 6, "name": "convolution1d_2_semeval_model", "nb_filter": 200, "init": "uniform", "W_regularizer": null, "b_regularizer": null, "activation": "relu", "trainable": true, "input_dim": null, "bias": true, "b_constraint": null, "subsample_length": 1, "W_constraint": null, "input_length": null, "activity_regularizer": null, "border_mode": "valid"}}, {"class_name": "MaxPooling1D", "config": {"name": "maxpooling1d_2_semeval_model", "trainable": true, "stride": 66, "pool_length": 66, "border_mode": "valid"}}, {"class_name": "Flatten", "config": {"name": "flatten_1_semeval_model", "trainable": true}}, {"class_name": "Dense", "config": {"output_dim": 200, "name": "dense_1_semeval_model", "init": "glorot_uniform", "W_constraint": null, "b_regularizer": null, "activation": "linear", "bias": true, "input_dim": null, "trainable": true, "b_constraint": null, "W_regularizer": null, "activity_regularizer": null}}, {"class_name": "Dropout", "config": {"name": "dropout_1_semeval_model", "trainable": true, "p": 0.2}}, {"class_name": "Activation", "config": {"name": "activation_1_semeval_model", "trainable": true, "activation": "relu"}}, {"class_name": "Dense", "config": {"output_dim": 3, "name": "dense_2_semeval_model", "init": "glorot_uniform", "W_constraint": null, "b_regularizer": null, "activation": "softmax", "bias": true, "input_dim": null, "trainable": true, "b_constraint": null, "W_regularizer": null, "activity_regularizer": null}}]}], "output_shape": null, "mode": "concat", "mode_type": "raw", "output_shape_type": "raw"}}, {"class_name": "Dense", "config": {"output_dim": 256, "name": "dense_1", "init": "glorot_uniform", "W_regularizer": null, "b_regularizer": null, "activation": "linear", "bias": true, "input_dim": null, "trainable": true, "b_constraint": null, "W_constraint": null, "activity_regularizer": null}}, {"class_name": "Activation", "config": {"name": "activation_1", "trainable": true, "activation": "relu"}}, {"class_name": "Dense", "config": {"output_dim": 3, "name": "dense_2", "init": "glorot_uniform", "W_regularizer": null, "b_regularizer": null, "activation": "softmax", "bias": true, "input_dim": null, "trainable": true, "b_constraint": null, "W_constraint": null, "activity_regularizer": null}}]}