{"config": [{"config": {"dot_axes": -1, "mode_type": "raw", "name": "merge_1", "mode": "concat", "concat_axis": -1, "output_shape_type": "raw", "layers": [{"config": [{"config": {"input_dtype": "int32", "name": "embedding_1_dai_model", "init": "uniform", "output_dim": 52, "trainable": true, "input_length": 140, "mask_zero": false, "input_dim": 1576890, "dropout": 0.2, "W_constraint": null, "batch_input_shape": [null, 140], "W_regularizer": null, "activity_regularizer": null}, "class_name": "Embedding"}, {"config": {"name": "zeropadding1d_1_dai_model", "trainable": true, "padding": 5}, "class_name": "ZeroPadding1D"}, {"config": {"name": "convolution1d_1_dai_model", "b_constraint": null, "border_mode": "valid", "input_dim": null, "filter_length": 6, "input_length": null, "activity_regularizer": null, "b_regularizer": null, "W_regularizer": null, "subsample_length": 1, "init": "uniform", "W_constraint": null, "nb_filter": 200, "trainable": true, "activation": "relu", "bias": true}, "class_name": "Convolution1D"}, {"config": {"name": "maxpooling1d_1_dai_model", "stride": 2, "trainable": true, "pool_length": 4, "border_mode": "valid"}, "class_name": "MaxPooling1D"}, {"config": {"name": "convolution1d_2_dai_model", "b_constraint": null, "border_mode": "valid", "input_dim": null, "filter_length": 6, "input_length": null, "activity_regularizer": null, "b_regularizer": null, "W_regularizer": null, "subsample_length": 1, "init": "uniform", "W_constraint": null, "nb_filter": 200, "trainable": true, "activation": "relu", "bias": true}, "class_name": "Convolution1D"}], "class_name": "Sequential"}, {"config": [{"config": {"input_dtype": "int32", "name": "embedding_1_dil_model", "init": "uniform", "output_dim": 52, "trainable": true, "input_length": 140, "mask_zero": false, "input_dim": 1576890, "dropout": 0.2, "W_constraint": null, "batch_input_shape": [null, 140], "W_regularizer": null, "activity_regularizer": null}, "class_name": "Embedding"}, {"config": {"name": "zeropadding1d_1_dil_model", "trainable": true, "padding": 5}, "class_name": "ZeroPadding1D"}, {"config": {"name": "convolution1d_1_dil_model", "b_constraint": null, "border_mode": "valid", "input_dim": null, "filter_length": 6, "input_length": null, "activity_regularizer": null, "b_regularizer": null, "W_regularizer": null, "subsample_length": 1, "init": "uniform", "W_constraint": null, "nb_filter": 200, "trainable": true, "activation": "relu", "bias": true}, "class_name": "Convolution1D"}, {"config": {"name": "maxpooling1d_1_dil_model", "stride": 2, "trainable": true, "pool_length": 4, "border_mode": "valid"}, "class_name": "MaxPooling1D"}, {"config": {"name": "convolution1d_2_dil_model", "b_constraint": null, "border_mode": "valid", "input_dim": null, "filter_length": 6, "input_length": null, "activity_regularizer": null, "b_regularizer": null, "W_regularizer": null, "subsample_length": 1, "init": "uniform", "W_constraint": null, "nb_filter": 200, "trainable": true, "activation": "relu", "bias": true}, "class_name": "Convolution1D"}], "class_name": "Sequential"}, {"config": [{"config": {"input_dtype": "int32", "name": "embedding_17_mpq_model", "init": "uniform", "output_dim": 52, "trainable": true, "input_length": 140, "mask_zero": false, "input_dim": 428669, "dropout": 0.2, "W_constraint": null, "batch_input_shape": [null, 140], "W_regularizer": null, "activity_regularizer": null}, "class_name": "Embedding"}, {"config": {"name": "zeropadding1d_17_mpq_model", "trainable": true, "padding": 5}, "class_name": "ZeroPadding1D"}, {"config": {"name": "convolution1d_33_mpq_model", "b_constraint": null, "border_mode": "valid", "input_dim": null, "filter_length": 6, "input_length": null, "activity_regularizer": null, "b_regularizer": null, "W_regularizer": null, "subsample_length": 1, "init": "uniform", "W_constraint": null, "nb_filter": 200, "trainable": true, "activation": "relu", "bias": true}, "class_name": "Convolution1D"}, {"config": {"name": "maxpooling1d_33_mpq_model", "stride": 2, "trainable": true, "pool_length": 4, "border_mode": "valid"}, "class_name": "MaxPooling1D"}, {"config": {"name": "convolution1d_34_mpq_model", "b_constraint": null, "border_mode": "valid", "input_dim": null, "filter_length": 6, "input_length": null, "activity_regularizer": null, "b_regularizer": null, "W_regularizer": null, "subsample_length": 1, "init": "uniform", "W_constraint": null, "nb_filter": 200, "trainable": true, "activation": "relu", "bias": true}, "class_name": "Convolution1D"}], "class_name": "Sequential"}, {"config": [{"config": {"input_dtype": "int32", "name": "embedding_1_semeval_model", "init": "uniform", "output_dim": 52, "trainable": true, "input_length": 140, "mask_zero": false, "input_dim": 1576890, "dropout": 0.2, "W_constraint": null, "batch_input_shape": [null, 140], "W_regularizer": null, "activity_regularizer": null}, "class_name": "Embedding"}, {"config": {"name": "zeropadding1d_1_semeval_model", "trainable": true, "padding": 5}, "class_name": "ZeroPadding1D"}, {"config": {"name": "convolution1d_1_semeval_model", "b_constraint": null, "border_mode": "valid", "input_dim": null, "filter_length": 6, "input_length": null, "activity_regularizer": null, "b_regularizer": null, "W_regularizer": null, "subsample_length": 1, "init": "uniform", "W_constraint": null, "nb_filter": 200, "trainable": true, "activation": "relu", "bias": true}, "class_name": "Convolution1D"}, {"config": {"name": "maxpooling1d_1_semeval_model", "stride": 2, "trainable": true, "pool_length": 4, "border_mode": "valid"}, "class_name": "MaxPooling1D"}, {"config": {"name": "convolution1d_2_semeval_model", "b_constraint": null, "border_mode": "valid", "input_dim": null, "filter_length": 6, "input_length": null, "activity_regularizer": null, "b_regularizer": null, "W_regularizer": null, "subsample_length": 1, "init": "uniform", "W_constraint": null, "nb_filter": 200, "trainable": true, "activation": "relu", "bias": true}, "class_name": "Convolution1D"}], "class_name": "Sequential"}, {"config": [{"config": {"input_dtype": "int32", "name": "embedding_1_tac_model", "init": "uniform", "output_dim": 52, "trainable": true, "input_length": 140, "mask_zero": false, "input_dim": 428669, "dropout": 0.2, "W_constraint": null, "batch_input_shape": [null, 140], "W_regularizer": null, "activity_regularizer": null}, "class_name": "Embedding"}, {"config": {"name": "zeropadding1d_1_tac_model", "trainable": true, "padding": 5}, "class_name": "ZeroPadding1D"}, {"config": {"name": "convolution1d_1_tac_model", "b_constraint": null, "border_mode": "valid", "input_dim": null, "filter_length": 6, "input_length": null, "activity_regularizer": null, "b_regularizer": null, "W_regularizer": null, "subsample_length": 1, "init": "uniform", "W_constraint": null, "nb_filter": 200, "trainable": true, "activation": "relu", "bias": true}, "class_name": "Convolution1D"}, {"config": {"name": "maxpooling1d_1_tac_model", "stride": 2, "trainable": true, "pool_length": 4, "border_mode": "valid"}, "class_name": "MaxPooling1D"}, {"config": {"name": "convolution1d_2_tac_model", "b_constraint": null, "border_mode": "valid", "input_dim": null, "filter_length": 6, "input_length": null, "activity_regularizer": null, "b_regularizer": null, "W_regularizer": null, "subsample_length": 1, "init": "uniform", "W_constraint": null, "nb_filter": 200, "trainable": true, "activation": "relu", "bias": true}, "class_name": "Convolution1D"}], "class_name": "Sequential"}], "output_shape": null}, "class_name": "Merge"}, {"config": {"trainable": true, "stride": 2, "name": "maxpooling1d_1", "border_mode": "valid", "pool_length": 4}, "class_name": "MaxPooling1D"}, {"config": {"name": "convolution1d_1", "b_constraint": null, "border_mode": "valid", "activity_regularizer": null, "activation": "relu", "input_length": null, "bias": true, "input_dim": null, "b_regularizer": null, "W_constraint": null, "subsample_length": 1, "filter_length": 6, "nb_filter": 200, "trainable": true, "W_regularizer": null, "init": "uniform"}, "class_name": "Convolution1D"}, {"config": {"trainable": true, "stride": 2, "name": "maxpooling1d_2", "border_mode": "valid", "pool_length": 4}, "class_name": "MaxPooling1D"}, {"config": {"name": "flatten_1", "trainable": true}, "class_name": "Flatten"}, {"config": {"name": "dense_1", "b_constraint": null, "input_dim": null, "output_dim": 200, "activity_regularizer": null, "b_regularizer": null, "W_constraint": null, "W_regularizer": null, "bias": true, "trainable": true, "activation": "linear", "init": "glorot_uniform"}, "class_name": "Dense"}, {"config": {"trainable": true, "name": "dropout_1", "p": 0.2}, "class_name": "Dropout"}, {"config": {"trainable": true, "name": "activation_1", "activation": "relu"}, "class_name": "Activation"}, {"config": {"name": "dense_2", "b_constraint": null, "input_dim": null, "output_dim": 3, "activity_regularizer": null, "b_regularizer": null, "W_constraint": null, "W_regularizer": null, "bias": true, "trainable": true, "activation": "softmax", "init": "glorot_uniform"}, "class_name": "Dense"}], "keras_version": "1.1.1", "class_name": "Sequential"}