{"config": [{"config": {"mode": "concat", "output_shape": null, "name": "merge_1", "layers": [{"config": [{"config": {"output_dim": 52, "input_length": 140, "W_constraint": null, "init": "uniform", "activity_regularizer": null, "mask_zero": false, "input_dim": 428669, "trainable": true, "name": "embedding_17_mpq_model", "batch_input_shape": [null, 140], "input_dtype": "int32", "W_regularizer": null, "dropout": 0.2}, "class_name": "Embedding"}, {"config": {"name": "zeropadding1d_17_mpq_model", "trainable": true, "padding": 5}, "class_name": "ZeroPadding1D"}, {"config": {"input_length": null, "W_constraint": null, "b_regularizer": null, "init": "uniform", "filter_length": 6, "activity_regularizer": null, "W_regularizer": null, "subsample_length": 1, "input_dim": null, "b_constraint": null, "nb_filter": 200, "trainable": true, "name": "convolution1d_33_mpq_model", "activation": "relu", "border_mode": "valid", "bias": true}, "class_name": "Convolution1D"}, {"config": {"name": "maxpooling1d_33_mpq_model", "border_mode": "valid", "pool_length": 4, "trainable": true, "stride": 2}, "class_name": "MaxPooling1D"}, {"config": {"input_length": null, "W_constraint": null, "b_regularizer": null, "init": "uniform", "filter_length": 6, "activity_regularizer": null, "W_regularizer": null, "subsample_length": 1, "input_dim": null, "b_constraint": null, "nb_filter": 200, "trainable": true, "name": "convolution1d_34_mpq_model", "activation": "relu", "border_mode": "valid", "bias": true}, "class_name": "Convolution1D"}, {"config": {"name": "maxpooling1d_34_mpq_model", "border_mode": "valid", "pool_length": 66, "trainable": true, "stride": 66}, "class_name": "MaxPooling1D"}, {"config": {"name": "flatten_17_mpq_model", "trainable": true}, "class_name": "Flatten"}], "class_name": "Sequential"}, {"config": [{"config": {"output_dim": 52, "input_length": 140, "W_constraint": null, "init": "uniform", "activity_regularizer": null, "mask_zero": false, "input_dim": 1062158, "trainable": true, "name": "embedding_1_hul_model", "batch_input_shape": [null, 140], "input_dtype": "int32", "W_regularizer": null, "dropout": 0.2}, "class_name": "Embedding"}, {"config": {"name": "zeropadding1d_1_hul_model", "trainable": true, "padding": 5}, "class_name": "ZeroPadding1D"}, {"config": {"input_length": null, "W_constraint": null, "b_regularizer": null, "init": "uniform", "filter_length": 6, "activity_regularizer": null, "W_regularizer": null, "subsample_length": 1, "input_dim": null, "b_constraint": null, "nb_filter": 200, "trainable": true, "name": "convolution1d_1_hul_model", "activation": "relu", "border_mode": "valid", "bias": true}, "class_name": "Convolution1D"}, {"config": {"name": "maxpooling1d_1_hul_model", "border_mode": "valid", "pool_length": 4, "trainable": true, "stride": 2}, "class_name": "MaxPooling1D"}, {"config": {"input_length": null, "W_constraint": null, "b_regularizer": null, "init": "uniform", "filter_length": 6, "activity_regularizer": null, "W_regularizer": null, "subsample_length": 1, "input_dim": null, "b_constraint": null, "nb_filter": 200, "trainable": true, "name": "convolution1d_2_hul_model", "activation": "relu", "border_mode": "valid", "bias": true}, "class_name": "Convolution1D"}, {"config": {"name": "maxpooling1d_2_hul_model", "border_mode": "valid", "pool_length": 66, "trainable": true, "stride": 66}, "class_name": "MaxPooling1D"}, {"config": {"name": "flatten_1_hul_model", "trainable": true}, "class_name": "Flatten"}], "class_name": "Sequential"}, {"config": [{"config": {"output_dim": 52, "input_length": 140, "W_constraint": null, "init": "uniform", "activity_regularizer": null, "mask_zero": false, "input_dim": 428669, "trainable": true, "name": "embedding_1_tac_model", "batch_input_shape": [null, 140], "input_dtype": "int32", "W_regularizer": null, "dropout": 0.2}, "class_name": "Embedding"}, {"config": {"name": "zeropadding1d_1_tac_model", "trainable": true, "padding": 5}, "class_name": "ZeroPadding1D"}, {"config": {"input_length": null, "W_constraint": null, "b_regularizer": null, "init": "uniform", "filter_length": 6, "activity_regularizer": null, "W_regularizer": null, "subsample_length": 1, "input_dim": null, "b_constraint": null, "nb_filter": 200, "trainable": true, "name": "convolution1d_1_tac_model", "activation": "relu", "border_mode": "valid", "bias": true}, "class_name": "Convolution1D"}, {"config": {"name": "maxpooling1d_1_tac_model", "border_mode": "valid", "pool_length": 4, "trainable": true, "stride": 2}, "class_name": "MaxPooling1D"}, {"config": {"input_length": null, "W_constraint": null, "b_regularizer": null, "init": "uniform", "filter_length": 6, "activity_regularizer": null, "W_regularizer": null, "subsample_length": 1, "input_dim": null, "b_constraint": null, "nb_filter": 200, "trainable": true, "name": "convolution1d_2_tac_model", "activation": "relu", "border_mode": "valid", "bias": true}, "class_name": "Convolution1D"}, {"config": {"name": "maxpooling1d_2_tac_model", "border_mode": "valid", "pool_length": 66, "trainable": true, "stride": 66}, "class_name": "MaxPooling1D"}, {"config": {"name": "flatten_1_tac_model", "trainable": true}, "class_name": "Flatten"}], "class_name": "Sequential"}, {"config": [{"config": {"output_dim": 52, "input_length": 140, "W_constraint": null, "init": "uniform", "activity_regularizer": null, "mask_zero": false, "input_dim": 428669, "trainable": true, "name": "embedding_1_semeval_model", "batch_input_shape": [null, 140], "input_dtype": "int32", "W_regularizer": null, "dropout": 0.2}, "class_name": "Embedding"}, {"config": {"name": "zeropadding1d_1_semeval_model", "trainable": true, "padding": 5}, "class_name": "ZeroPadding1D"}, {"config": {"input_length": null, "W_constraint": null, "b_regularizer": null, "init": "uniform", "filter_length": 6, "activity_regularizer": null, "W_regularizer": null, "subsample_length": 1, "input_dim": null, "b_constraint": null, "nb_filter": 200, "trainable": true, "name": "convolution1d_1_semeval_model", "activation": "relu", "border_mode": "valid", "bias": true}, "class_name": "Convolution1D"}, {"config": {"name": "maxpooling1d_1_semeval_model", "border_mode": "valid", "pool_length": 4, "trainable": true, "stride": 2}, "class_name": "MaxPooling1D"}, {"config": {"input_length": null, "W_constraint": null, "b_regularizer": null, "init": "uniform", "filter_length": 6, "activity_regularizer": null, "W_regularizer": null, "subsample_length": 1, "input_dim": null, "b_constraint": null, "nb_filter": 200, "trainable": true, "name": "convolution1d_2_semeval_model", "activation": "relu", "border_mode": "valid", "bias": true}, "class_name": "Convolution1D"}, {"config": {"name": "maxpooling1d_2_semeval_model", "border_mode": "valid", "pool_length": 66, "trainable": true, "stride": 66}, "class_name": "MaxPooling1D"}, {"config": {"name": "flatten_1_semeval_model", "trainable": true}, "class_name": "Flatten"}], "class_name": "Sequential"}, {"config": [{"config": {"output_dim": 52, "input_length": 140, "W_constraint": null, "init": "uniform", "activity_regularizer": null, "mask_zero": false, "input_dim": 1576890, "trainable": true, "name": "embedding_1_dai_model", "batch_input_shape": [null, 140], "input_dtype": "int32", "W_regularizer": null, "dropout": 0.2}, "class_name": "Embedding"}, {"config": {"name": "zeropadding1d_1_dai_model", "trainable": true, "padding": 5}, "class_name": "ZeroPadding1D"}, {"config": {"input_length": null, "W_constraint": null, "b_regularizer": null, "init": "uniform", "filter_length": 6, "activity_regularizer": null, "W_regularizer": null, "subsample_length": 1, "input_dim": null, "b_constraint": null, "nb_filter": 200, "trainable": true, "name": "convolution1d_1_dai_model", "activation": "relu", "border_mode": "valid", "bias": true}, "class_name": "Convolution1D"}, {"config": {"name": "maxpooling1d_1_dai_model", "border_mode": "valid", "pool_length": 4, "trainable": true, "stride": 2}, "class_name": "MaxPooling1D"}, {"config": {"input_length": null, "W_constraint": null, "b_regularizer": null, "init": "uniform", "filter_length": 6, "activity_regularizer": null, "W_regularizer": null, "subsample_length": 1, "input_dim": null, "b_constraint": null, "nb_filter": 200, "trainable": true, "name": "convolution1d_2_dai_model", "activation": "relu", "border_mode": "valid", "bias": true}, "class_name": "Convolution1D"}, {"config": {"name": "maxpooling1d_2_dai_model", "border_mode": "valid", "pool_length": 66, "trainable": true, "stride": 66}, "class_name": "MaxPooling1D"}, {"config": {"name": "flatten_1_dai_model", "trainable": true}, "class_name": "Flatten"}], "class_name": "Sequential"}, {"config": [{"config": {"output_dim": 52, "input_length": 140, "W_constraint": null, "init": "uniform", "activity_regularizer": null, "mask_zero": false, "input_dim": 1576890, "trainable": true, "name": "embedding_1_dil_model", "batch_input_shape": [null, 140], "input_dtype": "int32", "W_regularizer": null, "dropout": 0.2}, "class_name": "Embedding"}, {"config": {"name": "zeropadding1d_1_dil_model", "trainable": true, "padding": 5}, "class_name": "ZeroPadding1D"}, {"config": {"input_length": null, "W_constraint": null, "b_regularizer": null, "init": "uniform", "filter_length": 6, "activity_regularizer": null, "W_regularizer": null, "subsample_length": 1, "input_dim": null, "b_constraint": null, "nb_filter": 200, "trainable": true, "name": "convolution1d_1_dil_model", "activation": "relu", "border_mode": "valid", "bias": true}, "class_name": "Convolution1D"}, {"config": {"name": "maxpooling1d_1_dil_model", "border_mode": "valid", "pool_length": 4, "trainable": true, "stride": 2}, "class_name": "MaxPooling1D"}, {"config": {"input_length": null, "W_constraint": null, "b_regularizer": null, "init": "uniform", "filter_length": 6, "activity_regularizer": null, "W_regularizer": null, "subsample_length": 1, "input_dim": null, "b_constraint": null, "nb_filter": 200, "trainable": true, "name": "convolution1d_2_dil_model", "activation": "relu", "border_mode": "valid", "bias": true}, "class_name": "Convolution1D"}, {"config": {"name": "maxpooling1d_2_dil_model", "border_mode": "valid", "pool_length": 66, "trainable": true, "stride": 66}, "class_name": "MaxPooling1D"}, {"config": {"name": "flatten_1_dil_model", "trainable": true}, "class_name": "Flatten"}], "class_name": "Sequential"}], "concat_axis": -1, "output_shape_type": "raw", "mode_type": "raw", "dot_axes": -1}, "class_name": "Merge"}, {"config": {"output_dim": 1028, "W_constraint": null, "b_regularizer": null, "init": "glorot_uniform", "activity_regularizer": null, "input_dim": null, "name": "dense_1", "trainable": true, "b_constraint": null, "activation": "linear", "W_regularizer": null, "bias": true}, "class_name": "Dense"}, {"config": {"name": "activation_1", "activation": "relu", "trainable": true}, "class_name": "Activation"}, {"config": {"output_dim": 3, "W_constraint": null, "b_regularizer": null, "init": "glorot_uniform", "activity_regularizer": null, "input_dim": null, "name": "dense_2", "trainable": true, "b_constraint": null, "activation": "softmax", "W_regularizer": null, "bias": true}, "class_name": "Dense"}], "keras_version": "1.1.1", "class_name": "Sequential"}