{"keras_version": "1.1.1", "class_name": "Sequential", "config": [{"class_name": "Merge", "config": {"output_shape": null, "dot_axes": -1, "layers": [{"class_name": "Sequential", "config": [{"class_name": "Embedding", "config": {"activity_regularizer": null, "batch_input_shape": [null, 140], "W_regularizer": null, "output_dim": 52, "input_dim": 1576890, "mask_zero": false, "dropout": 0.2, "input_length": 140, "init": "uniform", "trainable": true, "input_dtype": "int32", "name": "embedding_1_dai_model", "W_constraint": null}}, {"class_name": "ZeroPadding1D", "config": {"trainable": true, "name": "zeropadding1d_1_dai_model", "padding": 5}}, {"class_name": "Convolution1D", "config": {"activity_regularizer": null, "filter_length": 6, "W_constraint": null, "b_regularizer": null, "bias": true, "W_regularizer": null, "b_constraint": null, "activation": "relu", "nb_filter": 200, "input_dim": null, "init": "uniform", "input_length": null, "subsample_length": 1, "trainable": true, "name": "convolution1d_1_dai_model", "border_mode": "valid"}}, {"class_name": "MaxPooling1D", "config": {"stride": 2, "trainable": true, "name": "maxpooling1d_1_dai_model", "border_mode": "valid", "pool_length": 4}}, {"class_name": "Convolution1D", "config": {"activity_regularizer": null, "filter_length": 6, "W_constraint": null, "b_regularizer": null, "bias": true, "W_regularizer": null, "b_constraint": null, "activation": "relu", "nb_filter": 200, "input_dim": null, "init": "uniform", "input_length": null, "subsample_length": 1, "trainable": true, "name": "convolution1d_2_dai_model", "border_mode": "valid"}}]}, {"class_name": "Sequential", "config": [{"class_name": "Embedding", "config": {"activity_regularizer": null, "batch_input_shape": [null, 140], "W_regularizer": null, "output_dim": 52, "input_dim": 1576890, "mask_zero": false, "dropout": 0.2, "input_length": 140, "init": "uniform", "trainable": true, "input_dtype": "int32", "name": "embedding_1_dil_model", "W_constraint": null}}, {"class_name": "ZeroPadding1D", "config": {"trainable": true, "name": "zeropadding1d_1_dil_model", "padding": 5}}, {"class_name": "Convolution1D", "config": {"activity_regularizer": null, "filter_length": 6, "W_constraint": null, "b_regularizer": null, "bias": true, "W_regularizer": null, "b_constraint": null, "activation": "relu", "nb_filter": 200, "input_dim": null, "init": "uniform", "input_length": null, "subsample_length": 1, "trainable": true, "name": "convolution1d_1_dil_model", "border_mode": "valid"}}, {"class_name": "MaxPooling1D", "config": {"stride": 2, "trainable": true, "name": "maxpooling1d_1_dil_model", "border_mode": "valid", "pool_length": 4}}, {"class_name": "Convolution1D", "config": {"activity_regularizer": null, "filter_length": 6, "W_constraint": null, "b_regularizer": null, "bias": true, "W_regularizer": null, "b_constraint": null, "activation": "relu", "nb_filter": 200, "input_dim": null, "init": "uniform", "input_length": null, "subsample_length": 1, "trainable": true, "name": "convolution1d_2_dil_model", "border_mode": "valid"}}]}, {"class_name": "Sequential", "config": [{"class_name": "Embedding", "config": {"activity_regularizer": null, "batch_input_shape": [null, 140], "W_regularizer": null, "output_dim": 52, "input_dim": 428669, "mask_zero": false, "dropout": 0.2, "input_length": 140, "init": "uniform", "trainable": true, "input_dtype": "int32", "name": "embedding_17_mpq_model", "W_constraint": null}}, {"class_name": "ZeroPadding1D", "config": {"trainable": true, "name": "zeropadding1d_17_mpq_model", "padding": 5}}, {"class_name": "Convolution1D", "config": {"activity_regularizer": null, "filter_length": 6, "W_constraint": null, "b_regularizer": null, "bias": true, "W_regularizer": null, "b_constraint": null, "activation": "relu", "nb_filter": 200, "input_dim": null, "init": "uniform", "input_length": null, "subsample_length": 1, "trainable": true, "name": "convolution1d_33_mpq_model", "border_mode": "valid"}}, {"class_name": "MaxPooling1D", "config": {"stride": 2, "trainable": true, "name": "maxpooling1d_33_mpq_model", "border_mode": "valid", "pool_length": 4}}, {"class_name": "Convolution1D", "config": {"activity_regularizer": null, "filter_length": 6, "W_constraint": null, "b_regularizer": null, "bias": true, "W_regularizer": null, "b_constraint": null, "activation": "relu", "nb_filter": 200, "input_dim": null, "init": "uniform", "input_length": null, "subsample_length": 1, "trainable": true, "name": "convolution1d_34_mpq_model", "border_mode": "valid"}}]}, {"class_name": "Sequential", "config": [{"class_name": "Embedding", "config": {"activity_regularizer": null, "batch_input_shape": [null, 140], "W_regularizer": null, "output_dim": 52, "input_dim": 1576890, "mask_zero": false, "dropout": 0.2, "input_length": 140, "init": "uniform", "trainable": true, "input_dtype": "int32", "name": "embedding_1_semeval_model", "W_constraint": null}}, {"class_name": "ZeroPadding1D", "config": {"trainable": true, "name": "zeropadding1d_1_semeval_model", "padding": 5}}, {"class_name": "Convolution1D", "config": {"activity_regularizer": null, "filter_length": 6, "W_constraint": null, "b_regularizer": null, "bias": true, "W_regularizer": null, "b_constraint": null, "activation": "relu", "nb_filter": 200, "input_dim": null, "init": "uniform", "input_length": null, "subsample_length": 1, "trainable": true, "name": "convolution1d_1_semeval_model", "border_mode": "valid"}}, {"class_name": "MaxPooling1D", "config": {"stride": 2, "trainable": true, "name": "maxpooling1d_1_semeval_model", "border_mode": "valid", "pool_length": 4}}, {"class_name": "Convolution1D", "config": {"activity_regularizer": null, "filter_length": 6, "W_constraint": null, "b_regularizer": null, "bias": true, "W_regularizer": null, "b_constraint": null, "activation": "relu", "nb_filter": 200, "input_dim": null, "init": "uniform", "input_length": null, "subsample_length": 1, "trainable": true, "name": "convolution1d_2_semeval_model", "border_mode": "valid"}}]}], "concat_axis": -1, "mode": "concat", "name": "merge_1", "output_shape_type": "raw", "mode_type": "raw"}}, {"class_name": "MaxPooling1D", "config": {"stride": 2, "trainable": true, "name": "maxpooling1d_1", "border_mode": "valid", "pool_length": 4}}, {"class_name": "Convolution1D", "config": {"activity_regularizer": null, "filter_length": 6, "b_regularizer": null, "bias": true, "W_regularizer": null, "b_constraint": null, "activation": "relu", "nb_filter": 200, "input_dim": null, "init": "uniform", "border_mode": "valid", "input_length": null, "subsample_length": 1, "trainable": true, "name": "convolution1d_1", "W_constraint": null}}, {"class_name": "MaxPooling1D", "config": {"stride": 2, "trainable": true, "name": "maxpooling1d_2", "border_mode": "valid", "pool_length": 4}}, {"class_name": "Flatten", "config": {"trainable": true, "name": "flatten_1"}}, {"class_name": "Dense", "config": {"activity_regularizer": null, "b_constraint": null, "b_regularizer": null, "bias": true, "W_regularizer": null, "activation": "linear", "output_dim": 200, "input_dim": null, "init": "glorot_uniform", "trainable": true, "name": "dense_1", "W_constraint": null}}, {"class_name": "Dropout", "config": {"trainable": true, "p": 0.2, "name": "dropout_1"}}, {"class_name": "Activation", "config": {"trainable": true, "name": "activation_1", "activation": "relu"}}, {"class_name": "Dense", "config": {"activity_regularizer": null, "b_constraint": null, "b_regularizer": null, "bias": true, "W_regularizer": null, "activation": "softmax", "output_dim": 3, "input_dim": null, "init": "glorot_uniform", "trainable": true, "name": "dense_2", "W_constraint": null}}]}