{"config": [{"config": {"dropout": 0.2, "input_dim": 1353244, "init": "uniform", "W_constraint": null, "input_dtype": "int32", "name": "embedding_9", "activity_regularizer": null, "batch_input_shape": [null, 140], "mask_zero": false, "W_regularizer": null, "input_length": 140, "output_dim": 52, "trainable": true}, "class_name": "Embedding"}, {"config": {"trainable": true, "name": "zeropadding1d_9", "padding": 5}, "class_name": "ZeroPadding1D"}, {"config": {"border_mode": "valid", "filter_length": 6, "input_dim": null, "init": "uniform", "nb_filter": 200, "trainable": true, "activity_regularizer": null, "b_constraint": null, "subsample_length": 1, "W_regularizer": null, "W_constraint": null, "input_length": null, "activation": "relu", "name": "convolution1d_17", "bias": true, "b_regularizer": null}, "class_name": "Convolution1D"}, {"config": {"border_mode": "valid", "trainable": true, "pool_length": 4, "name": "maxpooling1d_17", "stride": 2}, "class_name": "MaxPooling1D"}, {"config": {"border_mode": "valid", "filter_length": 6, "input_dim": null, "init": "uniform", "nb_filter": 200, "trainable": true, "activity_regularizer": null, "b_constraint": null, "subsample_length": 1, "W_regularizer": null, "W_constraint": null, "input_length": null, "activation": "relu", "name": "convolution1d_18", "bias": true, "b_regularizer": null}, "class_name": "Convolution1D"}, {"config": {"border_mode": "valid", "trainable": true, "pool_length": 66, "name": "maxpooling1d_18", "stride": 66}, "class_name": "MaxPooling1D"}, {"config": {"trainable": true, "name": "flatten_9"}, "class_name": "Flatten"}, {"config": {"input_dim": null, "init": "glorot_uniform", "b_regularizer": null, "W_constraint": null, "activity_regularizer": null, "b_constraint": null, "W_regularizer": null, "bias": true, "activation": "linear", "output_dim": 200, "name": "dense_17", "trainable": true}, "class_name": "Dense"}, {"config": {"trainable": true, "name": "dropout_9", "p": 0.2}, "class_name": "Dropout"}, {"config": {"trainable": true, "activation": "relu", "name": "activation_9"}, "class_name": "Activation"}, {"config": {"input_dim": null, "init": "glorot_uniform", "b_regularizer": null, "W_constraint": null, "activity_regularizer": null, "b_constraint": null, "W_regularizer": null, "bias": true, "activation": "softmax", "output_dim": 3, "name": "dense_18", "trainable": true}, "class_name": "Dense"}], "class_name": "Sequential", "keras_version": "1.1.0"}