{"class_name": "Sequential", "keras_version": "1.1.0", "config": [{"class_name": "Embedding", "config": {"dropout": 0.2, "name": "embedding_49", "trainable": true, "output_dim": 52, "W_constraint": null, "batch_input_shape": [null, 140], "mask_zero": false, "input_dtype": "int32", "init": "uniform", "activity_regularizer": null, "input_dim": 1576890, "input_length": 140, "W_regularizer": null}}, {"class_name": "ZeroPadding1D", "config": {"name": "zeropadding1d_49", "padding": 5, "trainable": true}}, {"class_name": "Convolution1D", "config": {"b_constraint": null, "name": "convolution1d_97", "activity_regularizer": null, "trainable": true, "subsample_length": 1, "activation": "relu", "W_constraint": null, "init": "uniform", "filter_length": 6, "b_regularizer": null, "input_dim": null, "nb_filter": 200, "input_length": null, "border_mode": "valid", "W_regularizer": null, "bias": true}}, {"class_name": "MaxPooling1D", "config": {"pool_length": 4, "name": "maxpooling1d_97", "border_mode": "valid", "trainable": true, "stride": 2}}, {"class_name": "Convolution1D", "config": {"b_constraint": null, "name": "convolution1d_98", "activity_regularizer": null, "trainable": true, "subsample_length": 1, "activation": "relu", "W_constraint": null, "init": "uniform", "filter_length": 6, "b_regularizer": null, "input_dim": null, "nb_filter": 200, "input_length": null, "border_mode": "valid", "W_regularizer": null, "bias": true}}, {"class_name": "MaxPooling1D", "config": {"pool_length": 66, "name": "maxpooling1d_98", "border_mode": "valid", "trainable": true, "stride": 66}}, {"class_name": "Flatten", "config": {"name": "flatten_49", "trainable": true}}, {"class_name": "Dense", "config": {"b_constraint": null, "name": "dense_97", "activity_regularizer": null, "trainable": true, "output_dim": 200, "bias": true, "activation": "linear", "W_constraint": null, "init": "glorot_uniform", "b_regularizer": null, "input_dim": null, "W_regularizer": null}}, {"class_name": "Dropout", "config": {"p": 0.2, "name": "dropout_49", "trainable": true}}, {"class_name": "Activation", "config": {"activation": "relu", "trainable": true, "name": "activation_49"}}, {"class_name": "Dense", "config": {"b_constraint": null, "name": "dense_98", "activity_regularizer": null, "trainable": true, "output_dim": 3, "bias": true, "activation": "softmax", "W_constraint": null, "init": "glorot_uniform", "b_regularizer": null, "input_dim": null, "W_regularizer": null}}]}