{"keras_version": "1.1.1", "class_name": "Sequential", "config": [{"class_name": "Merge", "config": {"layers": [{"class_name": "Sequential", "config": [{"class_name": "Embedding", "config": {"input_dim": 1576890, "batch_input_shape": [null, 140], "name": "embedding_1_dil_model", "dropout": 0.2, "mask_zero": false, "output_dim": 52, "W_constraint": null, "input_length": 140, "W_regularizer": null, "input_dtype": "int32", "trainable": true, "init": "uniform", "activity_regularizer": null}}, {"class_name": "ZeroPadding1D", "config": {"padding": 5, "trainable": true, "name": "zeropadding1d_1_dil_model"}}, {"class_name": "Convolution1D", "config": {"input_dim": null, "input_length": null, "name": "convolution1d_1_dil_model", "bias": true, "b_constraint": null, "W_constraint": null, "border_mode": "valid", "activation": "relu", "subsample_length": 1, "W_regularizer": null, "filter_length": 6, "b_regularizer": null, "trainable": true, "init": "uniform", "activity_regularizer": null, "nb_filter": 200}}, {"class_name": "MaxPooling1D", "config": {"border_mode": "valid", "trainable": true, "name": "maxpooling1d_1_dil_model", "stride": 2, "pool_length": 4}}, {"class_name": "Convolution1D", "config": {"input_dim": null, "input_length": null, "name": "convolution1d_2_dil_model", "bias": true, "b_constraint": null, "W_constraint": null, "border_mode": "valid", "activation": "relu", "subsample_length": 1, "W_regularizer": null, "filter_length": 6, "b_regularizer": null, "trainable": true, "init": "uniform", "activity_regularizer": null, "nb_filter": 200}}, {"class_name": "MaxPooling1D", "config": {"border_mode": "valid", "trainable": true, "name": "maxpooling1d_2_dil_model", "stride": 66, "pool_length": 66}}, {"class_name": "Flatten", "config": {"trainable": true, "name": "flatten_1_dil_model"}}]}, {"class_name": "Sequential", "config": [{"class_name": "Embedding", "config": {"input_dim": 428669, "batch_input_shape": [null, 140], "name": "embedding_1_tac_model", "dropout": 0.2, "mask_zero": false, "output_dim": 52, "W_constraint": null, "input_length": 140, "W_regularizer": null, "input_dtype": "int32", "trainable": true, "init": "uniform", "activity_regularizer": null}}, {"class_name": "ZeroPadding1D", "config": {"padding": 5, "trainable": true, "name": "zeropadding1d_1_tac_model"}}, {"class_name": "Convolution1D", "config": {"input_dim": null, "input_length": null, "name": "convolution1d_1_tac_model", "bias": true, "b_constraint": null, "W_constraint": null, "border_mode": "valid", "activation": "relu", "subsample_length": 1, "W_regularizer": null, "filter_length": 6, "b_regularizer": null, "trainable": true, "init": "uniform", "activity_regularizer": null, "nb_filter": 200}}, {"class_name": "MaxPooling1D", "config": {"border_mode": "valid", "trainable": true, "name": "maxpooling1d_1_tac_model", "stride": 2, "pool_length": 4}}, {"class_name": "Convolution1D", "config": {"input_dim": null, "input_length": null, "name": "convolution1d_2_tac_model", "bias": true, "b_constraint": null, "W_constraint": null, "border_mode": "valid", "activation": "relu", "subsample_length": 1, "W_regularizer": null, "filter_length": 6, "b_regularizer": null, "trainable": true, "init": "uniform", "activity_regularizer": null, "nb_filter": 200}}, {"class_name": "MaxPooling1D", "config": {"border_mode": "valid", "trainable": true, "name": "maxpooling1d_2_tac_model", "stride": 66, "pool_length": 66}}, {"class_name": "Flatten", "config": {"trainable": true, "name": "flatten_1_tac_model"}}]}, {"class_name": "Sequential", "config": [{"class_name": "Embedding", "config": {"input_dim": 428669, "batch_input_shape": [null, 140], "name": "embedding_17_mpq_model", "dropout": 0.2, "mask_zero": false, "output_dim": 52, "W_constraint": null, "input_length": 140, "W_regularizer": null, "input_dtype": "int32", "trainable": true, "init": "uniform", "activity_regularizer": null}}, {"class_name": "ZeroPadding1D", "config": {"padding": 5, "trainable": true, "name": "zeropadding1d_17_mpq_model"}}, {"class_name": "Convolution1D", "config": {"input_dim": null, "input_length": null, "name": "convolution1d_33_mpq_model", "bias": true, "b_constraint": null, "W_constraint": null, "border_mode": "valid", "activation": "relu", "subsample_length": 1, "W_regularizer": null, "filter_length": 6, "b_regularizer": null, "trainable": true, "init": "uniform", "activity_regularizer": null, "nb_filter": 200}}, {"class_name": "MaxPooling1D", "config": {"border_mode": "valid", "trainable": true, "name": "maxpooling1d_33_mpq_model", "stride": 2, "pool_length": 4}}, {"class_name": "Convolution1D", "config": {"input_dim": null, "input_length": null, "name": "convolution1d_34_mpq_model", "bias": true, "b_constraint": null, "W_constraint": null, "border_mode": "valid", "activation": "relu", "subsample_length": 1, "W_regularizer": null, "filter_length": 6, "b_regularizer": null, "trainable": true, "init": "uniform", "activity_regularizer": null, "nb_filter": 200}}, {"class_name": "MaxPooling1D", "config": {"border_mode": "valid", "trainable": true, "name": "maxpooling1d_34_mpq_model", "stride": 66, "pool_length": 66}}, {"class_name": "Flatten", "config": {"trainable": true, "name": "flatten_17_mpq_model"}}]}, {"class_name": "Sequential", "config": [{"class_name": "Embedding", "config": {"input_dim": 428669, "batch_input_shape": [null, 140], "name": "embedding_1_semeval_model", "dropout": 0.2, "mask_zero": false, "output_dim": 52, "W_constraint": null, "input_length": 140, "W_regularizer": null, "input_dtype": "int32", "trainable": true, "init": "uniform", "activity_regularizer": null}}, {"class_name": "ZeroPadding1D", "config": {"padding": 5, "trainable": true, "name": "zeropadding1d_1_semeval_model"}}, {"class_name": "Convolution1D", "config": {"input_dim": null, "input_length": null, "name": "convolution1d_1_semeval_model", "bias": true, "b_constraint": null, "W_constraint": null, "border_mode": "valid", "activation": "relu", "subsample_length": 1, "W_regularizer": null, "filter_length": 6, "b_regularizer": null, "trainable": true, "init": "uniform", "activity_regularizer": null, "nb_filter": 200}}, {"class_name": "MaxPooling1D", "config": {"border_mode": "valid", "trainable": true, "name": "maxpooling1d_1_semeval_model", "stride": 2, "pool_length": 4}}, {"class_name": "Convolution1D", "config": {"input_dim": null, "input_length": null, "name": "convolution1d_2_semeval_model", "bias": true, "b_constraint": null, "W_constraint": null, "border_mode": "valid", "activation": "relu", "subsample_length": 1, "W_regularizer": null, "filter_length": 6, "b_regularizer": null, "trainable": true, "init": "uniform", "activity_regularizer": null, "nb_filter": 200}}, {"class_name": "MaxPooling1D", "config": {"border_mode": "valid", "trainable": true, "name": "maxpooling1d_2_semeval_model", "stride": 66, "pool_length": 66}}, {"class_name": "Flatten", "config": {"trainable": true, "name": "flatten_1_semeval_model"}}]}, {"class_name": "Sequential", "config": [{"class_name": "Embedding", "config": {"input_dim": 1576890, "batch_input_shape": [null, 140], "name": "embedding_1_dai_model", "dropout": 0.2, "mask_zero": false, "output_dim": 52, "W_constraint": null, "input_length": 140, "W_regularizer": null, "input_dtype": "int32", "trainable": true, "init": "uniform", "activity_regularizer": null}}, {"class_name": "ZeroPadding1D", "config": {"padding": 5, "trainable": true, "name": "zeropadding1d_1_dai_model"}}, {"class_name": "Convolution1D", "config": {"input_dim": null, "input_length": null, "name": "convolution1d_1_dai_model", "bias": true, "b_constraint": null, "W_constraint": null, "border_mode": "valid", "activation": "relu", "subsample_length": 1, "W_regularizer": null, "filter_length": 6, "b_regularizer": null, "trainable": true, "init": "uniform", "activity_regularizer": null, "nb_filter": 200}}, {"class_name": "MaxPooling1D", "config": {"border_mode": "valid", "trainable": true, "name": "maxpooling1d_1_dai_model", "stride": 2, "pool_length": 4}}, {"class_name": "Convolution1D", "config": {"input_dim": null, "input_length": null, "name": "convolution1d_2_dai_model", "bias": true, "b_constraint": null, "W_constraint": null, "border_mode": "valid", "activation": "relu", "subsample_length": 1, "W_regularizer": null, "filter_length": 6, "b_regularizer": null, "trainable": true, "init": "uniform", "activity_regularizer": null, "nb_filter": 200}}, {"class_name": "MaxPooling1D", "config": {"border_mode": "valid", "trainable": true, "name": "maxpooling1d_2_dai_model", "stride": 66, "pool_length": 66}}, {"class_name": "Flatten", "config": {"trainable": true, "name": "flatten_1_dai_model"}}]}, {"class_name": "Sequential", "config": [{"class_name": "Embedding", "config": {"input_dim": 1062158, "batch_input_shape": [null, 140], "name": "embedding_1_hul_model", "dropout": 0.2, "mask_zero": false, "output_dim": 52, "W_constraint": null, "input_length": 140, "W_regularizer": null, "input_dtype": "int32", "trainable": true, "init": "uniform", "activity_regularizer": null}}, {"class_name": "ZeroPadding1D", "config": {"padding": 5, "trainable": true, "name": "zeropadding1d_1_hul_model"}}, {"class_name": "Convolution1D", "config": {"input_dim": null, "input_length": null, "name": "convolution1d_1_hul_model", "bias": true, "b_constraint": null, "W_constraint": null, "border_mode": "valid", "activation": "relu", "subsample_length": 1, "W_regularizer": null, "filter_length": 6, "b_regularizer": null, "trainable": true, "init": "uniform", "activity_regularizer": null, "nb_filter": 200}}, {"class_name": "MaxPooling1D", "config": {"border_mode": "valid", "trainable": true, "name": "maxpooling1d_1_hul_model", "stride": 2, "pool_length": 4}}, {"class_name": "Convolution1D", "config": {"input_dim": null, "input_length": null, "name": "convolution1d_2_hul_model", "bias": true, "b_constraint": null, "W_constraint": null, "border_mode": "valid", "activation": "relu", "subsample_length": 1, "W_regularizer": null, "filter_length": 6, "b_regularizer": null, "trainable": true, "init": "uniform", "activity_regularizer": null, "nb_filter": 200}}, {"class_name": "MaxPooling1D", "config": {"border_mode": "valid", "trainable": true, "name": "maxpooling1d_2_hul_model", "stride": 66, "pool_length": 66}}, {"class_name": "Flatten", "config": {"trainable": true, "name": "flatten_1_hul_model"}}]}], "mode_type": "raw", "output_shape_type": "raw", "mode": "concat", "name": "merge_1", "output_shape": null, "concat_axis": -1, "dot_axes": -1}}, {"class_name": "Dense", "config": {"input_dim": null, "name": "dense_1", "b_constraint": null, "bias": true, "output_dim": 1028, "W_constraint": null, "b_regularizer": null, "activation": "linear", "W_regularizer": null, "trainable": true, "init": "glorot_uniform", "activity_regularizer": null}}, {"class_name": "Activation", "config": {"activation": "relu", "trainable": true, "name": "activation_1"}}, {"class_name": "Dense", "config": {"input_dim": null, "name": "dense_2", "b_constraint": null, "bias": true, "output_dim": 3, "W_constraint": null, "b_regularizer": null, "activation": "softmax", "W_regularizer": null, "trainable": true, "init": "glorot_uniform", "activity_regularizer": null}}]}