{"class_name": "Sequential", "keras_version": "1.1.1", "config": [{"class_name": "Merge", "config": {"output_shape": null, "layers": [{"class_name": "Sequential", "config": [{"class_name": "Embedding", "config": {"activity_regularizer": null, "W_regularizer": null, "name": "embedding_1_dai_model", "batch_input_shape": [null, 140], "input_length": 140, "input_dtype": "int32", "output_dim": 52, "dropout": 0.2, "W_constraint": null, "mask_zero": false, "input_dim": 1576890, "trainable": true, "init": "uniform"}}, {"class_name": "ZeroPadding1D", "config": {"trainable": true, "padding": 5, "name": "zeropadding1d_1_dai_model"}}, {"class_name": "Convolution1D", "config": {"activity_regularizer": null, "subsample_length": 1, "b_constraint": null, "W_regularizer": null, "name": "convolution1d_1_dai_model", "activation": "relu", "nb_filter": 200, "input_length": null, "b_regularizer": null, "filter_length": 6, "bias": true, "border_mode": "valid", "W_constraint": null, "trainable": true, "init": "uniform", "input_dim": null}}, {"class_name": "MaxPooling1D", "config": {"trainable": true, "border_mode": "valid", "pool_length": 4, "stride": 2, "name": "maxpooling1d_1_dai_model"}}, {"class_name": "Convolution1D", "config": {"activity_regularizer": null, "subsample_length": 1, "b_constraint": null, "W_regularizer": null, "name": "convolution1d_2_dai_model", "activation": "relu", "nb_filter": 200, "input_length": null, "b_regularizer": null, "filter_length": 6, "bias": true, "border_mode": "valid", "W_constraint": null, "trainable": true, "init": "uniform", "input_dim": null}}]}, {"class_name": "Sequential", "config": [{"class_name": "Embedding", "config": {"activity_regularizer": null, "W_regularizer": null, "name": "embedding_1_dil_model", "batch_input_shape": [null, 140], "input_length": 140, "input_dtype": "int32", "output_dim": 52, "dropout": 0.2, "W_constraint": null, "mask_zero": false, "input_dim": 1576890, "trainable": true, "init": "uniform"}}, {"class_name": "ZeroPadding1D", "config": {"trainable": true, "padding": 5, "name": "zeropadding1d_1_dil_model"}}, {"class_name": "Convolution1D", "config": {"activity_regularizer": null, "subsample_length": 1, "b_constraint": null, "W_regularizer": null, "name": "convolution1d_1_dil_model", "activation": "relu", "nb_filter": 200, "input_length": null, "b_regularizer": null, "filter_length": 6, "bias": true, "border_mode": "valid", "W_constraint": null, "trainable": true, "init": "uniform", "input_dim": null}}, {"class_name": "MaxPooling1D", "config": {"trainable": true, "border_mode": "valid", "pool_length": 4, "stride": 2, "name": "maxpooling1d_1_dil_model"}}, {"class_name": "Convolution1D", "config": {"activity_regularizer": null, "subsample_length": 1, "b_constraint": null, "W_regularizer": null, "name": "convolution1d_2_dil_model", "activation": "relu", "nb_filter": 200, "input_length": null, "b_regularizer": null, "filter_length": 6, "bias": true, "border_mode": "valid", "W_constraint": null, "trainable": true, "init": "uniform", "input_dim": null}}]}, {"class_name": "Sequential", "config": [{"class_name": "Embedding", "config": {"activity_regularizer": null, "W_regularizer": null, "name": "embedding_1_hul_model", "batch_input_shape": [null, 140], "input_length": 140, "input_dtype": "int32", "output_dim": 52, "dropout": 0.2, "W_constraint": null, "mask_zero": false, "input_dim": 1062158, "trainable": true, "init": "uniform"}}, {"class_name": "ZeroPadding1D", "config": {"trainable": true, "padding": 5, "name": "zeropadding1d_1_hul_model"}}, {"class_name": "Convolution1D", "config": {"activity_regularizer": null, "subsample_length": 1, "b_constraint": null, "W_regularizer": null, "name": "convolution1d_1_hul_model", "activation": "relu", "nb_filter": 200, "input_length": null, "b_regularizer": null, "filter_length": 6, "bias": true, "border_mode": "valid", "W_constraint": null, "trainable": true, "init": "uniform", "input_dim": null}}, {"class_name": "MaxPooling1D", "config": {"trainable": true, "border_mode": "valid", "pool_length": 4, "stride": 2, "name": "maxpooling1d_1_hul_model"}}, {"class_name": "Convolution1D", "config": {"activity_regularizer": null, "subsample_length": 1, "b_constraint": null, "W_regularizer": null, "name": "convolution1d_2_hul_model", "activation": "relu", "nb_filter": 200, "input_length": null, "b_regularizer": null, "filter_length": 6, "bias": true, "border_mode": "valid", "W_constraint": null, "trainable": true, "init": "uniform", "input_dim": null}}]}, {"class_name": "Sequential", "config": [{"class_name": "Embedding", "config": {"activity_regularizer": null, "W_regularizer": null, "name": "embedding_1_semeval_model", "batch_input_shape": [null, 140], "input_length": 140, "input_dtype": "int32", "output_dim": 52, "dropout": 0.2, "W_constraint": null, "mask_zero": false, "input_dim": 428669, "trainable": true, "init": "uniform"}}, {"class_name": "ZeroPadding1D", "config": {"trainable": true, "padding": 5, "name": "zeropadding1d_1_semeval_model"}}, {"class_name": "Convolution1D", "config": {"activity_regularizer": null, "subsample_length": 1, "b_constraint": null, "W_regularizer": null, "name": "convolution1d_1_semeval_model", "activation": "relu", "nb_filter": 200, "input_length": null, "b_regularizer": null, "filter_length": 6, "bias": true, "border_mode": "valid", "W_constraint": null, "trainable": true, "init": "uniform", "input_dim": null}}, {"class_name": "MaxPooling1D", "config": {"trainable": true, "border_mode": "valid", "pool_length": 4, "stride": 2, "name": "maxpooling1d_1_semeval_model"}}, {"class_name": "Convolution1D", "config": {"activity_regularizer": null, "subsample_length": 1, "b_constraint": null, "W_regularizer": null, "name": "convolution1d_2_semeval_model", "activation": "relu", "nb_filter": 200, "input_length": null, "b_regularizer": null, "filter_length": 6, "bias": true, "border_mode": "valid", "W_constraint": null, "trainable": true, "init": "uniform", "input_dim": null}}]}, {"class_name": "Sequential", "config": [{"class_name": "Embedding", "config": {"activity_regularizer": null, "W_regularizer": null, "name": "embedding_1_tac_model", "batch_input_shape": [null, 140], "input_length": 140, "input_dtype": "int32", "output_dim": 52, "dropout": 0.2, "W_constraint": null, "mask_zero": false, "input_dim": 428669, "trainable": true, "init": "uniform"}}, {"class_name": "ZeroPadding1D", "config": {"trainable": true, "padding": 5, "name": "zeropadding1d_1_tac_model"}}, {"class_name": "Convolution1D", "config": {"activity_regularizer": null, "subsample_length": 1, "b_constraint": null, "W_regularizer": null, "name": "convolution1d_1_tac_model", "activation": "relu", "nb_filter": 200, "input_length": null, "b_regularizer": null, "filter_length": 6, "bias": true, "border_mode": "valid", "W_constraint": null, "trainable": true, "init": "uniform", "input_dim": null}}, {"class_name": "MaxPooling1D", "config": {"trainable": true, "border_mode": "valid", "pool_length": 4, "stride": 2, "name": "maxpooling1d_1_tac_model"}}, {"class_name": "Convolution1D", "config": {"activity_regularizer": null, "subsample_length": 1, "b_constraint": null, "W_regularizer": null, "name": "convolution1d_2_tac_model", "activation": "relu", "nb_filter": 200, "input_length": null, "b_regularizer": null, "filter_length": 6, "bias": true, "border_mode": "valid", "W_constraint": null, "trainable": true, "init": "uniform", "input_dim": null}}]}], "mode": "concat", "mode_type": "raw", "name": "merge_1", "output_shape_type": "raw", "dot_axes": -1, "concat_axis": -1}}, {"class_name": "Flatten", "config": {"trainable": true, "name": "flatten_1"}}, {"class_name": "Dense", "config": {"activity_regularizer": null, "b_constraint": null, "W_regularizer": null, "name": "dense_1", "b_regularizer": null, "activation": "linear", "output_dim": 200, "bias": true, "W_constraint": null, "trainable": true, "input_dim": null, "init": "glorot_uniform"}}, {"class_name": "Dropout", "config": {"trainable": true, "p": 0.2, "name": "dropout_1"}}, {"class_name": "Activation", "config": {"activation": "relu", "trainable": true, "name": "activation_1"}}, {"class_name": "Dense", "config": {"activity_regularizer": null, "b_constraint": null, "W_regularizer": null, "name": "dense_2", "b_regularizer": null, "activation": "softmax", "output_dim": 3, "bias": true, "W_constraint": null, "trainable": true, "input_dim": null, "init": "glorot_uniform"}}]}