{"keras_version": "1.1.1", "class_name": "Sequential", "config": [{"class_name": "Merge", "config": {"concat_axis": -1, "mode_type": "raw", "dot_axes": -1, "name": "merge_1", "output_shape_type": "raw", "output_shape": null, "mode": "concat", "layers": [{"class_name": "Sequential", "config": [{"class_name": "Embedding", "config": {"output_dim": 52, "name": "embedding_1_dai_model", "trainable": true, "input_dtype": "int32", "mask_zero": false, "activity_regularizer": null, "input_length": 140, "init": "uniform", "W_regularizer": null, "batch_input_shape": [null, 140], "W_constraint": null, "dropout": 0.2, "input_dim": 1576890}}, {"class_name": "ZeroPadding1D", "config": {"name": "zeropadding1d_1_dai_model", "trainable": true, "padding": 5}}, {"class_name": "Convolution1D", "config": {"nb_filter": 200, "input_length": null, "input_dim": null, "trainable": true, "subsample_length": 1, "activity_regularizer": null, "b_constraint": null, "b_regularizer": null, "activation": "relu", "bias": true, "name": "convolution1d_1_dai_model", "init": "uniform", "W_regularizer": null, "W_constraint": null, "filter_length": 6, "border_mode": "valid"}}, {"class_name": "MaxPooling1D", "config": {"pool_length": 4, "border_mode": "valid", "stride": 2, "name": "maxpooling1d_1_dai_model", "trainable": true}}, {"class_name": "Convolution1D", "config": {"nb_filter": 200, "input_length": null, "input_dim": null, "trainable": true, "subsample_length": 1, "activity_regularizer": null, "b_constraint": null, "b_regularizer": null, "activation": "relu", "bias": true, "name": "convolution1d_2_dai_model", "init": "uniform", "W_regularizer": null, "W_constraint": null, "filter_length": 6, "border_mode": "valid"}}]}, {"class_name": "Sequential", "config": [{"class_name": "Embedding", "config": {"output_dim": 52, "name": "embedding_1_dil_model", "trainable": true, "input_dtype": "int32", "mask_zero": false, "activity_regularizer": null, "input_length": 140, "init": "uniform", "W_regularizer": null, "batch_input_shape": [null, 140], "W_constraint": null, "dropout": 0.2, "input_dim": 1576890}}, {"class_name": "ZeroPadding1D", "config": {"name": "zeropadding1d_1_dil_model", "trainable": true, "padding": 5}}, {"class_name": "Convolution1D", "config": {"nb_filter": 200, "input_length": null, "input_dim": null, "trainable": true, "subsample_length": 1, "activity_regularizer": null, "b_constraint": null, "b_regularizer": null, "activation": "relu", "bias": true, "name": "convolution1d_1_dil_model", "init": "uniform", "W_regularizer": null, "W_constraint": null, "filter_length": 6, "border_mode": "valid"}}, {"class_name": "MaxPooling1D", "config": {"pool_length": 4, "border_mode": "valid", "stride": 2, "name": "maxpooling1d_1_dil_model", "trainable": true}}, {"class_name": "Convolution1D", "config": {"nb_filter": 200, "input_length": null, "input_dim": null, "trainable": true, "subsample_length": 1, "activity_regularizer": null, "b_constraint": null, "b_regularizer": null, "activation": "relu", "bias": true, "name": "convolution1d_2_dil_model", "init": "uniform", "W_regularizer": null, "W_constraint": null, "filter_length": 6, "border_mode": "valid"}}]}, {"class_name": "Sequential", "config": [{"class_name": "Embedding", "config": {"output_dim": 52, "name": "embedding_17_mpq_model", "trainable": true, "input_dtype": "int32", "mask_zero": false, "activity_regularizer": null, "input_length": 140, "init": "uniform", "W_regularizer": null, "batch_input_shape": [null, 140], "W_constraint": null, "dropout": 0.2, "input_dim": 428669}}, {"class_name": "ZeroPadding1D", "config": {"name": "zeropadding1d_17_mpq_model", "trainable": true, "padding": 5}}, {"class_name": "Convolution1D", "config": {"nb_filter": 200, "input_length": null, "input_dim": null, "trainable": true, "subsample_length": 1, "activity_regularizer": null, "b_constraint": null, "b_regularizer": null, "activation": "relu", "bias": true, "name": "convolution1d_33_mpq_model", "init": "uniform", "W_regularizer": null, "W_constraint": null, "filter_length": 6, "border_mode": "valid"}}, {"class_name": "MaxPooling1D", "config": {"pool_length": 4, "border_mode": "valid", "stride": 2, "name": "maxpooling1d_33_mpq_model", "trainable": true}}, {"class_name": "Convolution1D", "config": {"nb_filter": 200, "input_length": null, "input_dim": null, "trainable": true, "subsample_length": 1, "activity_regularizer": null, "b_constraint": null, "b_regularizer": null, "activation": "relu", "bias": true, "name": "convolution1d_34_mpq_model", "init": "uniform", "W_regularizer": null, "W_constraint": null, "filter_length": 6, "border_mode": "valid"}}]}, {"class_name": "Sequential", "config": [{"class_name": "Embedding", "config": {"output_dim": 52, "name": "embedding_1_semeval_model", "trainable": true, "input_dtype": "int32", "mask_zero": false, "activity_regularizer": null, "input_length": 140, "init": "uniform", "W_regularizer": null, "batch_input_shape": [null, 140], "W_constraint": null, "dropout": 0.2, "input_dim": 428669}}, {"class_name": "ZeroPadding1D", "config": {"name": "zeropadding1d_1_semeval_model", "trainable": true, "padding": 5}}, {"class_name": "Convolution1D", "config": {"nb_filter": 200, "input_length": null, "input_dim": null, "trainable": true, "subsample_length": 1, "activity_regularizer": null, "b_constraint": null, "b_regularizer": null, "activation": "relu", "bias": true, "name": "convolution1d_1_semeval_model", "init": "uniform", "W_regularizer": null, "W_constraint": null, "filter_length": 6, "border_mode": "valid"}}, {"class_name": "MaxPooling1D", "config": {"pool_length": 4, "border_mode": "valid", "stride": 2, "name": "maxpooling1d_1_semeval_model", "trainable": true}}, {"class_name": "Convolution1D", "config": {"nb_filter": 200, "input_length": null, "input_dim": null, "trainable": true, "subsample_length": 1, "activity_regularizer": null, "b_constraint": null, "b_regularizer": null, "activation": "relu", "bias": true, "name": "convolution1d_2_semeval_model", "init": "uniform", "W_regularizer": null, "W_constraint": null, "filter_length": 6, "border_mode": "valid"}}]}, {"class_name": "Sequential", "config": [{"class_name": "Embedding", "config": {"output_dim": 52, "name": "embedding_1_tac_model", "trainable": true, "input_dtype": "int32", "mask_zero": false, "activity_regularizer": null, "input_length": 140, "init": "uniform", "W_regularizer": null, "batch_input_shape": [null, 140], "W_constraint": null, "dropout": 0.2, "input_dim": 428669}}, {"class_name": "ZeroPadding1D", "config": {"name": "zeropadding1d_1_tac_model", "trainable": true, "padding": 5}}, {"class_name": "Convolution1D", "config": {"nb_filter": 200, "input_length": null, "input_dim": null, "trainable": true, "subsample_length": 1, "activity_regularizer": null, "b_constraint": null, "b_regularizer": null, "activation": "relu", "bias": true, "name": "convolution1d_1_tac_model", "init": "uniform", "W_regularizer": null, "W_constraint": null, "filter_length": 6, "border_mode": "valid"}}, {"class_name": "MaxPooling1D", "config": {"pool_length": 4, "border_mode": "valid", "stride": 2, "name": "maxpooling1d_1_tac_model", "trainable": true}}, {"class_name": "Convolution1D", "config": {"nb_filter": 200, "input_length": null, "input_dim": null, "trainable": true, "subsample_length": 1, "activity_regularizer": null, "b_constraint": null, "b_regularizer": null, "activation": "relu", "bias": true, "name": "convolution1d_2_tac_model", "init": "uniform", "W_regularizer": null, "W_constraint": null, "filter_length": 6, "border_mode": "valid"}}]}]}}, {"class_name": "Flatten", "config": {"name": "flatten_1", "trainable": true}}, {"class_name": "Dense", "config": {"output_dim": 200, "input_dim": null, "trainable": true, "activity_regularizer": null, "b_constraint": null, "b_regularizer": null, "activation": "linear", "bias": true, "name": "dense_1", "init": "glorot_uniform", "W_regularizer": null, "W_constraint": null}}, {"class_name": "Dropout", "config": {"p": 0.2, "trainable": true, "name": "dropout_1"}}, {"class_name": "Activation", "config": {"activation": "relu", "trainable": true, "name": "activation_1"}}, {"class_name": "Dense", "config": {"output_dim": 3, "input_dim": null, "trainable": true, "activity_regularizer": null, "b_constraint": null, "b_regularizer": null, "activation": "softmax", "bias": true, "name": "dense_2", "init": "glorot_uniform", "W_regularizer": null, "W_constraint": null}}]}