{"class_name": "Sequential", "keras_version": "1.1.1", "config": [{"class_name": "Merge", "config": {"mode": "concat", "layers": [{"class_name": "Sequential", "config": [{"class_name": "Embedding", "config": {"batch_input_shape": [null, 140], "init": "uniform", "trainable": false, "dropout": 0.2, "input_length": 140, "input_dim": 428669, "W_regularizer": null, "name": "embedding_17_mpq_model", "activity_regularizer": null, "output_dim": 52, "mask_zero": false, "input_dtype": "int32", "W_constraint": null}}, {"class_name": "ZeroPadding1D", "config": {"trainable": false, "padding": 5, "name": "zeropadding1d_17_mpq_model"}}, {"class_name": "Convolution1D", "config": {"init": "uniform", "border_mode": "valid", "input_dim": null, "trainable": false, "bias": true, "activation": "relu", "nb_filter": 200, "b_constraint": null, "W_regularizer": null, "subsample_length": 1, "name": "convolution1d_33_mpq_model", "input_length": null, "activity_regularizer": null, "filter_length": 6, "W_constraint": null, "b_regularizer": null}}, {"class_name": "MaxPooling1D", "config": {"stride": 2, "trainable": false, "border_mode": "valid", "pool_length": 4, "name": "maxpooling1d_33_mpq_model"}}, {"class_name": "Convolution1D", "config": {"init": "uniform", "border_mode": "valid", "input_dim": null, "trainable": false, "bias": true, "activation": "relu", "nb_filter": 200, "b_constraint": null, "W_regularizer": null, "subsample_length": 1, "name": "convolution1d_34_mpq_model", "input_length": null, "activity_regularizer": null, "filter_length": 6, "W_constraint": null, "b_regularizer": null}}, {"class_name": "MaxPooling1D", "config": {"stride": 66, "trainable": false, "border_mode": "valid", "pool_length": 66, "name": "maxpooling1d_34_mpq_model"}}, {"class_name": "Flatten", "config": {"trainable": false, "name": "flatten_17_mpq_model"}}, {"class_name": "Dense", "config": {"init": "glorot_uniform", "input_dim": null, "trainable": false, "bias": true, "activation": "linear", "b_constraint": null, "W_regularizer": null, "name": "dense_33_mpq_model", "activity_regularizer": null, "output_dim": 200, "W_constraint": null, "b_regularizer": null}}, {"class_name": "Dropout", "config": {"trainable": false, "p": 0.2, "name": "dropout_17_mpq_model"}}, {"class_name": "Activation", "config": {"trainable": false, "activation": "relu", "name": "activation_17_mpq_model"}}, {"class_name": "Dense", "config": {"init": "glorot_uniform", "input_dim": null, "trainable": false, "bias": true, "activation": "softmax", "b_constraint": null, "W_regularizer": null, "name": "dense_34_mpq_model", "activity_regularizer": null, "output_dim": 3, "W_constraint": null, "b_regularizer": null}}]}, {"class_name": "Sequential", "config": [{"class_name": "Embedding", "config": {"batch_input_shape": [null, 140], "init": "uniform", "trainable": false, "dropout": 0.2, "input_length": 140, "input_dim": 1576890, "W_regularizer": null, "name": "embedding_1_dai_model", "activity_regularizer": null, "output_dim": 52, "mask_zero": false, "input_dtype": "int32", "W_constraint": null}}, {"class_name": "ZeroPadding1D", "config": {"trainable": false, "padding": 5, "name": "zeropadding1d_1_dai_model"}}, {"class_name": "Convolution1D", "config": {"init": "uniform", "border_mode": "valid", "input_dim": null, "trainable": false, "bias": true, "activation": "relu", "nb_filter": 200, "b_constraint": null, "W_regularizer": null, "subsample_length": 1, "name": "convolution1d_1_dai_model", "input_length": null, "activity_regularizer": null, "filter_length": 6, "W_constraint": null, "b_regularizer": null}}, {"class_name": "MaxPooling1D", "config": {"stride": 2, "trainable": false, "border_mode": "valid", "pool_length": 4, "name": "maxpooling1d_1_dai_model"}}, {"class_name": "Convolution1D", "config": {"init": "uniform", "border_mode": "valid", "input_dim": null, "trainable": false, "bias": true, "activation": "relu", "nb_filter": 200, "b_constraint": null, "W_regularizer": null, "subsample_length": 1, "name": "convolution1d_2_dai_model", "input_length": null, "activity_regularizer": null, "filter_length": 6, "W_constraint": null, "b_regularizer": null}}, {"class_name": "MaxPooling1D", "config": {"stride": 66, "trainable": false, "border_mode": "valid", "pool_length": 66, "name": "maxpooling1d_2_dai_model"}}, {"class_name": "Flatten", "config": {"trainable": false, "name": "flatten_1_dai_model"}}, {"class_name": "Dense", "config": {"init": "glorot_uniform", "input_dim": null, "trainable": false, "bias": true, "activation": "linear", "b_constraint": null, "W_regularizer": null, "name": "dense_1_dai_model", "activity_regularizer": null, "output_dim": 200, "W_constraint": null, "b_regularizer": null}}, {"class_name": "Dropout", "config": {"trainable": false, "p": 0.2, "name": "dropout_1_dai_model"}}, {"class_name": "Activation", "config": {"trainable": false, "activation": "relu", "name": "activation_1_dai_model"}}, {"class_name": "Dense", "config": {"init": "glorot_uniform", "input_dim": null, "trainable": false, "bias": true, "activation": "softmax", "b_constraint": null, "W_regularizer": null, "name": "dense_2_dai_model", "activity_regularizer": null, "output_dim": 3, "W_constraint": null, "b_regularizer": null}}]}, {"class_name": "Sequential", "config": [{"class_name": "Embedding", "config": {"batch_input_shape": [null, 140], "init": "uniform", "trainable": false, "dropout": 0.2, "input_length": 140, "input_dim": 428669, "W_regularizer": null, "name": "embedding_1_semeval_model", "activity_regularizer": null, "output_dim": 52, "mask_zero": false, "input_dtype": "int32", "W_constraint": null}}, {"class_name": "ZeroPadding1D", "config": {"trainable": false, "padding": 5, "name": "zeropadding1d_1_semeval_model"}}, {"class_name": "Convolution1D", "config": {"init": "uniform", "border_mode": "valid", "input_dim": null, "trainable": false, "bias": true, "activation": "relu", "nb_filter": 200, "b_constraint": null, "W_regularizer": null, "subsample_length": 1, "name": "convolution1d_1_semeval_model", "input_length": null, "activity_regularizer": null, "filter_length": 6, "W_constraint": null, "b_regularizer": null}}, {"class_name": "MaxPooling1D", "config": {"stride": 2, "trainable": false, "border_mode": "valid", "pool_length": 4, "name": "maxpooling1d_1_semeval_model"}}, {"class_name": "Convolution1D", "config": {"init": "uniform", "border_mode": "valid", "input_dim": null, "trainable": false, "bias": true, "activation": "relu", "nb_filter": 200, "b_constraint": null, "W_regularizer": null, "subsample_length": 1, "name": "convolution1d_2_semeval_model", "input_length": null, "activity_regularizer": null, "filter_length": 6, "W_constraint": null, "b_regularizer": null}}, {"class_name": "MaxPooling1D", "config": {"stride": 66, "trainable": false, "border_mode": "valid", "pool_length": 66, "name": "maxpooling1d_2_semeval_model"}}, {"class_name": "Flatten", "config": {"trainable": false, "name": "flatten_1_semeval_model"}}, {"class_name": "Dense", "config": {"init": "glorot_uniform", "input_dim": null, "trainable": false, "bias": true, "activation": "linear", "b_constraint": null, "W_regularizer": null, "name": "dense_1_semeval_model", "activity_regularizer": null, "output_dim": 200, "W_constraint": null, "b_regularizer": null}}, {"class_name": "Dropout", "config": {"trainable": false, "p": 0.2, "name": "dropout_1_semeval_model"}}, {"class_name": "Activation", "config": {"trainable": false, "activation": "relu", "name": "activation_1_semeval_model"}}, {"class_name": "Dense", "config": {"init": "glorot_uniform", "input_dim": null, "trainable": false, "bias": true, "activation": "softmax", "b_constraint": null, "W_regularizer": null, "name": "dense_2_semeval_model", "activity_regularizer": null, "output_dim": 3, "W_constraint": null, "b_regularizer": null}}]}, {"class_name": "Sequential", "config": [{"class_name": "Embedding", "config": {"batch_input_shape": [null, 140], "init": "uniform", "trainable": false, "dropout": 0.2, "input_length": 140, "input_dim": 1576890, "W_regularizer": null, "name": "embedding_1_dil_model", "activity_regularizer": null, "output_dim": 52, "mask_zero": false, "input_dtype": "int32", "W_constraint": null}}, {"class_name": "ZeroPadding1D", "config": {"trainable": false, "padding": 5, "name": "zeropadding1d_1_dil_model"}}, {"class_name": "Convolution1D", "config": {"init": "uniform", "border_mode": "valid", "input_dim": null, "trainable": false, "bias": true, "activation": "relu", "nb_filter": 200, "b_constraint": null, "W_regularizer": null, "subsample_length": 1, "name": "convolution1d_1_dil_model", "input_length": null, "activity_regularizer": null, "filter_length": 6, "W_constraint": null, "b_regularizer": null}}, {"class_name": "MaxPooling1D", "config": {"stride": 2, "trainable": false, "border_mode": "valid", "pool_length": 4, "name": "maxpooling1d_1_dil_model"}}, {"class_name": "Convolution1D", "config": {"init": "uniform", "border_mode": "valid", "input_dim": null, "trainable": false, "bias": true, "activation": "relu", "nb_filter": 200, "b_constraint": null, "W_regularizer": null, "subsample_length": 1, "name": "convolution1d_2_dil_model", "input_length": null, "activity_regularizer": null, "filter_length": 6, "W_constraint": null, "b_regularizer": null}}, {"class_name": "MaxPooling1D", "config": {"stride": 66, "trainable": false, "border_mode": "valid", "pool_length": 66, "name": "maxpooling1d_2_dil_model"}}, {"class_name": "Flatten", "config": {"trainable": false, "name": "flatten_1_dil_model"}}, {"class_name": "Dense", "config": {"init": "glorot_uniform", "input_dim": null, "trainable": false, "bias": true, "activation": "linear", "b_constraint": null, "W_regularizer": null, "name": "dense_1_dil_model", "activity_regularizer": null, "output_dim": 200, "W_constraint": null, "b_regularizer": null}}, {"class_name": "Dropout", "config": {"trainable": false, "p": 0.2, "name": "dropout_1_dil_model"}}, {"class_name": "Activation", "config": {"trainable": false, "activation": "relu", "name": "activation_1_dil_model"}}, {"class_name": "Dense", "config": {"init": "glorot_uniform", "input_dim": null, "trainable": false, "bias": true, "activation": "softmax", "b_constraint": null, "W_regularizer": null, "name": "dense_2_dil_model", "activity_regularizer": null, "output_dim": 3, "W_constraint": null, "b_regularizer": null}}]}, {"class_name": "Sequential", "config": [{"class_name": "Embedding", "config": {"batch_input_shape": [null, 140], "init": "uniform", "trainable": false, "dropout": 0.2, "input_length": 140, "input_dim": 428669, "W_regularizer": null, "name": "embedding_1_tac_model", "activity_regularizer": null, "output_dim": 52, "mask_zero": false, "input_dtype": "int32", "W_constraint": null}}, {"class_name": "ZeroPadding1D", "config": {"trainable": false, "padding": 5, "name": "zeropadding1d_1_tac_model"}}, {"class_name": "Convolution1D", "config": {"init": "uniform", "border_mode": "valid", "input_dim": null, "trainable": false, "bias": true, "activation": "relu", "nb_filter": 200, "b_constraint": null, "W_regularizer": null, "subsample_length": 1, "name": "convolution1d_1_tac_model", "input_length": null, "activity_regularizer": null, "filter_length": 6, "W_constraint": null, "b_regularizer": null}}, {"class_name": "MaxPooling1D", "config": {"stride": 2, "trainable": false, "border_mode": "valid", "pool_length": 4, "name": "maxpooling1d_1_tac_model"}}, {"class_name": "Convolution1D", "config": {"init": "uniform", "border_mode": "valid", "input_dim": null, "trainable": false, "bias": true, "activation": "relu", "nb_filter": 200, "b_constraint": null, "W_regularizer": null, "subsample_length": 1, "name": "convolution1d_2_tac_model", "input_length": null, "activity_regularizer": null, "filter_length": 6, "W_constraint": null, "b_regularizer": null}}, {"class_name": "MaxPooling1D", "config": {"stride": 66, "trainable": false, "border_mode": "valid", "pool_length": 66, "name": "maxpooling1d_2_tac_model"}}, {"class_name": "Flatten", "config": {"trainable": false, "name": "flatten_1_tac_model"}}, {"class_name": "Dense", "config": {"init": "glorot_uniform", "input_dim": null, "trainable": false, "bias": true, "activation": "linear", "b_constraint": null, "W_regularizer": null, "name": "dense_1_tac_model", "activity_regularizer": null, "output_dim": 200, "W_constraint": null, "b_regularizer": null}}, {"class_name": "Dropout", "config": {"trainable": false, "p": 0.2, "name": "dropout_1_tac_model"}}, {"class_name": "Activation", "config": {"trainable": false, "activation": "relu", "name": "activation_1_tac_model"}}, {"class_name": "Dense", "config": {"init": "glorot_uniform", "input_dim": null, "trainable": false, "bias": true, "activation": "softmax", "b_constraint": null, "W_regularizer": null, "name": "dense_2_tac_model", "activity_regularizer": null, "output_dim": 3, "W_constraint": null, "b_regularizer": null}}]}, {"class_name": "Sequential", "config": [{"class_name": "Embedding", "config": {"batch_input_shape": [null, 140], "init": "uniform", "trainable": false, "dropout": 0.2, "input_length": 140, "input_dim": 1062158, "W_regularizer": null, "name": "embedding_1_hul_model", "activity_regularizer": null, "output_dim": 52, "mask_zero": false, "input_dtype": "int32", "W_constraint": null}}, {"class_name": "ZeroPadding1D", "config": {"trainable": false, "padding": 5, "name": "zeropadding1d_1_hul_model"}}, {"class_name": "Convolution1D", "config": {"init": "uniform", "border_mode": "valid", "input_dim": null, "trainable": false, "bias": true, "activation": "relu", "nb_filter": 200, "b_constraint": null, "W_regularizer": null, "subsample_length": 1, "name": "convolution1d_1_hul_model", "input_length": null, "activity_regularizer": null, "filter_length": 6, "W_constraint": null, "b_regularizer": null}}, {"class_name": "MaxPooling1D", "config": {"stride": 2, "trainable": false, "border_mode": "valid", "pool_length": 4, "name": "maxpooling1d_1_hul_model"}}, {"class_name": "Convolution1D", "config": {"init": "uniform", "border_mode": "valid", "input_dim": null, "trainable": false, "bias": true, "activation": "relu", "nb_filter": 200, "b_constraint": null, "W_regularizer": null, "subsample_length": 1, "name": "convolution1d_2_hul_model", "input_length": null, "activity_regularizer": null, "filter_length": 6, "W_constraint": null, "b_regularizer": null}}, {"class_name": "MaxPooling1D", "config": {"stride": 66, "trainable": false, "border_mode": "valid", "pool_length": 66, "name": "maxpooling1d_2_hul_model"}}, {"class_name": "Flatten", "config": {"trainable": false, "name": "flatten_1_hul_model"}}, {"class_name": "Dense", "config": {"init": "glorot_uniform", "input_dim": null, "trainable": false, "bias": true, "activation": "linear", "b_constraint": null, "W_regularizer": null, "name": "dense_1_hul_model", "activity_regularizer": null, "output_dim": 200, "W_constraint": null, "b_regularizer": null}}, {"class_name": "Dropout", "config": {"trainable": false, "p": 0.2, "name": "dropout_1_hul_model"}}, {"class_name": "Activation", "config": {"trainable": false, "activation": "relu", "name": "activation_1_hul_model"}}, {"class_name": "Dense", "config": {"init": "glorot_uniform", "input_dim": null, "trainable": false, "bias": true, "activation": "softmax", "b_constraint": null, "W_regularizer": null, "name": "dense_2_hul_model", "activity_regularizer": null, "output_dim": 3, "W_constraint": null, "b_regularizer": null}}]}], "output_shape": null, "dot_axes": -1, "mode_type": "raw", "output_shape_type": "raw", "name": "merge_1", "concat_axis": -1}}, {"class_name": "Dense", "config": {"b_constraint": null, "init": "glorot_uniform", "trainable": true, "bias": true, "activation": "linear", "input_dim": null, "W_regularizer": null, "name": "dense_1", "activity_regularizer": null, "output_dim": 256, "W_constraint": null, "b_regularizer": null}}, {"class_name": "Activation", "config": {"trainable": true, "activation": "relu", "name": "activation_1"}}, {"class_name": "Dense", "config": {"b_constraint": null, "init": "glorot_uniform", "trainable": true, "bias": true, "activation": "softmax", "input_dim": null, "W_regularizer": null, "name": "dense_2", "activity_regularizer": null, "output_dim": 3, "W_constraint": null, "b_regularizer": null}}]}