{"keras_version": "1.1.0", "config": [{"config": {"input_length": 140, "batch_input_shape": [null, 140], "dropout": 0.2, "name": "embedding_31", "trainable": true, "W_regularizer": null, "input_dim": 1576890, "input_dtype": "int32", "init": "uniform", "W_constraint": null, "mask_zero": false, "activity_regularizer": null, "output_dim": 52}, "class_name": "Embedding"}, {"config": {"trainable": true, "padding": 5, "name": "zeropadding1d_31"}, "class_name": "ZeroPadding1D"}, {"config": {"b_constraint": null, "bias": true, "subsample_length": 1, "name": "convolution1d_61", "trainable": true, "input_length": null, "border_mode": "valid", "W_regularizer": null, "filter_length": 6, "b_regularizer": null, "nb_filter": 200, "init": "uniform", "W_constraint": null, "activation": "relu", "activity_regularizer": null, "input_dim": null}, "class_name": "Convolution1D"}, {"config": {"trainable": true, "stride": 2, "border_mode": "valid", "name": "maxpooling1d_61", "pool_length": 4}, "class_name": "MaxPooling1D"}, {"config": {"b_constraint": null, "bias": true, "subsample_length": 1, "name": "convolution1d_62", "trainable": true, "input_length": null, "border_mode": "valid", "W_regularizer": null, "filter_length": 6, "b_regularizer": null, "nb_filter": 200, "init": "uniform", "W_constraint": null, "activation": "relu", "activity_regularizer": null, "input_dim": null}, "class_name": "Convolution1D"}, {"config": {"trainable": true, "stride": 66, "border_mode": "valid", "name": "maxpooling1d_62", "pool_length": 66}, "class_name": "MaxPooling1D"}, {"config": {"trainable": true, "name": "flatten_31"}, "class_name": "Flatten"}, {"config": {"b_constraint": null, "bias": true, "output_dim": 200, "name": "dense_61", "trainable": true, "W_regularizer": null, "b_regularizer": null, "input_dim": null, "init": "glorot_uniform", "activation": "linear", "W_constraint": null, "activity_regularizer": null}, "class_name": "Dense"}, {"config": {"trainable": true, "p": 0.2, "name": "dropout_31"}, "class_name": "Dropout"}, {"config": {"trainable": true, "activation": "relu", "name": "activation_31"}, "class_name": "Activation"}, {"config": {"b_constraint": null, "bias": true, "output_dim": 3, "name": "dense_62", "trainable": true, "W_regularizer": null, "b_regularizer": null, "input_dim": null, "init": "glorot_uniform", "activation": "softmax", "W_constraint": null, "activity_regularizer": null}, "class_name": "Dense"}], "class_name": "Sequential"}