{"config": [{"config": {"name": "merge_1", "dot_axes": -1, "mode": "concat", "concat_axis": -1, "layers": [{"config": [{"config": {"trainable": true, "dropout": 0.2, "input_length": 140, "output_dim": 52, "W_regularizer": null, "name": "embedding_1_dai_model", "batch_input_shape": [null, 140], "init": "uniform", "input_dim": 1576890, "input_dtype": "int32", "mask_zero": false, "activity_regularizer": null, "W_constraint": null}, "class_name": "Embedding"}, {"config": {"name": "zeropadding1d_1_dai_model", "trainable": true, "padding": 5}, "class_name": "ZeroPadding1D"}, {"config": {"trainable": true, "activation": "relu", "activity_regularizer": null, "nb_filter": 200, "input_length": null, "subsample_length": 1, "name": "convolution1d_1_dai_model", "b_constraint": null, "W_regularizer": null, "init": "uniform", "input_dim": null, "border_mode": "valid", "filter_length": 6, "W_constraint": null, "b_regularizer": null, "bias": true}, "class_name": "Convolution1D"}, {"config": {"name": "maxpooling1d_1_dai_model", "trainable": true, "stride": 2, "pool_length": 4, "border_mode": "valid"}, "class_name": "MaxPooling1D"}, {"config": {"trainable": true, "activation": "relu", "activity_regularizer": null, "nb_filter": 200, "input_length": null, "subsample_length": 1, "name": "convolution1d_2_dai_model", "b_constraint": null, "W_regularizer": null, "init": "uniform", "input_dim": null, "border_mode": "valid", "filter_length": 6, "W_constraint": null, "b_regularizer": null, "bias": true}, "class_name": "Convolution1D"}], "class_name": "Sequential"}, {"config": [{"config": {"trainable": true, "dropout": 0.2, "input_length": 140, "output_dim": 52, "W_regularizer": null, "name": "embedding_1_dil_model", "batch_input_shape": [null, 140], "init": "uniform", "input_dim": 1576890, "input_dtype": "int32", "mask_zero": false, "activity_regularizer": null, "W_constraint": null}, "class_name": "Embedding"}, {"config": {"name": "zeropadding1d_1_dil_model", "trainable": true, "padding": 5}, "class_name": "ZeroPadding1D"}, {"config": {"trainable": true, "activation": "relu", "activity_regularizer": null, "nb_filter": 200, "input_length": null, "subsample_length": 1, "name": "convolution1d_1_dil_model", "b_constraint": null, "W_regularizer": null, "init": "uniform", "input_dim": null, "border_mode": "valid", "filter_length": 6, "W_constraint": null, "b_regularizer": null, "bias": true}, "class_name": "Convolution1D"}, {"config": {"name": "maxpooling1d_1_dil_model", "trainable": true, "stride": 2, "pool_length": 4, "border_mode": "valid"}, "class_name": "MaxPooling1D"}, {"config": {"trainable": true, "activation": "relu", "activity_regularizer": null, "nb_filter": 200, "input_length": null, "subsample_length": 1, "name": "convolution1d_2_dil_model", "b_constraint": null, "W_regularizer": null, "init": "uniform", "input_dim": null, "border_mode": "valid", "filter_length": 6, "W_constraint": null, "b_regularizer": null, "bias": true}, "class_name": "Convolution1D"}], "class_name": "Sequential"}, {"config": [{"config": {"trainable": true, "dropout": 0.2, "input_length": 140, "output_dim": 52, "W_regularizer": null, "name": "embedding_1_hul_model", "batch_input_shape": [null, 140], "init": "uniform", "input_dim": 1062158, "input_dtype": "int32", "mask_zero": false, "activity_regularizer": null, "W_constraint": null}, "class_name": "Embedding"}, {"config": {"name": "zeropadding1d_1_hul_model", "trainable": true, "padding": 5}, "class_name": "ZeroPadding1D"}, {"config": {"trainable": true, "activation": "relu", "activity_regularizer": null, "nb_filter": 200, "input_length": null, "subsample_length": 1, "name": "convolution1d_1_hul_model", "b_constraint": null, "W_regularizer": null, "init": "uniform", "input_dim": null, "border_mode": "valid", "filter_length": 6, "W_constraint": null, "b_regularizer": null, "bias": true}, "class_name": "Convolution1D"}, {"config": {"name": "maxpooling1d_1_hul_model", "trainable": true, "stride": 2, "pool_length": 4, "border_mode": "valid"}, "class_name": "MaxPooling1D"}, {"config": {"trainable": true, "activation": "relu", "activity_regularizer": null, "nb_filter": 200, "input_length": null, "subsample_length": 1, "name": "convolution1d_2_hul_model", "b_constraint": null, "W_regularizer": null, "init": "uniform", "input_dim": null, "border_mode": "valid", "filter_length": 6, "W_constraint": null, "b_regularizer": null, "bias": true}, "class_name": "Convolution1D"}], "class_name": "Sequential"}, {"config": [{"config": {"trainable": true, "dropout": 0.2, "input_length": 140, "output_dim": 52, "W_regularizer": null, "name": "embedding_17_mpq_model", "batch_input_shape": [null, 140], "init": "uniform", "input_dim": 428669, "input_dtype": "int32", "mask_zero": false, "activity_regularizer": null, "W_constraint": null}, "class_name": "Embedding"}, {"config": {"name": "zeropadding1d_17_mpq_model", "trainable": true, "padding": 5}, "class_name": "ZeroPadding1D"}, {"config": {"trainable": true, "activation": "relu", "activity_regularizer": null, "nb_filter": 200, "input_length": null, "subsample_length": 1, "name": "convolution1d_33_mpq_model", "b_constraint": null, "W_regularizer": null, "init": "uniform", "input_dim": null, "border_mode": "valid", "filter_length": 6, "W_constraint": null, "b_regularizer": null, "bias": true}, "class_name": "Convolution1D"}, {"config": {"name": "maxpooling1d_33_mpq_model", "trainable": true, "stride": 2, "pool_length": 4, "border_mode": "valid"}, "class_name": "MaxPooling1D"}, {"config": {"trainable": true, "activation": "relu", "activity_regularizer": null, "nb_filter": 200, "input_length": null, "subsample_length": 1, "name": "convolution1d_34_mpq_model", "b_constraint": null, "W_regularizer": null, "init": "uniform", "input_dim": null, "border_mode": "valid", "filter_length": 6, "W_constraint": null, "b_regularizer": null, "bias": true}, "class_name": "Convolution1D"}], "class_name": "Sequential"}, {"config": [{"config": {"trainable": true, "dropout": 0.2, "input_length": 140, "output_dim": 52, "W_regularizer": null, "name": "embedding_1_semeval_model", "batch_input_shape": [null, 140], "init": "uniform", "input_dim": 428669, "input_dtype": "int32", "mask_zero": false, "activity_regularizer": null, "W_constraint": null}, "class_name": "Embedding"}, {"config": {"name": "zeropadding1d_1_semeval_model", "trainable": true, "padding": 5}, "class_name": "ZeroPadding1D"}, {"config": {"trainable": true, "activation": "relu", "activity_regularizer": null, "nb_filter": 200, "input_length": null, "subsample_length": 1, "name": "convolution1d_1_semeval_model", "b_constraint": null, "W_regularizer": null, "init": "uniform", "input_dim": null, "border_mode": "valid", "filter_length": 6, "W_constraint": null, "b_regularizer": null, "bias": true}, "class_name": "Convolution1D"}, {"config": {"name": "maxpooling1d_1_semeval_model", "trainable": true, "stride": 2, "pool_length": 4, "border_mode": "valid"}, "class_name": "MaxPooling1D"}, {"config": {"trainable": true, "activation": "relu", "activity_regularizer": null, "nb_filter": 200, "input_length": null, "subsample_length": 1, "name": "convolution1d_2_semeval_model", "b_constraint": null, "W_regularizer": null, "init": "uniform", "input_dim": null, "border_mode": "valid", "filter_length": 6, "W_constraint": null, "b_regularizer": null, "bias": true}, "class_name": "Convolution1D"}], "class_name": "Sequential"}, {"config": [{"config": {"trainable": true, "dropout": 0.2, "input_length": 140, "output_dim": 52, "W_regularizer": null, "name": "embedding_1_tac_model", "batch_input_shape": [null, 140], "init": "uniform", "input_dim": 428669, "input_dtype": "int32", "mask_zero": false, "activity_regularizer": null, "W_constraint": null}, "class_name": "Embedding"}, {"config": {"name": "zeropadding1d_1_tac_model", "trainable": true, "padding": 5}, "class_name": "ZeroPadding1D"}, {"config": {"trainable": true, "activation": "relu", "activity_regularizer": null, "nb_filter": 200, "input_length": null, "subsample_length": 1, "name": "convolution1d_1_tac_model", "b_constraint": null, "W_regularizer": null, "init": "uniform", "input_dim": null, "border_mode": "valid", "filter_length": 6, "W_constraint": null, "b_regularizer": null, "bias": true}, "class_name": "Convolution1D"}, {"config": {"name": "maxpooling1d_1_tac_model", "trainable": true, "stride": 2, "pool_length": 4, "border_mode": "valid"}, "class_name": "MaxPooling1D"}, {"config": {"trainable": true, "activation": "relu", "activity_regularizer": null, "nb_filter": 200, "input_length": null, "subsample_length": 1, "name": "convolution1d_2_tac_model", "b_constraint": null, "W_regularizer": null, "init": "uniform", "input_dim": null, "border_mode": "valid", "filter_length": 6, "W_constraint": null, "b_regularizer": null, "bias": true}, "class_name": "Convolution1D"}], "class_name": "Sequential"}], "mode_type": "raw", "output_shape_type": "raw", "output_shape": null}, "class_name": "Merge"}, {"config": {"name": "flatten_1", "trainable": true}, "class_name": "Flatten"}, {"config": {"trainable": true, "activation": "linear", "W_constraint": null, "output_dim": 200, "name": "dense_1", "b_constraint": null, "W_regularizer": null, "init": "glorot_uniform", "input_dim": null, "b_regularizer": null, "activity_regularizer": null, "bias": true}, "class_name": "Dense"}, {"config": {"name": "dropout_1", "trainable": true, "p": 0.2}, "class_name": "Dropout"}, {"config": {"name": "activation_1", "trainable": true, "activation": "relu"}, "class_name": "Activation"}, {"config": {"trainable": true, "activation": "softmax", "W_constraint": null, "output_dim": 3, "name": "dense_2", "b_constraint": null, "W_regularizer": null, "init": "glorot_uniform", "input_dim": null, "b_regularizer": null, "activity_regularizer": null, "bias": true}, "class_name": "Dense"}], "keras_version": "1.1.1", "class_name": "Sequential"}