{"class_name": "Sequential", "keras_version": "1.1.0", "config": [{"class_name": "Embedding", "config": {"W_regularizer": null, "trainable": true, "output_dim": 52, "dropout": 0.2, "input_dim": 1576890, "init": "uniform", "input_length": 140, "W_constraint": null, "input_dtype": "int32", "batch_input_shape": [null, 140], "name": "embedding_1", "activity_regularizer": null, "mask_zero": false}}, {"class_name": "ZeroPadding1D", "config": {"padding": 5, "trainable": true, "name": "zeropadding1d_1"}}, {"class_name": "Convolution1D", "config": {"W_regularizer": null, "subsample_length": 1, "trainable": true, "border_mode": "valid", "input_dim": null, "init": "uniform", "activation": "relu", "W_constraint": null, "bias": true, "b_constraint": null, "nb_filter": 200, "b_regularizer": null, "name": "convolution1d_1", "activity_regularizer": null, "input_length": null, "filter_length": 6}}, {"class_name": "MaxPooling1D", "config": {"trainable": true, "pool_length": 4, "name": "maxpooling1d_1", "stride": 2, "border_mode": "valid"}}, {"class_name": "Convolution1D", "config": {"W_regularizer": null, "subsample_length": 1, "trainable": true, "border_mode": "valid", "input_dim": null, "init": "uniform", "activation": "relu", "W_constraint": null, "bias": true, "b_constraint": null, "nb_filter": 200, "b_regularizer": null, "name": "convolution1d_2", "activity_regularizer": null, "input_length": null, "filter_length": 6}}, {"class_name": "MaxPooling1D", "config": {"trainable": true, "pool_length": 66, "name": "maxpooling1d_2", "stride": 66, "border_mode": "valid"}}, {"class_name": "Flatten", "config": {"name": "flatten_1", "trainable": true}}, {"class_name": "Dense", "config": {"W_regularizer": null, "trainable": true, "output_dim": 200, "input_dim": null, "init": "glorot_uniform", "activation": "linear", "W_constraint": null, "bias": true, "b_constraint": null, "b_regularizer": null, "name": "dense_1", "activity_regularizer": null}}, {"class_name": "Dropout", "config": {"trainable": true, "name": "dropout_1", "p": 0.2}}, {"class_name": "Activation", "config": {"trainable": true, "activation": "relu", "name": "activation_1"}}, {"class_name": "Dense", "config": {"W_regularizer": null, "trainable": true, "output_dim": 3, "input_dim": null, "init": "glorot_uniform", "activation": "softmax", "W_constraint": null, "bias": true, "b_constraint": null, "b_regularizer": null, "name": "dense_2", "activity_regularizer": null}}]}