{"class_name": "Sequential", "keras_version": "1.1.0", "config": [{"class_name": "Embedding", "config": {"W_regularizer": null, "batch_input_shape": [null, 140], "init": "uniform", "output_dim": 52, "activity_regularizer": null, "mask_zero": false, "W_constraint": null, "input_dtype": "int32", "input_dim": 2950660, "name": "embedding_1", "input_length": 140, "trainable": true, "dropout": 0.2}}, {"class_name": "ZeroPadding1D", "config": {"trainable": true, "padding": 5, "name": "zeropadding1d_1"}}, {"class_name": "Convolution1D", "config": {"activation": "relu", "W_regularizer": null, "init": "uniform", "activity_regularizer": null, "bias": true, "nb_filter": 200, "input_dim": null, "subsample_length": 1, "W_constraint": null, "name": "convolution1d_1", "input_length": null, "trainable": true, "border_mode": "valid", "b_constraint": null, "b_regularizer": null, "filter_length": 6}}, {"class_name": "MaxPooling1D", "config": {"trainable": true, "border_mode": "valid", "stride": 2, "name": "maxpooling1d_1", "pool_length": 4}}, {"class_name": "Convolution1D", "config": {"activation": "relu", "W_regularizer": null, "init": "uniform", "activity_regularizer": null, "bias": true, "nb_filter": 200, "input_dim": null, "subsample_length": 1, "W_constraint": null, "name": "convolution1d_2", "input_length": null, "trainable": true, "border_mode": "valid", "b_constraint": null, "b_regularizer": null, "filter_length": 6}}, {"class_name": "MaxPooling1D", "config": {"trainable": true, "border_mode": "valid", "stride": 66, "name": "maxpooling1d_2", "pool_length": 66}}, {"class_name": "Flatten", "config": {"trainable": true, "name": "flatten_1"}}, {"class_name": "Dense", "config": {"activation": "linear", "W_regularizer": null, "init": "glorot_uniform", "output_dim": 200, "activity_regularizer": null, "bias": true, "input_dim": null, "W_constraint": null, "name": "dense_1", "trainable": true, "b_constraint": null, "b_regularizer": null}}, {"class_name": "Dropout", "config": {"trainable": true, "name": "dropout_1", "p": 0.2}}, {"class_name": "Activation", "config": {"trainable": true, "activation": "relu", "name": "activation_1"}}, {"class_name": "Dense", "config": {"activation": "softmax", "W_regularizer": null, "init": "glorot_uniform", "output_dim": 3, "activity_regularizer": null, "bias": true, "input_dim": null, "W_constraint": null, "name": "dense_2", "trainable": true, "b_constraint": null, "b_regularizer": null}}]}