{"class_name": "Sequential", "keras_version": "1.1.1", "config": [{"class_name": "Merge", "config": {"output_shape": null, "concat_axis": -1, "mode_type": "raw", "output_shape_type": "raw", "dot_axes": -1, "mode": "concat", "layers": [{"class_name": "Sequential", "config": [{"class_name": "Embedding", "config": {"W_constraint": null, "input_dim": 1576890, "activity_regularizer": null, "batch_input_shape": [null, 140], "input_length": 140, "init": "uniform", "name": "embedding_1_dai_model", "trainable": true, "input_dtype": "int32", "mask_zero": false, "W_regularizer": null, "output_dim": 52, "dropout": 0.2}}, {"class_name": "ZeroPadding1D", "config": {"padding": 5, "trainable": true, "name": "zeropadding1d_1_dai_model"}}, {"class_name": "Convolution1D", "config": {"border_mode": "valid", "b_regularizer": null, "W_constraint": null, "b_constraint": null, "input_dim": null, "activity_regularizer": null, "input_length": null, "init": "uniform", "bias": true, "name": "convolution1d_1_dai_model", "activation": "relu", "trainable": true, "filter_length": 6, "nb_filter": 200, "W_regularizer": null, "subsample_length": 1}}, {"class_name": "MaxPooling1D", "config": {"border_mode": "valid", "trainable": true, "stride": 2, "pool_length": 4, "name": "maxpooling1d_1_dai_model"}}, {"class_name": "Convolution1D", "config": {"border_mode": "valid", "b_regularizer": null, "W_constraint": null, "b_constraint": null, "input_dim": null, "activity_regularizer": null, "input_length": null, "init": "uniform", "bias": true, "name": "convolution1d_2_dai_model", "activation": "relu", "trainable": true, "filter_length": 6, "nb_filter": 200, "W_regularizer": null, "subsample_length": 1}}]}, {"class_name": "Sequential", "config": [{"class_name": "Embedding", "config": {"W_constraint": null, "input_dim": 1576890, "activity_regularizer": null, "batch_input_shape": [null, 140], "input_length": 140, "init": "uniform", "name": "embedding_1_dil_model", "trainable": true, "input_dtype": "int32", "mask_zero": false, "W_regularizer": null, "output_dim": 52, "dropout": 0.2}}, {"class_name": "ZeroPadding1D", "config": {"padding": 5, "trainable": true, "name": "zeropadding1d_1_dil_model"}}, {"class_name": "Convolution1D", "config": {"border_mode": "valid", "b_regularizer": null, "W_constraint": null, "b_constraint": null, "input_dim": null, "activity_regularizer": null, "input_length": null, "init": "uniform", "bias": true, "name": "convolution1d_1_dil_model", "activation": "relu", "trainable": true, "filter_length": 6, "nb_filter": 200, "W_regularizer": null, "subsample_length": 1}}, {"class_name": "MaxPooling1D", "config": {"border_mode": "valid", "trainable": true, "stride": 2, "pool_length": 4, "name": "maxpooling1d_1_dil_model"}}, {"class_name": "Convolution1D", "config": {"border_mode": "valid", "b_regularizer": null, "W_constraint": null, "b_constraint": null, "input_dim": null, "activity_regularizer": null, "input_length": null, "init": "uniform", "bias": true, "name": "convolution1d_2_dil_model", "activation": "relu", "trainable": true, "filter_length": 6, "nb_filter": 200, "W_regularizer": null, "subsample_length": 1}}]}, {"class_name": "Sequential", "config": [{"class_name": "Embedding", "config": {"W_constraint": null, "input_dim": 1062158, "activity_regularizer": null, "batch_input_shape": [null, 140], "input_length": 140, "init": "uniform", "name": "embedding_1_hul_model", "trainable": true, "input_dtype": "int32", "mask_zero": false, "W_regularizer": null, "output_dim": 52, "dropout": 0.2}}, {"class_name": "ZeroPadding1D", "config": {"padding": 5, "trainable": true, "name": "zeropadding1d_1_hul_model"}}, {"class_name": "Convolution1D", "config": {"border_mode": "valid", "b_regularizer": null, "W_constraint": null, "b_constraint": null, "input_dim": null, "activity_regularizer": null, "input_length": null, "init": "uniform", "bias": true, "name": "convolution1d_1_hul_model", "activation": "relu", "trainable": true, "filter_length": 6, "nb_filter": 200, "W_regularizer": null, "subsample_length": 1}}, {"class_name": "MaxPooling1D", "config": {"border_mode": "valid", "trainable": true, "stride": 2, "pool_length": 4, "name": "maxpooling1d_1_hul_model"}}, {"class_name": "Convolution1D", "config": {"border_mode": "valid", "b_regularizer": null, "W_constraint": null, "b_constraint": null, "input_dim": null, "activity_regularizer": null, "input_length": null, "init": "uniform", "bias": true, "name": "convolution1d_2_hul_model", "activation": "relu", "trainable": true, "filter_length": 6, "nb_filter": 200, "W_regularizer": null, "subsample_length": 1}}]}, {"class_name": "Sequential", "config": [{"class_name": "Embedding", "config": {"W_constraint": null, "input_dim": 428669, "activity_regularizer": null, "batch_input_shape": [null, 140], "input_length": 140, "init": "uniform", "name": "embedding_1_semeval_model", "trainable": true, "input_dtype": "int32", "mask_zero": false, "W_regularizer": null, "output_dim": 52, "dropout": 0.2}}, {"class_name": "ZeroPadding1D", "config": {"padding": 5, "trainable": true, "name": "zeropadding1d_1_semeval_model"}}, {"class_name": "Convolution1D", "config": {"border_mode": "valid", "b_regularizer": null, "W_constraint": null, "b_constraint": null, "input_dim": null, "activity_regularizer": null, "input_length": null, "init": "uniform", "bias": true, "name": "convolution1d_1_semeval_model", "activation": "relu", "trainable": true, "filter_length": 6, "nb_filter": 200, "W_regularizer": null, "subsample_length": 1}}, {"class_name": "MaxPooling1D", "config": {"border_mode": "valid", "trainable": true, "stride": 2, "pool_length": 4, "name": "maxpooling1d_1_semeval_model"}}, {"class_name": "Convolution1D", "config": {"border_mode": "valid", "b_regularizer": null, "W_constraint": null, "b_constraint": null, "input_dim": null, "activity_regularizer": null, "input_length": null, "init": "uniform", "bias": true, "name": "convolution1d_2_semeval_model", "activation": "relu", "trainable": true, "filter_length": 6, "nb_filter": 200, "W_regularizer": null, "subsample_length": 1}}]}, {"class_name": "Sequential", "config": [{"class_name": "Embedding", "config": {"W_constraint": null, "input_dim": 428669, "activity_regularizer": null, "batch_input_shape": [null, 140], "input_length": 140, "init": "uniform", "name": "embedding_1_tac_model", "trainable": true, "input_dtype": "int32", "mask_zero": false, "W_regularizer": null, "output_dim": 52, "dropout": 0.2}}, {"class_name": "ZeroPadding1D", "config": {"padding": 5, "trainable": true, "name": "zeropadding1d_1_tac_model"}}, {"class_name": "Convolution1D", "config": {"border_mode": "valid", "b_regularizer": null, "W_constraint": null, "b_constraint": null, "input_dim": null, "activity_regularizer": null, "input_length": null, "init": "uniform", "bias": true, "name": "convolution1d_1_tac_model", "activation": "relu", "trainable": true, "filter_length": 6, "nb_filter": 200, "W_regularizer": null, "subsample_length": 1}}, {"class_name": "MaxPooling1D", "config": {"border_mode": "valid", "trainable": true, "stride": 2, "pool_length": 4, "name": "maxpooling1d_1_tac_model"}}, {"class_name": "Convolution1D", "config": {"border_mode": "valid", "b_regularizer": null, "W_constraint": null, "b_constraint": null, "input_dim": null, "activity_regularizer": null, "input_length": null, "init": "uniform", "bias": true, "name": "convolution1d_2_tac_model", "activation": "relu", "trainable": true, "filter_length": 6, "nb_filter": 200, "W_regularizer": null, "subsample_length": 1}}]}], "name": "merge_1"}}, {"class_name": "Flatten", "config": {"trainable": true, "name": "flatten_1"}}, {"class_name": "Dense", "config": {"bias": true, "b_regularizer": null, "W_constraint": null, "b_constraint": null, "input_dim": null, "activity_regularizer": null, "init": "glorot_uniform", "name": "dense_1", "activation": "linear", "trainable": true, "W_regularizer": null, "output_dim": 200}}, {"class_name": "Dropout", "config": {"trainable": true, "p": 0.2, "name": "dropout_1"}}, {"class_name": "Activation", "config": {"activation": "relu", "trainable": true, "name": "activation_1"}}, {"class_name": "Dense", "config": {"bias": true, "b_regularizer": null, "W_constraint": null, "b_constraint": null, "input_dim": null, "activity_regularizer": null, "init": "glorot_uniform", "name": "dense_2", "activation": "softmax", "trainable": true, "W_regularizer": null, "output_dim": 3}}]}