{"keras_version": "1.1.1", "config": [{"config": {"mode_type": "raw", "concat_axis": -1, "dot_axes": -1, "output_shape_type": "raw", "output_shape": null, "mode": "concat", "layers": [{"config": [{"config": {"dropout": 0.2, "W_constraint": null, "activity_regularizer": null, "output_dim": 52, "init": "uniform", "name": "embedding_1_dil_model", "input_dim": 1576890, "input_dtype": "int32", "mask_zero": false, "W_regularizer": null, "batch_input_shape": [null, 140], "trainable": true, "input_length": 140}, "class_name": "Embedding"}, {"config": {"padding": 5, "trainable": true, "name": "zeropadding1d_1_dil_model"}, "class_name": "ZeroPadding1D"}, {"config": {"b_regularizer": null, "W_constraint": null, "bias": true, "activity_regularizer": null, "init": "uniform", "subsample_length": 1, "name": "convolution1d_1_dil_model", "input_dim": null, "b_constraint": null, "border_mode": "valid", "filter_length": 6, "W_regularizer": null, "nb_filter": 200, "trainable": true, "activation": "relu", "input_length": null}, "class_name": "Convolution1D"}, {"config": {"pool_length": 4, "trainable": true, "name": "maxpooling1d_1_dil_model", "stride": 2, "border_mode": "valid"}, "class_name": "MaxPooling1D"}, {"config": {"b_regularizer": null, "W_constraint": null, "bias": true, "activity_regularizer": null, "init": "uniform", "subsample_length": 1, "name": "convolution1d_2_dil_model", "input_dim": null, "b_constraint": null, "border_mode": "valid", "filter_length": 6, "W_regularizer": null, "nb_filter": 200, "trainable": true, "activation": "relu", "input_length": null}, "class_name": "Convolution1D"}, {"config": {"pool_length": 66, "trainable": true, "name": "maxpooling1d_2_dil_model", "stride": 66, "border_mode": "valid"}, "class_name": "MaxPooling1D"}, {"config": {"trainable": true, "name": "flatten_1_dil_model"}, "class_name": "Flatten"}], "class_name": "Sequential"}, {"config": [{"config": {"dropout": 0.2, "W_constraint": null, "activity_regularizer": null, "output_dim": 52, "init": "uniform", "name": "embedding_1_hul_model", "input_dim": 1062158, "input_dtype": "int32", "mask_zero": false, "W_regularizer": null, "batch_input_shape": [null, 140], "trainable": true, "input_length": 140}, "class_name": "Embedding"}, {"config": {"padding": 5, "trainable": true, "name": "zeropadding1d_1_hul_model"}, "class_name": "ZeroPadding1D"}, {"config": {"b_regularizer": null, "W_constraint": null, "bias": true, "activity_regularizer": null, "init": "uniform", "subsample_length": 1, "name": "convolution1d_1_hul_model", "input_dim": null, "b_constraint": null, "border_mode": "valid", "filter_length": 6, "W_regularizer": null, "nb_filter": 200, "trainable": true, "activation": "relu", "input_length": null}, "class_name": "Convolution1D"}, {"config": {"pool_length": 4, "trainable": true, "name": "maxpooling1d_1_hul_model", "stride": 2, "border_mode": "valid"}, "class_name": "MaxPooling1D"}, {"config": {"b_regularizer": null, "W_constraint": null, "bias": true, "activity_regularizer": null, "init": "uniform", "subsample_length": 1, "name": "convolution1d_2_hul_model", "input_dim": null, "b_constraint": null, "border_mode": "valid", "filter_length": 6, "W_regularizer": null, "nb_filter": 200, "trainable": true, "activation": "relu", "input_length": null}, "class_name": "Convolution1D"}, {"config": {"pool_length": 66, "trainable": true, "name": "maxpooling1d_2_hul_model", "stride": 66, "border_mode": "valid"}, "class_name": "MaxPooling1D"}, {"config": {"trainable": true, "name": "flatten_1_hul_model"}, "class_name": "Flatten"}], "class_name": "Sequential"}, {"config": [{"config": {"dropout": 0.2, "W_constraint": null, "activity_regularizer": null, "output_dim": 52, "init": "uniform", "name": "embedding_17_mpq_model", "input_dim": 428669, "input_dtype": "int32", "mask_zero": false, "W_regularizer": null, "batch_input_shape": [null, 140], "trainable": true, "input_length": 140}, "class_name": "Embedding"}, {"config": {"padding": 5, "trainable": true, "name": "zeropadding1d_17_mpq_model"}, "class_name": "ZeroPadding1D"}, {"config": {"b_regularizer": null, "W_constraint": null, "bias": true, "activity_regularizer": null, "init": "uniform", "subsample_length": 1, "name": "convolution1d_33_mpq_model", "input_dim": null, "b_constraint": null, "border_mode": "valid", "filter_length": 6, "W_regularizer": null, "nb_filter": 200, "trainable": true, "activation": "relu", "input_length": null}, "class_name": "Convolution1D"}, {"config": {"pool_length": 4, "trainable": true, "name": "maxpooling1d_33_mpq_model", "stride": 2, "border_mode": "valid"}, "class_name": "MaxPooling1D"}, {"config": {"b_regularizer": null, "W_constraint": null, "bias": true, "activity_regularizer": null, "init": "uniform", "subsample_length": 1, "name": "convolution1d_34_mpq_model", "input_dim": null, "b_constraint": null, "border_mode": "valid", "filter_length": 6, "W_regularizer": null, "nb_filter": 200, "trainable": true, "activation": "relu", "input_length": null}, "class_name": "Convolution1D"}, {"config": {"pool_length": 66, "trainable": true, "name": "maxpooling1d_34_mpq_model", "stride": 66, "border_mode": "valid"}, "class_name": "MaxPooling1D"}, {"config": {"trainable": true, "name": "flatten_17_mpq_model"}, "class_name": "Flatten"}], "class_name": "Sequential"}, {"config": [{"config": {"dropout": 0.2, "W_constraint": null, "activity_regularizer": null, "output_dim": 52, "init": "uniform", "name": "embedding_1_tac_model", "input_dim": 428669, "input_dtype": "int32", "mask_zero": false, "W_regularizer": null, "batch_input_shape": [null, 140], "trainable": true, "input_length": 140}, "class_name": "Embedding"}, {"config": {"padding": 5, "trainable": true, "name": "zeropadding1d_1_tac_model"}, "class_name": "ZeroPadding1D"}, {"config": {"b_regularizer": null, "W_constraint": null, "bias": true, "activity_regularizer": null, "init": "uniform", "subsample_length": 1, "name": "convolution1d_1_tac_model", "input_dim": null, "b_constraint": null, "border_mode": "valid", "filter_length": 6, "W_regularizer": null, "nb_filter": 200, "trainable": true, "activation": "relu", "input_length": null}, "class_name": "Convolution1D"}, {"config": {"pool_length": 4, "trainable": true, "name": "maxpooling1d_1_tac_model", "stride": 2, "border_mode": "valid"}, "class_name": "MaxPooling1D"}, {"config": {"b_regularizer": null, "W_constraint": null, "bias": true, "activity_regularizer": null, "init": "uniform", "subsample_length": 1, "name": "convolution1d_2_tac_model", "input_dim": null, "b_constraint": null, "border_mode": "valid", "filter_length": 6, "W_regularizer": null, "nb_filter": 200, "trainable": true, "activation": "relu", "input_length": null}, "class_name": "Convolution1D"}, {"config": {"pool_length": 66, "trainable": true, "name": "maxpooling1d_2_tac_model", "stride": 66, "border_mode": "valid"}, "class_name": "MaxPooling1D"}, {"config": {"trainable": true, "name": "flatten_1_tac_model"}, "class_name": "Flatten"}], "class_name": "Sequential"}, {"config": [{"config": {"dropout": 0.2, "W_constraint": null, "activity_regularizer": null, "output_dim": 52, "init": "uniform", "name": "embedding_1_dai_model", "input_dim": 1576890, "input_dtype": "int32", "mask_zero": false, "W_regularizer": null, "batch_input_shape": [null, 140], "trainable": true, "input_length": 140}, "class_name": "Embedding"}, {"config": {"padding": 5, "trainable": true, "name": "zeropadding1d_1_dai_model"}, "class_name": "ZeroPadding1D"}, {"config": {"b_regularizer": null, "W_constraint": null, "bias": true, "activity_regularizer": null, "init": "uniform", "subsample_length": 1, "name": "convolution1d_1_dai_model", "input_dim": null, "b_constraint": null, "border_mode": "valid", "filter_length": 6, "W_regularizer": null, "nb_filter": 200, "trainable": true, "activation": "relu", "input_length": null}, "class_name": "Convolution1D"}, {"config": {"pool_length": 4, "trainable": true, "name": "maxpooling1d_1_dai_model", "stride": 2, "border_mode": "valid"}, "class_name": "MaxPooling1D"}, {"config": {"b_regularizer": null, "W_constraint": null, "bias": true, "activity_regularizer": null, "init": "uniform", "subsample_length": 1, "name": "convolution1d_2_dai_model", "input_dim": null, "b_constraint": null, "border_mode": "valid", "filter_length": 6, "W_regularizer": null, "nb_filter": 200, "trainable": true, "activation": "relu", "input_length": null}, "class_name": "Convolution1D"}, {"config": {"pool_length": 66, "trainable": true, "name": "maxpooling1d_2_dai_model", "stride": 66, "border_mode": "valid"}, "class_name": "MaxPooling1D"}, {"config": {"trainable": true, "name": "flatten_1_dai_model"}, "class_name": "Flatten"}], "class_name": "Sequential"}, {"config": [{"config": {"dropout": 0.2, "W_constraint": null, "activity_regularizer": null, "output_dim": 52, "init": "uniform", "name": "embedding_1_semeval_model", "input_dim": 428669, "input_dtype": "int32", "mask_zero": false, "W_regularizer": null, "batch_input_shape": [null, 140], "trainable": true, "input_length": 140}, "class_name": "Embedding"}, {"config": {"padding": 5, "trainable": true, "name": "zeropadding1d_1_semeval_model"}, "class_name": "ZeroPadding1D"}, {"config": {"b_regularizer": null, "W_constraint": null, "bias": true, "activity_regularizer": null, "init": "uniform", "subsample_length": 1, "name": "convolution1d_1_semeval_model", "input_dim": null, "b_constraint": null, "border_mode": "valid", "filter_length": 6, "W_regularizer": null, "nb_filter": 200, "trainable": true, "activation": "relu", "input_length": null}, "class_name": "Convolution1D"}, {"config": {"pool_length": 4, "trainable": true, "name": "maxpooling1d_1_semeval_model", "stride": 2, "border_mode": "valid"}, "class_name": "MaxPooling1D"}, {"config": {"b_regularizer": null, "W_constraint": null, "bias": true, "activity_regularizer": null, "init": "uniform", "subsample_length": 1, "name": "convolution1d_2_semeval_model", "input_dim": null, "b_constraint": null, "border_mode": "valid", "filter_length": 6, "W_regularizer": null, "nb_filter": 200, "trainable": true, "activation": "relu", "input_length": null}, "class_name": "Convolution1D"}, {"config": {"pool_length": 66, "trainable": true, "name": "maxpooling1d_2_semeval_model", "stride": 66, "border_mode": "valid"}, "class_name": "MaxPooling1D"}, {"config": {"trainable": true, "name": "flatten_1_semeval_model"}, "class_name": "Flatten"}], "class_name": "Sequential"}], "name": "merge_1"}, "class_name": "Merge"}, {"config": {"b_regularizer": null, "W_constraint": null, "activity_regularizer": null, "output_dim": 1028, "init": "glorot_uniform", "name": "dense_1", "input_dim": null, "b_constraint": null, "bias": true, "W_regularizer": null, "trainable": true, "activation": "linear"}, "class_name": "Dense"}, {"config": {"trainable": true, "name": "activation_1", "activation": "relu"}, "class_name": "Activation"}, {"config": {"b_regularizer": null, "W_constraint": null, "activity_regularizer": null, "output_dim": 3, "init": "glorot_uniform", "name": "dense_2", "input_dim": null, "b_constraint": null, "bias": true, "W_regularizer": null, "trainable": true, "activation": "softmax"}, "class_name": "Dense"}], "class_name": "Sequential"}