{"keras_version": "1.1.0", "class_name": "Sequential", "config": [{"class_name": "Embedding", "config": {"W_regularizer": null, "mask_zero": false, "output_dim": 52, "activity_regularizer": null, "input_dim": 2950660, "batch_input_shape": [null, 140], "input_dtype": "int32", "dropout": 0.2, "input_length": 140, "name": "embedding_3", "init": "uniform", "trainable": true, "W_constraint": null}}, {"class_name": "ZeroPadding1D", "config": {"name": "zeropadding1d_3", "trainable": true, "padding": 5}}, {"class_name": "Convolution1D", "config": {"W_regularizer": null, "nb_filter": 200, "activity_regularizer": null, "input_dim": null, "filter_length": 6, "border_mode": "valid", "input_length": null, "bias": true, "activation": "relu", "init": "uniform", "subsample_length": 1, "trainable": true, "b_regularizer": null, "name": "convolution1d_5", "W_constraint": null, "b_constraint": null}}, {"class_name": "MaxPooling1D", "config": {"name": "maxpooling1d_5", "trainable": true, "stride": 2, "border_mode": "valid", "pool_length": 4}}, {"class_name": "Convolution1D", "config": {"W_regularizer": null, "nb_filter": 200, "activity_regularizer": null, "input_dim": null, "filter_length": 6, "border_mode": "valid", "input_length": null, "bias": true, "activation": "relu", "init": "uniform", "subsample_length": 1, "trainable": true, "b_regularizer": null, "name": "convolution1d_6", "W_constraint": null, "b_constraint": null}}, {"class_name": "MaxPooling1D", "config": {"name": "maxpooling1d_6", "trainable": true, "stride": 66, "border_mode": "valid", "pool_length": 66}}, {"class_name": "Flatten", "config": {"name": "flatten_3", "trainable": true}}, {"class_name": "Dense", "config": {"W_regularizer": null, "output_dim": 200, "activity_regularizer": null, "name": "dense_5", "bias": true, "input_dim": null, "activation": "linear", "init": "glorot_uniform", "trainable": true, "b_regularizer": null, "W_constraint": null, "b_constraint": null}}, {"class_name": "Dropout", "config": {"name": "dropout_3", "trainable": true, "p": 0.2}}, {"class_name": "Activation", "config": {"name": "activation_3", "trainable": true, "activation": "relu"}}, {"class_name": "Dense", "config": {"W_regularizer": null, "output_dim": 3, "activity_regularizer": null, "name": "dense_6", "bias": true, "input_dim": null, "activation": "softmax", "init": "glorot_uniform", "trainable": true, "b_regularizer": null, "W_constraint": null, "b_constraint": null}}]}