{"config": [{"config": {"name": "embedding_31", "W_regularizer": null, "input_dtype": "int32", "input_length": 140, "batch_input_shape": [null, 140], "output_dim": 52, "input_dim": 1576890, "init": "uniform", "mask_zero": false, "activity_regularizer": null, "W_constraint": null, "trainable": true, "dropout": 0.2}, "class_name": "Embedding"}, {"config": {"name": "zeropadding1d_31", "padding": 5, "trainable": true}, "class_name": "ZeroPadding1D"}, {"config": {"activation": "relu", "name": "convolution1d_61", "bias": true, "input_length": null, "input_dim": null, "b_constraint": null, "border_mode": "valid", "b_regularizer": null, "trainable": true, "W_regularizer": null, "subsample_length": 1, "filter_length": 6, "activity_regularizer": null, "W_constraint": null, "init": "uniform", "nb_filter": 200}, "class_name": "Convolution1D"}, {"config": {"name": "maxpooling1d_61", "border_mode": "valid", "pool_length": 4, "trainable": true, "stride": 2}, "class_name": "MaxPooling1D"}, {"config": {"activation": "relu", "name": "convolution1d_62", "bias": true, "input_length": null, "input_dim": null, "b_constraint": null, "border_mode": "valid", "b_regularizer": null, "trainable": true, "W_regularizer": null, "subsample_length": 1, "filter_length": 6, "activity_regularizer": null, "W_constraint": null, "init": "uniform", "nb_filter": 200}, "class_name": "Convolution1D"}, {"config": {"name": "maxpooling1d_62", "border_mode": "valid", "pool_length": 66, "trainable": true, "stride": 66}, "class_name": "MaxPooling1D"}, {"config": {"name": "flatten_31", "trainable": true}, "class_name": "Flatten"}, {"config": {"activation": "linear", "name": "dense_61", "b_constraint": null, "output_dim": 200, "input_dim": null, "trainable": true, "init": "glorot_uniform", "bias": true, "activity_regularizer": null, "W_constraint": null, "W_regularizer": null, "b_regularizer": null}, "class_name": "Dense"}, {"config": {"name": "dropout_31", "trainable": true, "p": 0.2}, "class_name": "Dropout"}, {"config": {"activation": "relu", "name": "activation_31", "trainable": true}, "class_name": "Activation"}, {"config": {"activation": "softmax", "name": "dense_62", "b_constraint": null, "output_dim": 3, "input_dim": null, "trainable": true, "init": "glorot_uniform", "bias": true, "activity_regularizer": null, "W_constraint": null, "W_regularizer": null, "b_regularizer": null}, "class_name": "Dense"}], "keras_version": "1.1.0", "class_name": "Sequential"}