{"keras_version": "1.1.1", "class_name": "Sequential", "config": [{"class_name": "Merge", "config": {"mode_type": "raw", "dot_axes": -1, "mode": "concat", "output_shape": null, "output_shape_type": "raw", "name": "merge_1", "layers": [{"class_name": "Sequential", "config": [{"class_name": "Embedding", "config": {"activity_regularizer": null, "input_dtype": "int32", "input_length": 140, "trainable": true, "init": "uniform", "batch_input_shape": [null, 140], "W_regularizer": null, "input_dim": 1576890, "dropout": 0.2, "name": "embedding_1_dil_model", "mask_zero": false, "output_dim": 52, "W_constraint": null}}, {"class_name": "ZeroPadding1D", "config": {"name": "zeropadding1d_1_dil_model", "trainable": true, "padding": 5}}, {"class_name": "Convolution1D", "config": {"nb_filter": 200, "activity_regularizer": null, "activation": "relu", "bias": true, "b_constraint": null, "subsample_length": 1, "input_length": null, "trainable": true, "init": "uniform", "W_constraint": null, "W_regularizer": null, "b_regularizer": null, "filter_length": 6, "input_dim": null, "name": "convolution1d_1_dil_model", "border_mode": "valid"}}, {"class_name": "MaxPooling1D", "config": {"pool_length": 4, "name": "maxpooling1d_1_dil_model", "stride": 2, "trainable": true, "border_mode": "valid"}}, {"class_name": "Convolution1D", "config": {"nb_filter": 200, "activity_regularizer": null, "activation": "relu", "bias": true, "b_constraint": null, "subsample_length": 1, "input_length": null, "trainable": true, "init": "uniform", "W_constraint": null, "W_regularizer": null, "b_regularizer": null, "filter_length": 6, "input_dim": null, "name": "convolution1d_2_dil_model", "border_mode": "valid"}}]}, {"class_name": "Sequential", "config": [{"class_name": "Embedding", "config": {"activity_regularizer": null, "input_dtype": "int32", "input_length": 140, "trainable": true, "init": "uniform", "batch_input_shape": [null, 140], "W_regularizer": null, "input_dim": 1576890, "dropout": 0.2, "name": "embedding_1_dai_model", "mask_zero": false, "output_dim": 52, "W_constraint": null}}, {"class_name": "ZeroPadding1D", "config": {"name": "zeropadding1d_1_dai_model", "trainable": true, "padding": 5}}, {"class_name": "Convolution1D", "config": {"nb_filter": 200, "activity_regularizer": null, "activation": "relu", "bias": true, "b_constraint": null, "subsample_length": 1, "input_length": null, "trainable": true, "init": "uniform", "W_constraint": null, "W_regularizer": null, "b_regularizer": null, "filter_length": 6, "input_dim": null, "name": "convolution1d_1_dai_model", "border_mode": "valid"}}, {"class_name": "MaxPooling1D", "config": {"pool_length": 4, "name": "maxpooling1d_1_dai_model", "stride": 2, "trainable": true, "border_mode": "valid"}}, {"class_name": "Convolution1D", "config": {"nb_filter": 200, "activity_regularizer": null, "activation": "relu", "bias": true, "b_constraint": null, "subsample_length": 1, "input_length": null, "trainable": true, "init": "uniform", "W_constraint": null, "W_regularizer": null, "b_regularizer": null, "filter_length": 6, "input_dim": null, "name": "convolution1d_2_dai_model", "border_mode": "valid"}}]}, {"class_name": "Sequential", "config": [{"class_name": "Embedding", "config": {"activity_regularizer": null, "input_dtype": "int32", "input_length": 140, "trainable": true, "init": "uniform", "batch_input_shape": [null, 140], "W_regularizer": null, "input_dim": 1062158, "dropout": 0.2, "name": "embedding_1_hul_model", "mask_zero": false, "output_dim": 52, "W_constraint": null}}, {"class_name": "ZeroPadding1D", "config": {"name": "zeropadding1d_1_hul_model", "trainable": true, "padding": 5}}, {"class_name": "Convolution1D", "config": {"nb_filter": 200, "activity_regularizer": null, "activation": "relu", "bias": true, "b_constraint": null, "subsample_length": 1, "input_length": null, "trainable": true, "init": "uniform", "W_constraint": null, "W_regularizer": null, "b_regularizer": null, "filter_length": 6, "input_dim": null, "name": "convolution1d_1_hul_model", "border_mode": "valid"}}, {"class_name": "MaxPooling1D", "config": {"pool_length": 4, "name": "maxpooling1d_1_hul_model", "stride": 2, "trainable": true, "border_mode": "valid"}}, {"class_name": "Convolution1D", "config": {"nb_filter": 200, "activity_regularizer": null, "activation": "relu", "bias": true, "b_constraint": null, "subsample_length": 1, "input_length": null, "trainable": true, "init": "uniform", "W_constraint": null, "W_regularizer": null, "b_regularizer": null, "filter_length": 6, "input_dim": null, "name": "convolution1d_2_hul_model", "border_mode": "valid"}}]}, {"class_name": "Sequential", "config": [{"class_name": "Embedding", "config": {"activity_regularizer": null, "input_dtype": "int32", "input_length": 140, "trainable": true, "init": "uniform", "batch_input_shape": [null, 140], "W_regularizer": null, "input_dim": 428669, "dropout": 0.2, "name": "embedding_1_tac_model", "mask_zero": false, "output_dim": 52, "W_constraint": null}}, {"class_name": "ZeroPadding1D", "config": {"name": "zeropadding1d_1_tac_model", "trainable": true, "padding": 5}}, {"class_name": "Convolution1D", "config": {"nb_filter": 200, "activity_regularizer": null, "activation": "relu", "bias": true, "b_constraint": null, "subsample_length": 1, "input_length": null, "trainable": true, "init": "uniform", "W_constraint": null, "W_regularizer": null, "b_regularizer": null, "filter_length": 6, "input_dim": null, "name": "convolution1d_1_tac_model", "border_mode": "valid"}}, {"class_name": "MaxPooling1D", "config": {"pool_length": 4, "name": "maxpooling1d_1_tac_model", "stride": 2, "trainable": true, "border_mode": "valid"}}, {"class_name": "Convolution1D", "config": {"nb_filter": 200, "activity_regularizer": null, "activation": "relu", "bias": true, "b_constraint": null, "subsample_length": 1, "input_length": null, "trainable": true, "init": "uniform", "W_constraint": null, "W_regularizer": null, "b_regularizer": null, "filter_length": 6, "input_dim": null, "name": "convolution1d_2_tac_model", "border_mode": "valid"}}]}, {"class_name": "Sequential", "config": [{"class_name": "Embedding", "config": {"activity_regularizer": null, "input_dtype": "int32", "input_length": 140, "trainable": true, "init": "uniform", "batch_input_shape": [null, 140], "W_regularizer": null, "input_dim": 428669, "dropout": 0.2, "name": "embedding_17_mpq_model", "mask_zero": false, "output_dim": 52, "W_constraint": null}}, {"class_name": "ZeroPadding1D", "config": {"name": "zeropadding1d_17_mpq_model", "trainable": true, "padding": 5}}, {"class_name": "Convolution1D", "config": {"nb_filter": 200, "activity_regularizer": null, "activation": "relu", "bias": true, "b_constraint": null, "subsample_length": 1, "input_length": null, "trainable": true, "init": "uniform", "W_constraint": null, "W_regularizer": null, "b_regularizer": null, "filter_length": 6, "input_dim": null, "name": "convolution1d_33_mpq_model", "border_mode": "valid"}}, {"class_name": "MaxPooling1D", "config": {"pool_length": 4, "name": "maxpooling1d_33_mpq_model", "stride": 2, "trainable": true, "border_mode": "valid"}}, {"class_name": "Convolution1D", "config": {"nb_filter": 200, "activity_regularizer": null, "activation": "relu", "bias": true, "b_constraint": null, "subsample_length": 1, "input_length": null, "trainable": true, "init": "uniform", "W_constraint": null, "W_regularizer": null, "b_regularizer": null, "filter_length": 6, "input_dim": null, "name": "convolution1d_34_mpq_model", "border_mode": "valid"}}]}, {"class_name": "Sequential", "config": [{"class_name": "Embedding", "config": {"activity_regularizer": null, "input_dtype": "int32", "input_length": 140, "trainable": true, "init": "uniform", "batch_input_shape": [null, 140], "W_regularizer": null, "input_dim": 428669, "dropout": 0.2, "name": "embedding_1_semeval_model", "mask_zero": false, "output_dim": 52, "W_constraint": null}}, {"class_name": "ZeroPadding1D", "config": {"name": "zeropadding1d_1_semeval_model", "trainable": true, "padding": 5}}, {"class_name": "Convolution1D", "config": {"nb_filter": 200, "activity_regularizer": null, "activation": "relu", "bias": true, "b_constraint": null, "subsample_length": 1, "input_length": null, "trainable": true, "init": "uniform", "W_constraint": null, "W_regularizer": null, "b_regularizer": null, "filter_length": 6, "input_dim": null, "name": "convolution1d_1_semeval_model", "border_mode": "valid"}}, {"class_name": "MaxPooling1D", "config": {"pool_length": 4, "name": "maxpooling1d_1_semeval_model", "stride": 2, "trainable": true, "border_mode": "valid"}}, {"class_name": "Convolution1D", "config": {"nb_filter": 200, "activity_regularizer": null, "activation": "relu", "bias": true, "b_constraint": null, "subsample_length": 1, "input_length": null, "trainable": true, "init": "uniform", "W_constraint": null, "W_regularizer": null, "b_regularizer": null, "filter_length": 6, "input_dim": null, "name": "convolution1d_2_semeval_model", "border_mode": "valid"}}]}], "concat_axis": -1}}, {"class_name": "Flatten", "config": {"name": "flatten_1", "trainable": true}}, {"class_name": "Dense", "config": {"activity_regularizer": null, "activation": "linear", "bias": true, "b_constraint": null, "trainable": true, "init": "glorot_uniform", "W_constraint": null, "W_regularizer": null, "b_regularizer": null, "input_dim": null, "name": "dense_1", "output_dim": 200}}, {"class_name": "Dropout", "config": {"name": "dropout_1", "trainable": true, "p": 0.2}}, {"class_name": "Activation", "config": {"name": "activation_1", "activation": "relu", "trainable": true}}, {"class_name": "Dense", "config": {"activity_regularizer": null, "activation": "softmax", "bias": true, "b_constraint": null, "trainable": true, "init": "glorot_uniform", "W_constraint": null, "W_regularizer": null, "b_regularizer": null, "input_dim": null, "name": "dense_2", "output_dim": 3}}]}