{"config": [{"config": {"layers": [{"config": [{"config": {"batch_input_shape": [null, 140], "name": "embedding_1_semeval_model", "trainable": true, "input_length": 140, "output_dim": 52, "activity_regularizer": null, "W_regularizer": null, "input_dim": 428669, "W_constraint": null, "init": "uniform", "mask_zero": false, "dropout": 0.2, "input_dtype": "int32"}, "class_name": "Embedding"}, {"config": {"padding": 5, "name": "zeropadding1d_1_semeval_model", "trainable": true}, "class_name": "ZeroPadding1D"}, {"config": {"activity_regularizer": null, "b_constraint": null, "nb_filter": 200, "trainable": true, "input_length": null, "init": "uniform", "subsample_length": 1, "border_mode": "valid", "name": "convolution1d_1_semeval_model", "b_regularizer": null, "W_constraint": null, "W_regularizer": null, "filter_length": 6, "activation": "relu", "input_dim": null, "bias": true}, "class_name": "Convolution1D"}, {"config": {"stride": 2, "name": "maxpooling1d_1_semeval_model", "border_mode": "valid", "pool_length": 4, "trainable": true}, "class_name": "MaxPooling1D"}, {"config": {"activity_regularizer": null, "b_constraint": null, "nb_filter": 200, "trainable": true, "input_length": null, "init": "uniform", "subsample_length": 1, "border_mode": "valid", "name": "convolution1d_2_semeval_model", "b_regularizer": null, "W_constraint": null, "W_regularizer": null, "filter_length": 6, "activation": "relu", "input_dim": null, "bias": true}, "class_name": "Convolution1D"}, {"config": {"stride": 66, "name": "maxpooling1d_2_semeval_model", "border_mode": "valid", "pool_length": 66, "trainable": true}, "class_name": "MaxPooling1D"}, {"config": {"name": "flatten_1_semeval_model", "trainable": true}, "class_name": "Flatten"}, {"config": {"activity_regularizer": null, "name": "dense_1_semeval_model", "bias": true, "trainable": true, "output_dim": 200, "W_constraint": null, "W_regularizer": null, "input_dim": null, "init": "glorot_uniform", "b_regularizer": null, "activation": "linear", "b_constraint": null}, "class_name": "Dense"}, {"config": {"name": "dropout_1_semeval_model", "p": 0.2, "trainable": true}, "class_name": "Dropout"}, {"config": {"name": "activation_1_semeval_model", "activation": "relu", "trainable": true}, "class_name": "Activation"}, {"config": {"activity_regularizer": null, "name": "dense_2_semeval_model", "bias": true, "trainable": true, "output_dim": 3, "W_constraint": null, "W_regularizer": null, "input_dim": null, "init": "glorot_uniform", "b_regularizer": null, "activation": "softmax", "b_constraint": null}, "class_name": "Dense"}], "class_name": "Sequential"}, {"config": [{"config": {"batch_input_shape": [null, 140], "name": "embedding_1_dai_model", "trainable": true, "input_length": 140, "output_dim": 52, "activity_regularizer": null, "W_regularizer": null, "input_dim": 1576890, "W_constraint": null, "init": "uniform", "mask_zero": false, "dropout": 0.2, "input_dtype": "int32"}, "class_name": "Embedding"}, {"config": {"padding": 5, "name": "zeropadding1d_1_dai_model", "trainable": true}, "class_name": "ZeroPadding1D"}, {"config": {"activity_regularizer": null, "b_constraint": null, "nb_filter": 200, "trainable": true, "input_length": null, "init": "uniform", "subsample_length": 1, "border_mode": "valid", "name": "convolution1d_1_dai_model", "b_regularizer": null, "W_constraint": null, "W_regularizer": null, "filter_length": 6, "activation": "relu", "input_dim": null, "bias": true}, "class_name": "Convolution1D"}, {"config": {"stride": 2, "name": "maxpooling1d_1_dai_model", "border_mode": "valid", "pool_length": 4, "trainable": true}, "class_name": "MaxPooling1D"}, {"config": {"activity_regularizer": null, "b_constraint": null, "nb_filter": 200, "trainable": true, "input_length": null, "init": "uniform", "subsample_length": 1, "border_mode": "valid", "name": "convolution1d_2_dai_model", "b_regularizer": null, "W_constraint": null, "W_regularizer": null, "filter_length": 6, "activation": "relu", "input_dim": null, "bias": true}, "class_name": "Convolution1D"}, {"config": {"stride": 66, "name": "maxpooling1d_2_dai_model", "border_mode": "valid", "pool_length": 66, "trainable": true}, "class_name": "MaxPooling1D"}, {"config": {"name": "flatten_1_dai_model", "trainable": true}, "class_name": "Flatten"}, {"config": {"activity_regularizer": null, "name": "dense_1_dai_model", "bias": true, "trainable": true, "output_dim": 200, "W_constraint": null, "W_regularizer": null, "input_dim": null, "init": "glorot_uniform", "b_regularizer": null, "activation": "linear", "b_constraint": null}, "class_name": "Dense"}, {"config": {"name": "dropout_1_dai_model", "p": 0.2, "trainable": true}, "class_name": "Dropout"}, {"config": {"name": "activation_1_dai_model", "activation": "relu", "trainable": true}, "class_name": "Activation"}, {"config": {"activity_regularizer": null, "name": "dense_2_dai_model", "bias": true, "trainable": true, "output_dim": 3, "W_constraint": null, "W_regularizer": null, "input_dim": null, "init": "glorot_uniform", "b_regularizer": null, "activation": "softmax", "b_constraint": null}, "class_name": "Dense"}], "class_name": "Sequential"}, {"config": [{"config": {"batch_input_shape": [null, 140], "name": "embedding_1_dil_model", "trainable": true, "input_length": 140, "output_dim": 52, "activity_regularizer": null, "W_regularizer": null, "input_dim": 1576890, "W_constraint": null, "init": "uniform", "mask_zero": false, "dropout": 0.2, "input_dtype": "int32"}, "class_name": "Embedding"}, {"config": {"padding": 5, "name": "zeropadding1d_1_dil_model", "trainable": true}, "class_name": "ZeroPadding1D"}, {"config": {"activity_regularizer": null, "b_constraint": null, "nb_filter": 200, "trainable": true, "input_length": null, "init": "uniform", "subsample_length": 1, "border_mode": "valid", "name": "convolution1d_1_dil_model", "b_regularizer": null, "W_constraint": null, "W_regularizer": null, "filter_length": 6, "activation": "relu", "input_dim": null, "bias": true}, "class_name": "Convolution1D"}, {"config": {"stride": 2, "name": "maxpooling1d_1_dil_model", "border_mode": "valid", "pool_length": 4, "trainable": true}, "class_name": "MaxPooling1D"}, {"config": {"activity_regularizer": null, "b_constraint": null, "nb_filter": 200, "trainable": true, "input_length": null, "init": "uniform", "subsample_length": 1, "border_mode": "valid", "name": "convolution1d_2_dil_model", "b_regularizer": null, "W_constraint": null, "W_regularizer": null, "filter_length": 6, "activation": "relu", "input_dim": null, "bias": true}, "class_name": "Convolution1D"}, {"config": {"stride": 66, "name": "maxpooling1d_2_dil_model", "border_mode": "valid", "pool_length": 66, "trainable": true}, "class_name": "MaxPooling1D"}, {"config": {"name": "flatten_1_dil_model", "trainable": true}, "class_name": "Flatten"}, {"config": {"activity_regularizer": null, "name": "dense_1_dil_model", "bias": true, "trainable": true, "output_dim": 200, "W_constraint": null, "W_regularizer": null, "input_dim": null, "init": "glorot_uniform", "b_regularizer": null, "activation": "linear", "b_constraint": null}, "class_name": "Dense"}, {"config": {"name": "dropout_1_dil_model", "p": 0.2, "trainable": true}, "class_name": "Dropout"}, {"config": {"name": "activation_1_dil_model", "activation": "relu", "trainable": true}, "class_name": "Activation"}, {"config": {"activity_regularizer": null, "name": "dense_2_dil_model", "bias": true, "trainable": true, "output_dim": 3, "W_constraint": null, "W_regularizer": null, "input_dim": null, "init": "glorot_uniform", "b_regularizer": null, "activation": "softmax", "b_constraint": null}, "class_name": "Dense"}], "class_name": "Sequential"}, {"config": [{"config": {"batch_input_shape": [null, 140], "name": "embedding_17_mpq_model", "trainable": true, "input_length": 140, "output_dim": 52, "activity_regularizer": null, "W_regularizer": null, "input_dim": 428669, "W_constraint": null, "init": "uniform", "mask_zero": false, "dropout": 0.2, "input_dtype": "int32"}, "class_name": "Embedding"}, {"config": {"padding": 5, "name": "zeropadding1d_17_mpq_model", "trainable": true}, "class_name": "ZeroPadding1D"}, {"config": {"activity_regularizer": null, "b_constraint": null, "nb_filter": 200, "trainable": true, "input_length": null, "init": "uniform", "subsample_length": 1, "border_mode": "valid", "name": "convolution1d_33_mpq_model", "b_regularizer": null, "W_constraint": null, "W_regularizer": null, "filter_length": 6, "activation": "relu", "input_dim": null, "bias": true}, "class_name": "Convolution1D"}, {"config": {"stride": 2, "name": "maxpooling1d_33_mpq_model", "border_mode": "valid", "pool_length": 4, "trainable": true}, "class_name": "MaxPooling1D"}, {"config": {"activity_regularizer": null, "b_constraint": null, "nb_filter": 200, "trainable": true, "input_length": null, "init": "uniform", "subsample_length": 1, "border_mode": "valid", "name": "convolution1d_34_mpq_model", "b_regularizer": null, "W_constraint": null, "W_regularizer": null, "filter_length": 6, "activation": "relu", "input_dim": null, "bias": true}, "class_name": "Convolution1D"}, {"config": {"stride": 66, "name": "maxpooling1d_34_mpq_model", "border_mode": "valid", "pool_length": 66, "trainable": true}, "class_name": "MaxPooling1D"}, {"config": {"name": "flatten_17_mpq_model", "trainable": true}, "class_name": "Flatten"}, {"config": {"activity_regularizer": null, "name": "dense_33_mpq_model", "bias": true, "trainable": true, "output_dim": 200, "W_constraint": null, "W_regularizer": null, "input_dim": null, "init": "glorot_uniform", "b_regularizer": null, "activation": "linear", "b_constraint": null}, "class_name": "Dense"}, {"config": {"name": "dropout_17_mpq_model", "p": 0.2, "trainable": true}, "class_name": "Dropout"}, {"config": {"name": "activation_17_mpq_model", "activation": "relu", "trainable": true}, "class_name": "Activation"}, {"config": {"activity_regularizer": null, "name": "dense_34_mpq_model", "bias": true, "trainable": true, "output_dim": 3, "W_constraint": null, "W_regularizer": null, "input_dim": null, "init": "glorot_uniform", "b_regularizer": null, "activation": "softmax", "b_constraint": null}, "class_name": "Dense"}], "class_name": "Sequential"}, {"config": [{"config": {"batch_input_shape": [null, 140], "name": "embedding_1_hul_model", "trainable": true, "input_length": 140, "output_dim": 52, "activity_regularizer": null, "W_regularizer": null, "input_dim": 1062158, "W_constraint": null, "init": "uniform", "mask_zero": false, "dropout": 0.2, "input_dtype": "int32"}, "class_name": "Embedding"}, {"config": {"padding": 5, "name": "zeropadding1d_1_hul_model", "trainable": true}, "class_name": "ZeroPadding1D"}, {"config": {"activity_regularizer": null, "b_constraint": null, "nb_filter": 200, "trainable": true, "input_length": null, "init": "uniform", "subsample_length": 1, "border_mode": "valid", "name": "convolution1d_1_hul_model", "b_regularizer": null, "W_constraint": null, "W_regularizer": null, "filter_length": 6, "activation": "relu", "input_dim": null, "bias": true}, "class_name": "Convolution1D"}, {"config": {"stride": 2, "name": "maxpooling1d_1_hul_model", "border_mode": "valid", "pool_length": 4, "trainable": true}, "class_name": "MaxPooling1D"}, {"config": {"activity_regularizer": null, "b_constraint": null, "nb_filter": 200, "trainable": true, "input_length": null, "init": "uniform", "subsample_length": 1, "border_mode": "valid", "name": "convolution1d_2_hul_model", "b_regularizer": null, "W_constraint": null, "W_regularizer": null, "filter_length": 6, "activation": "relu", "input_dim": null, "bias": true}, "class_name": "Convolution1D"}, {"config": {"stride": 66, "name": "maxpooling1d_2_hul_model", "border_mode": "valid", "pool_length": 66, "trainable": true}, "class_name": "MaxPooling1D"}, {"config": {"name": "flatten_1_hul_model", "trainable": true}, "class_name": "Flatten"}, {"config": {"activity_regularizer": null, "name": "dense_1_hul_model", "bias": true, "trainable": true, "output_dim": 200, "W_constraint": null, "W_regularizer": null, "input_dim": null, "init": "glorot_uniform", "b_regularizer": null, "activation": "linear", "b_constraint": null}, "class_name": "Dense"}, {"config": {"name": "dropout_1_hul_model", "p": 0.2, "trainable": true}, "class_name": "Dropout"}, {"config": {"name": "activation_1_hul_model", "activation": "relu", "trainable": true}, "class_name": "Activation"}, {"config": {"activity_regularizer": null, "name": "dense_2_hul_model", "bias": true, "trainable": true, "output_dim": 3, "W_constraint": null, "W_regularizer": null, "input_dim": null, "init": "glorot_uniform", "b_regularizer": null, "activation": "softmax", "b_constraint": null}, "class_name": "Dense"}], "class_name": "Sequential"}, {"config": [{"config": {"batch_input_shape": [null, 140], "name": "embedding_1_tac_model", "trainable": true, "input_length": 140, "output_dim": 52, "activity_regularizer": null, "W_regularizer": null, "input_dim": 428669, "W_constraint": null, "init": "uniform", "mask_zero": false, "dropout": 0.2, "input_dtype": "int32"}, "class_name": "Embedding"}, {"config": {"padding": 5, "name": "zeropadding1d_1_tac_model", "trainable": true}, "class_name": "ZeroPadding1D"}, {"config": {"activity_regularizer": null, "b_constraint": null, "nb_filter": 200, "trainable": true, "input_length": null, "init": "uniform", "subsample_length": 1, "border_mode": "valid", "name": "convolution1d_1_tac_model", "b_regularizer": null, "W_constraint": null, "W_regularizer": null, "filter_length": 6, "activation": "relu", "input_dim": null, "bias": true}, "class_name": "Convolution1D"}, {"config": {"stride": 2, "name": "maxpooling1d_1_tac_model", "border_mode": "valid", "pool_length": 4, "trainable": true}, "class_name": "MaxPooling1D"}, {"config": {"activity_regularizer": null, "b_constraint": null, "nb_filter": 200, "trainable": true, "input_length": null, "init": "uniform", "subsample_length": 1, "border_mode": "valid", "name": "convolution1d_2_tac_model", "b_regularizer": null, "W_constraint": null, "W_regularizer": null, "filter_length": 6, "activation": "relu", "input_dim": null, "bias": true}, "class_name": "Convolution1D"}, {"config": {"stride": 66, "name": "maxpooling1d_2_tac_model", "border_mode": "valid", "pool_length": 66, "trainable": true}, "class_name": "MaxPooling1D"}, {"config": {"name": "flatten_1_tac_model", "trainable": true}, "class_name": "Flatten"}, {"config": {"activity_regularizer": null, "name": "dense_1_tac_model", "bias": true, "trainable": true, "output_dim": 200, "W_constraint": null, "W_regularizer": null, "input_dim": null, "init": "glorot_uniform", "b_regularizer": null, "activation": "linear", "b_constraint": null}, "class_name": "Dense"}, {"config": {"name": "dropout_1_tac_model", "p": 0.2, "trainable": true}, "class_name": "Dropout"}, {"config": {"name": "activation_1_tac_model", "activation": "relu", "trainable": true}, "class_name": "Activation"}, {"config": {"activity_regularizer": null, "name": "dense_2_tac_model", "bias": true, "trainable": true, "output_dim": 3, "W_constraint": null, "W_regularizer": null, "input_dim": null, "init": "glorot_uniform", "b_regularizer": null, "activation": "softmax", "b_constraint": null}, "class_name": "Dense"}], "class_name": "Sequential"}], "mode_type": "raw", "output_shape_type": "raw", "dot_axes": -1, "concat_axis": -1, "mode": "concat", "name": "merge_1", "output_shape": null}, "class_name": "Merge"}, {"config": {"activity_regularizer": null, "bias": true, "trainable": true, "init": "glorot_uniform", "name": "dense_1", "b_regularizer": null, "input_dim": null, "W_constraint": null, "W_regularizer": null, "output_dim": 256, "activation": "linear", "b_constraint": null}, "class_name": "Dense"}, {"config": {"name": "activation_1", "activation": "relu", "trainable": true}, "class_name": "Activation"}, {"config": {"activity_regularizer": null, "bias": true, "trainable": true, "init": "glorot_uniform", "name": "dense_2", "b_regularizer": null, "input_dim": null, "W_constraint": null, "W_regularizer": null, "output_dim": 3, "activation": "softmax", "b_constraint": null}, "class_name": "Dense"}], "class_name": "Sequential", "keras_version": "1.1.1"}