{"config": [{"config": {"mode": "concat", "dot_axes": -1, "name": "merge_1", "concat_axis": -1, "output_shape_type": "raw", "mode_type": "raw", "output_shape": null, "layers": [{"config": [{"config": {"batch_input_shape": [null, 140], "trainable": true, "init": "uniform", "activity_regularizer": null, "input_dim": 428669, "W_constraint": null, "name": "embedding_1_tac_model", "dropout": 0.2, "output_dim": 52, "input_length": 140, "W_regularizer": null, "mask_zero": false, "input_dtype": "int32"}, "class_name": "Embedding"}, {"config": {"padding": 5, "name": "zeropadding1d_1_tac_model", "trainable": true}, "class_name": "ZeroPadding1D"}, {"config": {"W_constraint": null, "name": "convolution1d_1_tac_model", "init": "uniform", "nb_filter": 200, "input_dim": null, "border_mode": "valid", "b_constraint": null, "activity_regularizer": null, "filter_length": 6, "bias": true, "subsample_length": 1, "input_length": null, "W_regularizer": null, "b_regularizer": null, "activation": "relu", "trainable": true}, "class_name": "Convolution1D"}, {"config": {"pool_length": 4, "border_mode": "valid", "trainable": true, "stride": 2, "name": "maxpooling1d_1_tac_model"}, "class_name": "MaxPooling1D"}, {"config": {"W_constraint": null, "name": "convolution1d_2_tac_model", "init": "uniform", "nb_filter": 200, "input_dim": null, "border_mode": "valid", "b_constraint": null, "activity_regularizer": null, "filter_length": 6, "bias": true, "subsample_length": 1, "input_length": null, "W_regularizer": null, "b_regularizer": null, "activation": "relu", "trainable": true}, "class_name": "Convolution1D"}], "class_name": "Sequential"}, {"config": [{"config": {"batch_input_shape": [null, 140], "trainable": true, "init": "uniform", "activity_regularizer": null, "input_dim": 1062158, "W_constraint": null, "name": "embedding_1_hul_model", "dropout": 0.2, "output_dim": 52, "input_length": 140, "W_regularizer": null, "mask_zero": false, "input_dtype": "int32"}, "class_name": "Embedding"}, {"config": {"padding": 5, "name": "zeropadding1d_1_hul_model", "trainable": true}, "class_name": "ZeroPadding1D"}, {"config": {"W_constraint": null, "name": "convolution1d_1_hul_model", "init": "uniform", "nb_filter": 200, "input_dim": null, "border_mode": "valid", "b_constraint": null, "activity_regularizer": null, "filter_length": 6, "bias": true, "subsample_length": 1, "input_length": null, "W_regularizer": null, "b_regularizer": null, "activation": "relu", "trainable": true}, "class_name": "Convolution1D"}, {"config": {"pool_length": 4, "border_mode": "valid", "trainable": true, "stride": 2, "name": "maxpooling1d_1_hul_model"}, "class_name": "MaxPooling1D"}, {"config": {"W_constraint": null, "name": "convolution1d_2_hul_model", "init": "uniform", "nb_filter": 200, "input_dim": null, "border_mode": "valid", "b_constraint": null, "activity_regularizer": null, "filter_length": 6, "bias": true, "subsample_length": 1, "input_length": null, "W_regularizer": null, "b_regularizer": null, "activation": "relu", "trainable": true}, "class_name": "Convolution1D"}], "class_name": "Sequential"}, {"config": [{"config": {"batch_input_shape": [null, 140], "trainable": true, "init": "uniform", "activity_regularizer": null, "input_dim": 1576890, "W_constraint": null, "name": "embedding_1_dai_model", "dropout": 0.2, "output_dim": 52, "input_length": 140, "W_regularizer": null, "mask_zero": false, "input_dtype": "int32"}, "class_name": "Embedding"}, {"config": {"padding": 5, "name": "zeropadding1d_1_dai_model", "trainable": true}, "class_name": "ZeroPadding1D"}, {"config": {"W_constraint": null, "name": "convolution1d_1_dai_model", "init": "uniform", "nb_filter": 200, "input_dim": null, "border_mode": "valid", "b_constraint": null, "activity_regularizer": null, "filter_length": 6, "bias": true, "subsample_length": 1, "input_length": null, "W_regularizer": null, "b_regularizer": null, "activation": "relu", "trainable": true}, "class_name": "Convolution1D"}, {"config": {"pool_length": 4, "border_mode": "valid", "trainable": true, "stride": 2, "name": "maxpooling1d_1_dai_model"}, "class_name": "MaxPooling1D"}, {"config": {"W_constraint": null, "name": "convolution1d_2_dai_model", "init": "uniform", "nb_filter": 200, "input_dim": null, "border_mode": "valid", "b_constraint": null, "activity_regularizer": null, "filter_length": 6, "bias": true, "subsample_length": 1, "input_length": null, "W_regularizer": null, "b_regularizer": null, "activation": "relu", "trainable": true}, "class_name": "Convolution1D"}], "class_name": "Sequential"}, {"config": [{"config": {"batch_input_shape": [null, 140], "trainable": true, "init": "uniform", "activity_regularizer": null, "input_dim": 428669, "W_constraint": null, "name": "embedding_1_semeval_model", "dropout": 0.2, "output_dim": 52, "input_length": 140, "W_regularizer": null, "mask_zero": false, "input_dtype": "int32"}, "class_name": "Embedding"}, {"config": {"padding": 5, "name": "zeropadding1d_1_semeval_model", "trainable": true}, "class_name": "ZeroPadding1D"}, {"config": {"W_constraint": null, "name": "convolution1d_1_semeval_model", "init": "uniform", "nb_filter": 200, "input_dim": null, "border_mode": "valid", "b_constraint": null, "activity_regularizer": null, "filter_length": 6, "bias": true, "subsample_length": 1, "input_length": null, "W_regularizer": null, "b_regularizer": null, "activation": "relu", "trainable": true}, "class_name": "Convolution1D"}, {"config": {"pool_length": 4, "border_mode": "valid", "trainable": true, "stride": 2, "name": "maxpooling1d_1_semeval_model"}, "class_name": "MaxPooling1D"}, {"config": {"W_constraint": null, "name": "convolution1d_2_semeval_model", "init": "uniform", "nb_filter": 200, "input_dim": null, "border_mode": "valid", "b_constraint": null, "activity_regularizer": null, "filter_length": 6, "bias": true, "subsample_length": 1, "input_length": null, "W_regularizer": null, "b_regularizer": null, "activation": "relu", "trainable": true}, "class_name": "Convolution1D"}], "class_name": "Sequential"}, {"config": [{"config": {"batch_input_shape": [null, 140], "trainable": true, "init": "uniform", "activity_regularizer": null, "input_dim": 428669, "W_constraint": null, "name": "embedding_17_mpq_model", "dropout": 0.2, "output_dim": 52, "input_length": 140, "W_regularizer": null, "mask_zero": false, "input_dtype": "int32"}, "class_name": "Embedding"}, {"config": {"padding": 5, "name": "zeropadding1d_17_mpq_model", "trainable": true}, "class_name": "ZeroPadding1D"}, {"config": {"W_constraint": null, "name": "convolution1d_33_mpq_model", "init": "uniform", "nb_filter": 200, "input_dim": null, "border_mode": "valid", "b_constraint": null, "activity_regularizer": null, "filter_length": 6, "bias": true, "subsample_length": 1, "input_length": null, "W_regularizer": null, "b_regularizer": null, "activation": "relu", "trainable": true}, "class_name": "Convolution1D"}, {"config": {"pool_length": 4, "border_mode": "valid", "trainable": true, "stride": 2, "name": "maxpooling1d_33_mpq_model"}, "class_name": "MaxPooling1D"}, {"config": {"W_constraint": null, "name": "convolution1d_34_mpq_model", "init": "uniform", "nb_filter": 200, "input_dim": null, "border_mode": "valid", "b_constraint": null, "activity_regularizer": null, "filter_length": 6, "bias": true, "subsample_length": 1, "input_length": null, "W_regularizer": null, "b_regularizer": null, "activation": "relu", "trainable": true}, "class_name": "Convolution1D"}], "class_name": "Sequential"}, {"config": [{"config": {"batch_input_shape": [null, 140], "trainable": true, "init": "uniform", "activity_regularizer": null, "input_dim": 1576890, "W_constraint": null, "name": "embedding_1_dil_model", "dropout": 0.2, "output_dim": 52, "input_length": 140, "W_regularizer": null, "mask_zero": false, "input_dtype": "int32"}, "class_name": "Embedding"}, {"config": {"padding": 5, "name": "zeropadding1d_1_dil_model", "trainable": true}, "class_name": "ZeroPadding1D"}, {"config": {"W_constraint": null, "name": "convolution1d_1_dil_model", "init": "uniform", "nb_filter": 200, "input_dim": null, "border_mode": "valid", "b_constraint": null, "activity_regularizer": null, "filter_length": 6, "bias": true, "subsample_length": 1, "input_length": null, "W_regularizer": null, "b_regularizer": null, "activation": "relu", "trainable": true}, "class_name": "Convolution1D"}, {"config": {"pool_length": 4, "border_mode": "valid", "trainable": true, "stride": 2, "name": "maxpooling1d_1_dil_model"}, "class_name": "MaxPooling1D"}, {"config": {"W_constraint": null, "name": "convolution1d_2_dil_model", "init": "uniform", "nb_filter": 200, "input_dim": null, "border_mode": "valid", "b_constraint": null, "activity_regularizer": null, "filter_length": 6, "bias": true, "subsample_length": 1, "input_length": null, "W_regularizer": null, "b_regularizer": null, "activation": "relu", "trainable": true}, "class_name": "Convolution1D"}], "class_name": "Sequential"}]}, "class_name": "Merge"}, {"config": {"name": "flatten_1", "trainable": true}, "class_name": "Flatten"}, {"config": {"W_constraint": null, "trainable": true, "init": "glorot_uniform", "activity_regularizer": null, "input_dim": null, "b_constraint": null, "bias": true, "output_dim": 200, "name": "dense_1", "W_regularizer": null, "activation": "linear", "b_regularizer": null}, "class_name": "Dense"}, {"config": {"p": 0.2, "name": "dropout_1", "trainable": true}, "class_name": "Dropout"}, {"config": {"trainable": true, "name": "activation_1", "activation": "relu"}, "class_name": "Activation"}, {"config": {"W_constraint": null, "trainable": true, "init": "glorot_uniform", "activity_regularizer": null, "input_dim": null, "b_constraint": null, "bias": true, "output_dim": 3, "name": "dense_2", "W_regularizer": null, "activation": "softmax", "b_regularizer": null}, "class_name": "Dense"}], "class_name": "Sequential", "keras_version": "1.1.1"}