{"config": [{"config": {"output_shape": null, "concat_axis": -1, "dot_axes": -1, "output_shape_type": "raw", "name": "merge_1", "layers": [{"config": [{"config": {"init": "uniform", "mask_zero": false, "trainable": true, "name": "embedding_1_tac_model", "input_dim": 428669, "activity_regularizer": null, "input_dtype": "int32", "output_dim": 52, "dropout": 0.2, "W_regularizer": null, "batch_input_shape": [null, 140], "input_length": 140, "W_constraint": null}, "class_name": "Embedding"}, {"config": {"trainable": true, "name": "zeropadding1d_1_tac_model", "padding": 5}, "class_name": "ZeroPadding1D"}, {"config": {"bias": true, "init": "uniform", "trainable": true, "b_regularizer": null, "name": "convolution1d_1_tac_model", "input_dim": null, "b_constraint": null, "border_mode": "valid", "nb_filter": 200, "activity_regularizer": null, "W_constraint": null, "subsample_length": 1, "W_regularizer": null, "filter_length": 6, "input_length": null, "activation": "relu"}, "class_name": "Convolution1D"}, {"config": {"trainable": true, "pool_length": 4, "name": "maxpooling1d_1_tac_model", "border_mode": "valid", "stride": 2}, "class_name": "MaxPooling1D"}, {"config": {"bias": true, "init": "uniform", "trainable": true, "b_regularizer": null, "name": "convolution1d_2_tac_model", "input_dim": null, "b_constraint": null, "border_mode": "valid", "nb_filter": 200, "activity_regularizer": null, "W_constraint": null, "subsample_length": 1, "W_regularizer": null, "filter_length": 6, "input_length": null, "activation": "relu"}, "class_name": "Convolution1D"}], "class_name": "Sequential"}, {"config": [{"config": {"init": "uniform", "mask_zero": false, "trainable": true, "name": "embedding_1_dil_model", "input_dim": 1576890, "activity_regularizer": null, "input_dtype": "int32", "output_dim": 52, "dropout": 0.2, "W_regularizer": null, "batch_input_shape": [null, 140], "input_length": 140, "W_constraint": null}, "class_name": "Embedding"}, {"config": {"trainable": true, "name": "zeropadding1d_1_dil_model", "padding": 5}, "class_name": "ZeroPadding1D"}, {"config": {"bias": true, "init": "uniform", "trainable": true, "b_regularizer": null, "name": "convolution1d_1_dil_model", "input_dim": null, "b_constraint": null, "border_mode": "valid", "nb_filter": 200, "activity_regularizer": null, "W_constraint": null, "subsample_length": 1, "W_regularizer": null, "filter_length": 6, "input_length": null, "activation": "relu"}, "class_name": "Convolution1D"}, {"config": {"trainable": true, "pool_length": 4, "name": "maxpooling1d_1_dil_model", "border_mode": "valid", "stride": 2}, "class_name": "MaxPooling1D"}, {"config": {"bias": true, "init": "uniform", "trainable": true, "b_regularizer": null, "name": "convolution1d_2_dil_model", "input_dim": null, "b_constraint": null, "border_mode": "valid", "nb_filter": 200, "activity_regularizer": null, "W_constraint": null, "subsample_length": 1, "W_regularizer": null, "filter_length": 6, "input_length": null, "activation": "relu"}, "class_name": "Convolution1D"}], "class_name": "Sequential"}, {"config": [{"config": {"init": "uniform", "mask_zero": false, "trainable": true, "name": "embedding_17_mpq_model", "input_dim": 428669, "activity_regularizer": null, "input_dtype": "int32", "output_dim": 52, "dropout": 0.2, "W_regularizer": null, "batch_input_shape": [null, 140], "input_length": 140, "W_constraint": null}, "class_name": "Embedding"}, {"config": {"trainable": true, "name": "zeropadding1d_17_mpq_model", "padding": 5}, "class_name": "ZeroPadding1D"}, {"config": {"bias": true, "init": "uniform", "trainable": true, "b_regularizer": null, "name": "convolution1d_33_mpq_model", "input_dim": null, "b_constraint": null, "border_mode": "valid", "nb_filter": 200, "activity_regularizer": null, "W_constraint": null, "subsample_length": 1, "W_regularizer": null, "filter_length": 6, "input_length": null, "activation": "relu"}, "class_name": "Convolution1D"}, {"config": {"trainable": true, "pool_length": 4, "name": "maxpooling1d_33_mpq_model", "border_mode": "valid", "stride": 2}, "class_name": "MaxPooling1D"}, {"config": {"bias": true, "init": "uniform", "trainable": true, "b_regularizer": null, "name": "convolution1d_34_mpq_model", "input_dim": null, "b_constraint": null, "border_mode": "valid", "nb_filter": 200, "activity_regularizer": null, "W_constraint": null, "subsample_length": 1, "W_regularizer": null, "filter_length": 6, "input_length": null, "activation": "relu"}, "class_name": "Convolution1D"}], "class_name": "Sequential"}, {"config": [{"config": {"init": "uniform", "mask_zero": false, "trainable": true, "name": "embedding_1_semeval_model", "input_dim": 428669, "activity_regularizer": null, "input_dtype": "int32", "output_dim": 52, "dropout": 0.2, "W_regularizer": null, "batch_input_shape": [null, 140], "input_length": 140, "W_constraint": null}, "class_name": "Embedding"}, {"config": {"trainable": true, "name": "zeropadding1d_1_semeval_model", "padding": 5}, "class_name": "ZeroPadding1D"}, {"config": {"bias": true, "init": "uniform", "trainable": true, "b_regularizer": null, "name": "convolution1d_1_semeval_model", "input_dim": null, "b_constraint": null, "border_mode": "valid", "nb_filter": 200, "activity_regularizer": null, "W_constraint": null, "subsample_length": 1, "W_regularizer": null, "filter_length": 6, "input_length": null, "activation": "relu"}, "class_name": "Convolution1D"}, {"config": {"trainable": true, "pool_length": 4, "name": "maxpooling1d_1_semeval_model", "border_mode": "valid", "stride": 2}, "class_name": "MaxPooling1D"}, {"config": {"bias": true, "init": "uniform", "trainable": true, "b_regularizer": null, "name": "convolution1d_2_semeval_model", "input_dim": null, "b_constraint": null, "border_mode": "valid", "nb_filter": 200, "activity_regularizer": null, "W_constraint": null, "subsample_length": 1, "W_regularizer": null, "filter_length": 6, "input_length": null, "activation": "relu"}, "class_name": "Convolution1D"}], "class_name": "Sequential"}, {"config": [{"config": {"init": "uniform", "mask_zero": false, "trainable": true, "name": "embedding_1_hul_model", "input_dim": 1062158, "activity_regularizer": null, "input_dtype": "int32", "output_dim": 52, "dropout": 0.2, "W_regularizer": null, "batch_input_shape": [null, 140], "input_length": 140, "W_constraint": null}, "class_name": "Embedding"}, {"config": {"trainable": true, "name": "zeropadding1d_1_hul_model", "padding": 5}, "class_name": "ZeroPadding1D"}, {"config": {"bias": true, "init": "uniform", "trainable": true, "b_regularizer": null, "name": "convolution1d_1_hul_model", "input_dim": null, "b_constraint": null, "border_mode": "valid", "nb_filter": 200, "activity_regularizer": null, "W_constraint": null, "subsample_length": 1, "W_regularizer": null, "filter_length": 6, "input_length": null, "activation": "relu"}, "class_name": "Convolution1D"}, {"config": {"trainable": true, "pool_length": 4, "name": "maxpooling1d_1_hul_model", "border_mode": "valid", "stride": 2}, "class_name": "MaxPooling1D"}, {"config": {"bias": true, "init": "uniform", "trainable": true, "b_regularizer": null, "name": "convolution1d_2_hul_model", "input_dim": null, "b_constraint": null, "border_mode": "valid", "nb_filter": 200, "activity_regularizer": null, "W_constraint": null, "subsample_length": 1, "W_regularizer": null, "filter_length": 6, "input_length": null, "activation": "relu"}, "class_name": "Convolution1D"}], "class_name": "Sequential"}, {"config": [{"config": {"init": "uniform", "mask_zero": false, "trainable": true, "name": "embedding_1_dai_model", "input_dim": 1576890, "activity_regularizer": null, "input_dtype": "int32", "output_dim": 52, "dropout": 0.2, "W_regularizer": null, "batch_input_shape": [null, 140], "input_length": 140, "W_constraint": null}, "class_name": "Embedding"}, {"config": {"trainable": true, "name": "zeropadding1d_1_dai_model", "padding": 5}, "class_name": "ZeroPadding1D"}, {"config": {"bias": true, "init": "uniform", "trainable": true, "b_regularizer": null, "name": "convolution1d_1_dai_model", "input_dim": null, "b_constraint": null, "border_mode": "valid", "nb_filter": 200, "activity_regularizer": null, "W_constraint": null, "subsample_length": 1, "W_regularizer": null, "filter_length": 6, "input_length": null, "activation": "relu"}, "class_name": "Convolution1D"}, {"config": {"trainable": true, "pool_length": 4, "name": "maxpooling1d_1_dai_model", "border_mode": "valid", "stride": 2}, "class_name": "MaxPooling1D"}, {"config": {"bias": true, "init": "uniform", "trainable": true, "b_regularizer": null, "name": "convolution1d_2_dai_model", "input_dim": null, "b_constraint": null, "border_mode": "valid", "nb_filter": 200, "activity_regularizer": null, "W_constraint": null, "subsample_length": 1, "W_regularizer": null, "filter_length": 6, "input_length": null, "activation": "relu"}, "class_name": "Convolution1D"}], "class_name": "Sequential"}], "mode": "concat", "mode_type": "raw"}, "class_name": "Merge"}, {"config": {"trainable": true, "name": "flatten_1"}, "class_name": "Flatten"}, {"config": {"bias": true, "init": "glorot_uniform", "trainable": true, "name": "dense_1", "input_dim": null, "b_constraint": null, "activity_regularizer": null, "W_constraint": null, "output_dim": 200, "W_regularizer": null, "b_regularizer": null, "activation": "linear"}, "class_name": "Dense"}, {"config": {"trainable": true, "name": "dropout_1", "p": 0.2}, "class_name": "Dropout"}, {"config": {"trainable": true, "name": "activation_1", "activation": "relu"}, "class_name": "Activation"}, {"config": {"bias": true, "init": "glorot_uniform", "trainable": true, "name": "dense_2", "input_dim": null, "b_constraint": null, "activity_regularizer": null, "W_constraint": null, "output_dim": 3, "W_regularizer": null, "b_regularizer": null, "activation": "softmax"}, "class_name": "Dense"}], "class_name": "Sequential", "keras_version": "1.1.1"}