{"keras_version": "1.1.1", "config": [{"config": {"W_regularizer": null, "init": "uniform", "batch_input_shape": [null, 140], "input_length": 140, "activity_regularizer": null, "dropout": 0.2, "output_dim": 52, "input_dim": 1062158, "name": "embedding_1", "input_dtype": "int32", "trainable": true, "W_constraint": null, "mask_zero": false}, "class_name": "Embedding"}, {"config": {"name": "zeropadding1d_1", "padding": 5, "trainable": true}, "class_name": "ZeroPadding1D"}, {"config": {"W_regularizer": null, "init": "uniform", "nb_filter": 200, "b_regularizer": null, "input_length": null, "activity_regularizer": null, "filter_length": 6, "b_constraint": null, "input_dim": null, "name": "convolution1d_1", "trainable": true, "bias": true, "W_constraint": null, "subsample_length": 1, "border_mode": "valid", "activation": "relu"}, "class_name": "Convolution1D"}, {"config": {"name": "maxpooling1d_1", "stride": 2, "pool_length": 4, "border_mode": "valid", "trainable": true}, "class_name": "MaxPooling1D"}, {"config": {"W_regularizer": null, "init": "uniform", "nb_filter": 200, "b_regularizer": null, "input_length": null, "activity_regularizer": null, "filter_length": 6, "b_constraint": null, "input_dim": null, "name": "convolution1d_2", "trainable": true, "bias": true, "W_constraint": null, "subsample_length": 1, "border_mode": "valid", "activation": "relu"}, "class_name": "Convolution1D"}, {"config": {"name": "maxpooling1d_2", "stride": 66, "pool_length": 66, "border_mode": "valid", "trainable": true}, "class_name": "MaxPooling1D"}, {"config": {"name": "flatten_1", "trainable": true}, "class_name": "Flatten"}, {"config": {"b_regularizer": null, "W_regularizer": null, "init": "glorot_uniform", "activity_regularizer": null, "b_constraint": null, "output_dim": 200, "input_dim": null, "name": "dense_1", "trainable": true, "bias": true, "W_constraint": null, "activation": "linear"}, "class_name": "Dense"}, {"config": {"p": 0.2, "name": "dropout_1", "trainable": true}, "class_name": "Dropout"}, {"config": {"name": "activation_1", "trainable": true, "activation": "relu"}, "class_name": "Activation"}, {"config": {"b_regularizer": null, "W_regularizer": null, "init": "glorot_uniform", "activity_regularizer": null, "b_constraint": null, "output_dim": 3, "input_dim": null, "name": "dense_2", "trainable": true, "bias": true, "W_constraint": null, "activation": "softmax"}, "class_name": "Dense"}], "class_name": "Sequential"}