{"class_name": "Sequential", "keras_version": "1.1.0", "config": [{"class_name": "Embedding", "config": {"input_dim": 2950660, "W_regularizer": null, "name": "embedding_1", "init": "uniform", "input_dtype": "int32", "dropout": 0.2, "batch_input_shape": [null, 140], "activity_regularizer": null, "W_constraint": null, "output_dim": 52, "input_length": 140, "mask_zero": false, "trainable": true}}, {"class_name": "ZeroPadding1D", "config": {"trainable": true, "name": "zeropadding1d_1", "padding": 5}}, {"class_name": "Convolution1D", "config": {"border_mode": "valid", "nb_filter": 200, "trainable": true, "name": "convolution1d_1", "subsample_length": 1, "activation": "relu", "init": "uniform", "b_regularizer": null, "filter_length": 6, "activity_regularizer": null, "bias": true, "b_constraint": null, "W_constraint": null, "input_length": null, "W_regularizer": null, "input_dim": null}}, {"class_name": "MaxPooling1D", "config": {"border_mode": "valid", "pool_length": 4, "trainable": true, "name": "maxpooling1d_1", "stride": 2}}, {"class_name": "Convolution1D", "config": {"border_mode": "valid", "nb_filter": 200, "trainable": true, "name": "convolution1d_2", "subsample_length": 1, "activation": "relu", "init": "uniform", "b_regularizer": null, "filter_length": 6, "activity_regularizer": null, "bias": true, "b_constraint": null, "W_constraint": null, "input_length": null, "W_regularizer": null, "input_dim": null}}, {"class_name": "MaxPooling1D", "config": {"border_mode": "valid", "pool_length": 66, "trainable": true, "name": "maxpooling1d_2", "stride": 66}}, {"class_name": "Flatten", "config": {"trainable": true, "name": "flatten_1"}}, {"class_name": "Dense", "config": {"input_dim": null, "trainable": true, "name": "dense_1", "init": "glorot_uniform", "activation": "linear", "b_regularizer": null, "activity_regularizer": null, "bias": true, "b_constraint": null, "W_constraint": null, "output_dim": 200, "W_regularizer": null}}, {"class_name": "Dropout", "config": {"p": 0.2, "trainable": true, "name": "dropout_1"}}, {"class_name": "Activation", "config": {"activation": "relu", "trainable": true, "name": "activation_1"}}, {"class_name": "Dense", "config": {"input_dim": null, "trainable": true, "name": "dense_2", "init": "glorot_uniform", "activation": "softmax", "b_regularizer": null, "activity_regularizer": null, "bias": true, "b_constraint": null, "W_constraint": null, "output_dim": 3, "W_regularizer": null}}]}