{"keras_version": "1.1.1", "class_name": "Sequential", "config": [{"class_name": "Merge", "config": {"output_shape_type": "raw", "name": "merge_1", "dot_axes": -1, "layers": [{"class_name": "Sequential", "config": [{"class_name": "Embedding", "config": {"name": "embedding_1_dai_model", "input_dtype": "int32", "batch_input_shape": [null, 140], "trainable": true, "activity_regularizer": null, "W_constraint": null, "dropout": 0.2, "mask_zero": false, "W_regularizer": null, "init": "uniform", "input_dim": 1576890, "output_dim": 52, "input_length": 140}}, {"class_name": "ZeroPadding1D", "config": {"trainable": true, "name": "zeropadding1d_1_dai_model", "padding": 5}}, {"class_name": "Convolution1D", "config": {"name": "convolution1d_1_dai_model", "activity_regularizer": null, "input_length": null, "subsample_length": 1, "b_regularizer": null, "border_mode": "valid", "W_constraint": null, "trainable": true, "W_regularizer": null, "nb_filter": 200, "b_constraint": null, "filter_length": 6, "input_dim": null, "init": "uniform", "bias": true, "activation": "relu"}}, {"class_name": "MaxPooling1D", "config": {"stride": 2, "name": "maxpooling1d_1_dai_model", "border_mode": "valid", "pool_length": 4, "trainable": true}}, {"class_name": "Convolution1D", "config": {"name": "convolution1d_2_dai_model", "activity_regularizer": null, "input_length": null, "subsample_length": 1, "b_regularizer": null, "border_mode": "valid", "W_constraint": null, "trainable": true, "W_regularizer": null, "nb_filter": 200, "b_constraint": null, "filter_length": 6, "input_dim": null, "init": "uniform", "bias": true, "activation": "relu"}}]}, {"class_name": "Sequential", "config": [{"class_name": "Embedding", "config": {"name": "embedding_1_dil_model", "input_dtype": "int32", "batch_input_shape": [null, 140], "trainable": true, "activity_regularizer": null, "W_constraint": null, "dropout": 0.2, "mask_zero": false, "W_regularizer": null, "init": "uniform", "input_dim": 1576890, "output_dim": 52, "input_length": 140}}, {"class_name": "ZeroPadding1D", "config": {"trainable": true, "name": "zeropadding1d_1_dil_model", "padding": 5}}, {"class_name": "Convolution1D", "config": {"name": "convolution1d_1_dil_model", "activity_regularizer": null, "input_length": null, "subsample_length": 1, "b_regularizer": null, "border_mode": "valid", "W_constraint": null, "trainable": true, "W_regularizer": null, "nb_filter": 200, "b_constraint": null, "filter_length": 6, "input_dim": null, "init": "uniform", "bias": true, "activation": "relu"}}, {"class_name": "MaxPooling1D", "config": {"stride": 2, "name": "maxpooling1d_1_dil_model", "border_mode": "valid", "pool_length": 4, "trainable": true}}, {"class_name": "Convolution1D", "config": {"name": "convolution1d_2_dil_model", "activity_regularizer": null, "input_length": null, "subsample_length": 1, "b_regularizer": null, "border_mode": "valid", "W_constraint": null, "trainable": true, "W_regularizer": null, "nb_filter": 200, "b_constraint": null, "filter_length": 6, "input_dim": null, "init": "uniform", "bias": true, "activation": "relu"}}]}, {"class_name": "Sequential", "config": [{"class_name": "Embedding", "config": {"name": "embedding_17_mpq_model", "input_dtype": "int32", "batch_input_shape": [null, 140], "trainable": true, "activity_regularizer": null, "W_constraint": null, "dropout": 0.2, "mask_zero": false, "W_regularizer": null, "init": "uniform", "input_dim": 428669, "output_dim": 52, "input_length": 140}}, {"class_name": "ZeroPadding1D", "config": {"trainable": true, "name": "zeropadding1d_17_mpq_model", "padding": 5}}, {"class_name": "Convolution1D", "config": {"name": "convolution1d_33_mpq_model", "activity_regularizer": null, "input_length": null, "subsample_length": 1, "b_regularizer": null, "border_mode": "valid", "W_constraint": null, "trainable": true, "W_regularizer": null, "nb_filter": 200, "b_constraint": null, "filter_length": 6, "input_dim": null, "init": "uniform", "bias": true, "activation": "relu"}}, {"class_name": "MaxPooling1D", "config": {"stride": 2, "name": "maxpooling1d_33_mpq_model", "border_mode": "valid", "pool_length": 4, "trainable": true}}, {"class_name": "Convolution1D", "config": {"name": "convolution1d_34_mpq_model", "activity_regularizer": null, "input_length": null, "subsample_length": 1, "b_regularizer": null, "border_mode": "valid", "W_constraint": null, "trainable": true, "W_regularizer": null, "nb_filter": 200, "b_constraint": null, "filter_length": 6, "input_dim": null, "init": "uniform", "bias": true, "activation": "relu"}}]}, {"class_name": "Sequential", "config": [{"class_name": "Embedding", "config": {"name": "embedding_1_semeval_model", "input_dtype": "int32", "batch_input_shape": [null, 140], "trainable": true, "activity_regularizer": null, "W_constraint": null, "dropout": 0.2, "mask_zero": false, "W_regularizer": null, "init": "uniform", "input_dim": 428669, "output_dim": 52, "input_length": 140}}, {"class_name": "ZeroPadding1D", "config": {"trainable": true, "name": "zeropadding1d_1_semeval_model", "padding": 5}}, {"class_name": "Convolution1D", "config": {"name": "convolution1d_1_semeval_model", "activity_regularizer": null, "input_length": null, "subsample_length": 1, "b_regularizer": null, "border_mode": "valid", "W_constraint": null, "trainable": true, "W_regularizer": null, "nb_filter": 200, "b_constraint": null, "filter_length": 6, "input_dim": null, "init": "uniform", "bias": true, "activation": "relu"}}, {"class_name": "MaxPooling1D", "config": {"stride": 2, "name": "maxpooling1d_1_semeval_model", "border_mode": "valid", "pool_length": 4, "trainable": true}}, {"class_name": "Convolution1D", "config": {"name": "convolution1d_2_semeval_model", "activity_regularizer": null, "input_length": null, "subsample_length": 1, "b_regularizer": null, "border_mode": "valid", "W_constraint": null, "trainable": true, "W_regularizer": null, "nb_filter": 200, "b_constraint": null, "filter_length": 6, "input_dim": null, "init": "uniform", "bias": true, "activation": "relu"}}]}, {"class_name": "Sequential", "config": [{"class_name": "Embedding", "config": {"name": "embedding_1_tac_model", "input_dtype": "int32", "batch_input_shape": [null, 140], "trainable": true, "activity_regularizer": null, "W_constraint": null, "dropout": 0.2, "mask_zero": false, "W_regularizer": null, "init": "uniform", "input_dim": 428669, "output_dim": 52, "input_length": 140}}, {"class_name": "ZeroPadding1D", "config": {"trainable": true, "name": "zeropadding1d_1_tac_model", "padding": 5}}, {"class_name": "Convolution1D", "config": {"name": "convolution1d_1_tac_model", "activity_regularizer": null, "input_length": null, "subsample_length": 1, "b_regularizer": null, "border_mode": "valid", "W_constraint": null, "trainable": true, "W_regularizer": null, "nb_filter": 200, "b_constraint": null, "filter_length": 6, "input_dim": null, "init": "uniform", "bias": true, "activation": "relu"}}, {"class_name": "MaxPooling1D", "config": {"stride": 2, "name": "maxpooling1d_1_tac_model", "border_mode": "valid", "pool_length": 4, "trainable": true}}, {"class_name": "Convolution1D", "config": {"name": "convolution1d_2_tac_model", "activity_regularizer": null, "input_length": null, "subsample_length": 1, "b_regularizer": null, "border_mode": "valid", "W_constraint": null, "trainable": true, "W_regularizer": null, "nb_filter": 200, "b_constraint": null, "filter_length": 6, "input_dim": null, "init": "uniform", "bias": true, "activation": "relu"}}]}], "concat_axis": -1, "mode_type": "raw", "output_shape": null, "mode": "concat"}}, {"class_name": "Flatten", "config": {"trainable": true, "name": "flatten_1"}}, {"class_name": "Dense", "config": {"name": "dense_1", "trainable": true, "activity_regularizer": null, "W_constraint": null, "W_regularizer": null, "b_regularizer": null, "b_constraint": null, "input_dim": null, "activation": "linear", "init": "glorot_uniform", "bias": true, "output_dim": 200}}, {"class_name": "Dropout", "config": {"trainable": true, "name": "dropout_1", "p": 0.2}}, {"class_name": "Activation", "config": {"trainable": true, "name": "activation_1", "activation": "relu"}}, {"class_name": "Dense", "config": {"name": "dense_2", "trainable": true, "activity_regularizer": null, "W_constraint": null, "W_regularizer": null, "b_regularizer": null, "b_constraint": null, "input_dim": null, "activation": "softmax", "init": "glorot_uniform", "bias": true, "output_dim": 3}}]}