{"class_name": "Sequential", "config": [{"class_name": "Embedding", "config": {"activity_regularizer": null, "mask_zero": false, "input_dim": 1353244, "output_dim": 52, "input_length": 140, "batch_input_shape": [null, 140], "dropout": 0.2, "init": "uniform", "W_constraint": null, "name": "embedding_1", "input_dtype": "int32", "W_regularizer": null, "trainable": true}}, {"class_name": "ZeroPadding1D", "config": {"name": "zeropadding1d_1", "padding": 5, "trainable": true}}, {"class_name": "Convolution1D", "config": {"activity_regularizer": null, "activation": "relu", "trainable": true, "subsample_length": 1, "border_mode": "valid", "input_dim": null, "input_length": null, "filter_length": 6, "bias": true, "init": "uniform", "W_constraint": null, "name": "convolution1d_1", "nb_filter": 200, "W_regularizer": null, "b_constraint": null, "b_regularizer": null}}, {"class_name": "MaxPooling1D", "config": {"name": "maxpooling1d_1", "pool_length": 4, "stride": 2, "border_mode": "valid", "trainable": true}}, {"class_name": "Convolution1D", "config": {"activity_regularizer": null, "activation": "relu", "trainable": true, "subsample_length": 1, "border_mode": "valid", "input_dim": null, "input_length": null, "filter_length": 6, "bias": true, "init": "uniform", "W_constraint": null, "name": "convolution1d_2", "nb_filter": 200, "W_regularizer": null, "b_constraint": null, "b_regularizer": null}}, {"class_name": "MaxPooling1D", "config": {"name": "maxpooling1d_2", "pool_length": 66, "stride": 66, "border_mode": "valid", "trainable": true}}, {"class_name": "Flatten", "config": {"name": "flatten_1", "trainable": true}}, {"class_name": "Dense", "config": {"activity_regularizer": null, "activation": "linear", "trainable": true, "output_dim": 200, "W_constraint": null, "bias": true, "init": "glorot_uniform", "input_dim": null, "name": "dense_1", "b_constraint": null, "W_regularizer": null, "b_regularizer": null}}, {"class_name": "Dropout", "config": {"name": "dropout_1", "p": 0.2, "trainable": true}}, {"class_name": "Activation", "config": {"name": "activation_1", "activation": "relu", "trainable": true}}, {"class_name": "Dense", "config": {"activity_regularizer": null, "activation": "softmax", "trainable": true, "output_dim": 3, "W_constraint": null, "bias": true, "init": "glorot_uniform", "input_dim": null, "name": "dense_2", "b_constraint": null, "W_regularizer": null, "b_regularizer": null}}], "keras_version": "1.1.0"}