{"class_name": "Sequential", "config": [{"class_name": "Merge", "config": {"name": "merge_1", "dot_axes": -1, "mode_type": "raw", "output_shape": null, "concat_axis": -1, "layers": [{"class_name": "Sequential", "config": [{"class_name": "Embedding", "config": {"init": "uniform", "activity_regularizer": null, "input_length": 140, "dropout": 0.2, "input_dtype": "int32", "name": "embedding_1_tac_model", "output_dim": 52, "mask_zero": false, "batch_input_shape": [null, 140], "W_regularizer": null, "input_dim": 428669, "trainable": true, "W_constraint": null}}, {"class_name": "ZeroPadding1D", "config": {"name": "zeropadding1d_1_tac_model", "padding": 5, "trainable": true}}, {"class_name": "Convolution1D", "config": {"nb_filter": 200, "activity_regularizer": null, "b_constraint": null, "bias": true, "init": "uniform", "b_regularizer": null, "filter_length": 6, "border_mode": "valid", "activation": "relu", "input_dim": null, "W_regularizer": null, "input_length": null, "subsample_length": 1, "trainable": true, "W_constraint": null, "name": "convolution1d_1_tac_model"}}, {"class_name": "MaxPooling1D", "config": {"name": "maxpooling1d_1_tac_model", "border_mode": "valid", "trainable": true, "stride": 2, "pool_length": 4}}, {"class_name": "Convolution1D", "config": {"nb_filter": 200, "activity_regularizer": null, "b_constraint": null, "bias": true, "init": "uniform", "b_regularizer": null, "filter_length": 6, "border_mode": "valid", "activation": "relu", "input_dim": null, "W_regularizer": null, "input_length": null, "subsample_length": 1, "trainable": true, "W_constraint": null, "name": "convolution1d_2_tac_model"}}, {"class_name": "MaxPooling1D", "config": {"name": "maxpooling1d_2_tac_model", "border_mode": "valid", "trainable": true, "stride": 66, "pool_length": 66}}, {"class_name": "Flatten", "config": {"name": "flatten_1_tac_model", "trainable": true}}, {"class_name": "Dense", "config": {"init": "glorot_uniform", "activity_regularizer": null, "b_constraint": null, "bias": true, "b_regularizer": null, "name": "dense_1_tac_model", "output_dim": 200, "activation": "linear", "W_regularizer": null, "input_dim": null, "trainable": true, "W_constraint": null}}, {"class_name": "Dropout", "config": {"name": "dropout_1_tac_model", "p": 0.2, "trainable": true}}, {"class_name": "Activation", "config": {"name": "activation_1_tac_model", "activation": "relu", "trainable": true}}, {"class_name": "Dense", "config": {"init": "glorot_uniform", "activity_regularizer": null, "b_constraint": null, "bias": true, "b_regularizer": null, "name": "dense_2_tac_model", "output_dim": 3, "activation": "softmax", "W_regularizer": null, "input_dim": null, "trainable": true, "W_constraint": null}}]}, {"class_name": "Sequential", "config": [{"class_name": "Embedding", "config": {"init": "uniform", "activity_regularizer": null, "input_length": 140, "dropout": 0.2, "input_dtype": "int32", "name": "embedding_1_dai_model", "output_dim": 52, "mask_zero": false, "batch_input_shape": [null, 140], "W_regularizer": null, "input_dim": 1576890, "trainable": true, "W_constraint": null}}, {"class_name": "ZeroPadding1D", "config": {"name": "zeropadding1d_1_dai_model", "padding": 5, "trainable": true}}, {"class_name": "Convolution1D", "config": {"nb_filter": 200, "activity_regularizer": null, "b_constraint": null, "bias": true, "init": "uniform", "b_regularizer": null, "filter_length": 6, "border_mode": "valid", "activation": "relu", "input_dim": null, "W_regularizer": null, "input_length": null, "subsample_length": 1, "trainable": true, "W_constraint": null, "name": "convolution1d_1_dai_model"}}, {"class_name": "MaxPooling1D", "config": {"name": "maxpooling1d_1_dai_model", "border_mode": "valid", "trainable": true, "stride": 2, "pool_length": 4}}, {"class_name": "Convolution1D", "config": {"nb_filter": 200, "activity_regularizer": null, "b_constraint": null, "bias": true, "init": "uniform", "b_regularizer": null, "filter_length": 6, "border_mode": "valid", "activation": "relu", "input_dim": null, "W_regularizer": null, "input_length": null, "subsample_length": 1, "trainable": true, "W_constraint": null, "name": "convolution1d_2_dai_model"}}, {"class_name": "MaxPooling1D", "config": {"name": "maxpooling1d_2_dai_model", "border_mode": "valid", "trainable": true, "stride": 66, "pool_length": 66}}, {"class_name": "Flatten", "config": {"name": "flatten_1_dai_model", "trainable": true}}, {"class_name": "Dense", "config": {"init": "glorot_uniform", "activity_regularizer": null, "b_constraint": null, "bias": true, "b_regularizer": null, "name": "dense_1_dai_model", "output_dim": 200, "activation": "linear", "W_regularizer": null, "input_dim": null, "trainable": true, "W_constraint": null}}, {"class_name": "Dropout", "config": {"name": "dropout_1_dai_model", "p": 0.2, "trainable": true}}, {"class_name": "Activation", "config": {"name": "activation_1_dai_model", "activation": "relu", "trainable": true}}, {"class_name": "Dense", "config": {"init": "glorot_uniform", "activity_regularizer": null, "b_constraint": null, "bias": true, "b_regularizer": null, "name": "dense_2_dai_model", "output_dim": 3, "activation": "softmax", "W_regularizer": null, "input_dim": null, "trainable": true, "W_constraint": null}}]}, {"class_name": "Sequential", "config": [{"class_name": "Embedding", "config": {"init": "uniform", "activity_regularizer": null, "input_length": 140, "dropout": 0.2, "input_dtype": "int32", "name": "embedding_1_semeval_model", "output_dim": 52, "mask_zero": false, "batch_input_shape": [null, 140], "W_regularizer": null, "input_dim": 428669, "trainable": true, "W_constraint": null}}, {"class_name": "ZeroPadding1D", "config": {"name": "zeropadding1d_1_semeval_model", "padding": 5, "trainable": true}}, {"class_name": "Convolution1D", "config": {"nb_filter": 200, "activity_regularizer": null, "b_constraint": null, "bias": true, "init": "uniform", "b_regularizer": null, "filter_length": 6, "border_mode": "valid", "activation": "relu", "input_dim": null, "W_regularizer": null, "input_length": null, "subsample_length": 1, "trainable": true, "W_constraint": null, "name": "convolution1d_1_semeval_model"}}, {"class_name": "MaxPooling1D", "config": {"name": "maxpooling1d_1_semeval_model", "border_mode": "valid", "trainable": true, "stride": 2, "pool_length": 4}}, {"class_name": "Convolution1D", "config": {"nb_filter": 200, "activity_regularizer": null, "b_constraint": null, "bias": true, "init": "uniform", "b_regularizer": null, "filter_length": 6, "border_mode": "valid", "activation": "relu", "input_dim": null, "W_regularizer": null, "input_length": null, "subsample_length": 1, "trainable": true, "W_constraint": null, "name": "convolution1d_2_semeval_model"}}, {"class_name": "MaxPooling1D", "config": {"name": "maxpooling1d_2_semeval_model", "border_mode": "valid", "trainable": true, "stride": 66, "pool_length": 66}}, {"class_name": "Flatten", "config": {"name": "flatten_1_semeval_model", "trainable": true}}, {"class_name": "Dense", "config": {"init": "glorot_uniform", "activity_regularizer": null, "b_constraint": null, "bias": true, "b_regularizer": null, "name": "dense_1_semeval_model", "output_dim": 200, "activation": "linear", "W_regularizer": null, "input_dim": null, "trainable": true, "W_constraint": null}}, {"class_name": "Dropout", "config": {"name": "dropout_1_semeval_model", "p": 0.2, "trainable": true}}, {"class_name": "Activation", "config": {"name": "activation_1_semeval_model", "activation": "relu", "trainable": true}}, {"class_name": "Dense", "config": {"init": "glorot_uniform", "activity_regularizer": null, "b_constraint": null, "bias": true, "b_regularizer": null, "name": "dense_2_semeval_model", "output_dim": 3, "activation": "softmax", "W_regularizer": null, "input_dim": null, "trainable": true, "W_constraint": null}}]}, {"class_name": "Sequential", "config": [{"class_name": "Embedding", "config": {"init": "uniform", "activity_regularizer": null, "input_length": 140, "dropout": 0.2, "input_dtype": "int32", "name": "embedding_1_hul_model", "output_dim": 52, "mask_zero": false, "batch_input_shape": [null, 140], "W_regularizer": null, "input_dim": 1062158, "trainable": true, "W_constraint": null}}, {"class_name": "ZeroPadding1D", "config": {"name": "zeropadding1d_1_hul_model", "padding": 5, "trainable": true}}, {"class_name": "Convolution1D", "config": {"nb_filter": 200, "activity_regularizer": null, "b_constraint": null, "bias": true, "init": "uniform", "b_regularizer": null, "filter_length": 6, "border_mode": "valid", "activation": "relu", "input_dim": null, "W_regularizer": null, "input_length": null, "subsample_length": 1, "trainable": true, "W_constraint": null, "name": "convolution1d_1_hul_model"}}, {"class_name": "MaxPooling1D", "config": {"name": "maxpooling1d_1_hul_model", "border_mode": "valid", "trainable": true, "stride": 2, "pool_length": 4}}, {"class_name": "Convolution1D", "config": {"nb_filter": 200, "activity_regularizer": null, "b_constraint": null, "bias": true, "init": "uniform", "b_regularizer": null, "filter_length": 6, "border_mode": "valid", "activation": "relu", "input_dim": null, "W_regularizer": null, "input_length": null, "subsample_length": 1, "trainable": true, "W_constraint": null, "name": "convolution1d_2_hul_model"}}, {"class_name": "MaxPooling1D", "config": {"name": "maxpooling1d_2_hul_model", "border_mode": "valid", "trainable": true, "stride": 66, "pool_length": 66}}, {"class_name": "Flatten", "config": {"name": "flatten_1_hul_model", "trainable": true}}, {"class_name": "Dense", "config": {"init": "glorot_uniform", "activity_regularizer": null, "b_constraint": null, "bias": true, "b_regularizer": null, "name": "dense_1_hul_model", "output_dim": 200, "activation": "linear", "W_regularizer": null, "input_dim": null, "trainable": true, "W_constraint": null}}, {"class_name": "Dropout", "config": {"name": "dropout_1_hul_model", "p": 0.2, "trainable": true}}, {"class_name": "Activation", "config": {"name": "activation_1_hul_model", "activation": "relu", "trainable": true}}, {"class_name": "Dense", "config": {"init": "glorot_uniform", "activity_regularizer": null, "b_constraint": null, "bias": true, "b_regularizer": null, "name": "dense_2_hul_model", "output_dim": 3, "activation": "softmax", "W_regularizer": null, "input_dim": null, "trainable": true, "W_constraint": null}}]}, {"class_name": "Sequential", "config": [{"class_name": "Embedding", "config": {"init": "uniform", "activity_regularizer": null, "input_length": 140, "dropout": 0.2, "input_dtype": "int32", "name": "embedding_17_mpq_model", "output_dim": 52, "mask_zero": false, "batch_input_shape": [null, 140], "W_regularizer": null, "input_dim": 428669, "trainable": true, "W_constraint": null}}, {"class_name": "ZeroPadding1D", "config": {"name": "zeropadding1d_17_mpq_model", "padding": 5, "trainable": true}}, {"class_name": "Convolution1D", "config": {"nb_filter": 200, "activity_regularizer": null, "b_constraint": null, "bias": true, "init": "uniform", "b_regularizer": null, "filter_length": 6, "border_mode": "valid", "activation": "relu", "input_dim": null, "W_regularizer": null, "input_length": null, "subsample_length": 1, "trainable": true, "W_constraint": null, "name": "convolution1d_33_mpq_model"}}, {"class_name": "MaxPooling1D", "config": {"name": "maxpooling1d_33_mpq_model", "border_mode": "valid", "trainable": true, "stride": 2, "pool_length": 4}}, {"class_name": "Convolution1D", "config": {"nb_filter": 200, "activity_regularizer": null, "b_constraint": null, "bias": true, "init": "uniform", "b_regularizer": null, "filter_length": 6, "border_mode": "valid", "activation": "relu", "input_dim": null, "W_regularizer": null, "input_length": null, "subsample_length": 1, "trainable": true, "W_constraint": null, "name": "convolution1d_34_mpq_model"}}, {"class_name": "MaxPooling1D", "config": {"name": "maxpooling1d_34_mpq_model", "border_mode": "valid", "trainable": true, "stride": 66, "pool_length": 66}}, {"class_name": "Flatten", "config": {"name": "flatten_17_mpq_model", "trainable": true}}, {"class_name": "Dense", "config": {"init": "glorot_uniform", "activity_regularizer": null, "b_constraint": null, "bias": true, "b_regularizer": null, "name": "dense_33_mpq_model", "output_dim": 200, "activation": "linear", "W_regularizer": null, "input_dim": null, "trainable": true, "W_constraint": null}}, {"class_name": "Dropout", "config": {"name": "dropout_17_mpq_model", "p": 0.2, "trainable": true}}, {"class_name": "Activation", "config": {"name": "activation_17_mpq_model", "activation": "relu", "trainable": true}}, {"class_name": "Dense", "config": {"init": "glorot_uniform", "activity_regularizer": null, "b_constraint": null, "bias": true, "b_regularizer": null, "name": "dense_34_mpq_model", "output_dim": 3, "activation": "softmax", "W_regularizer": null, "input_dim": null, "trainable": true, "W_constraint": null}}]}, {"class_name": "Sequential", "config": [{"class_name": "Embedding", "config": {"init": "uniform", "activity_regularizer": null, "input_length": 140, "dropout": 0.2, "input_dtype": "int32", "name": "embedding_1_dil_model", "output_dim": 52, "mask_zero": false, "batch_input_shape": [null, 140], "W_regularizer": null, "input_dim": 1576890, "trainable": true, "W_constraint": null}}, {"class_name": "ZeroPadding1D", "config": {"name": "zeropadding1d_1_dil_model", "padding": 5, "trainable": true}}, {"class_name": "Convolution1D", "config": {"nb_filter": 200, "activity_regularizer": null, "b_constraint": null, "bias": true, "init": "uniform", "b_regularizer": null, "filter_length": 6, "border_mode": "valid", "activation": "relu", "input_dim": null, "W_regularizer": null, "input_length": null, "subsample_length": 1, "trainable": true, "W_constraint": null, "name": "convolution1d_1_dil_model"}}, {"class_name": "MaxPooling1D", "config": {"name": "maxpooling1d_1_dil_model", "border_mode": "valid", "trainable": true, "stride": 2, "pool_length": 4}}, {"class_name": "Convolution1D", "config": {"nb_filter": 200, "activity_regularizer": null, "b_constraint": null, "bias": true, "init": "uniform", "b_regularizer": null, "filter_length": 6, "border_mode": "valid", "activation": "relu", "input_dim": null, "W_regularizer": null, "input_length": null, "subsample_length": 1, "trainable": true, "W_constraint": null, "name": "convolution1d_2_dil_model"}}, {"class_name": "MaxPooling1D", "config": {"name": "maxpooling1d_2_dil_model", "border_mode": "valid", "trainable": true, "stride": 66, "pool_length": 66}}, {"class_name": "Flatten", "config": {"name": "flatten_1_dil_model", "trainable": true}}, {"class_name": "Dense", "config": {"init": "glorot_uniform", "activity_regularizer": null, "b_constraint": null, "bias": true, "b_regularizer": null, "name": "dense_1_dil_model", "output_dim": 200, "activation": "linear", "W_regularizer": null, "input_dim": null, "trainable": true, "W_constraint": null}}, {"class_name": "Dropout", "config": {"name": "dropout_1_dil_model", "p": 0.2, "trainable": true}}, {"class_name": "Activation", "config": {"name": "activation_1_dil_model", "activation": "relu", "trainable": true}}, {"class_name": "Dense", "config": {"init": "glorot_uniform", "activity_regularizer": null, "b_constraint": null, "bias": true, "b_regularizer": null, "name": "dense_2_dil_model", "output_dim": 3, "activation": "softmax", "W_regularizer": null, "input_dim": null, "trainable": true, "W_constraint": null}}]}], "output_shape_type": "raw", "mode": "concat"}}, {"class_name": "Dense", "config": {"init": "glorot_uniform", "activity_regularizer": null, "b_constraint": null, "bias": true, "b_regularizer": null, "name": "dense_1", "output_dim": 256, "activation": "linear", "W_regularizer": null, "input_dim": null, "trainable": true, "W_constraint": null}}, {"class_name": "Activation", "config": {"name": "activation_1", "activation": "relu", "trainable": true}}, {"class_name": "Dense", "config": {"init": "glorot_uniform", "activity_regularizer": null, "b_constraint": null, "bias": true, "b_regularizer": null, "name": "dense_2", "output_dim": 3, "activation": "softmax", "W_regularizer": null, "input_dim": null, "trainable": true, "W_constraint": null}}], "keras_version": "1.1.1"}