{"keras_version": "1.1.1", "class_name": "Sequential", "config": [{"class_name": "Embedding", "config": {"name": "embedding_1", "input_dtype": "int32", "batch_input_shape": [null, 140], "dropout": 0.2, "output_dim": 52, "init": "uniform", "activity_regularizer": null, "mask_zero": false, "trainable": true, "W_constraint": null, "input_dim": 428669, "W_regularizer": null, "input_length": 140}}, {"class_name": "ZeroPadding1D", "config": {"name": "zeropadding1d_1", "trainable": true, "padding": 5}}, {"class_name": "Convolution1D", "config": {"name": "convolution1d_1", "nb_filter": 200, "filter_length": 6, "subsample_length": 1, "b_regularizer": null, "init": "uniform", "activity_regularizer": null, "bias": true, "border_mode": "valid", "trainable": true, "W_constraint": null, "input_dim": null, "activation": "relu", "W_regularizer": null, "b_constraint": null, "input_length": null}}, {"class_name": "MaxPooling1D", "config": {"name": "maxpooling1d_1", "pool_length": 4, "trainable": true, "border_mode": "valid", "stride": 2}}, {"class_name": "Convolution1D", "config": {"name": "convolution1d_2", "nb_filter": 200, "filter_length": 6, "subsample_length": 1, "b_regularizer": null, "init": "uniform", "activity_regularizer": null, "bias": true, "border_mode": "valid", "trainable": true, "W_constraint": null, "input_dim": null, "activation": "relu", "W_regularizer": null, "b_constraint": null, "input_length": null}}, {"class_name": "MaxPooling1D", "config": {"name": "maxpooling1d_2", "pool_length": 66, "trainable": true, "border_mode": "valid", "stride": 66}}, {"class_name": "Flatten", "config": {"name": "flatten_1", "trainable": true}}, {"class_name": "Dense", "config": {"name": "dense_1", "output_dim": 200, "b_regularizer": null, "init": "glorot_uniform", "activity_regularizer": null, "bias": true, "trainable": true, "W_constraint": null, "input_dim": null, "activation": "linear", "W_regularizer": null, "b_constraint": null}}, {"class_name": "Dropout", "config": {"name": "dropout_1", "trainable": true, "p": 0.2}}, {"class_name": "Activation", "config": {"name": "activation_1", "trainable": true, "activation": "relu"}}, {"class_name": "Dense", "config": {"name": "dense_2", "output_dim": 3, "b_regularizer": null, "init": "glorot_uniform", "activity_regularizer": null, "bias": true, "trainable": true, "W_constraint": null, "input_dim": null, "activation": "softmax", "W_regularizer": null, "b_constraint": null}}]}