{"class_name": "Sequential", "config": [{"class_name": "Merge", "config": {"concat_axis": -1, "layers": [{"class_name": "Sequential", "config": [{"class_name": "Embedding", "config": {"W_regularizer": null, "batch_input_shape": [null, 140], "dropout": 0.2, "init": "uniform", "activity_regularizer": null, "W_constraint": null, "mask_zero": false, "input_dim": 1576890, "trainable": true, "input_dtype": "int32", "output_dim": 52, "name": "embedding_1_dil_model", "input_length": 140}}, {"class_name": "ZeroPadding1D", "config": {"name": "zeropadding1d_1_dil_model", "trainable": true, "padding": 5}}, {"class_name": "Convolution1D", "config": {"W_regularizer": null, "bias": true, "init": "uniform", "activity_regularizer": null, "W_constraint": null, "b_regularizer": null, "input_dim": null, "border_mode": "valid", "activation": "relu", "subsample_length": 1, "trainable": true, "filter_length": 6, "name": "convolution1d_1_dil_model", "nb_filter": 200, "b_constraint": null, "input_length": null}}, {"class_name": "MaxPooling1D", "config": {"border_mode": "valid", "trainable": true, "stride": 2, "name": "maxpooling1d_1_dil_model", "pool_length": 4}}, {"class_name": "Convolution1D", "config": {"W_regularizer": null, "bias": true, "init": "uniform", "activity_regularizer": null, "W_constraint": null, "b_regularizer": null, "input_dim": null, "border_mode": "valid", "activation": "relu", "subsample_length": 1, "trainable": true, "filter_length": 6, "name": "convolution1d_2_dil_model", "nb_filter": 200, "b_constraint": null, "input_length": null}}, {"class_name": "MaxPooling1D", "config": {"border_mode": "valid", "trainable": true, "stride": 66, "name": "maxpooling1d_2_dil_model", "pool_length": 66}}, {"class_name": "Flatten", "config": {"name": "flatten_1_dil_model", "trainable": true}}, {"class_name": "Dense", "config": {"W_regularizer": null, "input_dim": null, "init": "glorot_uniform", "activity_regularizer": null, "W_constraint": null, "b_regularizer": null, "bias": true, "activation": "linear", "trainable": true, "output_dim": 200, "name": "dense_1_dil_model", "b_constraint": null}}, {"class_name": "Dropout", "config": {"p": 0.2, "name": "dropout_1_dil_model", "trainable": true}}, {"class_name": "Activation", "config": {"name": "activation_1_dil_model", "trainable": true, "activation": "relu"}}, {"class_name": "Dense", "config": {"W_regularizer": null, "input_dim": null, "init": "glorot_uniform", "activity_regularizer": null, "W_constraint": null, "b_regularizer": null, "bias": true, "activation": "softmax", "trainable": true, "output_dim": 3, "name": "dense_2_dil_model", "b_constraint": null}}]}, {"class_name": "Sequential", "config": [{"class_name": "Embedding", "config": {"W_regularizer": null, "batch_input_shape": [null, 140], "dropout": 0.2, "init": "uniform", "activity_regularizer": null, "W_constraint": null, "mask_zero": false, "input_dim": 428669, "trainable": true, "input_dtype": "int32", "output_dim": 52, "name": "embedding_1_tac_model", "input_length": 140}}, {"class_name": "ZeroPadding1D", "config": {"name": "zeropadding1d_1_tac_model", "trainable": true, "padding": 5}}, {"class_name": "Convolution1D", "config": {"W_regularizer": null, "bias": true, "init": "uniform", "activity_regularizer": null, "W_constraint": null, "b_regularizer": null, "input_dim": null, "border_mode": "valid", "activation": "relu", "subsample_length": 1, "trainable": true, "filter_length": 6, "name": "convolution1d_1_tac_model", "nb_filter": 200, "b_constraint": null, "input_length": null}}, {"class_name": "MaxPooling1D", "config": {"border_mode": "valid", "trainable": true, "stride": 2, "name": "maxpooling1d_1_tac_model", "pool_length": 4}}, {"class_name": "Convolution1D", "config": {"W_regularizer": null, "bias": true, "init": "uniform", "activity_regularizer": null, "W_constraint": null, "b_regularizer": null, "input_dim": null, "border_mode": "valid", "activation": "relu", "subsample_length": 1, "trainable": true, "filter_length": 6, "name": "convolution1d_2_tac_model", "nb_filter": 200, "b_constraint": null, "input_length": null}}, {"class_name": "MaxPooling1D", "config": {"border_mode": "valid", "trainable": true, "stride": 66, "name": "maxpooling1d_2_tac_model", "pool_length": 66}}, {"class_name": "Flatten", "config": {"name": "flatten_1_tac_model", "trainable": true}}, {"class_name": "Dense", "config": {"W_regularizer": null, "input_dim": null, "init": "glorot_uniform", "activity_regularizer": null, "W_constraint": null, "b_regularizer": null, "bias": true, "activation": "linear", "trainable": true, "output_dim": 200, "name": "dense_1_tac_model", "b_constraint": null}}, {"class_name": "Dropout", "config": {"p": 0.2, "name": "dropout_1_tac_model", "trainable": true}}, {"class_name": "Activation", "config": {"name": "activation_1_tac_model", "trainable": true, "activation": "relu"}}, {"class_name": "Dense", "config": {"W_regularizer": null, "input_dim": null, "init": "glorot_uniform", "activity_regularizer": null, "W_constraint": null, "b_regularizer": null, "bias": true, "activation": "softmax", "trainable": true, "output_dim": 3, "name": "dense_2_tac_model", "b_constraint": null}}]}, {"class_name": "Sequential", "config": [{"class_name": "Embedding", "config": {"W_regularizer": null, "batch_input_shape": [null, 140], "dropout": 0.2, "init": "uniform", "activity_regularizer": null, "W_constraint": null, "mask_zero": false, "input_dim": 1576890, "trainable": true, "input_dtype": "int32", "output_dim": 52, "name": "embedding_1_dai_model", "input_length": 140}}, {"class_name": "ZeroPadding1D", "config": {"name": "zeropadding1d_1_dai_model", "trainable": true, "padding": 5}}, {"class_name": "Convolution1D", "config": {"W_regularizer": null, "bias": true, "init": "uniform", "activity_regularizer": null, "W_constraint": null, "b_regularizer": null, "input_dim": null, "border_mode": "valid", "activation": "relu", "subsample_length": 1, "trainable": true, "filter_length": 6, "name": "convolution1d_1_dai_model", "nb_filter": 200, "b_constraint": null, "input_length": null}}, {"class_name": "MaxPooling1D", "config": {"border_mode": "valid", "trainable": true, "stride": 2, "name": "maxpooling1d_1_dai_model", "pool_length": 4}}, {"class_name": "Convolution1D", "config": {"W_regularizer": null, "bias": true, "init": "uniform", "activity_regularizer": null, "W_constraint": null, "b_regularizer": null, "input_dim": null, "border_mode": "valid", "activation": "relu", "subsample_length": 1, "trainable": true, "filter_length": 6, "name": "convolution1d_2_dai_model", "nb_filter": 200, "b_constraint": null, "input_length": null}}, {"class_name": "MaxPooling1D", "config": {"border_mode": "valid", "trainable": true, "stride": 66, "name": "maxpooling1d_2_dai_model", "pool_length": 66}}, {"class_name": "Flatten", "config": {"name": "flatten_1_dai_model", "trainable": true}}, {"class_name": "Dense", "config": {"W_regularizer": null, "input_dim": null, "init": "glorot_uniform", "activity_regularizer": null, "W_constraint": null, "b_regularizer": null, "bias": true, "activation": "linear", "trainable": true, "output_dim": 200, "name": "dense_1_dai_model", "b_constraint": null}}, {"class_name": "Dropout", "config": {"p": 0.2, "name": "dropout_1_dai_model", "trainable": true}}, {"class_name": "Activation", "config": {"name": "activation_1_dai_model", "trainable": true, "activation": "relu"}}, {"class_name": "Dense", "config": {"W_regularizer": null, "input_dim": null, "init": "glorot_uniform", "activity_regularizer": null, "W_constraint": null, "b_regularizer": null, "bias": true, "activation": "softmax", "trainable": true, "output_dim": 3, "name": "dense_2_dai_model", "b_constraint": null}}]}, {"class_name": "Sequential", "config": [{"class_name": "Embedding", "config": {"W_regularizer": null, "batch_input_shape": [null, 140], "dropout": 0.2, "init": "uniform", "activity_regularizer": null, "W_constraint": null, "mask_zero": false, "input_dim": 428669, "trainable": true, "input_dtype": "int32", "output_dim": 52, "name": "embedding_1_semeval_model", "input_length": 140}}, {"class_name": "ZeroPadding1D", "config": {"name": "zeropadding1d_1_semeval_model", "trainable": true, "padding": 5}}, {"class_name": "Convolution1D", "config": {"W_regularizer": null, "bias": true, "init": "uniform", "activity_regularizer": null, "W_constraint": null, "b_regularizer": null, "input_dim": null, "border_mode": "valid", "activation": "relu", "subsample_length": 1, "trainable": true, "filter_length": 6, "name": "convolution1d_1_semeval_model", "nb_filter": 200, "b_constraint": null, "input_length": null}}, {"class_name": "MaxPooling1D", "config": {"border_mode": "valid", "trainable": true, "stride": 2, "name": "maxpooling1d_1_semeval_model", "pool_length": 4}}, {"class_name": "Convolution1D", "config": {"W_regularizer": null, "bias": true, "init": "uniform", "activity_regularizer": null, "W_constraint": null, "b_regularizer": null, "input_dim": null, "border_mode": "valid", "activation": "relu", "subsample_length": 1, "trainable": true, "filter_length": 6, "name": "convolution1d_2_semeval_model", "nb_filter": 200, "b_constraint": null, "input_length": null}}, {"class_name": "MaxPooling1D", "config": {"border_mode": "valid", "trainable": true, "stride": 66, "name": "maxpooling1d_2_semeval_model", "pool_length": 66}}, {"class_name": "Flatten", "config": {"name": "flatten_1_semeval_model", "trainable": true}}, {"class_name": "Dense", "config": {"W_regularizer": null, "input_dim": null, "init": "glorot_uniform", "activity_regularizer": null, "W_constraint": null, "b_regularizer": null, "bias": true, "activation": "linear", "trainable": true, "output_dim": 200, "name": "dense_1_semeval_model", "b_constraint": null}}, {"class_name": "Dropout", "config": {"p": 0.2, "name": "dropout_1_semeval_model", "trainable": true}}, {"class_name": "Activation", "config": {"name": "activation_1_semeval_model", "trainable": true, "activation": "relu"}}, {"class_name": "Dense", "config": {"W_regularizer": null, "input_dim": null, "init": "glorot_uniform", "activity_regularizer": null, "W_constraint": null, "b_regularizer": null, "bias": true, "activation": "softmax", "trainable": true, "output_dim": 3, "name": "dense_2_semeval_model", "b_constraint": null}}]}, {"class_name": "Sequential", "config": [{"class_name": "Embedding", "config": {"W_regularizer": null, "batch_input_shape": [null, 140], "dropout": 0.2, "init": "uniform", "activity_regularizer": null, "W_constraint": null, "mask_zero": false, "input_dim": 428669, "trainable": true, "input_dtype": "int32", "output_dim": 52, "name": "embedding_17_mpq_model", "input_length": 140}}, {"class_name": "ZeroPadding1D", "config": {"name": "zeropadding1d_17_mpq_model", "trainable": true, "padding": 5}}, {"class_name": "Convolution1D", "config": {"W_regularizer": null, "bias": true, "init": "uniform", "activity_regularizer": null, "W_constraint": null, "b_regularizer": null, "input_dim": null, "border_mode": "valid", "activation": "relu", "subsample_length": 1, "trainable": true, "filter_length": 6, "name": "convolution1d_33_mpq_model", "nb_filter": 200, "b_constraint": null, "input_length": null}}, {"class_name": "MaxPooling1D", "config": {"border_mode": "valid", "trainable": true, "stride": 2, "name": "maxpooling1d_33_mpq_model", "pool_length": 4}}, {"class_name": "Convolution1D", "config": {"W_regularizer": null, "bias": true, "init": "uniform", "activity_regularizer": null, "W_constraint": null, "b_regularizer": null, "input_dim": null, "border_mode": "valid", "activation": "relu", "subsample_length": 1, "trainable": true, "filter_length": 6, "name": "convolution1d_34_mpq_model", "nb_filter": 200, "b_constraint": null, "input_length": null}}, {"class_name": "MaxPooling1D", "config": {"border_mode": "valid", "trainable": true, "stride": 66, "name": "maxpooling1d_34_mpq_model", "pool_length": 66}}, {"class_name": "Flatten", "config": {"name": "flatten_17_mpq_model", "trainable": true}}, {"class_name": "Dense", "config": {"W_regularizer": null, "input_dim": null, "init": "glorot_uniform", "activity_regularizer": null, "W_constraint": null, "b_regularizer": null, "bias": true, "activation": "linear", "trainable": true, "output_dim": 200, "name": "dense_33_mpq_model", "b_constraint": null}}, {"class_name": "Dropout", "config": {"p": 0.2, "name": "dropout_17_mpq_model", "trainable": true}}, {"class_name": "Activation", "config": {"name": "activation_17_mpq_model", "trainable": true, "activation": "relu"}}, {"class_name": "Dense", "config": {"W_regularizer": null, "input_dim": null, "init": "glorot_uniform", "activity_regularizer": null, "W_constraint": null, "b_regularizer": null, "bias": true, "activation": "softmax", "trainable": true, "output_dim": 3, "name": "dense_34_mpq_model", "b_constraint": null}}]}, {"class_name": "Sequential", "config": [{"class_name": "Embedding", "config": {"W_regularizer": null, "batch_input_shape": [null, 140], "dropout": 0.2, "init": "uniform", "activity_regularizer": null, "W_constraint": null, "mask_zero": false, "input_dim": 1062158, "trainable": true, "input_dtype": "int32", "output_dim": 52, "name": "embedding_1_hul_model", "input_length": 140}}, {"class_name": "ZeroPadding1D", "config": {"name": "zeropadding1d_1_hul_model", "trainable": true, "padding": 5}}, {"class_name": "Convolution1D", "config": {"W_regularizer": null, "bias": true, "init": "uniform", "activity_regularizer": null, "W_constraint": null, "b_regularizer": null, "input_dim": null, "border_mode": "valid", "activation": "relu", "subsample_length": 1, "trainable": true, "filter_length": 6, "name": "convolution1d_1_hul_model", "nb_filter": 200, "b_constraint": null, "input_length": null}}, {"class_name": "MaxPooling1D", "config": {"border_mode": "valid", "trainable": true, "stride": 2, "name": "maxpooling1d_1_hul_model", "pool_length": 4}}, {"class_name": "Convolution1D", "config": {"W_regularizer": null, "bias": true, "init": "uniform", "activity_regularizer": null, "W_constraint": null, "b_regularizer": null, "input_dim": null, "border_mode": "valid", "activation": "relu", "subsample_length": 1, "trainable": true, "filter_length": 6, "name": "convolution1d_2_hul_model", "nb_filter": 200, "b_constraint": null, "input_length": null}}, {"class_name": "MaxPooling1D", "config": {"border_mode": "valid", "trainable": true, "stride": 66, "name": "maxpooling1d_2_hul_model", "pool_length": 66}}, {"class_name": "Flatten", "config": {"name": "flatten_1_hul_model", "trainable": true}}, {"class_name": "Dense", "config": {"W_regularizer": null, "input_dim": null, "init": "glorot_uniform", "activity_regularizer": null, "W_constraint": null, "b_regularizer": null, "bias": true, "activation": "linear", "trainable": true, "output_dim": 200, "name": "dense_1_hul_model", "b_constraint": null}}, {"class_name": "Dropout", "config": {"p": 0.2, "name": "dropout_1_hul_model", "trainable": true}}, {"class_name": "Activation", "config": {"name": "activation_1_hul_model", "trainable": true, "activation": "relu"}}, {"class_name": "Dense", "config": {"W_regularizer": null, "input_dim": null, "init": "glorot_uniform", "activity_regularizer": null, "W_constraint": null, "b_regularizer": null, "bias": true, "activation": "softmax", "trainable": true, "output_dim": 3, "name": "dense_2_hul_model", "b_constraint": null}}]}], "output_shape": null, "dot_axes": -1, "name": "merge_1", "output_shape_type": "raw", "mode_type": "raw", "mode": "concat"}}, {"class_name": "Dense", "config": {"W_regularizer": null, "bias": true, "init": "glorot_uniform", "activity_regularizer": null, "W_constraint": null, "b_regularizer": null, "input_dim": null, "activation": "linear", "trainable": true, "output_dim": 256, "name": "dense_1", "b_constraint": null}}, {"class_name": "Activation", "config": {"name": "activation_1", "trainable": true, "activation": "relu"}}, {"class_name": "Dense", "config": {"W_regularizer": null, "bias": true, "init": "glorot_uniform", "activity_regularizer": null, "W_constraint": null, "b_regularizer": null, "input_dim": null, "activation": "softmax", "trainable": true, "output_dim": 3, "name": "dense_2", "b_constraint": null}}], "keras_version": "1.1.1"}