{"class_name": "Sequential", "keras_version": "1.1.1", "config": [{"class_name": "Embedding", "config": {"W_regularizer": null, "trainable": true, "mask_zero": false, "input_dim": 1576890, "batch_input_shape": [null, 140], "name": "embedding_30", "activity_regularizer": null, "init": "uniform", "W_constraint": null, "input_length": 140, "output_dim": 52, "dropout": 0.2, "input_dtype": "int32"}}, {"class_name": "ZeroPadding1D", "config": {"name": "zeropadding1d_30", "trainable": true, "padding": 5}}, {"class_name": "Convolution1D", "config": {"border_mode": "valid", "bias": true, "filter_length": 6, "nb_filter": 200, "activation": "relu", "W_regularizer": null, "trainable": true, "W_constraint": null, "subsample_length": 1, "input_dim": null, "name": "convolution1d_59", "activity_regularizer": null, "init": "uniform", "b_constraint": null, "input_length": null, "b_regularizer": null}}, {"class_name": "MaxPooling1D", "config": {"border_mode": "valid", "trainable": true, "pool_length": 4, "name": "maxpooling1d_59", "stride": 2}}, {"class_name": "Convolution1D", "config": {"border_mode": "valid", "bias": true, "filter_length": 6, "nb_filter": 200, "activation": "relu", "W_regularizer": null, "trainable": true, "W_constraint": null, "subsample_length": 1, "input_dim": null, "name": "convolution1d_60", "activity_regularizer": null, "init": "uniform", "b_constraint": null, "input_length": null, "b_regularizer": null}}, {"class_name": "MaxPooling1D", "config": {"border_mode": "valid", "trainable": true, "pool_length": 66, "name": "maxpooling1d_60", "stride": 66}}, {"class_name": "Flatten", "config": {"trainable": true, "name": "flatten_30"}}, {"class_name": "Dense", "config": {"input_dim": null, "activation": "linear", "W_regularizer": null, "trainable": true, "bias": true, "W_constraint": null, "name": "dense_59", "activity_regularizer": null, "init": "glorot_uniform", "b_constraint": null, "output_dim": 200, "b_regularizer": null}}, {"class_name": "Dropout", "config": {"name": "dropout_30", "trainable": true, "p": 0.2}}, {"class_name": "Activation", "config": {"activation": "relu", "trainable": true, "name": "activation_30"}}, {"class_name": "Dense", "config": {"input_dim": null, "activation": "softmax", "W_regularizer": null, "trainable": true, "bias": true, "W_constraint": null, "name": "dense_60", "activity_regularizer": null, "init": "glorot_uniform", "b_constraint": null, "output_dim": 3, "b_regularizer": null}}]}