{"keras_version": "1.1.1", "config": [{"config": {"name": "embedding_1", "dropout": 0.2, "input_dtype": "int32", "activity_regularizer": null, "output_dim": 52, "mask_zero": false, "init": "uniform", "input_length": 140, "batch_input_shape": [null, 140], "trainable": true, "W_constraint": null, "input_dim": 428669, "W_regularizer": null}, "class_name": "Embedding"}, {"config": {"name": "zeropadding1d_1", "trainable": true, "padding": 5}, "class_name": "ZeroPadding1D"}, {"config": {"name": "convolution1d_1", "b_constraint": null, "nb_filter": 200, "activity_regularizer": null, "b_regularizer": null, "border_mode": "valid", "subsample_length": 1, "activation": "relu", "filter_length": 6, "bias": true, "init": "uniform", "input_length": null, "trainable": true, "W_constraint": null, "input_dim": null, "W_regularizer": null}, "class_name": "Convolution1D"}, {"config": {"trainable": true, "name": "maxpooling1d_1", "pool_length": 4, "border_mode": "valid", "stride": 2}, "class_name": "MaxPooling1D"}, {"config": {"name": "convolution1d_2", "b_constraint": null, "nb_filter": 200, "activity_regularizer": null, "b_regularizer": null, "border_mode": "valid", "subsample_length": 1, "activation": "relu", "filter_length": 6, "bias": true, "init": "uniform", "input_length": null, "trainable": true, "W_constraint": null, "input_dim": null, "W_regularizer": null}, "class_name": "Convolution1D"}, {"config": {"trainable": true, "name": "maxpooling1d_2", "pool_length": 66, "border_mode": "valid", "stride": 66}, "class_name": "MaxPooling1D"}, {"config": {"name": "flatten_1", "trainable": true}, "class_name": "Flatten"}, {"config": {"name": "dense_1", "activity_regularizer": null, "b_constraint": null, "bias": true, "output_dim": 200, "b_regularizer": null, "activation": "linear", "init": "glorot_uniform", "trainable": true, "W_constraint": null, "input_dim": null, "W_regularizer": null}, "class_name": "Dense"}, {"config": {"trainable": true, "name": "dropout_1", "p": 0.2}, "class_name": "Dropout"}, {"config": {"name": "activation_1", "trainable": true, "activation": "relu"}, "class_name": "Activation"}, {"config": {"name": "dense_2", "activity_regularizer": null, "b_constraint": null, "bias": true, "output_dim": 3, "b_regularizer": null, "activation": "softmax", "init": "glorot_uniform", "trainable": true, "W_constraint": null, "input_dim": null, "W_regularizer": null}, "class_name": "Dense"}], "class_name": "Sequential"}