{"class_name": "Sequential", "config": [{"class_name": "Merge", "config": {"name": "merge_1", "layers": [{"class_name": "Sequential", "config": [{"class_name": "Embedding", "config": {"mask_zero": false, "input_dtype": "int32", "input_dim": 428669, "W_regularizer": null, "init": "uniform", "activity_regularizer": null, "input_length": 140, "batch_input_shape": [null, 140], "name": "embedding_1_tac_model", "dropout": 0.2, "output_dim": 52, "trainable": true, "W_constraint": null}}, {"class_name": "ZeroPadding1D", "config": {"name": "zeropadding1d_1_tac_model", "trainable": true, "padding": 5}}, {"class_name": "Convolution1D", "config": {"b_regularizer": null, "subsample_length": 1, "activation": "relu", "b_constraint": null, "input_dim": null, "init": "uniform", "W_regularizer": null, "activity_regularizer": null, "input_length": null, "filter_length": 6, "name": "convolution1d_1_tac_model", "trainable": true, "border_mode": "valid", "nb_filter": 200, "bias": true, "W_constraint": null}}, {"class_name": "MaxPooling1D", "config": {"name": "maxpooling1d_1_tac_model", "trainable": true, "pool_length": 4, "stride": 2, "border_mode": "valid"}}, {"class_name": "Convolution1D", "config": {"b_regularizer": null, "subsample_length": 1, "activation": "relu", "b_constraint": null, "input_dim": null, "init": "uniform", "W_regularizer": null, "activity_regularizer": null, "input_length": null, "filter_length": 6, "name": "convolution1d_2_tac_model", "trainable": true, "border_mode": "valid", "nb_filter": 200, "bias": true, "W_constraint": null}}, {"class_name": "MaxPooling1D", "config": {"name": "maxpooling1d_2_tac_model", "trainable": true, "pool_length": 66, "stride": 66, "border_mode": "valid"}}, {"class_name": "Flatten", "config": {"name": "flatten_1_tac_model", "trainable": true}}]}, {"class_name": "Sequential", "config": [{"class_name": "Embedding", "config": {"mask_zero": false, "input_dtype": "int32", "input_dim": 428669, "W_regularizer": null, "init": "uniform", "activity_regularizer": null, "input_length": 140, "batch_input_shape": [null, 140], "name": "embedding_17_mpq_model", "dropout": 0.2, "output_dim": 52, "trainable": true, "W_constraint": null}}, {"class_name": "ZeroPadding1D", "config": {"name": "zeropadding1d_17_mpq_model", "trainable": true, "padding": 5}}, {"class_name": "Convolution1D", "config": {"b_regularizer": null, "subsample_length": 1, "activation": "relu", "b_constraint": null, "input_dim": null, "init": "uniform", "W_regularizer": null, "activity_regularizer": null, "input_length": null, "filter_length": 6, "name": "convolution1d_33_mpq_model", "trainable": true, "border_mode": "valid", "nb_filter": 200, "bias": true, "W_constraint": null}}, {"class_name": "MaxPooling1D", "config": {"name": "maxpooling1d_33_mpq_model", "trainable": true, "pool_length": 4, "stride": 2, "border_mode": "valid"}}, {"class_name": "Convolution1D", "config": {"b_regularizer": null, "subsample_length": 1, "activation": "relu", "b_constraint": null, "input_dim": null, "init": "uniform", "W_regularizer": null, "activity_regularizer": null, "input_length": null, "filter_length": 6, "name": "convolution1d_34_mpq_model", "trainable": true, "border_mode": "valid", "nb_filter": 200, "bias": true, "W_constraint": null}}, {"class_name": "MaxPooling1D", "config": {"name": "maxpooling1d_34_mpq_model", "trainable": true, "pool_length": 66, "stride": 66, "border_mode": "valid"}}, {"class_name": "Flatten", "config": {"name": "flatten_17_mpq_model", "trainable": true}}]}, {"class_name": "Sequential", "config": [{"class_name": "Embedding", "config": {"mask_zero": false, "input_dtype": "int32", "input_dim": 428669, "W_regularizer": null, "init": "uniform", "activity_regularizer": null, "input_length": 140, "batch_input_shape": [null, 140], "name": "embedding_1_semeval_model", "dropout": 0.2, "output_dim": 52, "trainable": true, "W_constraint": null}}, {"class_name": "ZeroPadding1D", "config": {"name": "zeropadding1d_1_semeval_model", "trainable": true, "padding": 5}}, {"class_name": "Convolution1D", "config": {"b_regularizer": null, "subsample_length": 1, "activation": "relu", "b_constraint": null, "input_dim": null, "init": "uniform", "W_regularizer": null, "activity_regularizer": null, "input_length": null, "filter_length": 6, "name": "convolution1d_1_semeval_model", "trainable": true, "border_mode": "valid", "nb_filter": 200, "bias": true, "W_constraint": null}}, {"class_name": "MaxPooling1D", "config": {"name": "maxpooling1d_1_semeval_model", "trainable": true, "pool_length": 4, "stride": 2, "border_mode": "valid"}}, {"class_name": "Convolution1D", "config": {"b_regularizer": null, "subsample_length": 1, "activation": "relu", "b_constraint": null, "input_dim": null, "init": "uniform", "W_regularizer": null, "activity_regularizer": null, "input_length": null, "filter_length": 6, "name": "convolution1d_2_semeval_model", "trainable": true, "border_mode": "valid", "nb_filter": 200, "bias": true, "W_constraint": null}}, {"class_name": "MaxPooling1D", "config": {"name": "maxpooling1d_2_semeval_model", "trainable": true, "pool_length": 66, "stride": 66, "border_mode": "valid"}}, {"class_name": "Flatten", "config": {"name": "flatten_1_semeval_model", "trainable": true}}]}, {"class_name": "Sequential", "config": [{"class_name": "Embedding", "config": {"mask_zero": false, "input_dtype": "int32", "input_dim": 1576890, "W_regularizer": null, "init": "uniform", "activity_regularizer": null, "input_length": 140, "batch_input_shape": [null, 140], "name": "embedding_1_dil_model", "dropout": 0.2, "output_dim": 52, "trainable": true, "W_constraint": null}}, {"class_name": "ZeroPadding1D", "config": {"name": "zeropadding1d_1_dil_model", "trainable": true, "padding": 5}}, {"class_name": "Convolution1D", "config": {"b_regularizer": null, "subsample_length": 1, "activation": "relu", "b_constraint": null, "input_dim": null, "init": "uniform", "W_regularizer": null, "activity_regularizer": null, "input_length": null, "filter_length": 6, "name": "convolution1d_1_dil_model", "trainable": true, "border_mode": "valid", "nb_filter": 200, "bias": true, "W_constraint": null}}, {"class_name": "MaxPooling1D", "config": {"name": "maxpooling1d_1_dil_model", "trainable": true, "pool_length": 4, "stride": 2, "border_mode": "valid"}}, {"class_name": "Convolution1D", "config": {"b_regularizer": null, "subsample_length": 1, "activation": "relu", "b_constraint": null, "input_dim": null, "init": "uniform", "W_regularizer": null, "activity_regularizer": null, "input_length": null, "filter_length": 6, "name": "convolution1d_2_dil_model", "trainable": true, "border_mode": "valid", "nb_filter": 200, "bias": true, "W_constraint": null}}, {"class_name": "MaxPooling1D", "config": {"name": "maxpooling1d_2_dil_model", "trainable": true, "pool_length": 66, "stride": 66, "border_mode": "valid"}}, {"class_name": "Flatten", "config": {"name": "flatten_1_dil_model", "trainable": true}}]}, {"class_name": "Sequential", "config": [{"class_name": "Embedding", "config": {"mask_zero": false, "input_dtype": "int32", "input_dim": 1576890, "W_regularizer": null, "init": "uniform", "activity_regularizer": null, "input_length": 140, "batch_input_shape": [null, 140], "name": "embedding_1_dai_model", "dropout": 0.2, "output_dim": 52, "trainable": true, "W_constraint": null}}, {"class_name": "ZeroPadding1D", "config": {"name": "zeropadding1d_1_dai_model", "trainable": true, "padding": 5}}, {"class_name": "Convolution1D", "config": {"b_regularizer": null, "subsample_length": 1, "activation": "relu", "b_constraint": null, "input_dim": null, "init": "uniform", "W_regularizer": null, "activity_regularizer": null, "input_length": null, "filter_length": 6, "name": "convolution1d_1_dai_model", "trainable": true, "border_mode": "valid", "nb_filter": 200, "bias": true, "W_constraint": null}}, {"class_name": "MaxPooling1D", "config": {"name": "maxpooling1d_1_dai_model", "trainable": true, "pool_length": 4, "stride": 2, "border_mode": "valid"}}, {"class_name": "Convolution1D", "config": {"b_regularizer": null, "subsample_length": 1, "activation": "relu", "b_constraint": null, "input_dim": null, "init": "uniform", "W_regularizer": null, "activity_regularizer": null, "input_length": null, "filter_length": 6, "name": "convolution1d_2_dai_model", "trainable": true, "border_mode": "valid", "nb_filter": 200, "bias": true, "W_constraint": null}}, {"class_name": "MaxPooling1D", "config": {"name": "maxpooling1d_2_dai_model", "trainable": true, "pool_length": 66, "stride": 66, "border_mode": "valid"}}, {"class_name": "Flatten", "config": {"name": "flatten_1_dai_model", "trainable": true}}]}, {"class_name": "Sequential", "config": [{"class_name": "Embedding", "config": {"mask_zero": false, "input_dtype": "int32", "input_dim": 1062158, "W_regularizer": null, "init": "uniform", "activity_regularizer": null, "input_length": 140, "batch_input_shape": [null, 140], "name": "embedding_1_hul_model", "dropout": 0.2, "output_dim": 52, "trainable": true, "W_constraint": null}}, {"class_name": "ZeroPadding1D", "config": {"name": "zeropadding1d_1_hul_model", "trainable": true, "padding": 5}}, {"class_name": "Convolution1D", "config": {"b_regularizer": null, "subsample_length": 1, "activation": "relu", "b_constraint": null, "input_dim": null, "init": "uniform", "W_regularizer": null, "activity_regularizer": null, "input_length": null, "filter_length": 6, "name": "convolution1d_1_hul_model", "trainable": true, "border_mode": "valid", "nb_filter": 200, "bias": true, "W_constraint": null}}, {"class_name": "MaxPooling1D", "config": {"name": "maxpooling1d_1_hul_model", "trainable": true, "pool_length": 4, "stride": 2, "border_mode": "valid"}}, {"class_name": "Convolution1D", "config": {"b_regularizer": null, "subsample_length": 1, "activation": "relu", "b_constraint": null, "input_dim": null, "init": "uniform", "W_regularizer": null, "activity_regularizer": null, "input_length": null, "filter_length": 6, "name": "convolution1d_2_hul_model", "trainable": true, "border_mode": "valid", "nb_filter": 200, "bias": true, "W_constraint": null}}, {"class_name": "MaxPooling1D", "config": {"name": "maxpooling1d_2_hul_model", "trainable": true, "pool_length": 66, "stride": 66, "border_mode": "valid"}}, {"class_name": "Flatten", "config": {"name": "flatten_1_hul_model", "trainable": true}}]}], "output_shape": null, "mode_type": "raw", "output_shape_type": "raw", "dot_axes": -1, "mode": "concat", "concat_axis": -1}}, {"class_name": "Dense", "config": {"b_regularizer": null, "name": "dense_1", "activation": "linear", "b_constraint": null, "input_dim": null, "W_regularizer": null, "init": "glorot_uniform", "activity_regularizer": null, "W_constraint": null, "output_dim": 1028, "trainable": true, "bias": true}}, {"class_name": "Activation", "config": {"name": "activation_1", "trainable": true, "activation": "relu"}}, {"class_name": "Dense", "config": {"b_regularizer": null, "name": "dense_2", "activation": "softmax", "b_constraint": null, "input_dim": null, "W_regularizer": null, "init": "glorot_uniform", "activity_regularizer": null, "W_constraint": null, "output_dim": 3, "trainable": true, "bias": true}}], "keras_version": "1.1.1"}