{"class_name": "Sequential", "keras_version": "1.1.0", "config": [{"class_name": "Embedding", "config": {"activity_regularizer": null, "W_regularizer": null, "init": "uniform", "name": "embedding_69", "trainable": true, "dropout": 0.2, "mask_zero": false, "output_dim": 52, "input_dtype": "int32", "batch_input_shape": [null, 140], "input_dim": 1576890, "W_constraint": null, "input_length": 140}}, {"class_name": "ZeroPadding1D", "config": {"name": "zeropadding1d_69", "trainable": true, "padding": 5}}, {"class_name": "Convolution1D", "config": {"b_constraint": null, "activity_regularizer": null, "W_regularizer": null, "init": "uniform", "name": "convolution1d_137", "trainable": true, "subsample_length": 1, "filter_length": 6, "b_regularizer": null, "border_mode": "valid", "activation": "relu", "nb_filter": 200, "bias": true, "W_constraint": null, "input_dim": null, "input_length": null}}, {"class_name": "MaxPooling1D", "config": {"stride": 2, "name": "maxpooling1d_137", "trainable": true, "border_mode": "valid", "pool_length": 4}}, {"class_name": "Convolution1D", "config": {"b_constraint": null, "activity_regularizer": null, "W_regularizer": null, "init": "uniform", "name": "convolution1d_138", "trainable": true, "subsample_length": 1, "filter_length": 6, "b_regularizer": null, "border_mode": "valid", "activation": "relu", "nb_filter": 200, "bias": true, "W_constraint": null, "input_dim": null, "input_length": null}}, {"class_name": "MaxPooling1D", "config": {"stride": 66, "name": "maxpooling1d_138", "trainable": true, "border_mode": "valid", "pool_length": 66}}, {"class_name": "Flatten", "config": {"name": "flatten_69", "trainable": true}}, {"class_name": "Dense", "config": {"activity_regularizer": null, "W_regularizer": null, "init": "glorot_uniform", "name": "dense_137", "trainable": true, "b_constraint": null, "output_dim": 200, "b_regularizer": null, "activation": "linear", "bias": true, "input_dim": null, "W_constraint": null}}, {"class_name": "Dropout", "config": {"name": "dropout_69", "trainable": true, "p": 0.2}}, {"class_name": "Activation", "config": {"name": "activation_69", "trainable": true, "activation": "relu"}}, {"class_name": "Dense", "config": {"activity_regularizer": null, "W_regularizer": null, "init": "glorot_uniform", "name": "dense_138", "trainable": true, "b_constraint": null, "output_dim": 3, "b_regularizer": null, "activation": "softmax", "bias": true, "input_dim": null, "W_constraint": null}}]}