{"config": [{"config": {"mode_type": "raw", "output_shape_type": "raw", "mode": "concat", "dot_axes": -1, "concat_axis": -1, "name": "merge_1", "layers": [{"config": [{"config": {"output_dim": 52, "W_regularizer": null, "input_dtype": "int32", "trainable": true, "init": "uniform", "input_length": 140, "name": "embedding_1_dai_model", "dropout": 0.2, "batch_input_shape": [null, 140], "mask_zero": false, "activity_regularizer": null, "input_dim": 1576890, "W_constraint": null}, "class_name": "Embedding"}, {"config": {"name": "zeropadding1d_1_dai_model", "padding": 5, "trainable": true}, "class_name": "ZeroPadding1D"}, {"config": {"border_mode": "valid", "bias": true, "subsample_length": 1, "W_regularizer": null, "W_constraint": null, "trainable": true, "activation": "relu", "init": "uniform", "b_regularizer": null, "name": "convolution1d_1_dai_model", "nb_filter": 200, "input_length": null, "b_constraint": null, "activity_regularizer": null, "input_dim": null, "filter_length": 6}, "class_name": "Convolution1D"}, {"config": {"pool_length": 4, "border_mode": "valid", "name": "maxpooling1d_1_dai_model", "stride": 2, "trainable": true}, "class_name": "MaxPooling1D"}, {"config": {"border_mode": "valid", "bias": true, "subsample_length": 1, "W_regularizer": null, "W_constraint": null, "trainable": true, "activation": "relu", "init": "uniform", "b_regularizer": null, "name": "convolution1d_2_dai_model", "nb_filter": 200, "input_length": null, "b_constraint": null, "activity_regularizer": null, "input_dim": null, "filter_length": 6}, "class_name": "Convolution1D"}, {"config": {"pool_length": 66, "border_mode": "valid", "name": "maxpooling1d_2_dai_model", "stride": 66, "trainable": true}, "class_name": "MaxPooling1D"}, {"config": {"trainable": true, "name": "flatten_1_dai_model"}, "class_name": "Flatten"}], "class_name": "Sequential"}, {"config": [{"config": {"output_dim": 52, "W_regularizer": null, "input_dtype": "int32", "trainable": true, "init": "uniform", "input_length": 140, "name": "embedding_1_dil_model", "dropout": 0.2, "batch_input_shape": [null, 140], "mask_zero": false, "activity_regularizer": null, "input_dim": 1576890, "W_constraint": null}, "class_name": "Embedding"}, {"config": {"name": "zeropadding1d_1_dil_model", "padding": 5, "trainable": true}, "class_name": "ZeroPadding1D"}, {"config": {"border_mode": "valid", "bias": true, "subsample_length": 1, "W_regularizer": null, "W_constraint": null, "trainable": true, "activation": "relu", "init": "uniform", "b_regularizer": null, "name": "convolution1d_1_dil_model", "nb_filter": 200, "input_length": null, "b_constraint": null, "activity_regularizer": null, "input_dim": null, "filter_length": 6}, "class_name": "Convolution1D"}, {"config": {"pool_length": 4, "border_mode": "valid", "name": "maxpooling1d_1_dil_model", "stride": 2, "trainable": true}, "class_name": "MaxPooling1D"}, {"config": {"border_mode": "valid", "bias": true, "subsample_length": 1, "W_regularizer": null, "W_constraint": null, "trainable": true, "activation": "relu", "init": "uniform", "b_regularizer": null, "name": "convolution1d_2_dil_model", "nb_filter": 200, "input_length": null, "b_constraint": null, "activity_regularizer": null, "input_dim": null, "filter_length": 6}, "class_name": "Convolution1D"}, {"config": {"pool_length": 66, "border_mode": "valid", "name": "maxpooling1d_2_dil_model", "stride": 66, "trainable": true}, "class_name": "MaxPooling1D"}, {"config": {"trainable": true, "name": "flatten_1_dil_model"}, "class_name": "Flatten"}], "class_name": "Sequential"}, {"config": [{"config": {"output_dim": 52, "W_regularizer": null, "input_dtype": "int32", "trainable": true, "init": "uniform", "input_length": 140, "name": "embedding_17_mpq_model", "dropout": 0.2, "batch_input_shape": [null, 140], "mask_zero": false, "activity_regularizer": null, "input_dim": 428669, "W_constraint": null}, "class_name": "Embedding"}, {"config": {"name": "zeropadding1d_17_mpq_model", "padding": 5, "trainable": true}, "class_name": "ZeroPadding1D"}, {"config": {"border_mode": "valid", "bias": true, "subsample_length": 1, "W_regularizer": null, "W_constraint": null, "trainable": true, "activation": "relu", "init": "uniform", "b_regularizer": null, "name": "convolution1d_33_mpq_model", "nb_filter": 200, "input_length": null, "b_constraint": null, "activity_regularizer": null, "input_dim": null, "filter_length": 6}, "class_name": "Convolution1D"}, {"config": {"pool_length": 4, "border_mode": "valid", "name": "maxpooling1d_33_mpq_model", "stride": 2, "trainable": true}, "class_name": "MaxPooling1D"}, {"config": {"border_mode": "valid", "bias": true, "subsample_length": 1, "W_regularizer": null, "W_constraint": null, "trainable": true, "activation": "relu", "init": "uniform", "b_regularizer": null, "name": "convolution1d_34_mpq_model", "nb_filter": 200, "input_length": null, "b_constraint": null, "activity_regularizer": null, "input_dim": null, "filter_length": 6}, "class_name": "Convolution1D"}, {"config": {"pool_length": 66, "border_mode": "valid", "name": "maxpooling1d_34_mpq_model", "stride": 66, "trainable": true}, "class_name": "MaxPooling1D"}, {"config": {"trainable": true, "name": "flatten_17_mpq_model"}, "class_name": "Flatten"}], "class_name": "Sequential"}, {"config": [{"config": {"output_dim": 52, "W_regularizer": null, "input_dtype": "int32", "trainable": true, "init": "uniform", "input_length": 140, "name": "embedding_1_semeval_model", "dropout": 0.2, "batch_input_shape": [null, 140], "mask_zero": false, "activity_regularizer": null, "input_dim": 428669, "W_constraint": null}, "class_name": "Embedding"}, {"config": {"name": "zeropadding1d_1_semeval_model", "padding": 5, "trainable": true}, "class_name": "ZeroPadding1D"}, {"config": {"border_mode": "valid", "bias": true, "subsample_length": 1, "W_regularizer": null, "W_constraint": null, "trainable": true, "activation": "relu", "init": "uniform", "b_regularizer": null, "name": "convolution1d_1_semeval_model", "nb_filter": 200, "input_length": null, "b_constraint": null, "activity_regularizer": null, "input_dim": null, "filter_length": 6}, "class_name": "Convolution1D"}, {"config": {"pool_length": 4, "border_mode": "valid", "name": "maxpooling1d_1_semeval_model", "stride": 2, "trainable": true}, "class_name": "MaxPooling1D"}, {"config": {"border_mode": "valid", "bias": true, "subsample_length": 1, "W_regularizer": null, "W_constraint": null, "trainable": true, "activation": "relu", "init": "uniform", "b_regularizer": null, "name": "convolution1d_2_semeval_model", "nb_filter": 200, "input_length": null, "b_constraint": null, "activity_regularizer": null, "input_dim": null, "filter_length": 6}, "class_name": "Convolution1D"}, {"config": {"pool_length": 66, "border_mode": "valid", "name": "maxpooling1d_2_semeval_model", "stride": 66, "trainable": true}, "class_name": "MaxPooling1D"}, {"config": {"trainable": true, "name": "flatten_1_semeval_model"}, "class_name": "Flatten"}], "class_name": "Sequential"}, {"config": [{"config": {"output_dim": 52, "W_regularizer": null, "input_dtype": "int32", "trainable": true, "init": "uniform", "input_length": 140, "name": "embedding_1_tac_model", "dropout": 0.2, "batch_input_shape": [null, 140], "mask_zero": false, "activity_regularizer": null, "input_dim": 428669, "W_constraint": null}, "class_name": "Embedding"}, {"config": {"name": "zeropadding1d_1_tac_model", "padding": 5, "trainable": true}, "class_name": "ZeroPadding1D"}, {"config": {"border_mode": "valid", "bias": true, "subsample_length": 1, "W_regularizer": null, "W_constraint": null, "trainable": true, "activation": "relu", "init": "uniform", "b_regularizer": null, "name": "convolution1d_1_tac_model", "nb_filter": 200, "input_length": null, "b_constraint": null, "activity_regularizer": null, "input_dim": null, "filter_length": 6}, "class_name": "Convolution1D"}, {"config": {"pool_length": 4, "border_mode": "valid", "name": "maxpooling1d_1_tac_model", "stride": 2, "trainable": true}, "class_name": "MaxPooling1D"}, {"config": {"border_mode": "valid", "bias": true, "subsample_length": 1, "W_regularizer": null, "W_constraint": null, "trainable": true, "activation": "relu", "init": "uniform", "b_regularizer": null, "name": "convolution1d_2_tac_model", "nb_filter": 200, "input_length": null, "b_constraint": null, "activity_regularizer": null, "input_dim": null, "filter_length": 6}, "class_name": "Convolution1D"}, {"config": {"pool_length": 66, "border_mode": "valid", "name": "maxpooling1d_2_tac_model", "stride": 66, "trainable": true}, "class_name": "MaxPooling1D"}, {"config": {"trainable": true, "name": "flatten_1_tac_model"}, "class_name": "Flatten"}], "class_name": "Sequential"}, {"config": [{"config": {"output_dim": 52, "W_regularizer": null, "input_dtype": "int32", "trainable": true, "init": "uniform", "input_length": 140, "name": "embedding_1_hul_model", "dropout": 0.2, "batch_input_shape": [null, 140], "mask_zero": false, "activity_regularizer": null, "input_dim": 1062158, "W_constraint": null}, "class_name": "Embedding"}, {"config": {"name": "zeropadding1d_1_hul_model", "padding": 5, "trainable": true}, "class_name": "ZeroPadding1D"}, {"config": {"border_mode": "valid", "bias": true, "subsample_length": 1, "W_regularizer": null, "W_constraint": null, "trainable": true, "activation": "relu", "init": "uniform", "b_regularizer": null, "name": "convolution1d_1_hul_model", "nb_filter": 200, "input_length": null, "b_constraint": null, "activity_regularizer": null, "input_dim": null, "filter_length": 6}, "class_name": "Convolution1D"}, {"config": {"pool_length": 4, "border_mode": "valid", "name": "maxpooling1d_1_hul_model", "stride": 2, "trainable": true}, "class_name": "MaxPooling1D"}, {"config": {"border_mode": "valid", "bias": true, "subsample_length": 1, "W_regularizer": null, "W_constraint": null, "trainable": true, "activation": "relu", "init": "uniform", "b_regularizer": null, "name": "convolution1d_2_hul_model", "nb_filter": 200, "input_length": null, "b_constraint": null, "activity_regularizer": null, "input_dim": null, "filter_length": 6}, "class_name": "Convolution1D"}, {"config": {"pool_length": 66, "border_mode": "valid", "name": "maxpooling1d_2_hul_model", "stride": 66, "trainable": true}, "class_name": "MaxPooling1D"}, {"config": {"trainable": true, "name": "flatten_1_hul_model"}, "class_name": "Flatten"}], "class_name": "Sequential"}], "output_shape": null}, "class_name": "Merge"}, {"config": {"output_dim": 1028, "bias": true, "W_regularizer": null, "W_constraint": null, "trainable": true, "activation": "linear", "init": "glorot_uniform", "b_regularizer": null, "name": "dense_1", "activity_regularizer": null, "input_dim": null, "b_constraint": null}, "class_name": "Dense"}, {"config": {"activation": "relu", "trainable": true, "name": "activation_1"}, "class_name": "Activation"}, {"config": {"output_dim": 3, "bias": true, "W_regularizer": null, "W_constraint": null, "trainable": true, "activation": "softmax", "init": "glorot_uniform", "b_regularizer": null, "name": "dense_2", "activity_regularizer": null, "input_dim": null, "b_constraint": null}, "class_name": "Dense"}], "class_name": "Sequential", "keras_version": "1.1.1"}