{"class_name": "Sequential", "keras_version": "1.1.1", "config": [{"class_name": "Merge", "config": {"mode": "concat", "name": "merge_1", "mode_type": "raw", "dot_axes": -1, "output_shape_type": "raw", "layers": [{"class_name": "Sequential", "config": [{"class_name": "Embedding", "config": {"input_dtype": "int32", "input_dim": 1576890, "W_regularizer": null, "W_constraint": null, "activity_regularizer": null, "output_dim": 52, "trainable": true, "mask_zero": false, "name": "embedding_1_dil_model", "init": "uniform", "input_length": 140, "dropout": 0.2, "batch_input_shape": [null, 140]}}, {"class_name": "ZeroPadding1D", "config": {"trainable": true, "name": "zeropadding1d_1_dil_model", "padding": 5}}, {"class_name": "Convolution1D", "config": {"input_dim": null, "activation": "relu", "W_regularizer": null, "W_constraint": null, "filter_length": 6, "bias": true, "nb_filter": 200, "activity_regularizer": null, "border_mode": "valid", "trainable": true, "name": "convolution1d_1_dil_model", "init": "uniform", "b_regularizer": null, "input_length": null, "subsample_length": 1, "b_constraint": null}}, {"class_name": "MaxPooling1D", "config": {"border_mode": "valid", "trainable": true, "stride": 2, "name": "maxpooling1d_1_dil_model", "pool_length": 4}}, {"class_name": "Convolution1D", "config": {"input_dim": null, "activation": "relu", "W_regularizer": null, "W_constraint": null, "filter_length": 6, "bias": true, "nb_filter": 200, "activity_regularizer": null, "border_mode": "valid", "trainable": true, "name": "convolution1d_2_dil_model", "init": "uniform", "b_regularizer": null, "input_length": null, "subsample_length": 1, "b_constraint": null}}]}, {"class_name": "Sequential", "config": [{"class_name": "Embedding", "config": {"input_dtype": "int32", "input_dim": 1062158, "W_regularizer": null, "W_constraint": null, "activity_regularizer": null, "output_dim": 52, "trainable": true, "mask_zero": false, "name": "embedding_1_hul_model", "init": "uniform", "input_length": 140, "dropout": 0.2, "batch_input_shape": [null, 140]}}, {"class_name": "ZeroPadding1D", "config": {"trainable": true, "name": "zeropadding1d_1_hul_model", "padding": 5}}, {"class_name": "Convolution1D", "config": {"input_dim": null, "activation": "relu", "W_regularizer": null, "W_constraint": null, "filter_length": 6, "bias": true, "nb_filter": 200, "activity_regularizer": null, "border_mode": "valid", "trainable": true, "name": "convolution1d_1_hul_model", "init": "uniform", "b_regularizer": null, "input_length": null, "subsample_length": 1, "b_constraint": null}}, {"class_name": "MaxPooling1D", "config": {"border_mode": "valid", "trainable": true, "stride": 2, "name": "maxpooling1d_1_hul_model", "pool_length": 4}}, {"class_name": "Convolution1D", "config": {"input_dim": null, "activation": "relu", "W_regularizer": null, "W_constraint": null, "filter_length": 6, "bias": true, "nb_filter": 200, "activity_regularizer": null, "border_mode": "valid", "trainable": true, "name": "convolution1d_2_hul_model", "init": "uniform", "b_regularizer": null, "input_length": null, "subsample_length": 1, "b_constraint": null}}]}, {"class_name": "Sequential", "config": [{"class_name": "Embedding", "config": {"input_dtype": "int32", "input_dim": 428669, "W_regularizer": null, "W_constraint": null, "activity_regularizer": null, "output_dim": 52, "trainable": true, "mask_zero": false, "name": "embedding_17_mpq_model", "init": "uniform", "input_length": 140, "dropout": 0.2, "batch_input_shape": [null, 140]}}, {"class_name": "ZeroPadding1D", "config": {"trainable": true, "name": "zeropadding1d_17_mpq_model", "padding": 5}}, {"class_name": "Convolution1D", "config": {"input_dim": null, "activation": "relu", "W_regularizer": null, "W_constraint": null, "filter_length": 6, "bias": true, "nb_filter": 200, "activity_regularizer": null, "border_mode": "valid", "trainable": true, "name": "convolution1d_33_mpq_model", "init": "uniform", "b_regularizer": null, "input_length": null, "subsample_length": 1, "b_constraint": null}}, {"class_name": "MaxPooling1D", "config": {"border_mode": "valid", "trainable": true, "stride": 2, "name": "maxpooling1d_33_mpq_model", "pool_length": 4}}, {"class_name": "Convolution1D", "config": {"input_dim": null, "activation": "relu", "W_regularizer": null, "W_constraint": null, "filter_length": 6, "bias": true, "nb_filter": 200, "activity_regularizer": null, "border_mode": "valid", "trainable": true, "name": "convolution1d_34_mpq_model", "init": "uniform", "b_regularizer": null, "input_length": null, "subsample_length": 1, "b_constraint": null}}]}, {"class_name": "Sequential", "config": [{"class_name": "Embedding", "config": {"input_dtype": "int32", "input_dim": 428669, "W_regularizer": null, "W_constraint": null, "activity_regularizer": null, "output_dim": 52, "trainable": true, "mask_zero": false, "name": "embedding_1_semeval_model", "init": "uniform", "input_length": 140, "dropout": 0.2, "batch_input_shape": [null, 140]}}, {"class_name": "ZeroPadding1D", "config": {"trainable": true, "name": "zeropadding1d_1_semeval_model", "padding": 5}}, {"class_name": "Convolution1D", "config": {"input_dim": null, "activation": "relu", "W_regularizer": null, "W_constraint": null, "filter_length": 6, "bias": true, "nb_filter": 200, "activity_regularizer": null, "border_mode": "valid", "trainable": true, "name": "convolution1d_1_semeval_model", "init": "uniform", "b_regularizer": null, "input_length": null, "subsample_length": 1, "b_constraint": null}}, {"class_name": "MaxPooling1D", "config": {"border_mode": "valid", "trainable": true, "stride": 2, "name": "maxpooling1d_1_semeval_model", "pool_length": 4}}, {"class_name": "Convolution1D", "config": {"input_dim": null, "activation": "relu", "W_regularizer": null, "W_constraint": null, "filter_length": 6, "bias": true, "nb_filter": 200, "activity_regularizer": null, "border_mode": "valid", "trainable": true, "name": "convolution1d_2_semeval_model", "init": "uniform", "b_regularizer": null, "input_length": null, "subsample_length": 1, "b_constraint": null}}]}, {"class_name": "Sequential", "config": [{"class_name": "Embedding", "config": {"input_dtype": "int32", "input_dim": 428669, "W_regularizer": null, "W_constraint": null, "activity_regularizer": null, "output_dim": 52, "trainable": true, "mask_zero": false, "name": "embedding_1_tac_model", "init": "uniform", "input_length": 140, "dropout": 0.2, "batch_input_shape": [null, 140]}}, {"class_name": "ZeroPadding1D", "config": {"trainable": true, "name": "zeropadding1d_1_tac_model", "padding": 5}}, {"class_name": "Convolution1D", "config": {"input_dim": null, "activation": "relu", "W_regularizer": null, "W_constraint": null, "filter_length": 6, "bias": true, "nb_filter": 200, "activity_regularizer": null, "border_mode": "valid", "trainable": true, "name": "convolution1d_1_tac_model", "init": "uniform", "b_regularizer": null, "input_length": null, "subsample_length": 1, "b_constraint": null}}, {"class_name": "MaxPooling1D", "config": {"border_mode": "valid", "trainable": true, "stride": 2, "name": "maxpooling1d_1_tac_model", "pool_length": 4}}, {"class_name": "Convolution1D", "config": {"input_dim": null, "activation": "relu", "W_regularizer": null, "W_constraint": null, "filter_length": 6, "bias": true, "nb_filter": 200, "activity_regularizer": null, "border_mode": "valid", "trainable": true, "name": "convolution1d_2_tac_model", "init": "uniform", "b_regularizer": null, "input_length": null, "subsample_length": 1, "b_constraint": null}}]}], "output_shape": null, "concat_axis": -1}}, {"class_name": "Flatten", "config": {"trainable": true, "name": "flatten_1"}}, {"class_name": "Dense", "config": {"input_dim": null, "activation": "linear", "W_regularizer": null, "W_constraint": null, "bias": true, "b_constraint": null, "output_dim": 200, "trainable": true, "name": "dense_1", "init": "glorot_uniform", "b_regularizer": null, "activity_regularizer": null}}, {"class_name": "Dropout", "config": {"trainable": true, "p": 0.2, "name": "dropout_1"}}, {"class_name": "Activation", "config": {"trainable": true, "name": "activation_1", "activation": "relu"}}, {"class_name": "Dense", "config": {"input_dim": null, "activation": "softmax", "W_regularizer": null, "W_constraint": null, "bias": true, "b_constraint": null, "output_dim": 3, "trainable": true, "name": "dense_2", "init": "glorot_uniform", "b_regularizer": null, "activity_regularizer": null}}]}