{"class_name": "Sequential", "keras_version": "1.1.0", "config": [{"class_name": "Embedding", "config": {"output_dim": 52, "name": "embedding_31", "mask_zero": false, "trainable": true, "batch_input_shape": [null, 140], "init": "uniform", "input_dim": 1576890, "W_regularizer": null, "activity_regularizer": null, "input_length": 140, "W_constraint": null, "input_dtype": "int32", "dropout": 0.2}}, {"class_name": "ZeroPadding1D", "config": {"padding": 5, "trainable": true, "name": "zeropadding1d_31"}}, {"class_name": "Convolution1D", "config": {"bias": true, "b_constraint": null, "border_mode": "valid", "nb_filter": 200, "trainable": true, "name": "convolution1d_61", "init": "uniform", "input_dim": null, "W_regularizer": null, "activity_regularizer": null, "subsample_length": 1, "input_length": null, "filter_length": 6, "W_constraint": null, "activation": "relu", "b_regularizer": null}}, {"class_name": "MaxPooling1D", "config": {"trainable": true, "name": "maxpooling1d_61", "pool_length": 4, "stride": 2, "border_mode": "valid"}}, {"class_name": "Convolution1D", "config": {"bias": true, "b_constraint": null, "border_mode": "valid", "nb_filter": 200, "trainable": true, "name": "convolution1d_62", "init": "uniform", "input_dim": null, "W_regularizer": null, "activity_regularizer": null, "subsample_length": 1, "input_length": null, "filter_length": 6, "W_constraint": null, "activation": "relu", "b_regularizer": null}}, {"class_name": "MaxPooling1D", "config": {"trainable": true, "name": "maxpooling1d_62", "pool_length": 66, "stride": 66, "border_mode": "valid"}}, {"class_name": "Flatten", "config": {"trainable": true, "name": "flatten_31"}}, {"class_name": "Dense", "config": {"output_dim": 200, "bias": true, "trainable": true, "name": "dense_61", "init": "glorot_uniform", "input_dim": null, "W_regularizer": null, "activity_regularizer": null, "b_constraint": null, "W_constraint": null, "activation": "linear", "b_regularizer": null}}, {"class_name": "Dropout", "config": {"trainable": true, "name": "dropout_31", "p": 0.2}}, {"class_name": "Activation", "config": {"trainable": true, "name": "activation_31", "activation": "relu"}}, {"class_name": "Dense", "config": {"output_dim": 3, "bias": true, "trainable": true, "name": "dense_62", "init": "glorot_uniform", "input_dim": null, "W_regularizer": null, "activity_regularizer": null, "b_constraint": null, "W_constraint": null, "activation": "softmax", "b_regularizer": null}}]}