{"keras_version": "1.1.1", "class_name": "Sequential", "config": [{"class_name": "Merge", "config": {"mode": "concat", "concat_axis": -1, "dot_axes": -1, "mode_type": "raw", "layers": [{"class_name": "Sequential", "config": [{"class_name": "Embedding", "config": {"batch_input_shape": [null, 140], "input_dtype": "int32", "trainable": true, "W_constraint": null, "activity_regularizer": null, "init": "uniform", "dropout": 0.2, "input_dim": 1576890, "output_dim": 52, "W_regularizer": null, "mask_zero": false, "input_length": 140, "name": "embedding_1_dil_model"}}, {"class_name": "ZeroPadding1D", "config": {"name": "zeropadding1d_1_dil_model", "trainable": true, "padding": 5}}, {"class_name": "Convolution1D", "config": {"activation": "relu", "subsample_length": 1, "b_regularizer": null, "nb_filter": 200, "trainable": true, "border_mode": "valid", "W_constraint": null, "activity_regularizer": null, "init": "uniform", "input_dim": null, "filter_length": 6, "bias": true, "W_regularizer": null, "input_length": null, "b_constraint": null, "name": "convolution1d_1_dil_model"}}, {"class_name": "MaxPooling1D", "config": {"pool_length": 4, "name": "maxpooling1d_1_dil_model", "border_mode": "valid", "trainable": true, "stride": 2}}, {"class_name": "Convolution1D", "config": {"activation": "relu", "subsample_length": 1, "b_regularizer": null, "nb_filter": 200, "trainable": true, "border_mode": "valid", "W_constraint": null, "activity_regularizer": null, "init": "uniform", "input_dim": null, "filter_length": 6, "bias": true, "W_regularizer": null, "input_length": null, "b_constraint": null, "name": "convolution1d_2_dil_model"}}]}, {"class_name": "Sequential", "config": [{"class_name": "Embedding", "config": {"batch_input_shape": [null, 140], "input_dtype": "int32", "trainable": true, "W_constraint": null, "activity_regularizer": null, "init": "uniform", "dropout": 0.2, "input_dim": 1576890, "output_dim": 52, "W_regularizer": null, "mask_zero": false, "input_length": 140, "name": "embedding_1_semeval_model"}}, {"class_name": "ZeroPadding1D", "config": {"name": "zeropadding1d_1_semeval_model", "trainable": true, "padding": 5}}, {"class_name": "Convolution1D", "config": {"activation": "relu", "subsample_length": 1, "b_regularizer": null, "nb_filter": 200, "trainable": true, "border_mode": "valid", "W_constraint": null, "activity_regularizer": null, "init": "uniform", "input_dim": null, "filter_length": 6, "bias": true, "W_regularizer": null, "input_length": null, "b_constraint": null, "name": "convolution1d_1_semeval_model"}}, {"class_name": "MaxPooling1D", "config": {"pool_length": 4, "name": "maxpooling1d_1_semeval_model", "border_mode": "valid", "trainable": true, "stride": 2}}, {"class_name": "Convolution1D", "config": {"activation": "relu", "subsample_length": 1, "b_regularizer": null, "nb_filter": 200, "trainable": true, "border_mode": "valid", "W_constraint": null, "activity_regularizer": null, "init": "uniform", "input_dim": null, "filter_length": 6, "bias": true, "W_regularizer": null, "input_length": null, "b_constraint": null, "name": "convolution1d_2_semeval_model"}}]}], "output_shape": null, "output_shape_type": "raw", "name": "merge_1"}}, {"class_name": "MaxPooling1D", "config": {"pool_length": 4, "trainable": true, "border_mode": "valid", "name": "maxpooling1d_1", "stride": 2}}, {"class_name": "Convolution1D", "config": {"activation": "relu", "subsample_length": 1, "b_regularizer": null, "nb_filter": 200, "trainable": true, "input_dim": null, "W_constraint": null, "init": "uniform", "name": "convolution1d_1", "border_mode": "valid", "filter_length": 6, "bias": true, "W_regularizer": null, "input_length": null, "b_constraint": null, "activity_regularizer": null}}, {"class_name": "MaxPooling1D", "config": {"pool_length": 4, "trainable": true, "border_mode": "valid", "name": "maxpooling1d_2", "stride": 2}}, {"class_name": "Flatten", "config": {"name": "flatten_1", "trainable": true}}, {"class_name": "Dense", "config": {"activation": "linear", "b_regularizer": null, "trainable": true, "activity_regularizer": null, "output_dim": 200, "init": "glorot_uniform", "input_dim": null, "W_constraint": null, "bias": true, "W_regularizer": null, "b_constraint": null, "name": "dense_1"}}, {"class_name": "Dropout", "config": {"trainable": true, "p": 0.2, "name": "dropout_1"}}, {"class_name": "Activation", "config": {"trainable": true, "name": "activation_1", "activation": "relu"}}, {"class_name": "Dense", "config": {"activation": "softmax", "b_regularizer": null, "trainable": true, "activity_regularizer": null, "output_dim": 3, "init": "glorot_uniform", "input_dim": null, "W_constraint": null, "bias": true, "W_regularizer": null, "b_constraint": null, "name": "dense_2"}}]}