{"class_name": "Sequential", "keras_version": "1.1.1", "config": [{"class_name": "Merge", "config": {"layers": [{"class_name": "Sequential", "config": [{"class_name": "Embedding", "config": {"input_dim": 1576890, "activity_regularizer": null, "input_length": 140, "name": "embedding_1_dai_model", "trainable": true, "dropout": 0.2, "mask_zero": false, "output_dim": 52, "batch_input_shape": [null, 140], "W_constraint": null, "W_regularizer": null, "init": "uniform", "input_dtype": "int32"}}, {"class_name": "ZeroPadding1D", "config": {"padding": 5, "name": "zeropadding1d_1_dai_model", "trainable": true}}, {"class_name": "Convolution1D", "config": {"border_mode": "valid", "input_dim": null, "activity_regularizer": null, "input_length": null, "name": "convolution1d_1_dai_model", "trainable": true, "activation": "relu", "bias": true, "nb_filter": 200, "W_constraint": null, "b_regularizer": null, "subsample_length": 1, "W_regularizer": null, "b_constraint": null, "init": "uniform", "filter_length": 6}}, {"class_name": "MaxPooling1D", "config": {"pool_length": 4, "border_mode": "valid", "stride": 2, "name": "maxpooling1d_1_dai_model", "trainable": true}}, {"class_name": "Convolution1D", "config": {"border_mode": "valid", "input_dim": null, "activity_regularizer": null, "input_length": null, "name": "convolution1d_2_dai_model", "trainable": true, "activation": "relu", "bias": true, "nb_filter": 200, "W_constraint": null, "b_regularizer": null, "subsample_length": 1, "W_regularizer": null, "b_constraint": null, "init": "uniform", "filter_length": 6}}]}, {"class_name": "Sequential", "config": [{"class_name": "Embedding", "config": {"input_dim": 1576890, "activity_regularizer": null, "input_length": 140, "name": "embedding_1_dil_model", "trainable": true, "dropout": 0.2, "mask_zero": false, "output_dim": 52, "batch_input_shape": [null, 140], "W_constraint": null, "W_regularizer": null, "init": "uniform", "input_dtype": "int32"}}, {"class_name": "ZeroPadding1D", "config": {"padding": 5, "name": "zeropadding1d_1_dil_model", "trainable": true}}, {"class_name": "Convolution1D", "config": {"border_mode": "valid", "input_dim": null, "activity_regularizer": null, "input_length": null, "name": "convolution1d_1_dil_model", "trainable": true, "activation": "relu", "bias": true, "nb_filter": 200, "W_constraint": null, "b_regularizer": null, "subsample_length": 1, "W_regularizer": null, "b_constraint": null, "init": "uniform", "filter_length": 6}}, {"class_name": "MaxPooling1D", "config": {"pool_length": 4, "border_mode": "valid", "stride": 2, "name": "maxpooling1d_1_dil_model", "trainable": true}}, {"class_name": "Convolution1D", "config": {"border_mode": "valid", "input_dim": null, "activity_regularizer": null, "input_length": null, "name": "convolution1d_2_dil_model", "trainable": true, "activation": "relu", "bias": true, "nb_filter": 200, "W_constraint": null, "b_regularizer": null, "subsample_length": 1, "W_regularizer": null, "b_constraint": null, "init": "uniform", "filter_length": 6}}]}, {"class_name": "Sequential", "config": [{"class_name": "Embedding", "config": {"input_dim": 428669, "activity_regularizer": null, "input_length": 140, "name": "embedding_17_mpq_model", "trainable": true, "dropout": 0.2, "mask_zero": false, "output_dim": 52, "batch_input_shape": [null, 140], "W_constraint": null, "W_regularizer": null, "init": "uniform", "input_dtype": "int32"}}, {"class_name": "ZeroPadding1D", "config": {"padding": 5, "name": "zeropadding1d_17_mpq_model", "trainable": true}}, {"class_name": "Convolution1D", "config": {"border_mode": "valid", "input_dim": null, "activity_regularizer": null, "input_length": null, "name": "convolution1d_33_mpq_model", "trainable": true, "activation": "relu", "bias": true, "nb_filter": 200, "W_constraint": null, "b_regularizer": null, "subsample_length": 1, "W_regularizer": null, "b_constraint": null, "init": "uniform", "filter_length": 6}}, {"class_name": "MaxPooling1D", "config": {"pool_length": 4, "border_mode": "valid", "stride": 2, "name": "maxpooling1d_33_mpq_model", "trainable": true}}, {"class_name": "Convolution1D", "config": {"border_mode": "valid", "input_dim": null, "activity_regularizer": null, "input_length": null, "name": "convolution1d_34_mpq_model", "trainable": true, "activation": "relu", "bias": true, "nb_filter": 200, "W_constraint": null, "b_regularizer": null, "subsample_length": 1, "W_regularizer": null, "b_constraint": null, "init": "uniform", "filter_length": 6}}]}, {"class_name": "Sequential", "config": [{"class_name": "Embedding", "config": {"input_dim": 1576890, "activity_regularizer": null, "input_length": 140, "name": "embedding_1_semeval_model", "trainable": true, "dropout": 0.2, "mask_zero": false, "output_dim": 52, "batch_input_shape": [null, 140], "W_constraint": null, "W_regularizer": null, "init": "uniform", "input_dtype": "int32"}}, {"class_name": "ZeroPadding1D", "config": {"padding": 5, "name": "zeropadding1d_1_semeval_model", "trainable": true}}, {"class_name": "Convolution1D", "config": {"border_mode": "valid", "input_dim": null, "activity_regularizer": null, "input_length": null, "name": "convolution1d_1_semeval_model", "trainable": true, "activation": "relu", "bias": true, "nb_filter": 200, "W_constraint": null, "b_regularizer": null, "subsample_length": 1, "W_regularizer": null, "b_constraint": null, "init": "uniform", "filter_length": 6}}, {"class_name": "MaxPooling1D", "config": {"pool_length": 4, "border_mode": "valid", "stride": 2, "name": "maxpooling1d_1_semeval_model", "trainable": true}}, {"class_name": "Convolution1D", "config": {"border_mode": "valid", "input_dim": null, "activity_regularizer": null, "input_length": null, "name": "convolution1d_2_semeval_model", "trainable": true, "activation": "relu", "bias": true, "nb_filter": 200, "W_constraint": null, "b_regularizer": null, "subsample_length": 1, "W_regularizer": null, "b_constraint": null, "init": "uniform", "filter_length": 6}}]}], "mode_type": "raw", "name": "merge_1", "output_shape_type": "raw", "output_shape": null, "dot_axes": -1, "mode": "concat", "concat_axis": -1}}, {"class_name": "MaxPooling1D", "config": {"pool_length": 4, "border_mode": "valid", "stride": 2, "name": "maxpooling1d_1", "trainable": true}}, {"class_name": "Convolution1D", "config": {"border_mode": "valid", "input_dim": null, "activity_regularizer": null, "input_length": null, "name": "convolution1d_1", "trainable": true, "activation": "relu", "bias": true, "nb_filter": 200, "W_constraint": null, "b_regularizer": null, "subsample_length": 1, "W_regularizer": null, "b_constraint": null, "init": "uniform", "filter_length": 6}}, {"class_name": "MaxPooling1D", "config": {"pool_length": 4, "border_mode": "valid", "stride": 2, "name": "maxpooling1d_2", "trainable": true}}, {"class_name": "Flatten", "config": {"name": "flatten_1", "trainable": true}}, {"class_name": "Dense", "config": {"input_dim": null, "activity_regularizer": null, "name": "dense_1", "trainable": true, "activation": "linear", "bias": true, "output_dim": 200, "W_constraint": null, "b_regularizer": null, "W_regularizer": null, "b_constraint": null, "init": "glorot_uniform"}}, {"class_name": "Dropout", "config": {"p": 0.2, "name": "dropout_1", "trainable": true}}, {"class_name": "Activation", "config": {"activation": "relu", "name": "activation_1", "trainable": true}}, {"class_name": "Dense", "config": {"input_dim": null, "activity_regularizer": null, "name": "dense_2", "trainable": true, "activation": "softmax", "bias": true, "output_dim": 3, "W_constraint": null, "b_regularizer": null, "W_regularizer": null, "b_constraint": null, "init": "glorot_uniform"}}]}