{"config": [{"config": {"dot_axes": -1, "mode_type": "raw", "output_shape_type": "raw", "layers": [{"config": [{"config": {"W_constraint": null, "input_dtype": "int32", "input_dim": 1576890, "W_regularizer": null, "trainable": true, "name": "embedding_1_dil_model", "input_length": 140, "init": "uniform", "batch_input_shape": [null, 140], "output_dim": 52, "activity_regularizer": null, "mask_zero": false, "dropout": 0.2}, "class_name": "Embedding"}, {"config": {"padding": 5, "trainable": true, "name": "zeropadding1d_1_dil_model"}, "class_name": "ZeroPadding1D"}, {"config": {"activation": "relu", "W_constraint": null, "bias": true, "input_dim": null, "W_regularizer": null, "nb_filter": 200, "trainable": true, "name": "convolution1d_1_dil_model", "input_length": null, "subsample_length": 1, "init": "uniform", "filter_length": 6, "b_regularizer": null, "b_constraint": null, "activity_regularizer": null, "border_mode": "valid"}, "class_name": "Convolution1D"}, {"config": {"border_mode": "valid", "stride": 2, "trainable": true, "pool_length": 4, "name": "maxpooling1d_1_dil_model"}, "class_name": "MaxPooling1D"}, {"config": {"activation": "relu", "W_constraint": null, "bias": true, "input_dim": null, "W_regularizer": null, "nb_filter": 200, "trainable": true, "name": "convolution1d_2_dil_model", "input_length": null, "subsample_length": 1, "init": "uniform", "filter_length": 6, "b_regularizer": null, "b_constraint": null, "activity_regularizer": null, "border_mode": "valid"}, "class_name": "Convolution1D"}], "class_name": "Sequential"}, {"config": [{"config": {"W_constraint": null, "input_dtype": "int32", "input_dim": 1576890, "W_regularizer": null, "trainable": true, "name": "embedding_1_semeval_model", "input_length": 140, "init": "uniform", "batch_input_shape": [null, 140], "output_dim": 52, "activity_regularizer": null, "mask_zero": false, "dropout": 0.2}, "class_name": "Embedding"}, {"config": {"padding": 5, "trainable": true, "name": "zeropadding1d_1_semeval_model"}, "class_name": "ZeroPadding1D"}, {"config": {"activation": "relu", "W_constraint": null, "bias": true, "input_dim": null, "W_regularizer": null, "nb_filter": 200, "trainable": true, "name": "convolution1d_1_semeval_model", "input_length": null, "subsample_length": 1, "init": "uniform", "filter_length": 6, "b_regularizer": null, "b_constraint": null, "activity_regularizer": null, "border_mode": "valid"}, "class_name": "Convolution1D"}, {"config": {"border_mode": "valid", "stride": 2, "trainable": true, "pool_length": 4, "name": "maxpooling1d_1_semeval_model"}, "class_name": "MaxPooling1D"}, {"config": {"activation": "relu", "W_constraint": null, "bias": true, "input_dim": null, "W_regularizer": null, "nb_filter": 200, "trainable": true, "name": "convolution1d_2_semeval_model", "input_length": null, "subsample_length": 1, "init": "uniform", "filter_length": 6, "b_regularizer": null, "b_constraint": null, "activity_regularizer": null, "border_mode": "valid"}, "class_name": "Convolution1D"}], "class_name": "Sequential"}, {"config": [{"config": {"W_constraint": null, "input_dtype": "int32", "input_dim": 428669, "W_regularizer": null, "trainable": true, "name": "embedding_1_tac_model", "input_length": 140, "init": "uniform", "batch_input_shape": [null, 140], "output_dim": 52, "activity_regularizer": null, "mask_zero": false, "dropout": 0.2}, "class_name": "Embedding"}, {"config": {"padding": 5, "trainable": true, "name": "zeropadding1d_1_tac_model"}, "class_name": "ZeroPadding1D"}, {"config": {"activation": "relu", "W_constraint": null, "bias": true, "input_dim": null, "W_regularizer": null, "nb_filter": 200, "trainable": true, "name": "convolution1d_1_tac_model", "input_length": null, "subsample_length": 1, "init": "uniform", "filter_length": 6, "b_regularizer": null, "b_constraint": null, "activity_regularizer": null, "border_mode": "valid"}, "class_name": "Convolution1D"}, {"config": {"border_mode": "valid", "stride": 2, "trainable": true, "pool_length": 4, "name": "maxpooling1d_1_tac_model"}, "class_name": "MaxPooling1D"}, {"config": {"activation": "relu", "W_constraint": null, "bias": true, "input_dim": null, "W_regularizer": null, "nb_filter": 200, "trainable": true, "name": "convolution1d_2_tac_model", "input_length": null, "subsample_length": 1, "init": "uniform", "filter_length": 6, "b_regularizer": null, "b_constraint": null, "activity_regularizer": null, "border_mode": "valid"}, "class_name": "Convolution1D"}], "class_name": "Sequential"}], "output_shape": null, "mode": "concat", "concat_axis": -1, "name": "merge_1"}, "class_name": "Merge"}, {"config": {"name": "maxpooling1d_1", "stride": 2, "trainable": true, "pool_length": 4, "border_mode": "valid"}, "class_name": "MaxPooling1D"}, {"config": {"activation": "relu", "W_constraint": null, "bias": true, "input_dim": null, "W_regularizer": null, "nb_filter": 200, "trainable": true, "name": "convolution1d_1", "input_length": null, "subsample_length": 1, "init": "uniform", "filter_length": 6, "b_regularizer": null, "b_constraint": null, "activity_regularizer": null, "border_mode": "valid"}, "class_name": "Convolution1D"}, {"config": {"name": "maxpooling1d_2", "stride": 2, "trainable": true, "pool_length": 4, "border_mode": "valid"}, "class_name": "MaxPooling1D"}, {"config": {"trainable": true, "name": "flatten_1"}, "class_name": "Flatten"}, {"config": {"activation": "linear", "W_constraint": null, "bias": true, "input_dim": null, "W_regularizer": null, "trainable": true, "name": "dense_1", "init": "glorot_uniform", "output_dim": 200, "b_constraint": null, "b_regularizer": null, "activity_regularizer": null}, "class_name": "Dense"}, {"config": {"p": 0.2, "trainable": true, "name": "dropout_1"}, "class_name": "Dropout"}, {"config": {"activation": "relu", "trainable": true, "name": "activation_1"}, "class_name": "Activation"}, {"config": {"activation": "softmax", "W_constraint": null, "bias": true, "input_dim": null, "W_regularizer": null, "trainable": true, "name": "dense_2", "init": "glorot_uniform", "output_dim": 3, "b_constraint": null, "b_regularizer": null, "activity_regularizer": null}, "class_name": "Dense"}], "class_name": "Sequential", "keras_version": "1.1.1"}