{"class_name": "Sequential", "keras_version": "1.1.1", "config": [{"class_name": "Merge", "config": {"output_shape": null, "output_shape_type": "raw", "concat_axis": -1, "mode": "concat", "dot_axes": -1, "layers": [{"class_name": "Sequential", "config": [{"class_name": "Embedding", "config": {"dropout": 0.2, "W_regularizer": null, "batch_input_shape": [null, 140], "activity_regularizer": null, "init": "uniform", "output_dim": 52, "W_constraint": null, "input_dtype": "int32", "input_length": 140, "trainable": true, "name": "embedding_1_dil_model", "mask_zero": false, "input_dim": 1576890}}, {"class_name": "ZeroPadding1D", "config": {"padding": 5, "name": "zeropadding1d_1_dil_model", "trainable": true}}, {"class_name": "Convolution1D", "config": {"W_constraint": null, "bias": true, "input_dim": null, "activation": "relu", "activity_regularizer": null, "subsample_length": 1, "W_regularizer": null, "trainable": true, "border_mode": "valid", "b_regularizer": null, "b_constraint": null, "input_length": null, "nb_filter": 200, "init": "uniform", "name": "convolution1d_1_dil_model", "filter_length": 6}}, {"class_name": "MaxPooling1D", "config": {"pool_length": 4, "stride": 2, "name": "maxpooling1d_1_dil_model", "border_mode": "valid", "trainable": true}}, {"class_name": "Convolution1D", "config": {"W_constraint": null, "bias": true, "input_dim": null, "activation": "relu", "activity_regularizer": null, "subsample_length": 1, "W_regularizer": null, "trainable": true, "border_mode": "valid", "b_regularizer": null, "b_constraint": null, "input_length": null, "nb_filter": 200, "init": "uniform", "name": "convolution1d_2_dil_model", "filter_length": 6}}]}, {"class_name": "Sequential", "config": [{"class_name": "Embedding", "config": {"dropout": 0.2, "W_regularizer": null, "batch_input_shape": [null, 140], "activity_regularizer": null, "init": "uniform", "output_dim": 52, "W_constraint": null, "input_dtype": "int32", "input_length": 140, "trainable": true, "name": "embedding_1_hul_model", "mask_zero": false, "input_dim": 1062158}}, {"class_name": "ZeroPadding1D", "config": {"padding": 5, "name": "zeropadding1d_1_hul_model", "trainable": true}}, {"class_name": "Convolution1D", "config": {"W_constraint": null, "bias": true, "input_dim": null, "activation": "relu", "activity_regularizer": null, "subsample_length": 1, "W_regularizer": null, "trainable": true, "border_mode": "valid", "b_regularizer": null, "b_constraint": null, "input_length": null, "nb_filter": 200, "init": "uniform", "name": "convolution1d_1_hul_model", "filter_length": 6}}, {"class_name": "MaxPooling1D", "config": {"pool_length": 4, "stride": 2, "name": "maxpooling1d_1_hul_model", "border_mode": "valid", "trainable": true}}, {"class_name": "Convolution1D", "config": {"W_constraint": null, "bias": true, "input_dim": null, "activation": "relu", "activity_regularizer": null, "subsample_length": 1, "W_regularizer": null, "trainable": true, "border_mode": "valid", "b_regularizer": null, "b_constraint": null, "input_length": null, "nb_filter": 200, "init": "uniform", "name": "convolution1d_2_hul_model", "filter_length": 6}}]}, {"class_name": "Sequential", "config": [{"class_name": "Embedding", "config": {"dropout": 0.2, "W_regularizer": null, "batch_input_shape": [null, 140], "activity_regularizer": null, "init": "uniform", "output_dim": 52, "W_constraint": null, "input_dtype": "int32", "input_length": 140, "trainable": true, "name": "embedding_1_tac_model", "mask_zero": false, "input_dim": 428669}}, {"class_name": "ZeroPadding1D", "config": {"padding": 5, "name": "zeropadding1d_1_tac_model", "trainable": true}}, {"class_name": "Convolution1D", "config": {"W_constraint": null, "bias": true, "input_dim": null, "activation": "relu", "activity_regularizer": null, "subsample_length": 1, "W_regularizer": null, "trainable": true, "border_mode": "valid", "b_regularizer": null, "b_constraint": null, "input_length": null, "nb_filter": 200, "init": "uniform", "name": "convolution1d_1_tac_model", "filter_length": 6}}, {"class_name": "MaxPooling1D", "config": {"pool_length": 4, "stride": 2, "name": "maxpooling1d_1_tac_model", "border_mode": "valid", "trainable": true}}, {"class_name": "Convolution1D", "config": {"W_constraint": null, "bias": true, "input_dim": null, "activation": "relu", "activity_regularizer": null, "subsample_length": 1, "W_regularizer": null, "trainable": true, "border_mode": "valid", "b_regularizer": null, "b_constraint": null, "input_length": null, "nb_filter": 200, "init": "uniform", "name": "convolution1d_2_tac_model", "filter_length": 6}}]}, {"class_name": "Sequential", "config": [{"class_name": "Embedding", "config": {"dropout": 0.2, "W_regularizer": null, "batch_input_shape": [null, 140], "activity_regularizer": null, "init": "uniform", "output_dim": 52, "W_constraint": null, "input_dtype": "int32", "input_length": 140, "trainable": true, "name": "embedding_17_mpq_model", "mask_zero": false, "input_dim": 428669}}, {"class_name": "ZeroPadding1D", "config": {"padding": 5, "name": "zeropadding1d_17_mpq_model", "trainable": true}}, {"class_name": "Convolution1D", "config": {"W_constraint": null, "bias": true, "input_dim": null, "activation": "relu", "activity_regularizer": null, "subsample_length": 1, "W_regularizer": null, "trainable": true, "border_mode": "valid", "b_regularizer": null, "b_constraint": null, "input_length": null, "nb_filter": 200, "init": "uniform", "name": "convolution1d_33_mpq_model", "filter_length": 6}}, {"class_name": "MaxPooling1D", "config": {"pool_length": 4, "stride": 2, "name": "maxpooling1d_33_mpq_model", "border_mode": "valid", "trainable": true}}, {"class_name": "Convolution1D", "config": {"W_constraint": null, "bias": true, "input_dim": null, "activation": "relu", "activity_regularizer": null, "subsample_length": 1, "W_regularizer": null, "trainable": true, "border_mode": "valid", "b_regularizer": null, "b_constraint": null, "input_length": null, "nb_filter": 200, "init": "uniform", "name": "convolution1d_34_mpq_model", "filter_length": 6}}]}, {"class_name": "Sequential", "config": [{"class_name": "Embedding", "config": {"dropout": 0.2, "W_regularizer": null, "batch_input_shape": [null, 140], "activity_regularizer": null, "init": "uniform", "output_dim": 52, "W_constraint": null, "input_dtype": "int32", "input_length": 140, "trainable": true, "name": "embedding_1_dai_model", "mask_zero": false, "input_dim": 1576890}}, {"class_name": "ZeroPadding1D", "config": {"padding": 5, "name": "zeropadding1d_1_dai_model", "trainable": true}}, {"class_name": "Convolution1D", "config": {"W_constraint": null, "bias": true, "input_dim": null, "activation": "relu", "activity_regularizer": null, "subsample_length": 1, "W_regularizer": null, "trainable": true, "border_mode": "valid", "b_regularizer": null, "b_constraint": null, "input_length": null, "nb_filter": 200, "init": "uniform", "name": "convolution1d_1_dai_model", "filter_length": 6}}, {"class_name": "MaxPooling1D", "config": {"pool_length": 4, "stride": 2, "name": "maxpooling1d_1_dai_model", "border_mode": "valid", "trainable": true}}, {"class_name": "Convolution1D", "config": {"W_constraint": null, "bias": true, "input_dim": null, "activation": "relu", "activity_regularizer": null, "subsample_length": 1, "W_regularizer": null, "trainable": true, "border_mode": "valid", "b_regularizer": null, "b_constraint": null, "input_length": null, "nb_filter": 200, "init": "uniform", "name": "convolution1d_2_dai_model", "filter_length": 6}}]}, {"class_name": "Sequential", "config": [{"class_name": "Embedding", "config": {"dropout": 0.2, "W_regularizer": null, "batch_input_shape": [null, 140], "activity_regularizer": null, "init": "uniform", "output_dim": 52, "W_constraint": null, "input_dtype": "int32", "input_length": 140, "trainable": true, "name": "embedding_1_semeval_model", "mask_zero": false, "input_dim": 428669}}, {"class_name": "ZeroPadding1D", "config": {"padding": 5, "name": "zeropadding1d_1_semeval_model", "trainable": true}}, {"class_name": "Convolution1D", "config": {"W_constraint": null, "bias": true, "input_dim": null, "activation": "relu", "activity_regularizer": null, "subsample_length": 1, "W_regularizer": null, "trainable": true, "border_mode": "valid", "b_regularizer": null, "b_constraint": null, "input_length": null, "nb_filter": 200, "init": "uniform", "name": "convolution1d_1_semeval_model", "filter_length": 6}}, {"class_name": "MaxPooling1D", "config": {"pool_length": 4, "stride": 2, "name": "maxpooling1d_1_semeval_model", "border_mode": "valid", "trainable": true}}, {"class_name": "Convolution1D", "config": {"W_constraint": null, "bias": true, "input_dim": null, "activation": "relu", "activity_regularizer": null, "subsample_length": 1, "W_regularizer": null, "trainable": true, "border_mode": "valid", "b_regularizer": null, "b_constraint": null, "input_length": null, "nb_filter": 200, "init": "uniform", "name": "convolution1d_2_semeval_model", "filter_length": 6}}]}], "name": "merge_1", "mode_type": "raw"}}, {"class_name": "Flatten", "config": {"name": "flatten_1", "trainable": true}}, {"class_name": "Dense", "config": {"W_regularizer": null, "bias": true, "input_dim": null, "activation": "linear", "activity_regularizer": null, "init": "glorot_uniform", "output_dim": 200, "W_constraint": null, "trainable": true, "b_regularizer": null, "b_constraint": null, "name": "dense_1"}}, {"class_name": "Dropout", "config": {"name": "dropout_1", "trainable": true, "p": 0.2}}, {"class_name": "Activation", "config": {"activation": "relu", "name": "activation_1", "trainable": true}}, {"class_name": "Dense", "config": {"W_regularizer": null, "bias": true, "input_dim": null, "activation": "softmax", "activity_regularizer": null, "init": "glorot_uniform", "output_dim": 3, "W_constraint": null, "trainable": true, "b_regularizer": null, "b_constraint": null, "name": "dense_2"}}]}