{"keras_version": "1.1.1", "class_name": "Sequential", "config": [{"class_name": "Merge", "config": {"name": "merge_1", "output_shape_type": "raw", "mode_type": "raw", "mode": "concat", "concat_axis": -1, "layers": [{"class_name": "Sequential", "config": [{"class_name": "Embedding", "config": {"W_constraint": null, "input_dtype": "int32", "name": "embedding_17_mpq_model", "activity_regularizer": null, "trainable": true, "batch_input_shape": [null, 140], "input_length": 140, "dropout": 0.2, "output_dim": 52, "W_regularizer": null, "mask_zero": false, "input_dim": 428669, "init": "uniform"}}, {"class_name": "ZeroPadding1D", "config": {"name": "zeropadding1d_17_mpq_model", "padding": 5, "trainable": true}}, {"class_name": "Convolution1D", "config": {"trainable": true, "filter_length": 6, "name": "convolution1d_33_mpq_model", "W_regularizer": null, "W_constraint": null, "subsample_length": 1, "border_mode": "valid", "input_length": null, "activity_regularizer": null, "nb_filter": 200, "b_regularizer": null, "input_dim": null, "activation": "relu", "init": "uniform", "bias": true, "b_constraint": null}}, {"class_name": "MaxPooling1D", "config": {"name": "maxpooling1d_33_mpq_model", "pool_length": 4, "trainable": true, "stride": 2, "border_mode": "valid"}}, {"class_name": "Convolution1D", "config": {"trainable": true, "filter_length": 6, "name": "convolution1d_34_mpq_model", "W_regularizer": null, "W_constraint": null, "subsample_length": 1, "border_mode": "valid", "input_length": null, "activity_regularizer": null, "nb_filter": 200, "b_regularizer": null, "input_dim": null, "activation": "relu", "init": "uniform", "bias": true, "b_constraint": null}}]}, {"class_name": "Sequential", "config": [{"class_name": "Embedding", "config": {"W_constraint": null, "input_dtype": "int32", "name": "embedding_1_hul_model", "activity_regularizer": null, "trainable": true, "batch_input_shape": [null, 140], "input_length": 140, "dropout": 0.2, "output_dim": 52, "W_regularizer": null, "mask_zero": false, "input_dim": 1062158, "init": "uniform"}}, {"class_name": "ZeroPadding1D", "config": {"name": "zeropadding1d_1_hul_model", "padding": 5, "trainable": true}}, {"class_name": "Convolution1D", "config": {"trainable": true, "filter_length": 6, "name": "convolution1d_1_hul_model", "W_regularizer": null, "W_constraint": null, "subsample_length": 1, "border_mode": "valid", "input_length": null, "activity_regularizer": null, "nb_filter": 200, "b_regularizer": null, "input_dim": null, "activation": "relu", "init": "uniform", "bias": true, "b_constraint": null}}, {"class_name": "MaxPooling1D", "config": {"name": "maxpooling1d_1_hul_model", "pool_length": 4, "trainable": true, "stride": 2, "border_mode": "valid"}}, {"class_name": "Convolution1D", "config": {"trainable": true, "filter_length": 6, "name": "convolution1d_2_hul_model", "W_regularizer": null, "W_constraint": null, "subsample_length": 1, "border_mode": "valid", "input_length": null, "activity_regularizer": null, "nb_filter": 200, "b_regularizer": null, "input_dim": null, "activation": "relu", "init": "uniform", "bias": true, "b_constraint": null}}]}, {"class_name": "Sequential", "config": [{"class_name": "Embedding", "config": {"W_constraint": null, "input_dtype": "int32", "name": "embedding_1_dil_model", "activity_regularizer": null, "trainable": true, "batch_input_shape": [null, 140], "input_length": 140, "dropout": 0.2, "output_dim": 52, "W_regularizer": null, "mask_zero": false, "input_dim": 1576890, "init": "uniform"}}, {"class_name": "ZeroPadding1D", "config": {"name": "zeropadding1d_1_dil_model", "padding": 5, "trainable": true}}, {"class_name": "Convolution1D", "config": {"trainable": true, "filter_length": 6, "name": "convolution1d_1_dil_model", "W_regularizer": null, "W_constraint": null, "subsample_length": 1, "border_mode": "valid", "input_length": null, "activity_regularizer": null, "nb_filter": 200, "b_regularizer": null, "input_dim": null, "activation": "relu", "init": "uniform", "bias": true, "b_constraint": null}}, {"class_name": "MaxPooling1D", "config": {"name": "maxpooling1d_1_dil_model", "pool_length": 4, "trainable": true, "stride": 2, "border_mode": "valid"}}, {"class_name": "Convolution1D", "config": {"trainable": true, "filter_length": 6, "name": "convolution1d_2_dil_model", "W_regularizer": null, "W_constraint": null, "subsample_length": 1, "border_mode": "valid", "input_length": null, "activity_regularizer": null, "nb_filter": 200, "b_regularizer": null, "input_dim": null, "activation": "relu", "init": "uniform", "bias": true, "b_constraint": null}}]}, {"class_name": "Sequential", "config": [{"class_name": "Embedding", "config": {"W_constraint": null, "input_dtype": "int32", "name": "embedding_1_tac_model", "activity_regularizer": null, "trainable": true, "batch_input_shape": [null, 140], "input_length": 140, "dropout": 0.2, "output_dim": 52, "W_regularizer": null, "mask_zero": false, "input_dim": 428669, "init": "uniform"}}, {"class_name": "ZeroPadding1D", "config": {"name": "zeropadding1d_1_tac_model", "padding": 5, "trainable": true}}, {"class_name": "Convolution1D", "config": {"trainable": true, "filter_length": 6, "name": "convolution1d_1_tac_model", "W_regularizer": null, "W_constraint": null, "subsample_length": 1, "border_mode": "valid", "input_length": null, "activity_regularizer": null, "nb_filter": 200, "b_regularizer": null, "input_dim": null, "activation": "relu", "init": "uniform", "bias": true, "b_constraint": null}}, {"class_name": "MaxPooling1D", "config": {"name": "maxpooling1d_1_tac_model", "pool_length": 4, "trainable": true, "stride": 2, "border_mode": "valid"}}, {"class_name": "Convolution1D", "config": {"trainable": true, "filter_length": 6, "name": "convolution1d_2_tac_model", "W_regularizer": null, "W_constraint": null, "subsample_length": 1, "border_mode": "valid", "input_length": null, "activity_regularizer": null, "nb_filter": 200, "b_regularizer": null, "input_dim": null, "activation": "relu", "init": "uniform", "bias": true, "b_constraint": null}}]}, {"class_name": "Sequential", "config": [{"class_name": "Embedding", "config": {"W_constraint": null, "input_dtype": "int32", "name": "embedding_1_dai_model", "activity_regularizer": null, "trainable": true, "batch_input_shape": [null, 140], "input_length": 140, "dropout": 0.2, "output_dim": 52, "W_regularizer": null, "mask_zero": false, "input_dim": 1576890, "init": "uniform"}}, {"class_name": "ZeroPadding1D", "config": {"name": "zeropadding1d_1_dai_model", "padding": 5, "trainable": true}}, {"class_name": "Convolution1D", "config": {"trainable": true, "filter_length": 6, "name": "convolution1d_1_dai_model", "W_regularizer": null, "W_constraint": null, "subsample_length": 1, "border_mode": "valid", "input_length": null, "activity_regularizer": null, "nb_filter": 200, "b_regularizer": null, "input_dim": null, "activation": "relu", "init": "uniform", "bias": true, "b_constraint": null}}, {"class_name": "MaxPooling1D", "config": {"name": "maxpooling1d_1_dai_model", "pool_length": 4, "trainable": true, "stride": 2, "border_mode": "valid"}}, {"class_name": "Convolution1D", "config": {"trainable": true, "filter_length": 6, "name": "convolution1d_2_dai_model", "W_regularizer": null, "W_constraint": null, "subsample_length": 1, "border_mode": "valid", "input_length": null, "activity_regularizer": null, "nb_filter": 200, "b_regularizer": null, "input_dim": null, "activation": "relu", "init": "uniform", "bias": true, "b_constraint": null}}]}, {"class_name": "Sequential", "config": [{"class_name": "Embedding", "config": {"W_constraint": null, "input_dtype": "int32", "name": "embedding_1_semeval_model", "activity_regularizer": null, "trainable": true, "batch_input_shape": [null, 140], "input_length": 140, "dropout": 0.2, "output_dim": 52, "W_regularizer": null, "mask_zero": false, "input_dim": 428669, "init": "uniform"}}, {"class_name": "ZeroPadding1D", "config": {"name": "zeropadding1d_1_semeval_model", "padding": 5, "trainable": true}}, {"class_name": "Convolution1D", "config": {"trainable": true, "filter_length": 6, "name": "convolution1d_1_semeval_model", "W_regularizer": null, "W_constraint": null, "subsample_length": 1, "border_mode": "valid", "input_length": null, "activity_regularizer": null, "nb_filter": 200, "b_regularizer": null, "input_dim": null, "activation": "relu", "init": "uniform", "bias": true, "b_constraint": null}}, {"class_name": "MaxPooling1D", "config": {"name": "maxpooling1d_1_semeval_model", "pool_length": 4, "trainable": true, "stride": 2, "border_mode": "valid"}}, {"class_name": "Convolution1D", "config": {"trainable": true, "filter_length": 6, "name": "convolution1d_2_semeval_model", "W_regularizer": null, "W_constraint": null, "subsample_length": 1, "border_mode": "valid", "input_length": null, "activity_regularizer": null, "nb_filter": 200, "b_regularizer": null, "input_dim": null, "activation": "relu", "init": "uniform", "bias": true, "b_constraint": null}}]}], "dot_axes": -1, "output_shape": null}}, {"class_name": "Flatten", "config": {"name": "flatten_1", "trainable": true}}, {"class_name": "Dense", "config": {"W_constraint": null, "b_constraint": null, "name": "dense_1", "activity_regularizer": null, "trainable": true, "output_dim": 200, "W_regularizer": null, "b_regularizer": null, "input_dim": null, "activation": "linear", "init": "glorot_uniform", "bias": true}}, {"class_name": "Dropout", "config": {"name": "dropout_1", "p": 0.2, "trainable": true}}, {"class_name": "Activation", "config": {"name": "activation_1", "trainable": true, "activation": "relu"}}, {"class_name": "Dense", "config": {"W_constraint": null, "b_constraint": null, "name": "dense_2", "activity_regularizer": null, "trainable": true, "output_dim": 3, "W_regularizer": null, "b_regularizer": null, "input_dim": null, "activation": "softmax", "init": "glorot_uniform", "bias": true}}]}