{"class_name": "Sequential", "config": [{"class_name": "Merge", "config": {"output_shape": null, "mode": "concat", "concat_axis": -1, "layers": [{"class_name": "Sequential", "config": [{"class_name": "Embedding", "config": {"input_dim": 428669, "activity_regularizer": null, "W_constraint": null, "batch_input_shape": [null, 140], "input_dtype": "int32", "output_dim": 52, "init": "uniform", "input_length": 140, "trainable": false, "mask_zero": false, "W_regularizer": null, "dropout": 0.2, "name": "embedding_17_mpq_model"}}, {"class_name": "ZeroPadding1D", "config": {"padding": 5, "name": "zeropadding1d_17_mpq_model", "trainable": false}}, {"class_name": "Convolution1D", "config": {"activation": "relu", "b_constraint": null, "input_dim": null, "filter_length": 6, "subsample_length": 1, "b_regularizer": null, "nb_filter": 200, "border_mode": "valid", "W_constraint": null, "init": "uniform", "bias": true, "trainable": false, "W_regularizer": null, "activity_regularizer": null, "name": "convolution1d_33_mpq_model", "input_length": null}}, {"class_name": "MaxPooling1D", "config": {"stride": 2, "pool_length": 4, "border_mode": "valid", "trainable": false, "name": "maxpooling1d_33_mpq_model"}}, {"class_name": "Convolution1D", "config": {"activation": "relu", "b_constraint": null, "input_dim": null, "filter_length": 6, "subsample_length": 1, "b_regularizer": null, "nb_filter": 200, "border_mode": "valid", "W_constraint": null, "init": "uniform", "bias": true, "trainable": false, "W_regularizer": null, "activity_regularizer": null, "name": "convolution1d_34_mpq_model", "input_length": null}}, {"class_name": "MaxPooling1D", "config": {"stride": 66, "pool_length": 66, "border_mode": "valid", "trainable": false, "name": "maxpooling1d_34_mpq_model"}}, {"class_name": "Flatten", "config": {"name": "flatten_17_mpq_model", "trainable": false}}, {"class_name": "Dense", "config": {"activation": "linear", "b_constraint": null, "input_dim": null, "W_constraint": null, "b_regularizer": null, "bias": true, "output_dim": 200, "init": "glorot_uniform", "trainable": false, "W_regularizer": null, "activity_regularizer": null, "name": "dense_33_mpq_model"}}, {"class_name": "Dropout", "config": {"p": 0.2, "name": "dropout_17_mpq_model", "trainable": false}}, {"class_name": "Activation", "config": {"activation": "relu", "name": "activation_17_mpq_model", "trainable": false}}, {"class_name": "Dense", "config": {"activation": "softmax", "b_constraint": null, "input_dim": null, "W_constraint": null, "b_regularizer": null, "bias": true, "output_dim": 3, "init": "glorot_uniform", "trainable": false, "W_regularizer": null, "activity_regularizer": null, "name": "dense_34_mpq_model"}}]}, {"class_name": "Sequential", "config": [{"class_name": "Embedding", "config": {"input_dim": 428669, "activity_regularizer": null, "W_constraint": null, "batch_input_shape": [null, 140], "input_dtype": "int32", "output_dim": 52, "init": "uniform", "input_length": 140, "trainable": false, "mask_zero": false, "W_regularizer": null, "dropout": 0.2, "name": "embedding_1_tac_model"}}, {"class_name": "ZeroPadding1D", "config": {"padding": 5, "name": "zeropadding1d_1_tac_model", "trainable": false}}, {"class_name": "Convolution1D", "config": {"activation": "relu", "b_constraint": null, "input_dim": null, "filter_length": 6, "subsample_length": 1, "b_regularizer": null, "nb_filter": 200, "border_mode": "valid", "W_constraint": null, "init": "uniform", "bias": true, "trainable": false, "W_regularizer": null, "activity_regularizer": null, "name": "convolution1d_1_tac_model", "input_length": null}}, {"class_name": "MaxPooling1D", "config": {"stride": 2, "pool_length": 4, "border_mode": "valid", "trainable": false, "name": "maxpooling1d_1_tac_model"}}, {"class_name": "Convolution1D", "config": {"activation": "relu", "b_constraint": null, "input_dim": null, "filter_length": 6, "subsample_length": 1, "b_regularizer": null, "nb_filter": 200, "border_mode": "valid", "W_constraint": null, "init": "uniform", "bias": true, "trainable": false, "W_regularizer": null, "activity_regularizer": null, "name": "convolution1d_2_tac_model", "input_length": null}}, {"class_name": "MaxPooling1D", "config": {"stride": 66, "pool_length": 66, "border_mode": "valid", "trainable": false, "name": "maxpooling1d_2_tac_model"}}, {"class_name": "Flatten", "config": {"name": "flatten_1_tac_model", "trainable": false}}, {"class_name": "Dense", "config": {"activation": "linear", "b_constraint": null, "input_dim": null, "W_constraint": null, "b_regularizer": null, "bias": true, "output_dim": 200, "init": "glorot_uniform", "trainable": false, "W_regularizer": null, "activity_regularizer": null, "name": "dense_1_tac_model"}}, {"class_name": "Dropout", "config": {"p": 0.2, "name": "dropout_1_tac_model", "trainable": false}}, {"class_name": "Activation", "config": {"activation": "relu", "name": "activation_1_tac_model", "trainable": false}}, {"class_name": "Dense", "config": {"activation": "softmax", "b_constraint": null, "input_dim": null, "W_constraint": null, "b_regularizer": null, "bias": true, "output_dim": 3, "init": "glorot_uniform", "trainable": false, "W_regularizer": null, "activity_regularizer": null, "name": "dense_2_tac_model"}}]}, {"class_name": "Sequential", "config": [{"class_name": "Embedding", "config": {"input_dim": 428669, "activity_regularizer": null, "W_constraint": null, "batch_input_shape": [null, 140], "input_dtype": "int32", "output_dim": 52, "init": "uniform", "input_length": 140, "trainable": false, "mask_zero": false, "W_regularizer": null, "dropout": 0.2, "name": "embedding_1_semeval_model"}}, {"class_name": "ZeroPadding1D", "config": {"padding": 5, "name": "zeropadding1d_1_semeval_model", "trainable": false}}, {"class_name": "Convolution1D", "config": {"activation": "relu", "b_constraint": null, "input_dim": null, "filter_length": 6, "subsample_length": 1, "b_regularizer": null, "nb_filter": 200, "border_mode": "valid", "W_constraint": null, "init": "uniform", "bias": true, "trainable": false, "W_regularizer": null, "activity_regularizer": null, "name": "convolution1d_1_semeval_model", "input_length": null}}, {"class_name": "MaxPooling1D", "config": {"stride": 2, "pool_length": 4, "border_mode": "valid", "trainable": false, "name": "maxpooling1d_1_semeval_model"}}, {"class_name": "Convolution1D", "config": {"activation": "relu", "b_constraint": null, "input_dim": null, "filter_length": 6, "subsample_length": 1, "b_regularizer": null, "nb_filter": 200, "border_mode": "valid", "W_constraint": null, "init": "uniform", "bias": true, "trainable": false, "W_regularizer": null, "activity_regularizer": null, "name": "convolution1d_2_semeval_model", "input_length": null}}, {"class_name": "MaxPooling1D", "config": {"stride": 66, "pool_length": 66, "border_mode": "valid", "trainable": false, "name": "maxpooling1d_2_semeval_model"}}, {"class_name": "Flatten", "config": {"name": "flatten_1_semeval_model", "trainable": false}}, {"class_name": "Dense", "config": {"activation": "linear", "b_constraint": null, "input_dim": null, "W_constraint": null, "b_regularizer": null, "bias": true, "output_dim": 200, "init": "glorot_uniform", "trainable": false, "W_regularizer": null, "activity_regularizer": null, "name": "dense_1_semeval_model"}}, {"class_name": "Dropout", "config": {"p": 0.2, "name": "dropout_1_semeval_model", "trainable": false}}, {"class_name": "Activation", "config": {"activation": "relu", "name": "activation_1_semeval_model", "trainable": false}}, {"class_name": "Dense", "config": {"activation": "softmax", "b_constraint": null, "input_dim": null, "W_constraint": null, "b_regularizer": null, "bias": true, "output_dim": 3, "init": "glorot_uniform", "trainable": false, "W_regularizer": null, "activity_regularizer": null, "name": "dense_2_semeval_model"}}]}, {"class_name": "Sequential", "config": [{"class_name": "Embedding", "config": {"input_dim": 1576890, "activity_regularizer": null, "W_constraint": null, "batch_input_shape": [null, 140], "input_dtype": "int32", "output_dim": 52, "init": "uniform", "input_length": 140, "trainable": false, "mask_zero": false, "W_regularizer": null, "dropout": 0.2, "name": "embedding_1_dil_model"}}, {"class_name": "ZeroPadding1D", "config": {"padding": 5, "name": "zeropadding1d_1_dil_model", "trainable": false}}, {"class_name": "Convolution1D", "config": {"activation": "relu", "b_constraint": null, "input_dim": null, "filter_length": 6, "subsample_length": 1, "b_regularizer": null, "nb_filter": 200, "border_mode": "valid", "W_constraint": null, "init": "uniform", "bias": true, "trainable": false, "W_regularizer": null, "activity_regularizer": null, "name": "convolution1d_1_dil_model", "input_length": null}}, {"class_name": "MaxPooling1D", "config": {"stride": 2, "pool_length": 4, "border_mode": "valid", "trainable": false, "name": "maxpooling1d_1_dil_model"}}, {"class_name": "Convolution1D", "config": {"activation": "relu", "b_constraint": null, "input_dim": null, "filter_length": 6, "subsample_length": 1, "b_regularizer": null, "nb_filter": 200, "border_mode": "valid", "W_constraint": null, "init": "uniform", "bias": true, "trainable": false, "W_regularizer": null, "activity_regularizer": null, "name": "convolution1d_2_dil_model", "input_length": null}}, {"class_name": "MaxPooling1D", "config": {"stride": 66, "pool_length": 66, "border_mode": "valid", "trainable": false, "name": "maxpooling1d_2_dil_model"}}, {"class_name": "Flatten", "config": {"name": "flatten_1_dil_model", "trainable": false}}, {"class_name": "Dense", "config": {"activation": "linear", "b_constraint": null, "input_dim": null, "W_constraint": null, "b_regularizer": null, "bias": true, "output_dim": 200, "init": "glorot_uniform", "trainable": false, "W_regularizer": null, "activity_regularizer": null, "name": "dense_1_dil_model"}}, {"class_name": "Dropout", "config": {"p": 0.2, "name": "dropout_1_dil_model", "trainable": false}}, {"class_name": "Activation", "config": {"activation": "relu", "name": "activation_1_dil_model", "trainable": false}}, {"class_name": "Dense", "config": {"activation": "softmax", "b_constraint": null, "input_dim": null, "W_constraint": null, "b_regularizer": null, "bias": true, "output_dim": 3, "init": "glorot_uniform", "trainable": false, "W_regularizer": null, "activity_regularizer": null, "name": "dense_2_dil_model"}}]}, {"class_name": "Sequential", "config": [{"class_name": "Embedding", "config": {"input_dim": 1576890, "activity_regularizer": null, "W_constraint": null, "batch_input_shape": [null, 140], "input_dtype": "int32", "output_dim": 52, "init": "uniform", "input_length": 140, "trainable": false, "mask_zero": false, "W_regularizer": null, "dropout": 0.2, "name": "embedding_1_dai_model"}}, {"class_name": "ZeroPadding1D", "config": {"padding": 5, "name": "zeropadding1d_1_dai_model", "trainable": false}}, {"class_name": "Convolution1D", "config": {"activation": "relu", "b_constraint": null, "input_dim": null, "filter_length": 6, "subsample_length": 1, "b_regularizer": null, "nb_filter": 200, "border_mode": "valid", "W_constraint": null, "init": "uniform", "bias": true, "trainable": false, "W_regularizer": null, "activity_regularizer": null, "name": "convolution1d_1_dai_model", "input_length": null}}, {"class_name": "MaxPooling1D", "config": {"stride": 2, "pool_length": 4, "border_mode": "valid", "trainable": false, "name": "maxpooling1d_1_dai_model"}}, {"class_name": "Convolution1D", "config": {"activation": "relu", "b_constraint": null, "input_dim": null, "filter_length": 6, "subsample_length": 1, "b_regularizer": null, "nb_filter": 200, "border_mode": "valid", "W_constraint": null, "init": "uniform", "bias": true, "trainable": false, "W_regularizer": null, "activity_regularizer": null, "name": "convolution1d_2_dai_model", "input_length": null}}, {"class_name": "MaxPooling1D", "config": {"stride": 66, "pool_length": 66, "border_mode": "valid", "trainable": false, "name": "maxpooling1d_2_dai_model"}}, {"class_name": "Flatten", "config": {"name": "flatten_1_dai_model", "trainable": false}}, {"class_name": "Dense", "config": {"activation": "linear", "b_constraint": null, "input_dim": null, "W_constraint": null, "b_regularizer": null, "bias": true, "output_dim": 200, "init": "glorot_uniform", "trainable": false, "W_regularizer": null, "activity_regularizer": null, "name": "dense_1_dai_model"}}, {"class_name": "Dropout", "config": {"p": 0.2, "name": "dropout_1_dai_model", "trainable": false}}, {"class_name": "Activation", "config": {"activation": "relu", "name": "activation_1_dai_model", "trainable": false}}, {"class_name": "Dense", "config": {"activation": "softmax", "b_constraint": null, "input_dim": null, "W_constraint": null, "b_regularizer": null, "bias": true, "output_dim": 3, "init": "glorot_uniform", "trainable": false, "W_regularizer": null, "activity_regularizer": null, "name": "dense_2_dai_model"}}]}, {"class_name": "Sequential", "config": [{"class_name": "Embedding", "config": {"input_dim": 1062158, "activity_regularizer": null, "W_constraint": null, "batch_input_shape": [null, 140], "input_dtype": "int32", "output_dim": 52, "init": "uniform", "input_length": 140, "trainable": false, "mask_zero": false, "W_regularizer": null, "dropout": 0.2, "name": "embedding_1_hul_model"}}, {"class_name": "ZeroPadding1D", "config": {"padding": 5, "name": "zeropadding1d_1_hul_model", "trainable": false}}, {"class_name": "Convolution1D", "config": {"activation": "relu", "b_constraint": null, "input_dim": null, "filter_length": 6, "subsample_length": 1, "b_regularizer": null, "nb_filter": 200, "border_mode": "valid", "W_constraint": null, "init": "uniform", "bias": true, "trainable": false, "W_regularizer": null, "activity_regularizer": null, "name": "convolution1d_1_hul_model", "input_length": null}}, {"class_name": "MaxPooling1D", "config": {"stride": 2, "pool_length": 4, "border_mode": "valid", "trainable": false, "name": "maxpooling1d_1_hul_model"}}, {"class_name": "Convolution1D", "config": {"activation": "relu", "b_constraint": null, "input_dim": null, "filter_length": 6, "subsample_length": 1, "b_regularizer": null, "nb_filter": 200, "border_mode": "valid", "W_constraint": null, "init": "uniform", "bias": true, "trainable": false, "W_regularizer": null, "activity_regularizer": null, "name": "convolution1d_2_hul_model", "input_length": null}}, {"class_name": "MaxPooling1D", "config": {"stride": 66, "pool_length": 66, "border_mode": "valid", "trainable": false, "name": "maxpooling1d_2_hul_model"}}, {"class_name": "Flatten", "config": {"name": "flatten_1_hul_model", "trainable": false}}, {"class_name": "Dense", "config": {"activation": "linear", "b_constraint": null, "input_dim": null, "W_constraint": null, "b_regularizer": null, "bias": true, "output_dim": 200, "init": "glorot_uniform", "trainable": false, "W_regularizer": null, "activity_regularizer": null, "name": "dense_1_hul_model"}}, {"class_name": "Dropout", "config": {"p": 0.2, "name": "dropout_1_hul_model", "trainable": false}}, {"class_name": "Activation", "config": {"activation": "relu", "name": "activation_1_hul_model", "trainable": false}}, {"class_name": "Dense", "config": {"activation": "softmax", "b_constraint": null, "input_dim": null, "W_constraint": null, "b_regularizer": null, "bias": true, "output_dim": 3, "init": "glorot_uniform", "trainable": false, "W_regularizer": null, "activity_regularizer": null, "name": "dense_2_hul_model"}}]}], "mode_type": "raw", "dot_axes": -1, "name": "merge_1", "output_shape_type": "raw"}}, {"class_name": "Dense", "config": {"activation": "linear", "b_constraint": null, "input_dim": null, "output_dim": 256, "b_regularizer": null, "bias": true, "W_constraint": null, "init": "glorot_uniform", "trainable": true, "W_regularizer": null, "activity_regularizer": null, "name": "dense_1"}}, {"class_name": "Activation", "config": {"activation": "relu", "name": "activation_1", "trainable": true}}, {"class_name": "Dense", "config": {"activation": "softmax", "b_constraint": null, "input_dim": null, "output_dim": 3, "b_regularizer": null, "bias": true, "W_constraint": null, "init": "glorot_uniform", "trainable": true, "W_regularizer": null, "activity_regularizer": null, "name": "dense_2"}}], "keras_version": "1.1.1"}