{"config": [{"config": {"dot_axes": -1, "name": "merge_1", "mode_type": "raw", "mode": "concat", "output_shape": null, "output_shape_type": "raw", "concat_axis": -1, "layers": [{"config": [{"config": {"name": "embedding_17_mpq_model", "mask_zero": false, "activity_regularizer": null, "init": "uniform", "W_constraint": null, "dropout": 0.2, "trainable": true, "W_regularizer": null, "input_dim": 428669, "input_length": 140, "input_dtype": "int32", "batch_input_shape": [null, 140], "output_dim": 52}, "class_name": "Embedding"}, {"config": {"trainable": true, "name": "zeropadding1d_17_mpq_model", "padding": 5}, "class_name": "ZeroPadding1D"}, {"config": {"bias": true, "name": "convolution1d_33_mpq_model", "b_regularizer": null, "activation": "relu", "activity_regularizer": null, "init": "uniform", "border_mode": "valid", "filter_length": 6, "W_constraint": null, "trainable": true, "W_regularizer": null, "nb_filter": 200, "input_length": null, "subsample_length": 1, "b_constraint": null, "input_dim": null}, "class_name": "Convolution1D"}, {"config": {"stride": 2, "trainable": true, "border_mode": "valid", "name": "maxpooling1d_33_mpq_model", "pool_length": 4}, "class_name": "MaxPooling1D"}, {"config": {"bias": true, "name": "convolution1d_34_mpq_model", "b_regularizer": null, "activation": "relu", "activity_regularizer": null, "init": "uniform", "border_mode": "valid", "filter_length": 6, "W_constraint": null, "trainable": true, "W_regularizer": null, "nb_filter": 200, "input_length": null, "subsample_length": 1, "b_constraint": null, "input_dim": null}, "class_name": "Convolution1D"}, {"config": {"stride": 66, "trainable": true, "border_mode": "valid", "name": "maxpooling1d_34_mpq_model", "pool_length": 66}, "class_name": "MaxPooling1D"}, {"config": {"trainable": true, "name": "flatten_17_mpq_model"}, "class_name": "Flatten"}], "class_name": "Sequential"}, {"config": [{"config": {"name": "embedding_1_tac_model", "mask_zero": false, "activity_regularizer": null, "init": "uniform", "W_constraint": null, "dropout": 0.2, "trainable": true, "W_regularizer": null, "input_dim": 428669, "input_length": 140, "input_dtype": "int32", "batch_input_shape": [null, 140], "output_dim": 52}, "class_name": "Embedding"}, {"config": {"trainable": true, "name": "zeropadding1d_1_tac_model", "padding": 5}, "class_name": "ZeroPadding1D"}, {"config": {"bias": true, "name": "convolution1d_1_tac_model", "b_regularizer": null, "activation": "relu", "activity_regularizer": null, "init": "uniform", "border_mode": "valid", "filter_length": 6, "W_constraint": null, "trainable": true, "W_regularizer": null, "nb_filter": 200, "input_length": null, "subsample_length": 1, "b_constraint": null, "input_dim": null}, "class_name": "Convolution1D"}, {"config": {"stride": 2, "trainable": true, "border_mode": "valid", "name": "maxpooling1d_1_tac_model", "pool_length": 4}, "class_name": "MaxPooling1D"}, {"config": {"bias": true, "name": "convolution1d_2_tac_model", "b_regularizer": null, "activation": "relu", "activity_regularizer": null, "init": "uniform", "border_mode": "valid", "filter_length": 6, "W_constraint": null, "trainable": true, "W_regularizer": null, "nb_filter": 200, "input_length": null, "subsample_length": 1, "b_constraint": null, "input_dim": null}, "class_name": "Convolution1D"}, {"config": {"stride": 66, "trainable": true, "border_mode": "valid", "name": "maxpooling1d_2_tac_model", "pool_length": 66}, "class_name": "MaxPooling1D"}, {"config": {"trainable": true, "name": "flatten_1_tac_model"}, "class_name": "Flatten"}], "class_name": "Sequential"}, {"config": [{"config": {"name": "embedding_1_semeval_model", "mask_zero": false, "activity_regularizer": null, "init": "uniform", "W_constraint": null, "dropout": 0.2, "trainable": true, "W_regularizer": null, "input_dim": 428669, "input_length": 140, "input_dtype": "int32", "batch_input_shape": [null, 140], "output_dim": 52}, "class_name": "Embedding"}, {"config": {"trainable": true, "name": "zeropadding1d_1_semeval_model", "padding": 5}, "class_name": "ZeroPadding1D"}, {"config": {"bias": true, "name": "convolution1d_1_semeval_model", "b_regularizer": null, "activation": "relu", "activity_regularizer": null, "init": "uniform", "border_mode": "valid", "filter_length": 6, "W_constraint": null, "trainable": true, "W_regularizer": null, "nb_filter": 200, "input_length": null, "subsample_length": 1, "b_constraint": null, "input_dim": null}, "class_name": "Convolution1D"}, {"config": {"stride": 2, "trainable": true, "border_mode": "valid", "name": "maxpooling1d_1_semeval_model", "pool_length": 4}, "class_name": "MaxPooling1D"}, {"config": {"bias": true, "name": "convolution1d_2_semeval_model", "b_regularizer": null, "activation": "relu", "activity_regularizer": null, "init": "uniform", "border_mode": "valid", "filter_length": 6, "W_constraint": null, "trainable": true, "W_regularizer": null, "nb_filter": 200, "input_length": null, "subsample_length": 1, "b_constraint": null, "input_dim": null}, "class_name": "Convolution1D"}, {"config": {"stride": 66, "trainable": true, "border_mode": "valid", "name": "maxpooling1d_2_semeval_model", "pool_length": 66}, "class_name": "MaxPooling1D"}, {"config": {"trainable": true, "name": "flatten_1_semeval_model"}, "class_name": "Flatten"}], "class_name": "Sequential"}, {"config": [{"config": {"name": "embedding_1_dai_model", "mask_zero": false, "activity_regularizer": null, "init": "uniform", "W_constraint": null, "dropout": 0.2, "trainable": true, "W_regularizer": null, "input_dim": 1576890, "input_length": 140, "input_dtype": "int32", "batch_input_shape": [null, 140], "output_dim": 52}, "class_name": "Embedding"}, {"config": {"trainable": true, "name": "zeropadding1d_1_dai_model", "padding": 5}, "class_name": "ZeroPadding1D"}, {"config": {"bias": true, "name": "convolution1d_1_dai_model", "b_regularizer": null, "activation": "relu", "activity_regularizer": null, "init": "uniform", "border_mode": "valid", "filter_length": 6, "W_constraint": null, "trainable": true, "W_regularizer": null, "nb_filter": 200, "input_length": null, "subsample_length": 1, "b_constraint": null, "input_dim": null}, "class_name": "Convolution1D"}, {"config": {"stride": 2, "trainable": true, "border_mode": "valid", "name": "maxpooling1d_1_dai_model", "pool_length": 4}, "class_name": "MaxPooling1D"}, {"config": {"bias": true, "name": "convolution1d_2_dai_model", "b_regularizer": null, "activation": "relu", "activity_regularizer": null, "init": "uniform", "border_mode": "valid", "filter_length": 6, "W_constraint": null, "trainable": true, "W_regularizer": null, "nb_filter": 200, "input_length": null, "subsample_length": 1, "b_constraint": null, "input_dim": null}, "class_name": "Convolution1D"}, {"config": {"stride": 66, "trainable": true, "border_mode": "valid", "name": "maxpooling1d_2_dai_model", "pool_length": 66}, "class_name": "MaxPooling1D"}, {"config": {"trainable": true, "name": "flatten_1_dai_model"}, "class_name": "Flatten"}], "class_name": "Sequential"}, {"config": [{"config": {"name": "embedding_1_dil_model", "mask_zero": false, "activity_regularizer": null, "init": "uniform", "W_constraint": null, "dropout": 0.2, "trainable": true, "W_regularizer": null, "input_dim": 1576890, "input_length": 140, "input_dtype": "int32", "batch_input_shape": [null, 140], "output_dim": 52}, "class_name": "Embedding"}, {"config": {"trainable": true, "name": "zeropadding1d_1_dil_model", "padding": 5}, "class_name": "ZeroPadding1D"}, {"config": {"bias": true, "name": "convolution1d_1_dil_model", "b_regularizer": null, "activation": "relu", "activity_regularizer": null, "init": "uniform", "border_mode": "valid", "filter_length": 6, "W_constraint": null, "trainable": true, "W_regularizer": null, "nb_filter": 200, "input_length": null, "subsample_length": 1, "b_constraint": null, "input_dim": null}, "class_name": "Convolution1D"}, {"config": {"stride": 2, "trainable": true, "border_mode": "valid", "name": "maxpooling1d_1_dil_model", "pool_length": 4}, "class_name": "MaxPooling1D"}, {"config": {"bias": true, "name": "convolution1d_2_dil_model", "b_regularizer": null, "activation": "relu", "activity_regularizer": null, "init": "uniform", "border_mode": "valid", "filter_length": 6, "W_constraint": null, "trainable": true, "W_regularizer": null, "nb_filter": 200, "input_length": null, "subsample_length": 1, "b_constraint": null, "input_dim": null}, "class_name": "Convolution1D"}, {"config": {"stride": 66, "trainable": true, "border_mode": "valid", "name": "maxpooling1d_2_dil_model", "pool_length": 66}, "class_name": "MaxPooling1D"}, {"config": {"trainable": true, "name": "flatten_1_dil_model"}, "class_name": "Flatten"}], "class_name": "Sequential"}, {"config": [{"config": {"name": "embedding_1_hul_model", "mask_zero": false, "activity_regularizer": null, "init": "uniform", "W_constraint": null, "dropout": 0.2, "trainable": true, "W_regularizer": null, "input_dim": 1062158, "input_length": 140, "input_dtype": "int32", "batch_input_shape": [null, 140], "output_dim": 52}, "class_name": "Embedding"}, {"config": {"trainable": true, "name": "zeropadding1d_1_hul_model", "padding": 5}, "class_name": "ZeroPadding1D"}, {"config": {"bias": true, "name": "convolution1d_1_hul_model", "b_regularizer": null, "activation": "relu", "activity_regularizer": null, "init": "uniform", "border_mode": "valid", "filter_length": 6, "W_constraint": null, "trainable": true, "W_regularizer": null, "nb_filter": 200, "input_length": null, "subsample_length": 1, "b_constraint": null, "input_dim": null}, "class_name": "Convolution1D"}, {"config": {"stride": 2, "trainable": true, "border_mode": "valid", "name": "maxpooling1d_1_hul_model", "pool_length": 4}, "class_name": "MaxPooling1D"}, {"config": {"bias": true, "name": "convolution1d_2_hul_model", "b_regularizer": null, "activation": "relu", "activity_regularizer": null, "init": "uniform", "border_mode": "valid", "filter_length": 6, "W_constraint": null, "trainable": true, "W_regularizer": null, "nb_filter": 200, "input_length": null, "subsample_length": 1, "b_constraint": null, "input_dim": null}, "class_name": "Convolution1D"}, {"config": {"stride": 66, "trainable": true, "border_mode": "valid", "name": "maxpooling1d_2_hul_model", "pool_length": 66}, "class_name": "MaxPooling1D"}, {"config": {"trainable": true, "name": "flatten_1_hul_model"}, "class_name": "Flatten"}], "class_name": "Sequential"}]}, "class_name": "Merge"}, {"config": {"bias": true, "name": "dense_1", "trainable": true, "activity_regularizer": null, "init": "glorot_uniform", "W_constraint": null, "activation": "linear", "W_regularizer": null, "output_dim": 1028, "b_regularizer": null, "b_constraint": null, "input_dim": null}, "class_name": "Dense"}, {"config": {"trainable": true, "name": "activation_1", "activation": "relu"}, "class_name": "Activation"}, {"config": {"bias": true, "name": "dense_2", "trainable": true, "activity_regularizer": null, "init": "glorot_uniform", "W_constraint": null, "activation": "softmax", "W_regularizer": null, "output_dim": 3, "b_regularizer": null, "b_constraint": null, "input_dim": null}, "class_name": "Dense"}], "keras_version": "1.1.1", "class_name": "Sequential"}