{"class_name": "Sequential", "config": [{"class_name": "Embedding", "config": {"name": "embedding_1", "W_constraint": null, "output_dim": 52, "dropout": 0.2, "input_length": 140, "W_regularizer": null, "init": "uniform", "activity_regularizer": null, "trainable": true, "input_dim": 1062158, "input_dtype": "int32", "batch_input_shape": [null, 140], "mask_zero": false}}, {"class_name": "ZeroPadding1D", "config": {"trainable": true, "name": "zeropadding1d_1", "padding": 5}}, {"class_name": "Convolution1D", "config": {"name": "convolution1d_1", "W_constraint": null, "border_mode": "valid", "activation": "relu", "W_regularizer": null, "input_length": null, "b_regularizer": null, "nb_filter": 200, "bias": true, "init": "uniform", "filter_length": 6, "activity_regularizer": null, "trainable": true, "input_dim": null, "b_constraint": null, "subsample_length": 1}}, {"class_name": "MaxPooling1D", "config": {"stride": 2, "trainable": true, "name": "maxpooling1d_1", "border_mode": "valid", "pool_length": 4}}, {"class_name": "Convolution1D", "config": {"name": "convolution1d_2", "W_constraint": null, "border_mode": "valid", "activation": "relu", "W_regularizer": null, "input_length": null, "b_regularizer": null, "nb_filter": 200, "bias": true, "init": "uniform", "filter_length": 6, "activity_regularizer": null, "trainable": true, "input_dim": null, "b_constraint": null, "subsample_length": 1}}, {"class_name": "MaxPooling1D", "config": {"stride": 66, "trainable": true, "name": "maxpooling1d_2", "border_mode": "valid", "pool_length": 66}}, {"class_name": "Flatten", "config": {"trainable": true, "name": "flatten_1"}}, {"class_name": "Dense", "config": {"name": "dense_1", "W_constraint": null, "activation": "linear", "W_regularizer": null, "b_regularizer": null, "b_constraint": null, "bias": true, "init": "glorot_uniform", "activity_regularizer": null, "trainable": true, "input_dim": null, "output_dim": 200}}, {"class_name": "Dropout", "config": {"p": 0.2, "trainable": true, "name": "dropout_1"}}, {"class_name": "Activation", "config": {"trainable": true, "name": "activation_1", "activation": "relu"}}, {"class_name": "Dense", "config": {"name": "dense_2", "W_constraint": null, "activation": "softmax", "W_regularizer": null, "b_regularizer": null, "b_constraint": null, "bias": true, "init": "glorot_uniform", "activity_regularizer": null, "trainable": true, "input_dim": null, "output_dim": 3}}], "keras_version": "1.1.0"}