{"keras_version": "1.1.1", "config": [{"config": {"input_dtype": "int32", "dropout": 0.2, "input_dim": 428669, "mask_zero": false, "trainable": true, "init": "uniform", "batch_input_shape": [null, 140], "name": "embedding_1", "W_constraint": null, "activity_regularizer": null, "output_dim": 52, "W_regularizer": null, "input_length": 140}, "class_name": "Embedding"}, {"config": {"trainable": true, "name": "zeropadding1d_1", "padding": 5}, "class_name": "ZeroPadding1D"}, {"config": {"subsample_length": 1, "init": "uniform", "trainable": true, "input_dim": null, "filter_length": 6, "activation": "relu", "border_mode": "valid", "b_constraint": null, "name": "convolution1d_1", "nb_filter": 200, "bias": true, "W_constraint": null, "activity_regularizer": null, "b_regularizer": null, "W_regularizer": null, "input_length": null}, "class_name": "Convolution1D"}, {"config": {"pool_length": 4, "stride": 2, "border_mode": "valid", "name": "maxpooling1d_1", "trainable": true}, "class_name": "MaxPooling1D"}, {"config": {"subsample_length": 1, "init": "uniform", "trainable": true, "input_dim": null, "filter_length": 6, "activation": "relu", "border_mode": "valid", "b_constraint": null, "name": "convolution1d_2", "nb_filter": 200, "bias": true, "W_constraint": null, "activity_regularizer": null, "b_regularizer": null, "W_regularizer": null, "input_length": null}, "class_name": "Convolution1D"}, {"config": {"pool_length": 66, "stride": 66, "border_mode": "valid", "name": "maxpooling1d_2", "trainable": true}, "class_name": "MaxPooling1D"}, {"config": {"name": "flatten_1", "trainable": true}, "class_name": "Flatten"}, {"config": {"init": "glorot_uniform", "trainable": true, "input_dim": null, "activation": "linear", "b_regularizer": null, "b_constraint": null, "bias": true, "W_constraint": null, "activity_regularizer": null, "output_dim": 200, "W_regularizer": null, "name": "dense_1"}, "class_name": "Dense"}, {"config": {"trainable": true, "name": "dropout_1", "p": 0.2}, "class_name": "Dropout"}, {"config": {"activation": "relu", "name": "activation_1", "trainable": true}, "class_name": "Activation"}, {"config": {"init": "glorot_uniform", "trainable": true, "input_dim": null, "activation": "softmax", "b_regularizer": null, "b_constraint": null, "bias": true, "W_constraint": null, "activity_regularizer": null, "output_dim": 3, "W_regularizer": null, "name": "dense_2"}, "class_name": "Dense"}], "class_name": "Sequential"}