{"config": [{"config": {"dot_axes": -1, "output_shape_type": "raw", "mode": "concat", "output_shape": null, "mode_type": "raw", "concat_axis": -1, "layers": [{"config": [{"config": {"mask_zero": false, "W_constraint": null, "batch_input_shape": [null, 140], "dropout": 0.2, "W_regularizer": null, "input_dim": 1576890, "trainable": true, "input_length": 140, "activity_regularizer": null, "init": "uniform", "output_dim": 52, "input_dtype": "int32", "name": "embedding_1_dil_model"}, "class_name": "Embedding"}, {"config": {"padding": 5, "trainable": true, "name": "zeropadding1d_1_dil_model"}, "class_name": "ZeroPadding1D"}, {"config": {"activation": "relu", "border_mode": "valid", "W_constraint": null, "bias": true, "b_constraint": null, "b_regularizer": null, "W_regularizer": null, "filter_length": 6, "trainable": true, "input_length": null, "activity_regularizer": null, "init": "uniform", "subsample_length": 1, "nb_filter": 200, "input_dim": null, "name": "convolution1d_1_dil_model"}, "class_name": "Convolution1D"}, {"config": {"stride": 2, "trainable": true, "border_mode": "valid", "pool_length": 4, "name": "maxpooling1d_1_dil_model"}, "class_name": "MaxPooling1D"}, {"config": {"activation": "relu", "border_mode": "valid", "W_constraint": null, "bias": true, "b_constraint": null, "b_regularizer": null, "W_regularizer": null, "filter_length": 6, "trainable": true, "input_length": null, "activity_regularizer": null, "init": "uniform", "subsample_length": 1, "nb_filter": 200, "input_dim": null, "name": "convolution1d_2_dil_model"}, "class_name": "Convolution1D"}], "class_name": "Sequential"}, {"config": [{"config": {"mask_zero": false, "W_constraint": null, "batch_input_shape": [null, 140], "dropout": 0.2, "W_regularizer": null, "input_dim": 1062158, "trainable": true, "input_length": 140, "activity_regularizer": null, "init": "uniform", "output_dim": 52, "input_dtype": "int32", "name": "embedding_1_hul_model"}, "class_name": "Embedding"}, {"config": {"padding": 5, "trainable": true, "name": "zeropadding1d_1_hul_model"}, "class_name": "ZeroPadding1D"}, {"config": {"activation": "relu", "border_mode": "valid", "W_constraint": null, "bias": true, "b_constraint": null, "b_regularizer": null, "W_regularizer": null, "filter_length": 6, "trainable": true, "input_length": null, "activity_regularizer": null, "init": "uniform", "subsample_length": 1, "nb_filter": 200, "input_dim": null, "name": "convolution1d_1_hul_model"}, "class_name": "Convolution1D"}, {"config": {"stride": 2, "trainable": true, "border_mode": "valid", "pool_length": 4, "name": "maxpooling1d_1_hul_model"}, "class_name": "MaxPooling1D"}, {"config": {"activation": "relu", "border_mode": "valid", "W_constraint": null, "bias": true, "b_constraint": null, "b_regularizer": null, "W_regularizer": null, "filter_length": 6, "trainable": true, "input_length": null, "activity_regularizer": null, "init": "uniform", "subsample_length": 1, "nb_filter": 200, "input_dim": null, "name": "convolution1d_2_hul_model"}, "class_name": "Convolution1D"}], "class_name": "Sequential"}, {"config": [{"config": {"mask_zero": false, "W_constraint": null, "batch_input_shape": [null, 140], "dropout": 0.2, "W_regularizer": null, "input_dim": 428669, "trainable": true, "input_length": 140, "activity_regularizer": null, "init": "uniform", "output_dim": 52, "input_dtype": "int32", "name": "embedding_17_mpq_model"}, "class_name": "Embedding"}, {"config": {"padding": 5, "trainable": true, "name": "zeropadding1d_17_mpq_model"}, "class_name": "ZeroPadding1D"}, {"config": {"activation": "relu", "border_mode": "valid", "W_constraint": null, "bias": true, "b_constraint": null, "b_regularizer": null, "W_regularizer": null, "filter_length": 6, "trainable": true, "input_length": null, "activity_regularizer": null, "init": "uniform", "subsample_length": 1, "nb_filter": 200, "input_dim": null, "name": "convolution1d_33_mpq_model"}, "class_name": "Convolution1D"}, {"config": {"stride": 2, "trainable": true, "border_mode": "valid", "pool_length": 4, "name": "maxpooling1d_33_mpq_model"}, "class_name": "MaxPooling1D"}, {"config": {"activation": "relu", "border_mode": "valid", "W_constraint": null, "bias": true, "b_constraint": null, "b_regularizer": null, "W_regularizer": null, "filter_length": 6, "trainable": true, "input_length": null, "activity_regularizer": null, "init": "uniform", "subsample_length": 1, "nb_filter": 200, "input_dim": null, "name": "convolution1d_34_mpq_model"}, "class_name": "Convolution1D"}], "class_name": "Sequential"}, {"config": [{"config": {"mask_zero": false, "W_constraint": null, "batch_input_shape": [null, 140], "dropout": 0.2, "W_regularizer": null, "input_dim": 428669, "trainable": true, "input_length": 140, "activity_regularizer": null, "init": "uniform", "output_dim": 52, "input_dtype": "int32", "name": "embedding_1_semeval_model"}, "class_name": "Embedding"}, {"config": {"padding": 5, "trainable": true, "name": "zeropadding1d_1_semeval_model"}, "class_name": "ZeroPadding1D"}, {"config": {"activation": "relu", "border_mode": "valid", "W_constraint": null, "bias": true, "b_constraint": null, "b_regularizer": null, "W_regularizer": null, "filter_length": 6, "trainable": true, "input_length": null, "activity_regularizer": null, "init": "uniform", "subsample_length": 1, "nb_filter": 200, "input_dim": null, "name": "convolution1d_1_semeval_model"}, "class_name": "Convolution1D"}, {"config": {"stride": 2, "trainable": true, "border_mode": "valid", "pool_length": 4, "name": "maxpooling1d_1_semeval_model"}, "class_name": "MaxPooling1D"}, {"config": {"activation": "relu", "border_mode": "valid", "W_constraint": null, "bias": true, "b_constraint": null, "b_regularizer": null, "W_regularizer": null, "filter_length": 6, "trainable": true, "input_length": null, "activity_regularizer": null, "init": "uniform", "subsample_length": 1, "nb_filter": 200, "input_dim": null, "name": "convolution1d_2_semeval_model"}, "class_name": "Convolution1D"}], "class_name": "Sequential"}, {"config": [{"config": {"mask_zero": false, "W_constraint": null, "batch_input_shape": [null, 140], "dropout": 0.2, "W_regularizer": null, "input_dim": 428669, "trainable": true, "input_length": 140, "activity_regularizer": null, "init": "uniform", "output_dim": 52, "input_dtype": "int32", "name": "embedding_1_tac_model"}, "class_name": "Embedding"}, {"config": {"padding": 5, "trainable": true, "name": "zeropadding1d_1_tac_model"}, "class_name": "ZeroPadding1D"}, {"config": {"activation": "relu", "border_mode": "valid", "W_constraint": null, "bias": true, "b_constraint": null, "b_regularizer": null, "W_regularizer": null, "filter_length": 6, "trainable": true, "input_length": null, "activity_regularizer": null, "init": "uniform", "subsample_length": 1, "nb_filter": 200, "input_dim": null, "name": "convolution1d_1_tac_model"}, "class_name": "Convolution1D"}, {"config": {"stride": 2, "trainable": true, "border_mode": "valid", "pool_length": 4, "name": "maxpooling1d_1_tac_model"}, "class_name": "MaxPooling1D"}, {"config": {"activation": "relu", "border_mode": "valid", "W_constraint": null, "bias": true, "b_constraint": null, "b_regularizer": null, "W_regularizer": null, "filter_length": 6, "trainable": true, "input_length": null, "activity_regularizer": null, "init": "uniform", "subsample_length": 1, "nb_filter": 200, "input_dim": null, "name": "convolution1d_2_tac_model"}, "class_name": "Convolution1D"}], "class_name": "Sequential"}], "name": "merge_1"}, "class_name": "Merge"}, {"config": {"trainable": true, "name": "flatten_1"}, "class_name": "Flatten"}, {"config": {"activation": "linear", "W_constraint": null, "bias": true, "b_constraint": null, "b_regularizer": null, "W_regularizer": null, "input_dim": null, "trainable": true, "activity_regularizer": null, "init": "glorot_uniform", "name": "dense_1", "output_dim": 200}, "class_name": "Dense"}, {"config": {"name": "dropout_1", "trainable": true, "p": 0.2}, "class_name": "Dropout"}, {"config": {"activation": "relu", "trainable": true, "name": "activation_1"}, "class_name": "Activation"}, {"config": {"activation": "softmax", "W_constraint": null, "bias": true, "b_constraint": null, "b_regularizer": null, "W_regularizer": null, "input_dim": null, "trainable": true, "activity_regularizer": null, "init": "glorot_uniform", "name": "dense_2", "output_dim": 3}, "class_name": "Dense"}], "keras_version": "1.1.1", "class_name": "Sequential"}