{"config": [{"config": {"input_length": 140, "name": "embedding_1", "trainable": true, "mask_zero": false, "output_dim": 52, "W_regularizer": null, "batch_input_shape": [null, 140], "init": "uniform", "input_dim": 1576890, "input_dtype": "int32", "W_constraint": null, "dropout": 0.2, "activity_regularizer": null}, "class_name": "Embedding"}, {"config": {"name": "zeropadding1d_1", "trainable": true, "padding": 5}, "class_name": "ZeroPadding1D"}, {"config": {"W_regularizer": null, "name": "convolution1d_1", "trainable": true, "bias": true, "border_mode": "valid", "nb_filter": 200, "input_length": null, "init": "uniform", "subsample_length": 1, "b_constraint": null, "activation": "relu", "input_dim": null, "b_regularizer": null, "W_constraint": null, "filter_length": 6, "activity_regularizer": null}, "class_name": "Convolution1D"}, {"config": {"border_mode": "valid", "stride": 2, "name": "maxpooling1d_1", "trainable": true, "pool_length": 4}, "class_name": "MaxPooling1D"}, {"config": {"W_regularizer": null, "name": "convolution1d_2", "trainable": true, "bias": true, "border_mode": "valid", "nb_filter": 200, "input_length": null, "init": "uniform", "subsample_length": 1, "b_constraint": null, "activation": "relu", "input_dim": null, "b_regularizer": null, "W_constraint": null, "filter_length": 6, "activity_regularizer": null}, "class_name": "Convolution1D"}, {"config": {"border_mode": "valid", "stride": 66, "name": "maxpooling1d_2", "trainable": true, "pool_length": 66}, "class_name": "MaxPooling1D"}, {"config": {"name": "flatten_1", "trainable": true}, "class_name": "Flatten"}, {"config": {"W_regularizer": null, "name": "dense_1", "bias": true, "trainable": true, "output_dim": 200, "activity_regularizer": null, "init": "glorot_uniform", "b_constraint": null, "activation": "linear", "input_dim": null, "b_regularizer": null, "W_constraint": null}, "class_name": "Dense"}, {"config": {"p": 0.2, "name": "dropout_1", "trainable": true}, "class_name": "Dropout"}, {"config": {"activation": "relu", "name": "activation_1", "trainable": true}, "class_name": "Activation"}, {"config": {"W_regularizer": null, "name": "dense_2", "bias": true, "trainable": true, "output_dim": 3, "activity_regularizer": null, "init": "glorot_uniform", "b_constraint": null, "activation": "softmax", "input_dim": null, "b_regularizer": null, "W_constraint": null}, "class_name": "Dense"}], "class_name": "Sequential", "keras_version": "1.1.1"}