{"config": [{"config": {"mode_type": "raw", "layers": [{"config": [{"config": {"activity_regularizer": null, "dropout": 0.2, "trainable": true, "input_length": 140, "init": "uniform", "W_regularizer": null, "batch_input_shape": [null, 140], "input_dtype": "int32", "W_constraint": null, "input_dim": 1062158, "name": "embedding_1_hul_model", "mask_zero": false, "output_dim": 52}, "class_name": "Embedding"}, {"config": {"name": "zeropadding1d_1_hul_model", "trainable": true, "padding": 5}, "class_name": "ZeroPadding1D"}, {"config": {"activity_regularizer": null, "trainable": true, "b_constraint": null, "input_length": null, "bias": true, "subsample_length": 1, "nb_filter": 200, "init": "uniform", "W_regularizer": null, "activation": "relu", "b_regularizer": null, "filter_length": 6, "W_constraint": null, "border_mode": "valid", "input_dim": null, "name": "convolution1d_1_hul_model"}, "class_name": "Convolution1D"}, {"config": {"name": "maxpooling1d_1_hul_model", "border_mode": "valid", "trainable": true, "stride": 2, "pool_length": 4}, "class_name": "MaxPooling1D"}, {"config": {"activity_regularizer": null, "trainable": true, "b_constraint": null, "input_length": null, "bias": true, "subsample_length": 1, "nb_filter": 200, "init": "uniform", "W_regularizer": null, "activation": "relu", "b_regularizer": null, "filter_length": 6, "W_constraint": null, "border_mode": "valid", "input_dim": null, "name": "convolution1d_2_hul_model"}, "class_name": "Convolution1D"}], "class_name": "Sequential"}, {"config": [{"config": {"activity_regularizer": null, "dropout": 0.2, "trainable": true, "input_length": 140, "init": "uniform", "W_regularizer": null, "batch_input_shape": [null, 140], "input_dtype": "int32", "W_constraint": null, "input_dim": 428669, "name": "embedding_17_mpq_model", "mask_zero": false, "output_dim": 52}, "class_name": "Embedding"}, {"config": {"name": "zeropadding1d_17_mpq_model", "trainable": true, "padding": 5}, "class_name": "ZeroPadding1D"}, {"config": {"activity_regularizer": null, "trainable": true, "b_constraint": null, "input_length": null, "bias": true, "subsample_length": 1, "nb_filter": 200, "init": "uniform", "W_regularizer": null, "activation": "relu", "b_regularizer": null, "filter_length": 6, "W_constraint": null, "border_mode": "valid", "input_dim": null, "name": "convolution1d_33_mpq_model"}, "class_name": "Convolution1D"}, {"config": {"name": "maxpooling1d_33_mpq_model", "border_mode": "valid", "trainable": true, "stride": 2, "pool_length": 4}, "class_name": "MaxPooling1D"}, {"config": {"activity_regularizer": null, "trainable": true, "b_constraint": null, "input_length": null, "bias": true, "subsample_length": 1, "nb_filter": 200, "init": "uniform", "W_regularizer": null, "activation": "relu", "b_regularizer": null, "filter_length": 6, "W_constraint": null, "border_mode": "valid", "input_dim": null, "name": "convolution1d_34_mpq_model"}, "class_name": "Convolution1D"}], "class_name": "Sequential"}, {"config": [{"config": {"activity_regularizer": null, "dropout": 0.2, "trainable": true, "input_length": 140, "init": "uniform", "W_regularizer": null, "batch_input_shape": [null, 140], "input_dtype": "int32", "W_constraint": null, "input_dim": 1576890, "name": "embedding_1_semeval_model", "mask_zero": false, "output_dim": 52}, "class_name": "Embedding"}, {"config": {"name": "zeropadding1d_1_semeval_model", "trainable": true, "padding": 5}, "class_name": "ZeroPadding1D"}, {"config": {"activity_regularizer": null, "trainable": true, "b_constraint": null, "input_length": null, "bias": true, "subsample_length": 1, "nb_filter": 200, "init": "uniform", "W_regularizer": null, "activation": "relu", "b_regularizer": null, "filter_length": 6, "W_constraint": null, "border_mode": "valid", "input_dim": null, "name": "convolution1d_1_semeval_model"}, "class_name": "Convolution1D"}, {"config": {"name": "maxpooling1d_1_semeval_model", "border_mode": "valid", "trainable": true, "stride": 2, "pool_length": 4}, "class_name": "MaxPooling1D"}, {"config": {"activity_regularizer": null, "trainable": true, "b_constraint": null, "input_length": null, "bias": true, "subsample_length": 1, "nb_filter": 200, "init": "uniform", "W_regularizer": null, "activation": "relu", "b_regularizer": null, "filter_length": 6, "W_constraint": null, "border_mode": "valid", "input_dim": null, "name": "convolution1d_2_semeval_model"}, "class_name": "Convolution1D"}], "class_name": "Sequential"}, {"config": [{"config": {"activity_regularizer": null, "dropout": 0.2, "trainable": true, "input_length": 140, "init": "uniform", "W_regularizer": null, "batch_input_shape": [null, 140], "input_dtype": "int32", "W_constraint": null, "input_dim": 428669, "name": "embedding_1_tac_model", "mask_zero": false, "output_dim": 52}, "class_name": "Embedding"}, {"config": {"name": "zeropadding1d_1_tac_model", "trainable": true, "padding": 5}, "class_name": "ZeroPadding1D"}, {"config": {"activity_regularizer": null, "trainable": true, "b_constraint": null, "input_length": null, "bias": true, "subsample_length": 1, "nb_filter": 200, "init": "uniform", "W_regularizer": null, "activation": "relu", "b_regularizer": null, "filter_length": 6, "W_constraint": null, "border_mode": "valid", "input_dim": null, "name": "convolution1d_1_tac_model"}, "class_name": "Convolution1D"}, {"config": {"name": "maxpooling1d_1_tac_model", "border_mode": "valid", "trainable": true, "stride": 2, "pool_length": 4}, "class_name": "MaxPooling1D"}, {"config": {"activity_regularizer": null, "trainable": true, "b_constraint": null, "input_length": null, "bias": true, "subsample_length": 1, "nb_filter": 200, "init": "uniform", "W_regularizer": null, "activation": "relu", "b_regularizer": null, "filter_length": 6, "W_constraint": null, "border_mode": "valid", "input_dim": null, "name": "convolution1d_2_tac_model"}, "class_name": "Convolution1D"}], "class_name": "Sequential"}], "output_shape_type": "raw", "dot_axes": -1, "output_shape": null, "concat_axis": -1, "name": "merge_1", "mode": "concat"}, "class_name": "Merge"}, {"config": {"trainable": true, "border_mode": "valid", "name": "maxpooling1d_1", "stride": 2, "pool_length": 4}, "class_name": "MaxPooling1D"}, {"config": {"activity_regularizer": null, "input_dim": null, "trainable": true, "b_constraint": null, "input_length": null, "bias": true, "subsample_length": 1, "name": "convolution1d_1", "init": "uniform", "W_regularizer": null, "activation": "relu", "b_regularizer": null, "W_constraint": null, "border_mode": "valid", "filter_length": 6, "nb_filter": 200}, "class_name": "Convolution1D"}, {"config": {"trainable": true, "border_mode": "valid", "name": "maxpooling1d_2", "stride": 2, "pool_length": 4}, "class_name": "MaxPooling1D"}, {"config": {"name": "flatten_1", "trainable": true}, "class_name": "Flatten"}, {"config": {"activity_regularizer": null, "trainable": true, "b_constraint": null, "bias": true, "init": "glorot_uniform", "W_regularizer": null, "activation": "linear", "b_regularizer": null, "W_constraint": null, "input_dim": null, "name": "dense_1", "output_dim": 200}, "class_name": "Dense"}, {"config": {"trainable": true, "name": "dropout_1", "p": 0.2}, "class_name": "Dropout"}, {"config": {"trainable": true, "name": "activation_1", "activation": "relu"}, "class_name": "Activation"}, {"config": {"activity_regularizer": null, "trainable": true, "b_constraint": null, "bias": true, "init": "glorot_uniform", "W_regularizer": null, "activation": "softmax", "b_regularizer": null, "W_constraint": null, "input_dim": null, "name": "dense_2", "output_dim": 3}, "class_name": "Dense"}], "class_name": "Sequential", "keras_version": "1.1.1"}