{"class_name": "Sequential", "keras_version": "1.1.0", "config": [{"class_name": "Embedding", "config": {"W_regularizer": null, "name": "embedding_1", "dropout": 0.2, "input_dim": 2950660, "init": "uniform", "batch_input_shape": [null, 140], "trainable": true, "activity_regularizer": null, "output_dim": 52, "input_length": 140, "mask_zero": false, "W_constraint": null, "input_dtype": "int32"}}, {"class_name": "ZeroPadding1D", "config": {"trainable": true, "name": "zeropadding1d_1", "padding": 5}}, {"class_name": "Convolution1D", "config": {"W_regularizer": null, "b_regularizer": null, "border_mode": "valid", "name": "convolution1d_1", "bias": true, "input_length": null, "filter_length": 6, "trainable": true, "init": "uniform", "input_dim": null, "activity_regularizer": null, "activation": "relu", "subsample_length": 1, "W_constraint": null, "b_constraint": null, "nb_filter": 200}}, {"class_name": "MaxPooling1D", "config": {"name": "maxpooling1d_1", "stride": 2, "trainable": true, "pool_length": 4, "border_mode": "valid"}}, {"class_name": "Convolution1D", "config": {"W_regularizer": null, "b_regularizer": null, "border_mode": "valid", "name": "convolution1d_2", "bias": true, "input_length": null, "filter_length": 6, "trainable": true, "init": "uniform", "input_dim": null, "activity_regularizer": null, "activation": "relu", "subsample_length": 1, "W_constraint": null, "b_constraint": null, "nb_filter": 200}}, {"class_name": "MaxPooling1D", "config": {"name": "maxpooling1d_2", "stride": 66, "trainable": true, "pool_length": 66, "border_mode": "valid"}}, {"class_name": "Flatten", "config": {"trainable": true, "name": "flatten_1"}}, {"class_name": "Dense", "config": {"W_regularizer": null, "input_dim": null, "name": "dense_1", "bias": true, "trainable": true, "init": "glorot_uniform", "b_regularizer": null, "activity_regularizer": null, "output_dim": 200, "activation": "linear", "W_constraint": null, "b_constraint": null}}, {"class_name": "Dropout", "config": {"p": 0.2, "trainable": true, "name": "dropout_1"}}, {"class_name": "Activation", "config": {"trainable": true, "name": "activation_1", "activation": "relu"}}, {"class_name": "Dense", "config": {"W_regularizer": null, "input_dim": null, "name": "dense_2", "bias": true, "trainable": true, "init": "glorot_uniform", "b_regularizer": null, "activity_regularizer": null, "output_dim": 3, "activation": "softmax", "W_constraint": null, "b_constraint": null}}]}