{"keras_version": "1.1.1", "class_name": "Sequential", "config": [{"class_name": "Merge", "config": {"output_shape_type": "raw", "mode": "concat", "output_shape": null, "mode_type": "raw", "layers": [{"class_name": "Sequential", "config": [{"class_name": "Embedding", "config": {"activity_regularizer": null, "dropout": 0.2, "W_regularizer": null, "batch_input_shape": [null, 140], "name": "embedding_17_mpq_model", "input_dim": 428669, "W_constraint": null, "input_dtype": "int32", "input_length": 140, "init": "uniform", "mask_zero": false, "trainable": true, "output_dim": 52}}, {"class_name": "ZeroPadding1D", "config": {"trainable": true, "name": "zeropadding1d_17_mpq_model", "padding": 5}}, {"class_name": "Convolution1D", "config": {"nb_filter": 200, "subsample_length": 1, "activity_regularizer": null, "W_regularizer": null, "b_constraint": null, "b_regularizer": null, "name": "convolution1d_33_mpq_model", "input_dim": null, "W_constraint": null, "input_length": null, "init": "uniform", "border_mode": "valid", "activation": "relu", "trainable": true, "filter_length": 6, "bias": true}}, {"class_name": "MaxPooling1D", "config": {"stride": 2, "pool_length": 4, "trainable": true, "name": "maxpooling1d_33_mpq_model", "border_mode": "valid"}}, {"class_name": "Convolution1D", "config": {"nb_filter": 200, "subsample_length": 1, "activity_regularizer": null, "W_regularizer": null, "b_constraint": null, "b_regularizer": null, "name": "convolution1d_34_mpq_model", "input_dim": null, "W_constraint": null, "input_length": null, "init": "uniform", "border_mode": "valid", "activation": "relu", "trainable": true, "filter_length": 6, "bias": true}}, {"class_name": "MaxPooling1D", "config": {"stride": 66, "pool_length": 66, "trainable": true, "name": "maxpooling1d_34_mpq_model", "border_mode": "valid"}}, {"class_name": "Flatten", "config": {"trainable": true, "name": "flatten_17_mpq_model"}}]}, {"class_name": "Sequential", "config": [{"class_name": "Embedding", "config": {"activity_regularizer": null, "dropout": 0.2, "W_regularizer": null, "batch_input_shape": [null, 140], "name": "embedding_1_semeval_model", "input_dim": 428669, "W_constraint": null, "input_dtype": "int32", "input_length": 140, "init": "uniform", "mask_zero": false, "trainable": true, "output_dim": 52}}, {"class_name": "ZeroPadding1D", "config": {"trainable": true, "name": "zeropadding1d_1_semeval_model", "padding": 5}}, {"class_name": "Convolution1D", "config": {"nb_filter": 200, "subsample_length": 1, "activity_regularizer": null, "W_regularizer": null, "b_constraint": null, "b_regularizer": null, "name": "convolution1d_1_semeval_model", "input_dim": null, "W_constraint": null, "input_length": null, "init": "uniform", "border_mode": "valid", "activation": "relu", "trainable": true, "filter_length": 6, "bias": true}}, {"class_name": "MaxPooling1D", "config": {"stride": 2, "pool_length": 4, "trainable": true, "name": "maxpooling1d_1_semeval_model", "border_mode": "valid"}}, {"class_name": "Convolution1D", "config": {"nb_filter": 200, "subsample_length": 1, "activity_regularizer": null, "W_regularizer": null, "b_constraint": null, "b_regularizer": null, "name": "convolution1d_2_semeval_model", "input_dim": null, "W_constraint": null, "input_length": null, "init": "uniform", "border_mode": "valid", "activation": "relu", "trainable": true, "filter_length": 6, "bias": true}}, {"class_name": "MaxPooling1D", "config": {"stride": 66, "pool_length": 66, "trainable": true, "name": "maxpooling1d_2_semeval_model", "border_mode": "valid"}}, {"class_name": "Flatten", "config": {"trainable": true, "name": "flatten_1_semeval_model"}}]}, {"class_name": "Sequential", "config": [{"class_name": "Embedding", "config": {"activity_regularizer": null, "dropout": 0.2, "W_regularizer": null, "batch_input_shape": [null, 140], "name": "embedding_1_dil_model", "input_dim": 1576890, "W_constraint": null, "input_dtype": "int32", "input_length": 140, "init": "uniform", "mask_zero": false, "trainable": true, "output_dim": 52}}, {"class_name": "ZeroPadding1D", "config": {"trainable": true, "name": "zeropadding1d_1_dil_model", "padding": 5}}, {"class_name": "Convolution1D", "config": {"nb_filter": 200, "subsample_length": 1, "activity_regularizer": null, "W_regularizer": null, "b_constraint": null, "b_regularizer": null, "name": "convolution1d_1_dil_model", "input_dim": null, "W_constraint": null, "input_length": null, "init": "uniform", "border_mode": "valid", "activation": "relu", "trainable": true, "filter_length": 6, "bias": true}}, {"class_name": "MaxPooling1D", "config": {"stride": 2, "pool_length": 4, "trainable": true, "name": "maxpooling1d_1_dil_model", "border_mode": "valid"}}, {"class_name": "Convolution1D", "config": {"nb_filter": 200, "subsample_length": 1, "activity_regularizer": null, "W_regularizer": null, "b_constraint": null, "b_regularizer": null, "name": "convolution1d_2_dil_model", "input_dim": null, "W_constraint": null, "input_length": null, "init": "uniform", "border_mode": "valid", "activation": "relu", "trainable": true, "filter_length": 6, "bias": true}}, {"class_name": "MaxPooling1D", "config": {"stride": 66, "pool_length": 66, "trainable": true, "name": "maxpooling1d_2_dil_model", "border_mode": "valid"}}, {"class_name": "Flatten", "config": {"trainable": true, "name": "flatten_1_dil_model"}}]}, {"class_name": "Sequential", "config": [{"class_name": "Embedding", "config": {"activity_regularizer": null, "dropout": 0.2, "W_regularizer": null, "batch_input_shape": [null, 140], "name": "embedding_1_dai_model", "input_dim": 1576890, "W_constraint": null, "input_dtype": "int32", "input_length": 140, "init": "uniform", "mask_zero": false, "trainable": true, "output_dim": 52}}, {"class_name": "ZeroPadding1D", "config": {"trainable": true, "name": "zeropadding1d_1_dai_model", "padding": 5}}, {"class_name": "Convolution1D", "config": {"nb_filter": 200, "subsample_length": 1, "activity_regularizer": null, "W_regularizer": null, "b_constraint": null, "b_regularizer": null, "name": "convolution1d_1_dai_model", "input_dim": null, "W_constraint": null, "input_length": null, "init": "uniform", "border_mode": "valid", "activation": "relu", "trainable": true, "filter_length": 6, "bias": true}}, {"class_name": "MaxPooling1D", "config": {"stride": 2, "pool_length": 4, "trainable": true, "name": "maxpooling1d_1_dai_model", "border_mode": "valid"}}, {"class_name": "Convolution1D", "config": {"nb_filter": 200, "subsample_length": 1, "activity_regularizer": null, "W_regularizer": null, "b_constraint": null, "b_regularizer": null, "name": "convolution1d_2_dai_model", "input_dim": null, "W_constraint": null, "input_length": null, "init": "uniform", "border_mode": "valid", "activation": "relu", "trainable": true, "filter_length": 6, "bias": true}}, {"class_name": "MaxPooling1D", "config": {"stride": 66, "pool_length": 66, "trainable": true, "name": "maxpooling1d_2_dai_model", "border_mode": "valid"}}, {"class_name": "Flatten", "config": {"trainable": true, "name": "flatten_1_dai_model"}}]}, {"class_name": "Sequential", "config": [{"class_name": "Embedding", "config": {"activity_regularizer": null, "dropout": 0.2, "W_regularizer": null, "batch_input_shape": [null, 140], "name": "embedding_1_tac_model", "input_dim": 428669, "W_constraint": null, "input_dtype": "int32", "input_length": 140, "init": "uniform", "mask_zero": false, "trainable": true, "output_dim": 52}}, {"class_name": "ZeroPadding1D", "config": {"trainable": true, "name": "zeropadding1d_1_tac_model", "padding": 5}}, {"class_name": "Convolution1D", "config": {"nb_filter": 200, "subsample_length": 1, "activity_regularizer": null, "W_regularizer": null, "b_constraint": null, "b_regularizer": null, "name": "convolution1d_1_tac_model", "input_dim": null, "W_constraint": null, "input_length": null, "init": "uniform", "border_mode": "valid", "activation": "relu", "trainable": true, "filter_length": 6, "bias": true}}, {"class_name": "MaxPooling1D", "config": {"stride": 2, "pool_length": 4, "trainable": true, "name": "maxpooling1d_1_tac_model", "border_mode": "valid"}}, {"class_name": "Convolution1D", "config": {"nb_filter": 200, "subsample_length": 1, "activity_regularizer": null, "W_regularizer": null, "b_constraint": null, "b_regularizer": null, "name": "convolution1d_2_tac_model", "input_dim": null, "W_constraint": null, "input_length": null, "init": "uniform", "border_mode": "valid", "activation": "relu", "trainable": true, "filter_length": 6, "bias": true}}, {"class_name": "MaxPooling1D", "config": {"stride": 66, "pool_length": 66, "trainable": true, "name": "maxpooling1d_2_tac_model", "border_mode": "valid"}}, {"class_name": "Flatten", "config": {"trainable": true, "name": "flatten_1_tac_model"}}]}, {"class_name": "Sequential", "config": [{"class_name": "Embedding", "config": {"activity_regularizer": null, "dropout": 0.2, "W_regularizer": null, "batch_input_shape": [null, 140], "name": "embedding_1_hul_model", "input_dim": 1062158, "W_constraint": null, "input_dtype": "int32", "input_length": 140, "init": "uniform", "mask_zero": false, "trainable": true, "output_dim": 52}}, {"class_name": "ZeroPadding1D", "config": {"trainable": true, "name": "zeropadding1d_1_hul_model", "padding": 5}}, {"class_name": "Convolution1D", "config": {"nb_filter": 200, "subsample_length": 1, "activity_regularizer": null, "W_regularizer": null, "b_constraint": null, "b_regularizer": null, "name": "convolution1d_1_hul_model", "input_dim": null, "W_constraint": null, "input_length": null, "init": "uniform", "border_mode": "valid", "activation": "relu", "trainable": true, "filter_length": 6, "bias": true}}, {"class_name": "MaxPooling1D", "config": {"stride": 2, "pool_length": 4, "trainable": true, "name": "maxpooling1d_1_hul_model", "border_mode": "valid"}}, {"class_name": "Convolution1D", "config": {"nb_filter": 200, "subsample_length": 1, "activity_regularizer": null, "W_regularizer": null, "b_constraint": null, "b_regularizer": null, "name": "convolution1d_2_hul_model", "input_dim": null, "W_constraint": null, "input_length": null, "init": "uniform", "border_mode": "valid", "activation": "relu", "trainable": true, "filter_length": 6, "bias": true}}, {"class_name": "MaxPooling1D", "config": {"stride": 66, "pool_length": 66, "trainable": true, "name": "maxpooling1d_2_hul_model", "border_mode": "valid"}}, {"class_name": "Flatten", "config": {"trainable": true, "name": "flatten_1_hul_model"}}]}], "concat_axis": -1, "dot_axes": -1, "name": "merge_1"}}, {"class_name": "Dense", "config": {"activity_regularizer": null, "W_regularizer": null, "b_constraint": null, "b_regularizer": null, "name": "dense_1", "input_dim": null, "W_constraint": null, "init": "glorot_uniform", "activation": "linear", "trainable": true, "output_dim": 1028, "bias": true}}, {"class_name": "Activation", "config": {"activation": "relu", "trainable": true, "name": "activation_1"}}, {"class_name": "Dense", "config": {"activity_regularizer": null, "W_regularizer": null, "b_constraint": null, "b_regularizer": null, "name": "dense_2", "input_dim": null, "W_constraint": null, "init": "glorot_uniform", "activation": "softmax", "trainable": true, "output_dim": 3, "bias": true}}]}