{"class_name": "Sequential", "keras_version": "1.1.1", "config": [{"class_name": "Merge", "config": {"name": "merge_1", "dot_axes": -1, "mode_type": "raw", "output_shape_type": "raw", "output_shape": null, "concat_axis": -1, "mode": "concat", "layers": [{"class_name": "Sequential", "config": [{"class_name": "Embedding", "config": {"mask_zero": false, "input_dtype": "int32", "input_dim": 1576890, "init": "uniform", "activity_regularizer": null, "name": "embedding_1_dai_model", "batch_input_shape": [null, 140], "output_dim": 52, "dropout": 0.2, "trainable": true, "input_length": 140, "W_regularizer": null, "W_constraint": null}}, {"class_name": "ZeroPadding1D", "config": {"name": "zeropadding1d_1_dai_model", "padding": 5, "trainable": true}}, {"class_name": "Convolution1D", "config": {"bias": true, "activation": "relu", "input_dim": null, "W_constraint": null, "nb_filter": 200, "init": "uniform", "b_regularizer": null, "activity_regularizer": null, "border_mode": "valid", "b_constraint": null, "subsample_length": 1, "trainable": true, "name": "convolution1d_1_dai_model", "filter_length": 6, "W_regularizer": null, "input_length": null}}, {"class_name": "MaxPooling1D", "config": {"name": "maxpooling1d_1_dai_model", "stride": 2, "trainable": true, "border_mode": "valid", "pool_length": 4}}, {"class_name": "Convolution1D", "config": {"bias": true, "activation": "relu", "input_dim": null, "W_constraint": null, "nb_filter": 200, "init": "uniform", "b_regularizer": null, "activity_regularizer": null, "border_mode": "valid", "b_constraint": null, "subsample_length": 1, "trainable": true, "name": "convolution1d_2_dai_model", "filter_length": 6, "W_regularizer": null, "input_length": null}}]}, {"class_name": "Sequential", "config": [{"class_name": "Embedding", "config": {"mask_zero": false, "input_dtype": "int32", "input_dim": 1576890, "init": "uniform", "activity_regularizer": null, "name": "embedding_1_dil_model", "batch_input_shape": [null, 140], "output_dim": 52, "dropout": 0.2, "trainable": true, "input_length": 140, "W_regularizer": null, "W_constraint": null}}, {"class_name": "ZeroPadding1D", "config": {"name": "zeropadding1d_1_dil_model", "padding": 5, "trainable": true}}, {"class_name": "Convolution1D", "config": {"bias": true, "activation": "relu", "input_dim": null, "W_constraint": null, "nb_filter": 200, "init": "uniform", "b_regularizer": null, "activity_regularizer": null, "border_mode": "valid", "b_constraint": null, "subsample_length": 1, "trainable": true, "name": "convolution1d_1_dil_model", "filter_length": 6, "W_regularizer": null, "input_length": null}}, {"class_name": "MaxPooling1D", "config": {"name": "maxpooling1d_1_dil_model", "stride": 2, "trainable": true, "border_mode": "valid", "pool_length": 4}}, {"class_name": "Convolution1D", "config": {"bias": true, "activation": "relu", "input_dim": null, "W_constraint": null, "nb_filter": 200, "init": "uniform", "b_regularizer": null, "activity_regularizer": null, "border_mode": "valid", "b_constraint": null, "subsample_length": 1, "trainable": true, "name": "convolution1d_2_dil_model", "filter_length": 6, "W_regularizer": null, "input_length": null}}]}, {"class_name": "Sequential", "config": [{"class_name": "Embedding", "config": {"mask_zero": false, "input_dtype": "int32", "input_dim": 1062158, "init": "uniform", "activity_regularizer": null, "name": "embedding_1_hul_model", "batch_input_shape": [null, 140], "output_dim": 52, "dropout": 0.2, "trainable": true, "input_length": 140, "W_regularizer": null, "W_constraint": null}}, {"class_name": "ZeroPadding1D", "config": {"name": "zeropadding1d_1_hul_model", "padding": 5, "trainable": true}}, {"class_name": "Convolution1D", "config": {"bias": true, "activation": "relu", "input_dim": null, "W_constraint": null, "nb_filter": 200, "init": "uniform", "b_regularizer": null, "activity_regularizer": null, "border_mode": "valid", "b_constraint": null, "subsample_length": 1, "trainable": true, "name": "convolution1d_1_hul_model", "filter_length": 6, "W_regularizer": null, "input_length": null}}, {"class_name": "MaxPooling1D", "config": {"name": "maxpooling1d_1_hul_model", "stride": 2, "trainable": true, "border_mode": "valid", "pool_length": 4}}, {"class_name": "Convolution1D", "config": {"bias": true, "activation": "relu", "input_dim": null, "W_constraint": null, "nb_filter": 200, "init": "uniform", "b_regularizer": null, "activity_regularizer": null, "border_mode": "valid", "b_constraint": null, "subsample_length": 1, "trainable": true, "name": "convolution1d_2_hul_model", "filter_length": 6, "W_regularizer": null, "input_length": null}}]}, {"class_name": "Sequential", "config": [{"class_name": "Embedding", "config": {"mask_zero": false, "input_dtype": "int32", "input_dim": 428669, "init": "uniform", "activity_regularizer": null, "name": "embedding_1_semeval_model", "batch_input_shape": [null, 140], "output_dim": 52, "dropout": 0.2, "trainable": true, "input_length": 140, "W_regularizer": null, "W_constraint": null}}, {"class_name": "ZeroPadding1D", "config": {"name": "zeropadding1d_1_semeval_model", "padding": 5, "trainable": true}}, {"class_name": "Convolution1D", "config": {"bias": true, "activation": "relu", "input_dim": null, "W_constraint": null, "nb_filter": 200, "init": "uniform", "b_regularizer": null, "activity_regularizer": null, "border_mode": "valid", "b_constraint": null, "subsample_length": 1, "trainable": true, "name": "convolution1d_1_semeval_model", "filter_length": 6, "W_regularizer": null, "input_length": null}}, {"class_name": "MaxPooling1D", "config": {"name": "maxpooling1d_1_semeval_model", "stride": 2, "trainable": true, "border_mode": "valid", "pool_length": 4}}, {"class_name": "Convolution1D", "config": {"bias": true, "activation": "relu", "input_dim": null, "W_constraint": null, "nb_filter": 200, "init": "uniform", "b_regularizer": null, "activity_regularizer": null, "border_mode": "valid", "b_constraint": null, "subsample_length": 1, "trainable": true, "name": "convolution1d_2_semeval_model", "filter_length": 6, "W_regularizer": null, "input_length": null}}]}, {"class_name": "Sequential", "config": [{"class_name": "Embedding", "config": {"mask_zero": false, "input_dtype": "int32", "input_dim": 428669, "init": "uniform", "activity_regularizer": null, "name": "embedding_1_tac_model", "batch_input_shape": [null, 140], "output_dim": 52, "dropout": 0.2, "trainable": true, "input_length": 140, "W_regularizer": null, "W_constraint": null}}, {"class_name": "ZeroPadding1D", "config": {"name": "zeropadding1d_1_tac_model", "padding": 5, "trainable": true}}, {"class_name": "Convolution1D", "config": {"bias": true, "activation": "relu", "input_dim": null, "W_constraint": null, "nb_filter": 200, "init": "uniform", "b_regularizer": null, "activity_regularizer": null, "border_mode": "valid", "b_constraint": null, "subsample_length": 1, "trainable": true, "name": "convolution1d_1_tac_model", "filter_length": 6, "W_regularizer": null, "input_length": null}}, {"class_name": "MaxPooling1D", "config": {"name": "maxpooling1d_1_tac_model", "stride": 2, "trainable": true, "border_mode": "valid", "pool_length": 4}}, {"class_name": "Convolution1D", "config": {"bias": true, "activation": "relu", "input_dim": null, "W_constraint": null, "nb_filter": 200, "init": "uniform", "b_regularizer": null, "activity_regularizer": null, "border_mode": "valid", "b_constraint": null, "subsample_length": 1, "trainable": true, "name": "convolution1d_2_tac_model", "filter_length": 6, "W_regularizer": null, "input_length": null}}]}]}}, {"class_name": "Flatten", "config": {"name": "flatten_1", "trainable": true}}, {"class_name": "Dense", "config": {"bias": true, "activation": "linear", "input_dim": null, "init": "glorot_uniform", "b_regularizer": null, "activity_regularizer": null, "b_constraint": null, "output_dim": 200, "trainable": true, "name": "dense_1", "W_regularizer": null, "W_constraint": null}}, {"class_name": "Dropout", "config": {"name": "dropout_1", "trainable": true, "p": 0.2}}, {"class_name": "Activation", "config": {"name": "activation_1", "trainable": true, "activation": "relu"}}, {"class_name": "Dense", "config": {"bias": true, "activation": "softmax", "input_dim": null, "init": "glorot_uniform", "b_regularizer": null, "activity_regularizer": null, "b_constraint": null, "output_dim": 3, "trainable": true, "name": "dense_2", "W_regularizer": null, "W_constraint": null}}]}