{"config": [{"config": {"name": "merge_1", "mode_type": "raw", "output_shape": null, "layers": [{"config": [{"config": {"mask_zero": false, "W_regularizer": null, "activity_regularizer": null, "name": "embedding_1_dai_model", "input_dtype": "int32", "W_constraint": null, "init": "uniform", "dropout": 0.2, "output_dim": 52, "trainable": true, "input_dim": 1576890, "input_length": 140, "batch_input_shape": [null, 140]}, "class_name": "Embedding"}, {"config": {"name": "zeropadding1d_1_dai_model", "padding": 5, "trainable": true}, "class_name": "ZeroPadding1D"}, {"config": {"b_regularizer": null, "input_dim": null, "activation": "relu", "W_regularizer": null, "activity_regularizer": null, "nb_filter": 200, "b_constraint": null, "filter_length": 6, "name": "convolution1d_1_dai_model", "bias": true, "init": "uniform", "input_length": null, "trainable": true, "border_mode": "valid", "subsample_length": 1, "W_constraint": null}, "class_name": "Convolution1D"}, {"config": {"name": "maxpooling1d_1_dai_model", "trainable": true, "border_mode": "valid", "pool_length": 4, "stride": 2}, "class_name": "MaxPooling1D"}, {"config": {"b_regularizer": null, "input_dim": null, "activation": "relu", "W_regularizer": null, "activity_regularizer": null, "nb_filter": 200, "b_constraint": null, "filter_length": 6, "name": "convolution1d_2_dai_model", "bias": true, "init": "uniform", "input_length": null, "trainable": true, "border_mode": "valid", "subsample_length": 1, "W_constraint": null}, "class_name": "Convolution1D"}], "class_name": "Sequential"}, {"config": [{"config": {"mask_zero": false, "W_regularizer": null, "activity_regularizer": null, "name": "embedding_1_hul_model", "input_dtype": "int32", "W_constraint": null, "init": "uniform", "dropout": 0.2, "output_dim": 52, "trainable": true, "input_dim": 1062158, "input_length": 140, "batch_input_shape": [null, 140]}, "class_name": "Embedding"}, {"config": {"name": "zeropadding1d_1_hul_model", "padding": 5, "trainable": true}, "class_name": "ZeroPadding1D"}, {"config": {"b_regularizer": null, "input_dim": null, "activation": "relu", "W_regularizer": null, "activity_regularizer": null, "nb_filter": 200, "b_constraint": null, "filter_length": 6, "name": "convolution1d_1_hul_model", "bias": true, "init": "uniform", "input_length": null, "trainable": true, "border_mode": "valid", "subsample_length": 1, "W_constraint": null}, "class_name": "Convolution1D"}, {"config": {"name": "maxpooling1d_1_hul_model", "trainable": true, "border_mode": "valid", "pool_length": 4, "stride": 2}, "class_name": "MaxPooling1D"}, {"config": {"b_regularizer": null, "input_dim": null, "activation": "relu", "W_regularizer": null, "activity_regularizer": null, "nb_filter": 200, "b_constraint": null, "filter_length": 6, "name": "convolution1d_2_hul_model", "bias": true, "init": "uniform", "input_length": null, "trainable": true, "border_mode": "valid", "subsample_length": 1, "W_constraint": null}, "class_name": "Convolution1D"}], "class_name": "Sequential"}, {"config": [{"config": {"mask_zero": false, "W_regularizer": null, "activity_regularizer": null, "name": "embedding_17_mpq_model", "input_dtype": "int32", "W_constraint": null, "init": "uniform", "dropout": 0.2, "output_dim": 52, "trainable": true, "input_dim": 428669, "input_length": 140, "batch_input_shape": [null, 140]}, "class_name": "Embedding"}, {"config": {"name": "zeropadding1d_17_mpq_model", "padding": 5, "trainable": true}, "class_name": "ZeroPadding1D"}, {"config": {"b_regularizer": null, "input_dim": null, "activation": "relu", "W_regularizer": null, "activity_regularizer": null, "nb_filter": 200, "b_constraint": null, "filter_length": 6, "name": "convolution1d_33_mpq_model", "bias": true, "init": "uniform", "input_length": null, "trainable": true, "border_mode": "valid", "subsample_length": 1, "W_constraint": null}, "class_name": "Convolution1D"}, {"config": {"name": "maxpooling1d_33_mpq_model", "trainable": true, "border_mode": "valid", "pool_length": 4, "stride": 2}, "class_name": "MaxPooling1D"}, {"config": {"b_regularizer": null, "input_dim": null, "activation": "relu", "W_regularizer": null, "activity_regularizer": null, "nb_filter": 200, "b_constraint": null, "filter_length": 6, "name": "convolution1d_34_mpq_model", "bias": true, "init": "uniform", "input_length": null, "trainable": true, "border_mode": "valid", "subsample_length": 1, "W_constraint": null}, "class_name": "Convolution1D"}], "class_name": "Sequential"}, {"config": [{"config": {"mask_zero": false, "W_regularizer": null, "activity_regularizer": null, "name": "embedding_1_semeval_model", "input_dtype": "int32", "W_constraint": null, "init": "uniform", "dropout": 0.2, "output_dim": 52, "trainable": true, "input_dim": 428669, "input_length": 140, "batch_input_shape": [null, 140]}, "class_name": "Embedding"}, {"config": {"name": "zeropadding1d_1_semeval_model", "padding": 5, "trainable": true}, "class_name": "ZeroPadding1D"}, {"config": {"b_regularizer": null, "input_dim": null, "activation": "relu", "W_regularizer": null, "activity_regularizer": null, "nb_filter": 200, "b_constraint": null, "filter_length": 6, "name": "convolution1d_1_semeval_model", "bias": true, "init": "uniform", "input_length": null, "trainable": true, "border_mode": "valid", "subsample_length": 1, "W_constraint": null}, "class_name": "Convolution1D"}, {"config": {"name": "maxpooling1d_1_semeval_model", "trainable": true, "border_mode": "valid", "pool_length": 4, "stride": 2}, "class_name": "MaxPooling1D"}, {"config": {"b_regularizer": null, "input_dim": null, "activation": "relu", "W_regularizer": null, "activity_regularizer": null, "nb_filter": 200, "b_constraint": null, "filter_length": 6, "name": "convolution1d_2_semeval_model", "bias": true, "init": "uniform", "input_length": null, "trainable": true, "border_mode": "valid", "subsample_length": 1, "W_constraint": null}, "class_name": "Convolution1D"}], "class_name": "Sequential"}, {"config": [{"config": {"mask_zero": false, "W_regularizer": null, "activity_regularizer": null, "name": "embedding_1_tac_model", "input_dtype": "int32", "W_constraint": null, "init": "uniform", "dropout": 0.2, "output_dim": 52, "trainable": true, "input_dim": 428669, "input_length": 140, "batch_input_shape": [null, 140]}, "class_name": "Embedding"}, {"config": {"name": "zeropadding1d_1_tac_model", "padding": 5, "trainable": true}, "class_name": "ZeroPadding1D"}, {"config": {"b_regularizer": null, "input_dim": null, "activation": "relu", "W_regularizer": null, "activity_regularizer": null, "nb_filter": 200, "b_constraint": null, "filter_length": 6, "name": "convolution1d_1_tac_model", "bias": true, "init": "uniform", "input_length": null, "trainable": true, "border_mode": "valid", "subsample_length": 1, "W_constraint": null}, "class_name": "Convolution1D"}, {"config": {"name": "maxpooling1d_1_tac_model", "trainable": true, "border_mode": "valid", "pool_length": 4, "stride": 2}, "class_name": "MaxPooling1D"}, {"config": {"b_regularizer": null, "input_dim": null, "activation": "relu", "W_regularizer": null, "activity_regularizer": null, "nb_filter": 200, "b_constraint": null, "filter_length": 6, "name": "convolution1d_2_tac_model", "bias": true, "init": "uniform", "input_length": null, "trainable": true, "border_mode": "valid", "subsample_length": 1, "W_constraint": null}, "class_name": "Convolution1D"}], "class_name": "Sequential"}], "mode": "concat", "dot_axes": -1, "output_shape_type": "raw", "concat_axis": -1}, "class_name": "Merge"}, {"config": {"name": "flatten_1", "trainable": true}, "class_name": "Flatten"}, {"config": {"b_regularizer": null, "activation": "linear", "W_regularizer": null, "activity_regularizer": null, "b_constraint": null, "name": "dense_1", "bias": true, "init": "glorot_uniform", "output_dim": 200, "input_dim": null, "trainable": true, "W_constraint": null}, "class_name": "Dense"}, {"config": {"name": "dropout_1", "trainable": true, "p": 0.2}, "class_name": "Dropout"}, {"config": {"name": "activation_1", "trainable": true, "activation": "relu"}, "class_name": "Activation"}, {"config": {"b_regularizer": null, "activation": "softmax", "W_regularizer": null, "activity_regularizer": null, "b_constraint": null, "name": "dense_2", "bias": true, "init": "glorot_uniform", "output_dim": 3, "input_dim": null, "trainable": true, "W_constraint": null}, "class_name": "Dense"}], "class_name": "Sequential", "keras_version": "1.1.1"}