{"keras_version": "1.1.1", "config": [{"class_name": "Merge", "config": {"mode": "concat", "mode_type": "raw", "layers": [{"class_name": "Sequential", "config": [{"config": {"input_length": 140, "W_constraint": null, "trainable": true, "input_dim": 1576890, "batch_input_shape": [null, 140], "mask_zero": false, "dropout": 0.2, "input_dtype": "int32", "activity_regularizer": null, "W_regularizer": null, "name": "embedding_1_dai_model", "output_dim": 52, "init": "uniform"}, "class_name": "Embedding"}, {"config": {"name": "zeropadding1d_1_dai_model", "trainable": true, "padding": 5}, "class_name": "ZeroPadding1D"}, {"config": {"W_constraint": null, "input_length": null, "nb_filter": 200, "trainable": true, "activation": "relu", "init": "uniform", "bias": true, "b_regularizer": null, "activity_regularizer": null, "border_mode": "valid", "b_constraint": null, "W_regularizer": null, "subsample_length": 1, "input_dim": null, "filter_length": 6, "name": "convolution1d_1_dai_model"}, "class_name": "Convolution1D"}, {"config": {"pool_length": 4, "name": "maxpooling1d_1_dai_model", "trainable": true, "stride": 2, "border_mode": "valid"}, "class_name": "MaxPooling1D"}, {"config": {"W_constraint": null, "input_length": null, "nb_filter": 200, "trainable": true, "activation": "relu", "init": "uniform", "bias": true, "b_regularizer": null, "activity_regularizer": null, "border_mode": "valid", "b_constraint": null, "W_regularizer": null, "subsample_length": 1, "input_dim": null, "filter_length": 6, "name": "convolution1d_2_dai_model"}, "class_name": "Convolution1D"}]}, {"class_name": "Sequential", "config": [{"config": {"input_length": 140, "W_constraint": null, "trainable": true, "input_dim": 1576890, "batch_input_shape": [null, 140], "mask_zero": false, "dropout": 0.2, "input_dtype": "int32", "activity_regularizer": null, "W_regularizer": null, "name": "embedding_1_dil_model", "output_dim": 52, "init": "uniform"}, "class_name": "Embedding"}, {"config": {"name": "zeropadding1d_1_dil_model", "trainable": true, "padding": 5}, "class_name": "ZeroPadding1D"}, {"config": {"W_constraint": null, "input_length": null, "nb_filter": 200, "trainable": true, "activation": "relu", "init": "uniform", "bias": true, "b_regularizer": null, "activity_regularizer": null, "border_mode": "valid", "b_constraint": null, "W_regularizer": null, "subsample_length": 1, "input_dim": null, "filter_length": 6, "name": "convolution1d_1_dil_model"}, "class_name": "Convolution1D"}, {"config": {"pool_length": 4, "name": "maxpooling1d_1_dil_model", "trainable": true, "stride": 2, "border_mode": "valid"}, "class_name": "MaxPooling1D"}, {"config": {"W_constraint": null, "input_length": null, "nb_filter": 200, "trainable": true, "activation": "relu", "init": "uniform", "bias": true, "b_regularizer": null, "activity_regularizer": null, "border_mode": "valid", "b_constraint": null, "W_regularizer": null, "subsample_length": 1, "input_dim": null, "filter_length": 6, "name": "convolution1d_2_dil_model"}, "class_name": "Convolution1D"}]}, {"class_name": "Sequential", "config": [{"config": {"input_length": 140, "W_constraint": null, "trainable": true, "input_dim": 1062158, "batch_input_shape": [null, 140], "mask_zero": false, "dropout": 0.2, "input_dtype": "int32", "activity_regularizer": null, "W_regularizer": null, "name": "embedding_1_hul_model", "output_dim": 52, "init": "uniform"}, "class_name": "Embedding"}, {"config": {"name": "zeropadding1d_1_hul_model", "trainable": true, "padding": 5}, "class_name": "ZeroPadding1D"}, {"config": {"W_constraint": null, "input_length": null, "nb_filter": 200, "trainable": true, "activation": "relu", "init": "uniform", "bias": true, "b_regularizer": null, "activity_regularizer": null, "border_mode": "valid", "b_constraint": null, "W_regularizer": null, "subsample_length": 1, "input_dim": null, "filter_length": 6, "name": "convolution1d_1_hul_model"}, "class_name": "Convolution1D"}, {"config": {"pool_length": 4, "name": "maxpooling1d_1_hul_model", "trainable": true, "stride": 2, "border_mode": "valid"}, "class_name": "MaxPooling1D"}, {"config": {"W_constraint": null, "input_length": null, "nb_filter": 200, "trainable": true, "activation": "relu", "init": "uniform", "bias": true, "b_regularizer": null, "activity_regularizer": null, "border_mode": "valid", "b_constraint": null, "W_regularizer": null, "subsample_length": 1, "input_dim": null, "filter_length": 6, "name": "convolution1d_2_hul_model"}, "class_name": "Convolution1D"}]}, {"class_name": "Sequential", "config": [{"config": {"input_length": 140, "W_constraint": null, "trainable": true, "input_dim": 428669, "batch_input_shape": [null, 140], "mask_zero": false, "dropout": 0.2, "input_dtype": "int32", "activity_regularizer": null, "W_regularizer": null, "name": "embedding_17_mpq_model", "output_dim": 52, "init": "uniform"}, "class_name": "Embedding"}, {"config": {"name": "zeropadding1d_17_mpq_model", "trainable": true, "padding": 5}, "class_name": "ZeroPadding1D"}, {"config": {"W_constraint": null, "input_length": null, "nb_filter": 200, "trainable": true, "activation": "relu", "init": "uniform", "bias": true, "b_regularizer": null, "activity_regularizer": null, "border_mode": "valid", "b_constraint": null, "W_regularizer": null, "subsample_length": 1, "input_dim": null, "filter_length": 6, "name": "convolution1d_33_mpq_model"}, "class_name": "Convolution1D"}, {"config": {"pool_length": 4, "name": "maxpooling1d_33_mpq_model", "trainable": true, "stride": 2, "border_mode": "valid"}, "class_name": "MaxPooling1D"}, {"config": {"W_constraint": null, "input_length": null, "nb_filter": 200, "trainable": true, "activation": "relu", "init": "uniform", "bias": true, "b_regularizer": null, "activity_regularizer": null, "border_mode": "valid", "b_constraint": null, "W_regularizer": null, "subsample_length": 1, "input_dim": null, "filter_length": 6, "name": "convolution1d_34_mpq_model"}, "class_name": "Convolution1D"}]}, {"class_name": "Sequential", "config": [{"config": {"input_length": 140, "W_constraint": null, "trainable": true, "input_dim": 1576890, "batch_input_shape": [null, 140], "mask_zero": false, "dropout": 0.2, "input_dtype": "int32", "activity_regularizer": null, "W_regularizer": null, "name": "embedding_1_semeval_model", "output_dim": 52, "init": "uniform"}, "class_name": "Embedding"}, {"config": {"name": "zeropadding1d_1_semeval_model", "trainable": true, "padding": 5}, "class_name": "ZeroPadding1D"}, {"config": {"W_constraint": null, "input_length": null, "nb_filter": 200, "trainable": true, "activation": "relu", "init": "uniform", "bias": true, "b_regularizer": null, "activity_regularizer": null, "border_mode": "valid", "b_constraint": null, "W_regularizer": null, "subsample_length": 1, "input_dim": null, "filter_length": 6, "name": "convolution1d_1_semeval_model"}, "class_name": "Convolution1D"}, {"config": {"pool_length": 4, "name": "maxpooling1d_1_semeval_model", "trainable": true, "stride": 2, "border_mode": "valid"}, "class_name": "MaxPooling1D"}, {"config": {"W_constraint": null, "input_length": null, "nb_filter": 200, "trainable": true, "activation": "relu", "init": "uniform", "bias": true, "b_regularizer": null, "activity_regularizer": null, "border_mode": "valid", "b_constraint": null, "W_regularizer": null, "subsample_length": 1, "input_dim": null, "filter_length": 6, "name": "convolution1d_2_semeval_model"}, "class_name": "Convolution1D"}]}], "name": "merge_1", "concat_axis": -1, "dot_axes": -1, "output_shape": null, "output_shape_type": "raw"}}, {"class_name": "MaxPooling1D", "config": {"pool_length": 4, "name": "maxpooling1d_1", "trainable": true, "stride": 2, "border_mode": "valid"}}, {"class_name": "Convolution1D", "config": {"W_constraint": null, "input_length": null, "trainable": true, "activation": "relu", "init": "uniform", "filter_length": 6, "bias": true, "b_constraint": null, "activity_regularizer": null, "border_mode": "valid", "b_regularizer": null, "W_regularizer": null, "subsample_length": 1, "input_dim": null, "name": "convolution1d_1", "nb_filter": 200}}, {"class_name": "MaxPooling1D", "config": {"pool_length": 4, "name": "maxpooling1d_2", "trainable": true, "stride": 2, "border_mode": "valid"}}, {"class_name": "Flatten", "config": {"name": "flatten_1", "trainable": true}}, {"class_name": "Dense", "config": {"W_constraint": null, "trainable": true, "activation": "linear", "init": "glorot_uniform", "bias": true, "b_regularizer": null, "activity_regularizer": null, "b_constraint": null, "W_regularizer": null, "input_dim": null, "name": "dense_1", "output_dim": 200}}, {"class_name": "Dropout", "config": {"name": "dropout_1", "trainable": true, "p": 0.2}}, {"class_name": "Activation", "config": {"name": "activation_1", "trainable": true, "activation": "relu"}}, {"class_name": "Dense", "config": {"W_constraint": null, "trainable": true, "activation": "softmax", "init": "glorot_uniform", "bias": true, "b_regularizer": null, "activity_regularizer": null, "b_constraint": null, "W_regularizer": null, "input_dim": null, "name": "dense_2", "output_dim": 3}}], "class_name": "Sequential"}