{"config": [{"class_name": "Embedding", "config": {"W_regularizer": null, "output_dim": 52, "trainable": true, "activity_regularizer": null, "init": "uniform", "mask_zero": false, "name": "embedding_1", "W_constraint": null, "input_dim": 1353244, "dropout": 0.2, "input_dtype": "int32", "batch_input_shape": [null, 140], "input_length": 140}}, {"class_name": "ZeroPadding1D", "config": {"name": "zeropadding1d_1", "padding": 5, "trainable": true}}, {"class_name": "Convolution1D", "config": {"W_regularizer": null, "bias": true, "nb_filter": 200, "trainable": true, "filter_length": 6, "init": "uniform", "W_constraint": null, "b_regularizer": null, "border_mode": "valid", "name": "convolution1d_1", "activity_regularizer": null, "input_dim": null, "subsample_length": 1, "input_length": null, "b_constraint": null, "activation": "relu"}}, {"class_name": "MaxPooling1D", "config": {"border_mode": "valid", "stride": 2, "name": "maxpooling1d_1", "pool_length": 4, "trainable": true}}, {"class_name": "Convolution1D", "config": {"W_regularizer": null, "bias": true, "nb_filter": 200, "trainable": true, "filter_length": 6, "init": "uniform", "W_constraint": null, "b_regularizer": null, "border_mode": "valid", "name": "convolution1d_2", "activity_regularizer": null, "input_dim": null, "subsample_length": 1, "input_length": null, "b_constraint": null, "activation": "relu"}}, {"class_name": "MaxPooling1D", "config": {"border_mode": "valid", "stride": 66, "name": "maxpooling1d_2", "pool_length": 66, "trainable": true}}, {"class_name": "Flatten", "config": {"name": "flatten_1", "trainable": true}}, {"class_name": "Dense", "config": {"W_regularizer": null, "output_dim": 200, "bias": true, "trainable": true, "activity_regularizer": null, "init": "glorot_uniform", "b_regularizer": null, "name": "dense_1", "W_constraint": null, "input_dim": null, "b_constraint": null, "activation": "linear"}}, {"class_name": "Dropout", "config": {"p": 0.2, "name": "dropout_1", "trainable": true}}, {"class_name": "Activation", "config": {"trainable": true, "name": "activation_1", "activation": "relu"}}, {"class_name": "Dense", "config": {"W_regularizer": null, "output_dim": 3, "bias": true, "trainable": true, "activity_regularizer": null, "init": "glorot_uniform", "b_regularizer": null, "name": "dense_2", "W_constraint": null, "input_dim": null, "b_constraint": null, "activation": "softmax"}}], "class_name": "Sequential", "keras_version": "1.1.0"}