{"class_name": "Sequential", "keras_version": "1.1.0", "config": [{"class_name": "Embedding", "config": {"trainable": true, "batch_input_shape": [null, 140], "mask_zero": false, "input_dtype": "int32", "init": "uniform", "name": "embedding_21", "activity_regularizer": null, "input_length": 140, "input_dim": 1576890, "W_regularizer": null, "W_constraint": null, "dropout": 0.2, "output_dim": 52}}, {"class_name": "ZeroPadding1D", "config": {"name": "zeropadding1d_21", "padding": 5, "trainable": true}}, {"class_name": "Convolution1D", "config": {"filter_length": 6, "border_mode": "valid", "bias": true, "name": "convolution1d_41", "init": "uniform", "activity_regularizer": null, "input_length": null, "trainable": true, "W_regularizer": null, "W_constraint": null, "activation": "relu", "subsample_length": 1, "input_dim": null, "b_constraint": null, "nb_filter": 200, "b_regularizer": null}}, {"class_name": "MaxPooling1D", "config": {"trainable": true, "name": "maxpooling1d_41", "stride": 2, "pool_length": 4, "border_mode": "valid"}}, {"class_name": "Convolution1D", "config": {"filter_length": 6, "border_mode": "valid", "bias": true, "name": "convolution1d_42", "init": "uniform", "activity_regularizer": null, "input_length": null, "trainable": true, "W_regularizer": null, "W_constraint": null, "activation": "relu", "subsample_length": 1, "input_dim": null, "b_constraint": null, "nb_filter": 200, "b_regularizer": null}}, {"class_name": "MaxPooling1D", "config": {"trainable": true, "name": "maxpooling1d_42", "stride": 66, "pool_length": 66, "border_mode": "valid"}}, {"class_name": "Flatten", "config": {"name": "flatten_21", "trainable": true}}, {"class_name": "Dense", "config": {"bias": true, "init": "glorot_uniform", "name": "dense_41", "activity_regularizer": null, "trainable": true, "W_regularizer": null, "W_constraint": null, "activation": "linear", "output_dim": 200, "input_dim": null, "b_constraint": null, "b_regularizer": null}}, {"class_name": "Dropout", "config": {"name": "dropout_21", "p": 0.2, "trainable": true}}, {"class_name": "Activation", "config": {"trainable": true, "name": "activation_21", "activation": "relu"}}, {"class_name": "Dense", "config": {"bias": true, "init": "glorot_uniform", "name": "dense_42", "activity_regularizer": null, "trainable": true, "W_regularizer": null, "W_constraint": null, "activation": "softmax", "output_dim": 3, "input_dim": null, "b_constraint": null, "b_regularizer": null}}]}