{"config": [{"config": {"dot_axes": -1, "output_shape": null, "mode_type": "raw", "layers": [{"config": [{"config": {"input_dtype": "int32", "input_length": 140, "W_regularizer": null, "name": "embedding_1_semeval_model", "input_dim": 428669, "init": "uniform", "dropout": 0.2, "trainable": true, "activity_regularizer": null, "W_constraint": null, "batch_input_shape": [null, 140], "mask_zero": false, "output_dim": 52}, "class_name": "Embedding"}, {"config": {"trainable": true, "name": "zeropadding1d_1_semeval_model", "padding": 5}, "class_name": "ZeroPadding1D"}, {"config": {"border_mode": "valid", "name": "convolution1d_1_semeval_model", "activation": "relu", "b_constraint": null, "filter_length": 6, "subsample_length": 1, "input_length": null, "b_regularizer": null, "input_dim": null, "init": "uniform", "trainable": true, "activity_regularizer": null, "nb_filter": 200, "W_constraint": null, "bias": true, "W_regularizer": null}, "class_name": "Convolution1D"}, {"config": {"trainable": true, "stride": 2, "border_mode": "valid", "name": "maxpooling1d_1_semeval_model", "pool_length": 4}, "class_name": "MaxPooling1D"}, {"config": {"border_mode": "valid", "name": "convolution1d_2_semeval_model", "activation": "relu", "b_constraint": null, "filter_length": 6, "subsample_length": 1, "input_length": null, "b_regularizer": null, "input_dim": null, "init": "uniform", "trainable": true, "activity_regularizer": null, "nb_filter": 200, "W_constraint": null, "bias": true, "W_regularizer": null}, "class_name": "Convolution1D"}], "class_name": "Sequential"}, {"config": [{"config": {"input_dtype": "int32", "input_length": 140, "W_regularizer": null, "name": "embedding_1_dil_model", "input_dim": 1576890, "init": "uniform", "dropout": 0.2, "trainable": true, "activity_regularizer": null, "W_constraint": null, "batch_input_shape": [null, 140], "mask_zero": false, "output_dim": 52}, "class_name": "Embedding"}, {"config": {"trainable": true, "name": "zeropadding1d_1_dil_model", "padding": 5}, "class_name": "ZeroPadding1D"}, {"config": {"border_mode": "valid", "name": "convolution1d_1_dil_model", "activation": "relu", "b_constraint": null, "filter_length": 6, "subsample_length": 1, "input_length": null, "b_regularizer": null, "input_dim": null, "init": "uniform", "trainable": true, "activity_regularizer": null, "nb_filter": 200, "W_constraint": null, "bias": true, "W_regularizer": null}, "class_name": "Convolution1D"}, {"config": {"trainable": true, "stride": 2, "border_mode": "valid", "name": "maxpooling1d_1_dil_model", "pool_length": 4}, "class_name": "MaxPooling1D"}, {"config": {"border_mode": "valid", "name": "convolution1d_2_dil_model", "activation": "relu", "b_constraint": null, "filter_length": 6, "subsample_length": 1, "input_length": null, "b_regularizer": null, "input_dim": null, "init": "uniform", "trainable": true, "activity_regularizer": null, "nb_filter": 200, "W_constraint": null, "bias": true, "W_regularizer": null}, "class_name": "Convolution1D"}], "class_name": "Sequential"}, {"config": [{"config": {"input_dtype": "int32", "input_length": 140, "W_regularizer": null, "name": "embedding_17_mpq_model", "input_dim": 428669, "init": "uniform", "dropout": 0.2, "trainable": true, "activity_regularizer": null, "W_constraint": null, "batch_input_shape": [null, 140], "mask_zero": false, "output_dim": 52}, "class_name": "Embedding"}, {"config": {"trainable": true, "name": "zeropadding1d_17_mpq_model", "padding": 5}, "class_name": "ZeroPadding1D"}, {"config": {"border_mode": "valid", "name": "convolution1d_33_mpq_model", "activation": "relu", "b_constraint": null, "filter_length": 6, "subsample_length": 1, "input_length": null, "b_regularizer": null, "input_dim": null, "init": "uniform", "trainable": true, "activity_regularizer": null, "nb_filter": 200, "W_constraint": null, "bias": true, "W_regularizer": null}, "class_name": "Convolution1D"}, {"config": {"trainable": true, "stride": 2, "border_mode": "valid", "name": "maxpooling1d_33_mpq_model", "pool_length": 4}, "class_name": "MaxPooling1D"}, {"config": {"border_mode": "valid", "name": "convolution1d_34_mpq_model", "activation": "relu", "b_constraint": null, "filter_length": 6, "subsample_length": 1, "input_length": null, "b_regularizer": null, "input_dim": null, "init": "uniform", "trainable": true, "activity_regularizer": null, "nb_filter": 200, "W_constraint": null, "bias": true, "W_regularizer": null}, "class_name": "Convolution1D"}], "class_name": "Sequential"}, {"config": [{"config": {"input_dtype": "int32", "input_length": 140, "W_regularizer": null, "name": "embedding_1_tac_model", "input_dim": 428669, "init": "uniform", "dropout": 0.2, "trainable": true, "activity_regularizer": null, "W_constraint": null, "batch_input_shape": [null, 140], "mask_zero": false, "output_dim": 52}, "class_name": "Embedding"}, {"config": {"trainable": true, "name": "zeropadding1d_1_tac_model", "padding": 5}, "class_name": "ZeroPadding1D"}, {"config": {"border_mode": "valid", "name": "convolution1d_1_tac_model", "activation": "relu", "b_constraint": null, "filter_length": 6, "subsample_length": 1, "input_length": null, "b_regularizer": null, "input_dim": null, "init": "uniform", "trainable": true, "activity_regularizer": null, "nb_filter": 200, "W_constraint": null, "bias": true, "W_regularizer": null}, "class_name": "Convolution1D"}, {"config": {"trainable": true, "stride": 2, "border_mode": "valid", "name": "maxpooling1d_1_tac_model", "pool_length": 4}, "class_name": "MaxPooling1D"}, {"config": {"border_mode": "valid", "name": "convolution1d_2_tac_model", "activation": "relu", "b_constraint": null, "filter_length": 6, "subsample_length": 1, "input_length": null, "b_regularizer": null, "input_dim": null, "init": "uniform", "trainable": true, "activity_regularizer": null, "nb_filter": 200, "W_constraint": null, "bias": true, "W_regularizer": null}, "class_name": "Convolution1D"}], "class_name": "Sequential"}, {"config": [{"config": {"input_dtype": "int32", "input_length": 140, "W_regularizer": null, "name": "embedding_1_dai_model", "input_dim": 1576890, "init": "uniform", "dropout": 0.2, "trainable": true, "activity_regularizer": null, "W_constraint": null, "batch_input_shape": [null, 140], "mask_zero": false, "output_dim": 52}, "class_name": "Embedding"}, {"config": {"trainable": true, "name": "zeropadding1d_1_dai_model", "padding": 5}, "class_name": "ZeroPadding1D"}, {"config": {"border_mode": "valid", "name": "convolution1d_1_dai_model", "activation": "relu", "b_constraint": null, "filter_length": 6, "subsample_length": 1, "input_length": null, "b_regularizer": null, "input_dim": null, "init": "uniform", "trainable": true, "activity_regularizer": null, "nb_filter": 200, "W_constraint": null, "bias": true, "W_regularizer": null}, "class_name": "Convolution1D"}, {"config": {"trainable": true, "stride": 2, "border_mode": "valid", "name": "maxpooling1d_1_dai_model", "pool_length": 4}, "class_name": "MaxPooling1D"}, {"config": {"border_mode": "valid", "name": "convolution1d_2_dai_model", "activation": "relu", "b_constraint": null, "filter_length": 6, "subsample_length": 1, "input_length": null, "b_regularizer": null, "input_dim": null, "init": "uniform", "trainable": true, "activity_regularizer": null, "nb_filter": 200, "W_constraint": null, "bias": true, "W_regularizer": null}, "class_name": "Convolution1D"}], "class_name": "Sequential"}, {"config": [{"config": {"input_dtype": "int32", "input_length": 140, "W_regularizer": null, "name": "embedding_1_hul_model", "input_dim": 1062158, "init": "uniform", "dropout": 0.2, "trainable": true, "activity_regularizer": null, "W_constraint": null, "batch_input_shape": [null, 140], "mask_zero": false, "output_dim": 52}, "class_name": "Embedding"}, {"config": {"trainable": true, "name": "zeropadding1d_1_hul_model", "padding": 5}, "class_name": "ZeroPadding1D"}, {"config": {"border_mode": "valid", "name": "convolution1d_1_hul_model", "activation": "relu", "b_constraint": null, "filter_length": 6, "subsample_length": 1, "input_length": null, "b_regularizer": null, "input_dim": null, "init": "uniform", "trainable": true, "activity_regularizer": null, "nb_filter": 200, "W_constraint": null, "bias": true, "W_regularizer": null}, "class_name": "Convolution1D"}, {"config": {"trainable": true, "stride": 2, "border_mode": "valid", "name": "maxpooling1d_1_hul_model", "pool_length": 4}, "class_name": "MaxPooling1D"}, {"config": {"border_mode": "valid", "name": "convolution1d_2_hul_model", "activation": "relu", "b_constraint": null, "filter_length": 6, "subsample_length": 1, "input_length": null, "b_regularizer": null, "input_dim": null, "init": "uniform", "trainable": true, "activity_regularizer": null, "nb_filter": 200, "W_constraint": null, "bias": true, "W_regularizer": null}, "class_name": "Convolution1D"}], "class_name": "Sequential"}], "mode": "concat", "concat_axis": -1, "name": "merge_1", "output_shape_type": "raw"}, "class_name": "Merge"}, {"config": {"trainable": true, "name": "flatten_1"}, "class_name": "Flatten"}, {"config": {"name": "dense_1", "activation": "linear", "b_constraint": null, "W_regularizer": null, "b_regularizer": null, "input_dim": null, "init": "glorot_uniform", "trainable": true, "activity_regularizer": null, "W_constraint": null, "bias": true, "output_dim": 200}, "class_name": "Dense"}, {"config": {"trainable": true, "name": "dropout_1", "p": 0.2}, "class_name": "Dropout"}, {"config": {"trainable": true, "name": "activation_1", "activation": "relu"}, "class_name": "Activation"}, {"config": {"name": "dense_2", "activation": "softmax", "b_constraint": null, "W_regularizer": null, "b_regularizer": null, "input_dim": null, "init": "glorot_uniform", "trainable": true, "activity_regularizer": null, "W_constraint": null, "bias": true, "output_dim": 3}, "class_name": "Dense"}], "class_name": "Sequential", "keras_version": "1.1.1"}