{"keras_version": "1.1.1", "config": [{"config": {"input_length": 140, "trainable": true, "W_regularizer": null, "init": "uniform", "output_dim": 52, "input_dtype": "int32", "mask_zero": false, "activity_regularizer": null, "batch_input_shape": [null, 140], "input_dim": 1576890, "name": "embedding_1", "W_constraint": null, "dropout": 0.2}, "class_name": "Embedding"}, {"config": {"padding": 5, "trainable": true, "name": "zeropadding1d_1"}, "class_name": "ZeroPadding1D"}, {"config": {"bias": true, "activation": "relu", "b_regularizer": null, "trainable": true, "W_regularizer": null, "init": "uniform", "b_constraint": null, "input_length": null, "activity_regularizer": null, "filter_length": 6, "input_dim": null, "name": "convolution1d_1", "W_constraint": null, "border_mode": "valid", "nb_filter": 200, "subsample_length": 1}, "class_name": "Convolution1D"}, {"config": {"border_mode": "valid", "stride": 2, "name": "maxpooling1d_1", "pool_length": 4, "trainable": true}, "class_name": "MaxPooling1D"}, {"config": {"bias": true, "activation": "relu", "b_regularizer": null, "trainable": true, "W_regularizer": null, "init": "uniform", "b_constraint": null, "input_length": null, "activity_regularizer": null, "filter_length": 6, "input_dim": null, "name": "convolution1d_2", "W_constraint": null, "border_mode": "valid", "nb_filter": 200, "subsample_length": 1}, "class_name": "Convolution1D"}, {"config": {"border_mode": "valid", "stride": 66, "name": "maxpooling1d_2", "pool_length": 66, "trainable": true}, "class_name": "MaxPooling1D"}, {"config": {"name": "flatten_1", "trainable": true}, "class_name": "Flatten"}, {"config": {"bias": true, "activation": "linear", "b_regularizer": null, "trainable": true, "W_regularizer": null, "init": "glorot_uniform", "b_constraint": null, "output_dim": 200, "activity_regularizer": null, "input_dim": null, "name": "dense_1", "W_constraint": null}, "class_name": "Dense"}, {"config": {"p": 0.2, "trainable": true, "name": "dropout_1"}, "class_name": "Dropout"}, {"config": {"activation": "relu", "trainable": true, "name": "activation_1"}, "class_name": "Activation"}, {"config": {"bias": true, "activation": "softmax", "b_regularizer": null, "trainable": true, "W_regularizer": null, "init": "glorot_uniform", "b_constraint": null, "output_dim": 3, "activity_regularizer": null, "input_dim": null, "name": "dense_2", "W_constraint": null}, "class_name": "Dense"}], "class_name": "Sequential"}