{"class_name": "Sequential", "keras_version": "1.1.1", "config": [{"class_name": "Merge", "config": {"layers": [{"class_name": "Sequential", "config": [{"class_name": "Embedding", "config": {"output_dim": 52, "W_regularizer": null, "input_length": 140, "dropout": 0.2, "init": "uniform", "W_constraint": null, "input_dtype": "int32", "name": "embedding_1_dai_model", "input_dim": 1576890, "batch_input_shape": [null, 140], "mask_zero": false, "activity_regularizer": null, "trainable": true}}, {"class_name": "ZeroPadding1D", "config": {"name": "zeropadding1d_1_dai_model", "padding": 5, "trainable": true}}, {"class_name": "Convolution1D", "config": {"nb_filter": 200, "b_regularizer": null, "name": "convolution1d_1_dai_model", "input_length": null, "init": "uniform", "W_constraint": null, "b_constraint": null, "filter_length": 6, "W_regularizer": null, "input_dim": null, "subsample_length": 1, "bias": true, "activity_regularizer": null, "activation": "relu", "border_mode": "valid", "trainable": true}}, {"class_name": "MaxPooling1D", "config": {"name": "maxpooling1d_1_dai_model", "pool_length": 4, "border_mode": "valid", "stride": 2, "trainable": true}}, {"class_name": "Convolution1D", "config": {"nb_filter": 200, "b_regularizer": null, "name": "convolution1d_2_dai_model", "input_length": null, "init": "uniform", "W_constraint": null, "b_constraint": null, "filter_length": 6, "W_regularizer": null, "input_dim": null, "subsample_length": 1, "bias": true, "activity_regularizer": null, "activation": "relu", "border_mode": "valid", "trainable": true}}]}, {"class_name": "Sequential", "config": [{"class_name": "Embedding", "config": {"output_dim": 52, "W_regularizer": null, "input_length": 140, "dropout": 0.2, "init": "uniform", "W_constraint": null, "input_dtype": "int32", "name": "embedding_1_dil_model", "input_dim": 1576890, "batch_input_shape": [null, 140], "mask_zero": false, "activity_regularizer": null, "trainable": true}}, {"class_name": "ZeroPadding1D", "config": {"name": "zeropadding1d_1_dil_model", "padding": 5, "trainable": true}}, {"class_name": "Convolution1D", "config": {"nb_filter": 200, "b_regularizer": null, "name": "convolution1d_1_dil_model", "input_length": null, "init": "uniform", "W_constraint": null, "b_constraint": null, "filter_length": 6, "W_regularizer": null, "input_dim": null, "subsample_length": 1, "bias": true, "activity_regularizer": null, "activation": "relu", "border_mode": "valid", "trainable": true}}, {"class_name": "MaxPooling1D", "config": {"name": "maxpooling1d_1_dil_model", "pool_length": 4, "border_mode": "valid", "stride": 2, "trainable": true}}, {"class_name": "Convolution1D", "config": {"nb_filter": 200, "b_regularizer": null, "name": "convolution1d_2_dil_model", "input_length": null, "init": "uniform", "W_constraint": null, "b_constraint": null, "filter_length": 6, "W_regularizer": null, "input_dim": null, "subsample_length": 1, "bias": true, "activity_regularizer": null, "activation": "relu", "border_mode": "valid", "trainable": true}}]}, {"class_name": "Sequential", "config": [{"class_name": "Embedding", "config": {"output_dim": 52, "W_regularizer": null, "input_length": 140, "dropout": 0.2, "init": "uniform", "W_constraint": null, "input_dtype": "int32", "name": "embedding_1_hul_model", "input_dim": 1062158, "batch_input_shape": [null, 140], "mask_zero": false, "activity_regularizer": null, "trainable": true}}, {"class_name": "ZeroPadding1D", "config": {"name": "zeropadding1d_1_hul_model", "padding": 5, "trainable": true}}, {"class_name": "Convolution1D", "config": {"nb_filter": 200, "b_regularizer": null, "name": "convolution1d_1_hul_model", "input_length": null, "init": "uniform", "W_constraint": null, "b_constraint": null, "filter_length": 6, "W_regularizer": null, "input_dim": null, "subsample_length": 1, "bias": true, "activity_regularizer": null, "activation": "relu", "border_mode": "valid", "trainable": true}}, {"class_name": "MaxPooling1D", "config": {"name": "maxpooling1d_1_hul_model", "pool_length": 4, "border_mode": "valid", "stride": 2, "trainable": true}}, {"class_name": "Convolution1D", "config": {"nb_filter": 200, "b_regularizer": null, "name": "convolution1d_2_hul_model", "input_length": null, "init": "uniform", "W_constraint": null, "b_constraint": null, "filter_length": 6, "W_regularizer": null, "input_dim": null, "subsample_length": 1, "bias": true, "activity_regularizer": null, "activation": "relu", "border_mode": "valid", "trainable": true}}]}, {"class_name": "Sequential", "config": [{"class_name": "Embedding", "config": {"output_dim": 52, "W_regularizer": null, "input_length": 140, "dropout": 0.2, "init": "uniform", "W_constraint": null, "input_dtype": "int32", "name": "embedding_17_mpq_model", "input_dim": 428669, "batch_input_shape": [null, 140], "mask_zero": false, "activity_regularizer": null, "trainable": true}}, {"class_name": "ZeroPadding1D", "config": {"name": "zeropadding1d_17_mpq_model", "padding": 5, "trainable": true}}, {"class_name": "Convolution1D", "config": {"nb_filter": 200, "b_regularizer": null, "name": "convolution1d_33_mpq_model", "input_length": null, "init": "uniform", "W_constraint": null, "b_constraint": null, "filter_length": 6, "W_regularizer": null, "input_dim": null, "subsample_length": 1, "bias": true, "activity_regularizer": null, "activation": "relu", "border_mode": "valid", "trainable": true}}, {"class_name": "MaxPooling1D", "config": {"name": "maxpooling1d_33_mpq_model", "pool_length": 4, "border_mode": "valid", "stride": 2, "trainable": true}}, {"class_name": "Convolution1D", "config": {"nb_filter": 200, "b_regularizer": null, "name": "convolution1d_34_mpq_model", "input_length": null, "init": "uniform", "W_constraint": null, "b_constraint": null, "filter_length": 6, "W_regularizer": null, "input_dim": null, "subsample_length": 1, "bias": true, "activity_regularizer": null, "activation": "relu", "border_mode": "valid", "trainable": true}}]}, {"class_name": "Sequential", "config": [{"class_name": "Embedding", "config": {"output_dim": 52, "W_regularizer": null, "input_length": 140, "dropout": 0.2, "init": "uniform", "W_constraint": null, "input_dtype": "int32", "name": "embedding_1_semeval_model", "input_dim": 428669, "batch_input_shape": [null, 140], "mask_zero": false, "activity_regularizer": null, "trainable": true}}, {"class_name": "ZeroPadding1D", "config": {"name": "zeropadding1d_1_semeval_model", "padding": 5, "trainable": true}}, {"class_name": "Convolution1D", "config": {"nb_filter": 200, "b_regularizer": null, "name": "convolution1d_1_semeval_model", "input_length": null, "init": "uniform", "W_constraint": null, "b_constraint": null, "filter_length": 6, "W_regularizer": null, "input_dim": null, "subsample_length": 1, "bias": true, "activity_regularizer": null, "activation": "relu", "border_mode": "valid", "trainable": true}}, {"class_name": "MaxPooling1D", "config": {"name": "maxpooling1d_1_semeval_model", "pool_length": 4, "border_mode": "valid", "stride": 2, "trainable": true}}, {"class_name": "Convolution1D", "config": {"nb_filter": 200, "b_regularizer": null, "name": "convolution1d_2_semeval_model", "input_length": null, "init": "uniform", "W_constraint": null, "b_constraint": null, "filter_length": 6, "W_regularizer": null, "input_dim": null, "subsample_length": 1, "bias": true, "activity_regularizer": null, "activation": "relu", "border_mode": "valid", "trainable": true}}]}, {"class_name": "Sequential", "config": [{"class_name": "Embedding", "config": {"output_dim": 52, "W_regularizer": null, "input_length": 140, "dropout": 0.2, "init": "uniform", "W_constraint": null, "input_dtype": "int32", "name": "embedding_1_tac_model", "input_dim": 428669, "batch_input_shape": [null, 140], "mask_zero": false, "activity_regularizer": null, "trainable": true}}, {"class_name": "ZeroPadding1D", "config": {"name": "zeropadding1d_1_tac_model", "padding": 5, "trainable": true}}, {"class_name": "Convolution1D", "config": {"nb_filter": 200, "b_regularizer": null, "name": "convolution1d_1_tac_model", "input_length": null, "init": "uniform", "W_constraint": null, "b_constraint": null, "filter_length": 6, "W_regularizer": null, "input_dim": null, "subsample_length": 1, "bias": true, "activity_regularizer": null, "activation": "relu", "border_mode": "valid", "trainable": true}}, {"class_name": "MaxPooling1D", "config": {"name": "maxpooling1d_1_tac_model", "pool_length": 4, "border_mode": "valid", "stride": 2, "trainable": true}}, {"class_name": "Convolution1D", "config": {"nb_filter": 200, "b_regularizer": null, "name": "convolution1d_2_tac_model", "input_length": null, "init": "uniform", "W_constraint": null, "b_constraint": null, "filter_length": 6, "W_regularizer": null, "input_dim": null, "subsample_length": 1, "bias": true, "activity_regularizer": null, "activation": "relu", "border_mode": "valid", "trainable": true}}]}], "mode": "concat", "mode_type": "raw", "name": "merge_1", "dot_axes": -1, "concat_axis": -1, "output_shape_type": "raw", "output_shape": null}}, {"class_name": "Flatten", "config": {"name": "flatten_1", "trainable": true}}, {"class_name": "Dense", "config": {"output_dim": 200, "b_regularizer": null, "name": "dense_1", "b_constraint": null, "W_constraint": null, "init": "glorot_uniform", "W_regularizer": null, "input_dim": null, "bias": true, "activity_regularizer": null, "activation": "linear", "trainable": true}}, {"class_name": "Dropout", "config": {"name": "dropout_1", "p": 0.2, "trainable": true}}, {"class_name": "Activation", "config": {"name": "activation_1", "activation": "relu", "trainable": true}}, {"class_name": "Dense", "config": {"output_dim": 3, "b_regularizer": null, "name": "dense_2", "b_constraint": null, "W_constraint": null, "init": "glorot_uniform", "W_regularizer": null, "input_dim": null, "bias": true, "activity_regularizer": null, "activation": "softmax", "trainable": true}}]}