{"config": [{"config": {"dot_axes": -1, "layers": [{"config": [{"config": {"dropout": 0.2, "output_dim": 52, "input_length": 140, "activity_regularizer": null, "W_regularizer": null, "mask_zero": false, "input_dtype": "int32", "trainable": true, "name": "embedding_1_hul_model", "init": "uniform", "input_dim": 1062158, "batch_input_shape": [null, 140], "W_constraint": null}, "class_name": "Embedding"}, {"config": {"name": "zeropadding1d_1_hul_model", "padding": 5, "trainable": true}, "class_name": "ZeroPadding1D"}, {"config": {"b_constraint": null, "subsample_length": 1, "activation": "relu", "nb_filter": 200, "trainable": true, "input_length": null, "W_regularizer": null, "border_mode": "valid", "filter_length": 6, "b_regularizer": null, "name": "convolution1d_1_hul_model", "init": "uniform", "bias": true, "input_dim": null, "activity_regularizer": null, "W_constraint": null}, "class_name": "Convolution1D"}, {"config": {"name": "maxpooling1d_1_hul_model", "border_mode": "valid", "stride": 2, "pool_length": 4, "trainable": true}, "class_name": "MaxPooling1D"}, {"config": {"b_constraint": null, "subsample_length": 1, "activation": "relu", "nb_filter": 200, "trainable": true, "input_length": null, "W_regularizer": null, "border_mode": "valid", "filter_length": 6, "b_regularizer": null, "name": "convolution1d_2_hul_model", "init": "uniform", "bias": true, "input_dim": null, "activity_regularizer": null, "W_constraint": null}, "class_name": "Convolution1D"}, {"config": {"name": "maxpooling1d_2_hul_model", "border_mode": "valid", "stride": 66, "pool_length": 66, "trainable": true}, "class_name": "MaxPooling1D"}, {"config": {"name": "flatten_1_hul_model", "trainable": true}, "class_name": "Flatten"}], "class_name": "Sequential"}, {"config": [{"config": {"dropout": 0.2, "output_dim": 52, "input_length": 140, "activity_regularizer": null, "W_regularizer": null, "mask_zero": false, "input_dtype": "int32", "trainable": true, "name": "embedding_1_tac_model", "init": "uniform", "input_dim": 428669, "batch_input_shape": [null, 140], "W_constraint": null}, "class_name": "Embedding"}, {"config": {"name": "zeropadding1d_1_tac_model", "padding": 5, "trainable": true}, "class_name": "ZeroPadding1D"}, {"config": {"b_constraint": null, "subsample_length": 1, "activation": "relu", "nb_filter": 200, "trainable": true, "input_length": null, "W_regularizer": null, "border_mode": "valid", "filter_length": 6, "b_regularizer": null, "name": "convolution1d_1_tac_model", "init": "uniform", "bias": true, "input_dim": null, "activity_regularizer": null, "W_constraint": null}, "class_name": "Convolution1D"}, {"config": {"name": "maxpooling1d_1_tac_model", "border_mode": "valid", "stride": 2, "pool_length": 4, "trainable": true}, "class_name": "MaxPooling1D"}, {"config": {"b_constraint": null, "subsample_length": 1, "activation": "relu", "nb_filter": 200, "trainable": true, "input_length": null, "W_regularizer": null, "border_mode": "valid", "filter_length": 6, "b_regularizer": null, "name": "convolution1d_2_tac_model", "init": "uniform", "bias": true, "input_dim": null, "activity_regularizer": null, "W_constraint": null}, "class_name": "Convolution1D"}, {"config": {"name": "maxpooling1d_2_tac_model", "border_mode": "valid", "stride": 66, "pool_length": 66, "trainable": true}, "class_name": "MaxPooling1D"}, {"config": {"name": "flatten_1_tac_model", "trainable": true}, "class_name": "Flatten"}], "class_name": "Sequential"}, {"config": [{"config": {"dropout": 0.2, "output_dim": 52, "input_length": 140, "activity_regularizer": null, "W_regularizer": null, "mask_zero": false, "input_dtype": "int32", "trainable": true, "name": "embedding_17_mpq_model", "init": "uniform", "input_dim": 428669, "batch_input_shape": [null, 140], "W_constraint": null}, "class_name": "Embedding"}, {"config": {"name": "zeropadding1d_17_mpq_model", "padding": 5, "trainable": true}, "class_name": "ZeroPadding1D"}, {"config": {"b_constraint": null, "subsample_length": 1, "activation": "relu", "nb_filter": 200, "trainable": true, "input_length": null, "W_regularizer": null, "border_mode": "valid", "filter_length": 6, "b_regularizer": null, "name": "convolution1d_33_mpq_model", "init": "uniform", "bias": true, "input_dim": null, "activity_regularizer": null, "W_constraint": null}, "class_name": "Convolution1D"}, {"config": {"name": "maxpooling1d_33_mpq_model", "border_mode": "valid", "stride": 2, "pool_length": 4, "trainable": true}, "class_name": "MaxPooling1D"}, {"config": {"b_constraint": null, "subsample_length": 1, "activation": "relu", "nb_filter": 200, "trainable": true, "input_length": null, "W_regularizer": null, "border_mode": "valid", "filter_length": 6, "b_regularizer": null, "name": "convolution1d_34_mpq_model", "init": "uniform", "bias": true, "input_dim": null, "activity_regularizer": null, "W_constraint": null}, "class_name": "Convolution1D"}, {"config": {"name": "maxpooling1d_34_mpq_model", "border_mode": "valid", "stride": 66, "pool_length": 66, "trainable": true}, "class_name": "MaxPooling1D"}, {"config": {"name": "flatten_17_mpq_model", "trainable": true}, "class_name": "Flatten"}], "class_name": "Sequential"}, {"config": [{"config": {"dropout": 0.2, "output_dim": 52, "input_length": 140, "activity_regularizer": null, "W_regularizer": null, "mask_zero": false, "input_dtype": "int32", "trainable": true, "name": "embedding_1_dai_model", "init": "uniform", "input_dim": 1576890, "batch_input_shape": [null, 140], "W_constraint": null}, "class_name": "Embedding"}, {"config": {"name": "zeropadding1d_1_dai_model", "padding": 5, "trainable": true}, "class_name": "ZeroPadding1D"}, {"config": {"b_constraint": null, "subsample_length": 1, "activation": "relu", "nb_filter": 200, "trainable": true, "input_length": null, "W_regularizer": null, "border_mode": "valid", "filter_length": 6, "b_regularizer": null, "name": "convolution1d_1_dai_model", "init": "uniform", "bias": true, "input_dim": null, "activity_regularizer": null, "W_constraint": null}, "class_name": "Convolution1D"}, {"config": {"name": "maxpooling1d_1_dai_model", "border_mode": "valid", "stride": 2, "pool_length": 4, "trainable": true}, "class_name": "MaxPooling1D"}, {"config": {"b_constraint": null, "subsample_length": 1, "activation": "relu", "nb_filter": 200, "trainable": true, "input_length": null, "W_regularizer": null, "border_mode": "valid", "filter_length": 6, "b_regularizer": null, "name": "convolution1d_2_dai_model", "init": "uniform", "bias": true, "input_dim": null, "activity_regularizer": null, "W_constraint": null}, "class_name": "Convolution1D"}, {"config": {"name": "maxpooling1d_2_dai_model", "border_mode": "valid", "stride": 66, "pool_length": 66, "trainable": true}, "class_name": "MaxPooling1D"}, {"config": {"name": "flatten_1_dai_model", "trainable": true}, "class_name": "Flatten"}], "class_name": "Sequential"}, {"config": [{"config": {"dropout": 0.2, "output_dim": 52, "input_length": 140, "activity_regularizer": null, "W_regularizer": null, "mask_zero": false, "input_dtype": "int32", "trainable": true, "name": "embedding_1_dil_model", "init": "uniform", "input_dim": 1576890, "batch_input_shape": [null, 140], "W_constraint": null}, "class_name": "Embedding"}, {"config": {"name": "zeropadding1d_1_dil_model", "padding": 5, "trainable": true}, "class_name": "ZeroPadding1D"}, {"config": {"b_constraint": null, "subsample_length": 1, "activation": "relu", "nb_filter": 200, "trainable": true, "input_length": null, "W_regularizer": null, "border_mode": "valid", "filter_length": 6, "b_regularizer": null, "name": "convolution1d_1_dil_model", "init": "uniform", "bias": true, "input_dim": null, "activity_regularizer": null, "W_constraint": null}, "class_name": "Convolution1D"}, {"config": {"name": "maxpooling1d_1_dil_model", "border_mode": "valid", "stride": 2, "pool_length": 4, "trainable": true}, "class_name": "MaxPooling1D"}, {"config": {"b_constraint": null, "subsample_length": 1, "activation": "relu", "nb_filter": 200, "trainable": true, "input_length": null, "W_regularizer": null, "border_mode": "valid", "filter_length": 6, "b_regularizer": null, "name": "convolution1d_2_dil_model", "init": "uniform", "bias": true, "input_dim": null, "activity_regularizer": null, "W_constraint": null}, "class_name": "Convolution1D"}, {"config": {"name": "maxpooling1d_2_dil_model", "border_mode": "valid", "stride": 66, "pool_length": 66, "trainable": true}, "class_name": "MaxPooling1D"}, {"config": {"name": "flatten_1_dil_model", "trainable": true}, "class_name": "Flatten"}], "class_name": "Sequential"}, {"config": [{"config": {"dropout": 0.2, "output_dim": 52, "input_length": 140, "activity_regularizer": null, "W_regularizer": null, "mask_zero": false, "input_dtype": "int32", "trainable": true, "name": "embedding_1_semeval_model", "init": "uniform", "input_dim": 428669, "batch_input_shape": [null, 140], "W_constraint": null}, "class_name": "Embedding"}, {"config": {"name": "zeropadding1d_1_semeval_model", "padding": 5, "trainable": true}, "class_name": "ZeroPadding1D"}, {"config": {"b_constraint": null, "subsample_length": 1, "activation": "relu", "nb_filter": 200, "trainable": true, "input_length": null, "W_regularizer": null, "border_mode": "valid", "filter_length": 6, "b_regularizer": null, "name": "convolution1d_1_semeval_model", "init": "uniform", "bias": true, "input_dim": null, "activity_regularizer": null, "W_constraint": null}, "class_name": "Convolution1D"}, {"config": {"name": "maxpooling1d_1_semeval_model", "border_mode": "valid", "stride": 2, "pool_length": 4, "trainable": true}, "class_name": "MaxPooling1D"}, {"config": {"b_constraint": null, "subsample_length": 1, "activation": "relu", "nb_filter": 200, "trainable": true, "input_length": null, "W_regularizer": null, "border_mode": "valid", "filter_length": 6, "b_regularizer": null, "name": "convolution1d_2_semeval_model", "init": "uniform", "bias": true, "input_dim": null, "activity_regularizer": null, "W_constraint": null}, "class_name": "Convolution1D"}, {"config": {"name": "maxpooling1d_2_semeval_model", "border_mode": "valid", "stride": 66, "pool_length": 66, "trainable": true}, "class_name": "MaxPooling1D"}, {"config": {"name": "flatten_1_semeval_model", "trainable": true}, "class_name": "Flatten"}], "class_name": "Sequential"}], "concat_axis": -1, "name": "merge_1", "mode": "concat", "output_shape": null, "mode_type": "raw", "output_shape_type": "raw"}, "class_name": "Merge"}, {"config": {"activation": "linear", "b_constraint": null, "output_dim": 1028, "W_regularizer": null, "b_regularizer": null, "trainable": true, "name": "dense_1", "init": "glorot_uniform", "bias": true, "input_dim": null, "activity_regularizer": null, "W_constraint": null}, "class_name": "Dense"}, {"config": {"name": "activation_1", "trainable": true, "activation": "relu"}, "class_name": "Activation"}, {"config": {"activation": "softmax", "b_constraint": null, "output_dim": 3, "W_regularizer": null, "b_regularizer": null, "trainable": true, "name": "dense_2", "init": "glorot_uniform", "bias": true, "input_dim": null, "activity_regularizer": null, "W_constraint": null}, "class_name": "Dense"}], "class_name": "Sequential", "keras_version": "1.1.1"}