{"keras_version": "1.1.0", "config": [{"config": {"init": "uniform", "input_dim": 1576890, "input_dtype": "int32", "output_dim": 52, "mask_zero": false, "batch_input_shape": [null, 140], "W_constraint": null, "dropout": 0.2, "trainable": true, "activity_regularizer": null, "name": "embedding_51", "W_regularizer": null, "input_length": 140}, "class_name": "Embedding"}, {"config": {"padding": 5, "name": "zeropadding1d_51", "trainable": true}, "class_name": "ZeroPadding1D"}, {"config": {"init": "uniform", "border_mode": "valid", "input_dim": null, "nb_filter": 200, "input_length": null, "W_constraint": null, "b_constraint": null, "bias": true, "filter_length": 6, "name": "convolution1d_101", "trainable": true, "activity_regularizer": null, "subsample_length": 1, "W_regularizer": null, "b_regularizer": null, "activation": "relu"}, "class_name": "Convolution1D"}, {"config": {"pool_length": 4, "stride": 2, "border_mode": "valid", "name": "maxpooling1d_101", "trainable": true}, "class_name": "MaxPooling1D"}, {"config": {"init": "uniform", "border_mode": "valid", "input_dim": null, "nb_filter": 200, "input_length": null, "W_constraint": null, "b_constraint": null, "bias": true, "filter_length": 6, "name": "convolution1d_102", "trainable": true, "activity_regularizer": null, "subsample_length": 1, "W_regularizer": null, "b_regularizer": null, "activation": "relu"}, "class_name": "Convolution1D"}, {"config": {"pool_length": 66, "stride": 66, "border_mode": "valid", "name": "maxpooling1d_102", "trainable": true}, "class_name": "MaxPooling1D"}, {"config": {"name": "flatten_51", "trainable": true}, "class_name": "Flatten"}, {"config": {"init": "glorot_uniform", "input_dim": null, "output_dim": 200, "b_regularizer": null, "W_regularizer": null, "b_constraint": null, "bias": true, "name": "dense_101", "trainable": true, "activity_regularizer": null, "W_constraint": null, "activation": "linear"}, "class_name": "Dense"}, {"config": {"p": 0.2, "name": "dropout_51", "trainable": true}, "class_name": "Dropout"}, {"config": {"name": "activation_51", "trainable": true, "activation": "relu"}, "class_name": "Activation"}, {"config": {"init": "glorot_uniform", "input_dim": null, "output_dim": 3, "b_regularizer": null, "W_regularizer": null, "b_constraint": null, "bias": true, "name": "dense_102", "trainable": true, "activity_regularizer": null, "W_constraint": null, "activation": "softmax"}, "class_name": "Dense"}], "class_name": "Sequential"}