{"keras_version": "1.1.1", "config": [{"config": {"layers": [{"config": [{"config": {"dropout": 0.2, "W_constraint": null, "mask_zero": false, "input_dtype": "int32", "batch_input_shape": [null, 140], "trainable": true, "output_dim": 52, "input_dim": 428669, "W_regularizer": null, "init": "uniform", "name": "embedding_1_tac_model", "input_length": 140, "activity_regularizer": null}, "class_name": "Embedding"}, {"config": {"padding": 5, "name": "zeropadding1d_1_tac_model", "trainable": true}, "class_name": "ZeroPadding1D"}, {"config": {"W_constraint": null, "b_constraint": null, "bias": true, "activity_regularizer": null, "subsample_length": 1, "input_dim": null, "nb_filter": 200, "trainable": true, "W_regularizer": null, "init": "uniform", "name": "convolution1d_1_tac_model", "input_length": null, "filter_length": 6, "border_mode": "valid", "b_regularizer": null, "activation": "relu"}, "class_name": "Convolution1D"}, {"config": {"border_mode": "valid", "pool_length": 4, "name": "maxpooling1d_1_tac_model", "stride": 2, "trainable": true}, "class_name": "MaxPooling1D"}, {"config": {"W_constraint": null, "b_constraint": null, "bias": true, "activity_regularizer": null, "subsample_length": 1, "input_dim": null, "nb_filter": 200, "trainable": true, "W_regularizer": null, "init": "uniform", "name": "convolution1d_2_tac_model", "input_length": null, "filter_length": 6, "border_mode": "valid", "b_regularizer": null, "activation": "relu"}, "class_name": "Convolution1D"}, {"config": {"border_mode": "valid", "pool_length": 66, "name": "maxpooling1d_2_tac_model", "stride": 66, "trainable": true}, "class_name": "MaxPooling1D"}, {"config": {"name": "flatten_1_tac_model", "trainable": true}, "class_name": "Flatten"}], "class_name": "Sequential"}, {"config": [{"config": {"dropout": 0.2, "W_constraint": null, "mask_zero": false, "input_dtype": "int32", "batch_input_shape": [null, 140], "trainable": true, "output_dim": 52, "input_dim": 1576890, "W_regularizer": null, "init": "uniform", "name": "embedding_1_dil_model", "input_length": 140, "activity_regularizer": null}, "class_name": "Embedding"}, {"config": {"padding": 5, "name": "zeropadding1d_1_dil_model", "trainable": true}, "class_name": "ZeroPadding1D"}, {"config": {"W_constraint": null, "b_constraint": null, "bias": true, "activity_regularizer": null, "subsample_length": 1, "input_dim": null, "nb_filter": 200, "trainable": true, "W_regularizer": null, "init": "uniform", "name": "convolution1d_1_dil_model", "input_length": null, "filter_length": 6, "border_mode": "valid", "b_regularizer": null, "activation": "relu"}, "class_name": "Convolution1D"}, {"config": {"border_mode": "valid", "pool_length": 4, "name": "maxpooling1d_1_dil_model", "stride": 2, "trainable": true}, "class_name": "MaxPooling1D"}, {"config": {"W_constraint": null, "b_constraint": null, "bias": true, "activity_regularizer": null, "subsample_length": 1, "input_dim": null, "nb_filter": 200, "trainable": true, "W_regularizer": null, "init": "uniform", "name": "convolution1d_2_dil_model", "input_length": null, "filter_length": 6, "border_mode": "valid", "b_regularizer": null, "activation": "relu"}, "class_name": "Convolution1D"}, {"config": {"border_mode": "valid", "pool_length": 66, "name": "maxpooling1d_2_dil_model", "stride": 66, "trainable": true}, "class_name": "MaxPooling1D"}, {"config": {"name": "flatten_1_dil_model", "trainable": true}, "class_name": "Flatten"}], "class_name": "Sequential"}, {"config": [{"config": {"dropout": 0.2, "W_constraint": null, "mask_zero": false, "input_dtype": "int32", "batch_input_shape": [null, 140], "trainable": true, "output_dim": 52, "input_dim": 1062158, "W_regularizer": null, "init": "uniform", "name": "embedding_1_hul_model", "input_length": 140, "activity_regularizer": null}, "class_name": "Embedding"}, {"config": {"padding": 5, "name": "zeropadding1d_1_hul_model", "trainable": true}, "class_name": "ZeroPadding1D"}, {"config": {"W_constraint": null, "b_constraint": null, "bias": true, "activity_regularizer": null, "subsample_length": 1, "input_dim": null, "nb_filter": 200, "trainable": true, "W_regularizer": null, "init": "uniform", "name": "convolution1d_1_hul_model", "input_length": null, "filter_length": 6, "border_mode": "valid", "b_regularizer": null, "activation": "relu"}, "class_name": "Convolution1D"}, {"config": {"border_mode": "valid", "pool_length": 4, "name": "maxpooling1d_1_hul_model", "stride": 2, "trainable": true}, "class_name": "MaxPooling1D"}, {"config": {"W_constraint": null, "b_constraint": null, "bias": true, "activity_regularizer": null, "subsample_length": 1, "input_dim": null, "nb_filter": 200, "trainable": true, "W_regularizer": null, "init": "uniform", "name": "convolution1d_2_hul_model", "input_length": null, "filter_length": 6, "border_mode": "valid", "b_regularizer": null, "activation": "relu"}, "class_name": "Convolution1D"}, {"config": {"border_mode": "valid", "pool_length": 66, "name": "maxpooling1d_2_hul_model", "stride": 66, "trainable": true}, "class_name": "MaxPooling1D"}, {"config": {"name": "flatten_1_hul_model", "trainable": true}, "class_name": "Flatten"}], "class_name": "Sequential"}, {"config": [{"config": {"dropout": 0.2, "W_constraint": null, "mask_zero": false, "input_dtype": "int32", "batch_input_shape": [null, 140], "trainable": true, "output_dim": 52, "input_dim": 1576890, "W_regularizer": null, "init": "uniform", "name": "embedding_1_dai_model", "input_length": 140, "activity_regularizer": null}, "class_name": "Embedding"}, {"config": {"padding": 5, "name": "zeropadding1d_1_dai_model", "trainable": true}, "class_name": "ZeroPadding1D"}, {"config": {"W_constraint": null, "b_constraint": null, "bias": true, "activity_regularizer": null, "subsample_length": 1, "input_dim": null, "nb_filter": 200, "trainable": true, "W_regularizer": null, "init": "uniform", "name": "convolution1d_1_dai_model", "input_length": null, "filter_length": 6, "border_mode": "valid", "b_regularizer": null, "activation": "relu"}, "class_name": "Convolution1D"}, {"config": {"border_mode": "valid", "pool_length": 4, "name": "maxpooling1d_1_dai_model", "stride": 2, "trainable": true}, "class_name": "MaxPooling1D"}, {"config": {"W_constraint": null, "b_constraint": null, "bias": true, "activity_regularizer": null, "subsample_length": 1, "input_dim": null, "nb_filter": 200, "trainable": true, "W_regularizer": null, "init": "uniform", "name": "convolution1d_2_dai_model", "input_length": null, "filter_length": 6, "border_mode": "valid", "b_regularizer": null, "activation": "relu"}, "class_name": "Convolution1D"}, {"config": {"border_mode": "valid", "pool_length": 66, "name": "maxpooling1d_2_dai_model", "stride": 66, "trainable": true}, "class_name": "MaxPooling1D"}, {"config": {"name": "flatten_1_dai_model", "trainable": true}, "class_name": "Flatten"}], "class_name": "Sequential"}, {"config": [{"config": {"dropout": 0.2, "W_constraint": null, "mask_zero": false, "input_dtype": "int32", "batch_input_shape": [null, 140], "trainable": true, "output_dim": 52, "input_dim": 428669, "W_regularizer": null, "init": "uniform", "name": "embedding_1_semeval_model", "input_length": 140, "activity_regularizer": null}, "class_name": "Embedding"}, {"config": {"padding": 5, "name": "zeropadding1d_1_semeval_model", "trainable": true}, "class_name": "ZeroPadding1D"}, {"config": {"W_constraint": null, "b_constraint": null, "bias": true, "activity_regularizer": null, "subsample_length": 1, "input_dim": null, "nb_filter": 200, "trainable": true, "W_regularizer": null, "init": "uniform", "name": "convolution1d_1_semeval_model", "input_length": null, "filter_length": 6, "border_mode": "valid", "b_regularizer": null, "activation": "relu"}, "class_name": "Convolution1D"}, {"config": {"border_mode": "valid", "pool_length": 4, "name": "maxpooling1d_1_semeval_model", "stride": 2, "trainable": true}, "class_name": "MaxPooling1D"}, {"config": {"W_constraint": null, "b_constraint": null, "bias": true, "activity_regularizer": null, "subsample_length": 1, "input_dim": null, "nb_filter": 200, "trainable": true, "W_regularizer": null, "init": "uniform", "name": "convolution1d_2_semeval_model", "input_length": null, "filter_length": 6, "border_mode": "valid", "b_regularizer": null, "activation": "relu"}, "class_name": "Convolution1D"}, {"config": {"border_mode": "valid", "pool_length": 66, "name": "maxpooling1d_2_semeval_model", "stride": 66, "trainable": true}, "class_name": "MaxPooling1D"}, {"config": {"name": "flatten_1_semeval_model", "trainable": true}, "class_name": "Flatten"}], "class_name": "Sequential"}, {"config": [{"config": {"dropout": 0.2, "W_constraint": null, "mask_zero": false, "input_dtype": "int32", "batch_input_shape": [null, 140], "trainable": true, "output_dim": 52, "input_dim": 428669, "W_regularizer": null, "init": "uniform", "name": "embedding_17_mpq_model", "input_length": 140, "activity_regularizer": null}, "class_name": "Embedding"}, {"config": {"padding": 5, "name": "zeropadding1d_17_mpq_model", "trainable": true}, "class_name": "ZeroPadding1D"}, {"config": {"W_constraint": null, "b_constraint": null, "bias": true, "activity_regularizer": null, "subsample_length": 1, "input_dim": null, "nb_filter": 200, "trainable": true, "W_regularizer": null, "init": "uniform", "name": "convolution1d_33_mpq_model", "input_length": null, "filter_length": 6, "border_mode": "valid", "b_regularizer": null, "activation": "relu"}, "class_name": "Convolution1D"}, {"config": {"border_mode": "valid", "pool_length": 4, "name": "maxpooling1d_33_mpq_model", "stride": 2, "trainable": true}, "class_name": "MaxPooling1D"}, {"config": {"W_constraint": null, "b_constraint": null, "bias": true, "activity_regularizer": null, "subsample_length": 1, "input_dim": null, "nb_filter": 200, "trainable": true, "W_regularizer": null, "init": "uniform", "name": "convolution1d_34_mpq_model", "input_length": null, "filter_length": 6, "border_mode": "valid", "b_regularizer": null, "activation": "relu"}, "class_name": "Convolution1D"}, {"config": {"border_mode": "valid", "pool_length": 66, "name": "maxpooling1d_34_mpq_model", "stride": 66, "trainable": true}, "class_name": "MaxPooling1D"}, {"config": {"name": "flatten_17_mpq_model", "trainable": true}, "class_name": "Flatten"}], "class_name": "Sequential"}], "mode": "concat", "dot_axes": -1, "name": "merge_1", "output_shape_type": "raw", "concat_axis": -1, "mode_type": "raw", "output_shape": null}, "class_name": "Merge"}, {"config": {"W_constraint": null, "bias": true, "activity_regularizer": null, "trainable": true, "output_dim": 1028, "input_dim": null, "W_regularizer": null, "init": "glorot_uniform", "name": "dense_1", "b_constraint": null, "b_regularizer": null, "activation": "linear"}, "class_name": "Dense"}, {"config": {"name": "activation_1", "activation": "relu", "trainable": true}, "class_name": "Activation"}, {"config": {"W_constraint": null, "bias": true, "activity_regularizer": null, "trainable": true, "output_dim": 3, "input_dim": null, "W_regularizer": null, "init": "glorot_uniform", "name": "dense_2", "b_constraint": null, "b_regularizer": null, "activation": "softmax"}, "class_name": "Dense"}], "class_name": "Sequential"}