{"keras_version": "1.1.1", "class_name": "Sequential", "config": [{"class_name": "Merge", "config": {"layers": [{"class_name": "Sequential", "config": [{"class_name": "Embedding", "config": {"trainable": true, "input_dtype": "int32", "init": "uniform", "input_length": 140, "dropout": 0.2, "name": "embedding_1_semeval_model", "mask_zero": false, "W_constraint": null, "batch_input_shape": [null, 140], "input_dim": 428669, "W_regularizer": null, "activity_regularizer": null, "output_dim": 52}}, {"class_name": "ZeroPadding1D", "config": {"trainable": true, "padding": 5, "name": "zeropadding1d_1_semeval_model"}}, {"class_name": "Convolution1D", "config": {"trainable": true, "init": "uniform", "input_length": null, "activity_regularizer": null, "filter_length": 6, "name": "convolution1d_1_semeval_model", "W_constraint": null, "b_regularizer": null, "bias": true, "input_dim": null, "subsample_length": 1, "W_regularizer": null, "activation": "relu", "nb_filter": 200, "border_mode": "valid", "b_constraint": null}}, {"class_name": "MaxPooling1D", "config": {"trainable": true, "stride": 2, "pool_length": 4, "border_mode": "valid", "name": "maxpooling1d_1_semeval_model"}}, {"class_name": "Convolution1D", "config": {"trainable": true, "init": "uniform", "input_length": null, "activity_regularizer": null, "filter_length": 6, "name": "convolution1d_2_semeval_model", "W_constraint": null, "b_regularizer": null, "bias": true, "input_dim": null, "subsample_length": 1, "W_regularizer": null, "activation": "relu", "nb_filter": 200, "border_mode": "valid", "b_constraint": null}}, {"class_name": "MaxPooling1D", "config": {"trainable": true, "stride": 66, "pool_length": 66, "border_mode": "valid", "name": "maxpooling1d_2_semeval_model"}}, {"class_name": "Flatten", "config": {"trainable": true, "name": "flatten_1_semeval_model"}}]}, {"class_name": "Sequential", "config": [{"class_name": "Embedding", "config": {"trainable": true, "input_dtype": "int32", "init": "uniform", "input_length": 140, "dropout": 0.2, "name": "embedding_17_mpq_model", "mask_zero": false, "W_constraint": null, "batch_input_shape": [null, 140], "input_dim": 428669, "W_regularizer": null, "activity_regularizer": null, "output_dim": 52}}, {"class_name": "ZeroPadding1D", "config": {"trainable": true, "padding": 5, "name": "zeropadding1d_17_mpq_model"}}, {"class_name": "Convolution1D", "config": {"trainable": true, "init": "uniform", "input_length": null, "activity_regularizer": null, "filter_length": 6, "name": "convolution1d_33_mpq_model", "W_constraint": null, "b_regularizer": null, "bias": true, "input_dim": null, "subsample_length": 1, "W_regularizer": null, "activation": "relu", "nb_filter": 200, "border_mode": "valid", "b_constraint": null}}, {"class_name": "MaxPooling1D", "config": {"trainable": true, "stride": 2, "pool_length": 4, "border_mode": "valid", "name": "maxpooling1d_33_mpq_model"}}, {"class_name": "Convolution1D", "config": {"trainable": true, "init": "uniform", "input_length": null, "activity_regularizer": null, "filter_length": 6, "name": "convolution1d_34_mpq_model", "W_constraint": null, "b_regularizer": null, "bias": true, "input_dim": null, "subsample_length": 1, "W_regularizer": null, "activation": "relu", "nb_filter": 200, "border_mode": "valid", "b_constraint": null}}, {"class_name": "MaxPooling1D", "config": {"trainable": true, "stride": 66, "pool_length": 66, "border_mode": "valid", "name": "maxpooling1d_34_mpq_model"}}, {"class_name": "Flatten", "config": {"trainable": true, "name": "flatten_17_mpq_model"}}]}, {"class_name": "Sequential", "config": [{"class_name": "Embedding", "config": {"trainable": true, "input_dtype": "int32", "init": "uniform", "input_length": 140, "dropout": 0.2, "name": "embedding_1_hul_model", "mask_zero": false, "W_constraint": null, "batch_input_shape": [null, 140], "input_dim": 1062158, "W_regularizer": null, "activity_regularizer": null, "output_dim": 52}}, {"class_name": "ZeroPadding1D", "config": {"trainable": true, "padding": 5, "name": "zeropadding1d_1_hul_model"}}, {"class_name": "Convolution1D", "config": {"trainable": true, "init": "uniform", "input_length": null, "activity_regularizer": null, "filter_length": 6, "name": "convolution1d_1_hul_model", "W_constraint": null, "b_regularizer": null, "bias": true, "input_dim": null, "subsample_length": 1, "W_regularizer": null, "activation": "relu", "nb_filter": 200, "border_mode": "valid", "b_constraint": null}}, {"class_name": "MaxPooling1D", "config": {"trainable": true, "stride": 2, "pool_length": 4, "border_mode": "valid", "name": "maxpooling1d_1_hul_model"}}, {"class_name": "Convolution1D", "config": {"trainable": true, "init": "uniform", "input_length": null, "activity_regularizer": null, "filter_length": 6, "name": "convolution1d_2_hul_model", "W_constraint": null, "b_regularizer": null, "bias": true, "input_dim": null, "subsample_length": 1, "W_regularizer": null, "activation": "relu", "nb_filter": 200, "border_mode": "valid", "b_constraint": null}}, {"class_name": "MaxPooling1D", "config": {"trainable": true, "stride": 66, "pool_length": 66, "border_mode": "valid", "name": "maxpooling1d_2_hul_model"}}, {"class_name": "Flatten", "config": {"trainable": true, "name": "flatten_1_hul_model"}}]}, {"class_name": "Sequential", "config": [{"class_name": "Embedding", "config": {"trainable": true, "input_dtype": "int32", "init": "uniform", "input_length": 140, "dropout": 0.2, "name": "embedding_1_dai_model", "mask_zero": false, "W_constraint": null, "batch_input_shape": [null, 140], "input_dim": 1576890, "W_regularizer": null, "activity_regularizer": null, "output_dim": 52}}, {"class_name": "ZeroPadding1D", "config": {"trainable": true, "padding": 5, "name": "zeropadding1d_1_dai_model"}}, {"class_name": "Convolution1D", "config": {"trainable": true, "init": "uniform", "input_length": null, "activity_regularizer": null, "filter_length": 6, "name": "convolution1d_1_dai_model", "W_constraint": null, "b_regularizer": null, "bias": true, "input_dim": null, "subsample_length": 1, "W_regularizer": null, "activation": "relu", "nb_filter": 200, "border_mode": "valid", "b_constraint": null}}, {"class_name": "MaxPooling1D", "config": {"trainable": true, "stride": 2, "pool_length": 4, "border_mode": "valid", "name": "maxpooling1d_1_dai_model"}}, {"class_name": "Convolution1D", "config": {"trainable": true, "init": "uniform", "input_length": null, "activity_regularizer": null, "filter_length": 6, "name": "convolution1d_2_dai_model", "W_constraint": null, "b_regularizer": null, "bias": true, "input_dim": null, "subsample_length": 1, "W_regularizer": null, "activation": "relu", "nb_filter": 200, "border_mode": "valid", "b_constraint": null}}, {"class_name": "MaxPooling1D", "config": {"trainable": true, "stride": 66, "pool_length": 66, "border_mode": "valid", "name": "maxpooling1d_2_dai_model"}}, {"class_name": "Flatten", "config": {"trainable": true, "name": "flatten_1_dai_model"}}]}, {"class_name": "Sequential", "config": [{"class_name": "Embedding", "config": {"trainable": true, "input_dtype": "int32", "init": "uniform", "input_length": 140, "dropout": 0.2, "name": "embedding_1_tac_model", "mask_zero": false, "W_constraint": null, "batch_input_shape": [null, 140], "input_dim": 428669, "W_regularizer": null, "activity_regularizer": null, "output_dim": 52}}, {"class_name": "ZeroPadding1D", "config": {"trainable": true, "padding": 5, "name": "zeropadding1d_1_tac_model"}}, {"class_name": "Convolution1D", "config": {"trainable": true, "init": "uniform", "input_length": null, "activity_regularizer": null, "filter_length": 6, "name": "convolution1d_1_tac_model", "W_constraint": null, "b_regularizer": null, "bias": true, "input_dim": null, "subsample_length": 1, "W_regularizer": null, "activation": "relu", "nb_filter": 200, "border_mode": "valid", "b_constraint": null}}, {"class_name": "MaxPooling1D", "config": {"trainable": true, "stride": 2, "pool_length": 4, "border_mode": "valid", "name": "maxpooling1d_1_tac_model"}}, {"class_name": "Convolution1D", "config": {"trainable": true, "init": "uniform", "input_length": null, "activity_regularizer": null, "filter_length": 6, "name": "convolution1d_2_tac_model", "W_constraint": null, "b_regularizer": null, "bias": true, "input_dim": null, "subsample_length": 1, "W_regularizer": null, "activation": "relu", "nb_filter": 200, "border_mode": "valid", "b_constraint": null}}, {"class_name": "MaxPooling1D", "config": {"trainable": true, "stride": 66, "pool_length": 66, "border_mode": "valid", "name": "maxpooling1d_2_tac_model"}}, {"class_name": "Flatten", "config": {"trainable": true, "name": "flatten_1_tac_model"}}]}, {"class_name": "Sequential", "config": [{"class_name": "Embedding", "config": {"trainable": true, "input_dtype": "int32", "init": "uniform", "input_length": 140, "dropout": 0.2, "name": "embedding_1_dil_model", "mask_zero": false, "W_constraint": null, "batch_input_shape": [null, 140], "input_dim": 1576890, "W_regularizer": null, "activity_regularizer": null, "output_dim": 52}}, {"class_name": "ZeroPadding1D", "config": {"trainable": true, "padding": 5, "name": "zeropadding1d_1_dil_model"}}, {"class_name": "Convolution1D", "config": {"trainable": true, "init": "uniform", "input_length": null, "activity_regularizer": null, "filter_length": 6, "name": "convolution1d_1_dil_model", "W_constraint": null, "b_regularizer": null, "bias": true, "input_dim": null, "subsample_length": 1, "W_regularizer": null, "activation": "relu", "nb_filter": 200, "border_mode": "valid", "b_constraint": null}}, {"class_name": "MaxPooling1D", "config": {"trainable": true, "stride": 2, "pool_length": 4, "border_mode": "valid", "name": "maxpooling1d_1_dil_model"}}, {"class_name": "Convolution1D", "config": {"trainable": true, "init": "uniform", "input_length": null, "activity_regularizer": null, "filter_length": 6, "name": "convolution1d_2_dil_model", "W_constraint": null, "b_regularizer": null, "bias": true, "input_dim": null, "subsample_length": 1, "W_regularizer": null, "activation": "relu", "nb_filter": 200, "border_mode": "valid", "b_constraint": null}}, {"class_name": "MaxPooling1D", "config": {"trainable": true, "stride": 66, "pool_length": 66, "border_mode": "valid", "name": "maxpooling1d_2_dil_model"}}, {"class_name": "Flatten", "config": {"trainable": true, "name": "flatten_1_dil_model"}}]}], "mode": "concat", "concat_axis": -1, "mode_type": "raw", "dot_axes": -1, "output_shape": null, "output_shape_type": "raw", "name": "merge_1"}}, {"class_name": "Dense", "config": {"trainable": true, "init": "glorot_uniform", "name": "dense_1", "W_constraint": null, "b_regularizer": null, "bias": true, "input_dim": null, "b_constraint": null, "W_regularizer": null, "activation": "linear", "activity_regularizer": null, "output_dim": 1028}}, {"class_name": "Activation", "config": {"trainable": true, "name": "activation_1", "activation": "relu"}}, {"class_name": "Dense", "config": {"trainable": true, "init": "glorot_uniform", "name": "dense_2", "W_constraint": null, "b_regularizer": null, "bias": true, "input_dim": null, "b_constraint": null, "W_regularizer": null, "activation": "softmax", "activity_regularizer": null, "output_dim": 3}}]}