{"class_name": "Sequential", "keras_version": "1.1.1", "config": [{"class_name": "Merge", "config": {"output_shape": null, "name": "merge_1", "mode": "concat", "concat_axis": -1, "layers": [{"class_name": "Sequential", "config": [{"class_name": "Embedding", "config": {"name": "embedding_1_dil_model", "W_constraint": null, "input_dim": 1576890, "trainable": true, "activity_regularizer": null, "init": "uniform", "output_dim": 52, "input_length": 140, "mask_zero": false, "W_regularizer": null, "dropout": 0.2, "input_dtype": "int32", "batch_input_shape": [null, 140]}}, {"class_name": "ZeroPadding1D", "config": {"name": "zeropadding1d_1_dil_model", "trainable": true, "padding": 5}}, {"class_name": "Convolution1D", "config": {"name": "convolution1d_1_dil_model", "W_constraint": null, "input_dim": null, "b_constraint": null, "filter_length": 6, "b_regularizer": null, "trainable": true, "border_mode": "valid", "nb_filter": 200, "activity_regularizer": null, "init": "uniform", "subsample_length": 1, "W_regularizer": null, "bias": true, "activation": "relu", "input_length": null}}, {"class_name": "MaxPooling1D", "config": {"name": "maxpooling1d_1_dil_model", "trainable": true, "pool_length": 4, "stride": 2, "border_mode": "valid"}}, {"class_name": "Convolution1D", "config": {"name": "convolution1d_2_dil_model", "W_constraint": null, "input_dim": null, "b_constraint": null, "filter_length": 6, "b_regularizer": null, "trainable": true, "border_mode": "valid", "nb_filter": 200, "activity_regularizer": null, "init": "uniform", "subsample_length": 1, "W_regularizer": null, "bias": true, "activation": "relu", "input_length": null}}]}, {"class_name": "Sequential", "config": [{"class_name": "Embedding", "config": {"name": "embedding_1_hul_model", "W_constraint": null, "input_dim": 1062158, "trainable": true, "activity_regularizer": null, "init": "uniform", "output_dim": 52, "input_length": 140, "mask_zero": false, "W_regularizer": null, "dropout": 0.2, "input_dtype": "int32", "batch_input_shape": [null, 140]}}, {"class_name": "ZeroPadding1D", "config": {"name": "zeropadding1d_1_hul_model", "trainable": true, "padding": 5}}, {"class_name": "Convolution1D", "config": {"name": "convolution1d_1_hul_model", "W_constraint": null, "input_dim": null, "b_constraint": null, "filter_length": 6, "b_regularizer": null, "trainable": true, "border_mode": "valid", "nb_filter": 200, "activity_regularizer": null, "init": "uniform", "subsample_length": 1, "W_regularizer": null, "bias": true, "activation": "relu", "input_length": null}}, {"class_name": "MaxPooling1D", "config": {"name": "maxpooling1d_1_hul_model", "trainable": true, "pool_length": 4, "stride": 2, "border_mode": "valid"}}, {"class_name": "Convolution1D", "config": {"name": "convolution1d_2_hul_model", "W_constraint": null, "input_dim": null, "b_constraint": null, "filter_length": 6, "b_regularizer": null, "trainable": true, "border_mode": "valid", "nb_filter": 200, "activity_regularizer": null, "init": "uniform", "subsample_length": 1, "W_regularizer": null, "bias": true, "activation": "relu", "input_length": null}}]}, {"class_name": "Sequential", "config": [{"class_name": "Embedding", "config": {"name": "embedding_17_mpq_model", "W_constraint": null, "input_dim": 428669, "trainable": true, "activity_regularizer": null, "init": "uniform", "output_dim": 52, "input_length": 140, "mask_zero": false, "W_regularizer": null, "dropout": 0.2, "input_dtype": "int32", "batch_input_shape": [null, 140]}}, {"class_name": "ZeroPadding1D", "config": {"name": "zeropadding1d_17_mpq_model", "trainable": true, "padding": 5}}, {"class_name": "Convolution1D", "config": {"name": "convolution1d_33_mpq_model", "W_constraint": null, "input_dim": null, "b_constraint": null, "filter_length": 6, "b_regularizer": null, "trainable": true, "border_mode": "valid", "nb_filter": 200, "activity_regularizer": null, "init": "uniform", "subsample_length": 1, "W_regularizer": null, "bias": true, "activation": "relu", "input_length": null}}, {"class_name": "MaxPooling1D", "config": {"name": "maxpooling1d_33_mpq_model", "trainable": true, "pool_length": 4, "stride": 2, "border_mode": "valid"}}, {"class_name": "Convolution1D", "config": {"name": "convolution1d_34_mpq_model", "W_constraint": null, "input_dim": null, "b_constraint": null, "filter_length": 6, "b_regularizer": null, "trainable": true, "border_mode": "valid", "nb_filter": 200, "activity_regularizer": null, "init": "uniform", "subsample_length": 1, "W_regularizer": null, "bias": true, "activation": "relu", "input_length": null}}]}, {"class_name": "Sequential", "config": [{"class_name": "Embedding", "config": {"name": "embedding_1_semeval_model", "W_constraint": null, "input_dim": 428669, "trainable": true, "activity_regularizer": null, "init": "uniform", "output_dim": 52, "input_length": 140, "mask_zero": false, "W_regularizer": null, "dropout": 0.2, "input_dtype": "int32", "batch_input_shape": [null, 140]}}, {"class_name": "ZeroPadding1D", "config": {"name": "zeropadding1d_1_semeval_model", "trainable": true, "padding": 5}}, {"class_name": "Convolution1D", "config": {"name": "convolution1d_1_semeval_model", "W_constraint": null, "input_dim": null, "b_constraint": null, "filter_length": 6, "b_regularizer": null, "trainable": true, "border_mode": "valid", "nb_filter": 200, "activity_regularizer": null, "init": "uniform", "subsample_length": 1, "W_regularizer": null, "bias": true, "activation": "relu", "input_length": null}}, {"class_name": "MaxPooling1D", "config": {"name": "maxpooling1d_1_semeval_model", "trainable": true, "pool_length": 4, "stride": 2, "border_mode": "valid"}}, {"class_name": "Convolution1D", "config": {"name": "convolution1d_2_semeval_model", "W_constraint": null, "input_dim": null, "b_constraint": null, "filter_length": 6, "b_regularizer": null, "trainable": true, "border_mode": "valid", "nb_filter": 200, "activity_regularizer": null, "init": "uniform", "subsample_length": 1, "W_regularizer": null, "bias": true, "activation": "relu", "input_length": null}}]}, {"class_name": "Sequential", "config": [{"class_name": "Embedding", "config": {"name": "embedding_1_tac_model", "W_constraint": null, "input_dim": 428669, "trainable": true, "activity_regularizer": null, "init": "uniform", "output_dim": 52, "input_length": 140, "mask_zero": false, "W_regularizer": null, "dropout": 0.2, "input_dtype": "int32", "batch_input_shape": [null, 140]}}, {"class_name": "ZeroPadding1D", "config": {"name": "zeropadding1d_1_tac_model", "trainable": true, "padding": 5}}, {"class_name": "Convolution1D", "config": {"name": "convolution1d_1_tac_model", "W_constraint": null, "input_dim": null, "b_constraint": null, "filter_length": 6, "b_regularizer": null, "trainable": true, "border_mode": "valid", "nb_filter": 200, "activity_regularizer": null, "init": "uniform", "subsample_length": 1, "W_regularizer": null, "bias": true, "activation": "relu", "input_length": null}}, {"class_name": "MaxPooling1D", "config": {"name": "maxpooling1d_1_tac_model", "trainable": true, "pool_length": 4, "stride": 2, "border_mode": "valid"}}, {"class_name": "Convolution1D", "config": {"name": "convolution1d_2_tac_model", "W_constraint": null, "input_dim": null, "b_constraint": null, "filter_length": 6, "b_regularizer": null, "trainable": true, "border_mode": "valid", "nb_filter": 200, "activity_regularizer": null, "init": "uniform", "subsample_length": 1, "W_regularizer": null, "bias": true, "activation": "relu", "input_length": null}}]}], "mode_type": "raw", "dot_axes": -1, "output_shape_type": "raw"}}, {"class_name": "Flatten", "config": {"name": "flatten_1", "trainable": true}}, {"class_name": "Dense", "config": {"name": "dense_1", "W_constraint": null, "input_dim": null, "b_constraint": null, "bias": true, "trainable": true, "activity_regularizer": null, "init": "glorot_uniform", "output_dim": 200, "W_regularizer": null, "b_regularizer": null, "activation": "linear"}}, {"class_name": "Dropout", "config": {"name": "dropout_1", "trainable": true, "p": 0.2}}, {"class_name": "Activation", "config": {"name": "activation_1", "trainable": true, "activation": "relu"}}, {"class_name": "Dense", "config": {"name": "dense_2", "W_constraint": null, "input_dim": null, "b_constraint": null, "bias": true, "trainable": true, "activity_regularizer": null, "init": "glorot_uniform", "output_dim": 3, "W_regularizer": null, "b_regularizer": null, "activation": "softmax"}}]}