{"config": [{"config": {"name": "merge_1", "output_shape_type": "raw", "layers": [{"config": [{"config": {"input_length": 140, "W_constraint": null, "batch_input_shape": [null, 140], "init": "uniform", "mask_zero": false, "dropout": 0.2, "trainable": true, "input_dim": 1576890, "W_regularizer": null, "activity_regularizer": null, "name": "embedding_1_dil_model", "input_dtype": "int32", "output_dim": 52}, "class_name": "Embedding"}, {"config": {"padding": 5, "name": "zeropadding1d_1_dil_model", "trainable": true}, "class_name": "ZeroPadding1D"}, {"config": {"b_constraint": null, "input_length": null, "W_constraint": null, "subsample_length": 1, "activity_regularizer": null, "init": "uniform", "b_regularizer": null, "trainable": true, "nb_filter": 200, "input_dim": null, "W_regularizer": null, "border_mode": "valid", "activation": "relu", "name": "convolution1d_1_dil_model", "filter_length": 6, "bias": true}, "class_name": "Convolution1D"}, {"config": {"stride": 2, "border_mode": "valid", "name": "maxpooling1d_1_dil_model", "trainable": true, "pool_length": 4}, "class_name": "MaxPooling1D"}, {"config": {"b_constraint": null, "input_length": null, "W_constraint": null, "subsample_length": 1, "activity_regularizer": null, "init": "uniform", "b_regularizer": null, "trainable": true, "nb_filter": 200, "input_dim": null, "W_regularizer": null, "border_mode": "valid", "activation": "relu", "name": "convolution1d_2_dil_model", "filter_length": 6, "bias": true}, "class_name": "Convolution1D"}], "class_name": "Sequential"}, {"config": [{"config": {"input_length": 140, "W_constraint": null, "batch_input_shape": [null, 140], "init": "uniform", "mask_zero": false, "dropout": 0.2, "trainable": true, "input_dim": 1062158, "W_regularizer": null, "activity_regularizer": null, "name": "embedding_1_hul_model", "input_dtype": "int32", "output_dim": 52}, "class_name": "Embedding"}, {"config": {"padding": 5, "name": "zeropadding1d_1_hul_model", "trainable": true}, "class_name": "ZeroPadding1D"}, {"config": {"b_constraint": null, "input_length": null, "W_constraint": null, "subsample_length": 1, "activity_regularizer": null, "init": "uniform", "b_regularizer": null, "trainable": true, "nb_filter": 200, "input_dim": null, "W_regularizer": null, "border_mode": "valid", "activation": "relu", "name": "convolution1d_1_hul_model", "filter_length": 6, "bias": true}, "class_name": "Convolution1D"}, {"config": {"stride": 2, "border_mode": "valid", "name": "maxpooling1d_1_hul_model", "trainable": true, "pool_length": 4}, "class_name": "MaxPooling1D"}, {"config": {"b_constraint": null, "input_length": null, "W_constraint": null, "subsample_length": 1, "activity_regularizer": null, "init": "uniform", "b_regularizer": null, "trainable": true, "nb_filter": 200, "input_dim": null, "W_regularizer": null, "border_mode": "valid", "activation": "relu", "name": "convolution1d_2_hul_model", "filter_length": 6, "bias": true}, "class_name": "Convolution1D"}], "class_name": "Sequential"}, {"config": [{"config": {"input_length": 140, "W_constraint": null, "batch_input_shape": [null, 140], "init": "uniform", "mask_zero": false, "dropout": 0.2, "trainable": true, "input_dim": 1576890, "W_regularizer": null, "activity_regularizer": null, "name": "embedding_1_semeval_model", "input_dtype": "int32", "output_dim": 52}, "class_name": "Embedding"}, {"config": {"padding": 5, "name": "zeropadding1d_1_semeval_model", "trainable": true}, "class_name": "ZeroPadding1D"}, {"config": {"b_constraint": null, "input_length": null, "W_constraint": null, "subsample_length": 1, "activity_regularizer": null, "init": "uniform", "b_regularizer": null, "trainable": true, "nb_filter": 200, "input_dim": null, "W_regularizer": null, "border_mode": "valid", "activation": "relu", "name": "convolution1d_1_semeval_model", "filter_length": 6, "bias": true}, "class_name": "Convolution1D"}, {"config": {"stride": 2, "border_mode": "valid", "name": "maxpooling1d_1_semeval_model", "trainable": true, "pool_length": 4}, "class_name": "MaxPooling1D"}, {"config": {"b_constraint": null, "input_length": null, "W_constraint": null, "subsample_length": 1, "activity_regularizer": null, "init": "uniform", "b_regularizer": null, "trainable": true, "nb_filter": 200, "input_dim": null, "W_regularizer": null, "border_mode": "valid", "activation": "relu", "name": "convolution1d_2_semeval_model", "filter_length": 6, "bias": true}, "class_name": "Convolution1D"}], "class_name": "Sequential"}], "concat_axis": -1, "mode_type": "raw", "output_shape": null, "mode": "concat", "dot_axes": -1}, "class_name": "Merge"}, {"config": {"stride": 2, "name": "maxpooling1d_1", "trainable": true, "pool_length": 4, "border_mode": "valid"}, "class_name": "MaxPooling1D"}, {"config": {"b_constraint": null, "input_length": null, "W_constraint": null, "subsample_length": 1, "activity_regularizer": null, "init": "uniform", "b_regularizer": null, "trainable": true, "nb_filter": 200, "input_dim": null, "W_regularizer": null, "border_mode": "valid", "activation": "relu", "name": "convolution1d_1", "filter_length": 6, "bias": true}, "class_name": "Convolution1D"}, {"config": {"stride": 2, "name": "maxpooling1d_2", "trainable": true, "pool_length": 4, "border_mode": "valid"}, "class_name": "MaxPooling1D"}, {"config": {"name": "flatten_1", "trainable": true}, "class_name": "Flatten"}, {"config": {"b_constraint": null, "W_constraint": null, "activity_regularizer": null, "init": "glorot_uniform", "b_regularizer": null, "trainable": true, "input_dim": null, "W_regularizer": null, "activation": "linear", "name": "dense_1", "output_dim": 200, "bias": true}, "class_name": "Dense"}, {"config": {"p": 0.2, "name": "dropout_1", "trainable": true}, "class_name": "Dropout"}, {"config": {"activation": "relu", "name": "activation_1", "trainable": true}, "class_name": "Activation"}, {"config": {"b_constraint": null, "W_constraint": null, "activity_regularizer": null, "init": "glorot_uniform", "b_regularizer": null, "trainable": true, "input_dim": null, "W_regularizer": null, "activation": "softmax", "name": "dense_2", "output_dim": 3, "bias": true}, "class_name": "Dense"}], "class_name": "Sequential", "keras_version": "1.1.1"}