{"keras_version": "1.1.1", "config": [{"config": {"dot_axes": -1, "mode_type": "raw", "mode": "concat", "concat_axis": -1, "layers": [{"config": [{"config": {"input_dtype": "int32", "input_length": 140, "trainable": true, "name": "embedding_1_dai_model", "output_dim": 52, "batch_input_shape": [null, 140], "dropout": 0.2, "activity_regularizer": null, "init": "uniform", "W_constraint": null, "W_regularizer": null, "mask_zero": false, "input_dim": 1576890}, "class_name": "Embedding"}, {"config": {"trainable": true, "name": "zeropadding1d_1_dai_model", "padding": 5}, "class_name": "ZeroPadding1D"}, {"config": {"input_length": null, "activation": "relu", "bias": true, "name": "convolution1d_1_dai_model", "nb_filter": 200, "trainable": true, "b_regularizer": null, "subsample_length": 1, "filter_length": 6, "W_regularizer": null, "border_mode": "valid", "activity_regularizer": null, "input_dim": null, "b_constraint": null, "W_constraint": null, "init": "uniform"}, "class_name": "Convolution1D"}, {"config": {"trainable": true, "border_mode": "valid", "name": "maxpooling1d_1_dai_model", "pool_length": 4, "stride": 2}, "class_name": "MaxPooling1D"}, {"config": {"input_length": null, "activation": "relu", "bias": true, "name": "convolution1d_2_dai_model", "nb_filter": 200, "trainable": true, "b_regularizer": null, "subsample_length": 1, "filter_length": 6, "W_regularizer": null, "border_mode": "valid", "activity_regularizer": null, "input_dim": null, "b_constraint": null, "W_constraint": null, "init": "uniform"}, "class_name": "Convolution1D"}], "class_name": "Sequential"}, {"config": [{"config": {"input_dtype": "int32", "input_length": 140, "trainable": true, "name": "embedding_1_hul_model", "output_dim": 52, "batch_input_shape": [null, 140], "dropout": 0.2, "activity_regularizer": null, "init": "uniform", "W_constraint": null, "W_regularizer": null, "mask_zero": false, "input_dim": 1062158}, "class_name": "Embedding"}, {"config": {"trainable": true, "name": "zeropadding1d_1_hul_model", "padding": 5}, "class_name": "ZeroPadding1D"}, {"config": {"input_length": null, "activation": "relu", "bias": true, "name": "convolution1d_1_hul_model", "nb_filter": 200, "trainable": true, "b_regularizer": null, "subsample_length": 1, "filter_length": 6, "W_regularizer": null, "border_mode": "valid", "activity_regularizer": null, "input_dim": null, "b_constraint": null, "W_constraint": null, "init": "uniform"}, "class_name": "Convolution1D"}, {"config": {"trainable": true, "border_mode": "valid", "name": "maxpooling1d_1_hul_model", "pool_length": 4, "stride": 2}, "class_name": "MaxPooling1D"}, {"config": {"input_length": null, "activation": "relu", "bias": true, "name": "convolution1d_2_hul_model", "nb_filter": 200, "trainable": true, "b_regularizer": null, "subsample_length": 1, "filter_length": 6, "W_regularizer": null, "border_mode": "valid", "activity_regularizer": null, "input_dim": null, "b_constraint": null, "W_constraint": null, "init": "uniform"}, "class_name": "Convolution1D"}], "class_name": "Sequential"}, {"config": [{"config": {"input_dtype": "int32", "input_length": 140, "trainable": true, "name": "embedding_17_mpq_model", "output_dim": 52, "batch_input_shape": [null, 140], "dropout": 0.2, "activity_regularizer": null, "init": "uniform", "W_constraint": null, "W_regularizer": null, "mask_zero": false, "input_dim": 428669}, "class_name": "Embedding"}, {"config": {"trainable": true, "name": "zeropadding1d_17_mpq_model", "padding": 5}, "class_name": "ZeroPadding1D"}, {"config": {"input_length": null, "activation": "relu", "bias": true, "name": "convolution1d_33_mpq_model", "nb_filter": 200, "trainable": true, "b_regularizer": null, "subsample_length": 1, "filter_length": 6, "W_regularizer": null, "border_mode": "valid", "activity_regularizer": null, "input_dim": null, "b_constraint": null, "W_constraint": null, "init": "uniform"}, "class_name": "Convolution1D"}, {"config": {"trainable": true, "border_mode": "valid", "name": "maxpooling1d_33_mpq_model", "pool_length": 4, "stride": 2}, "class_name": "MaxPooling1D"}, {"config": {"input_length": null, "activation": "relu", "bias": true, "name": "convolution1d_34_mpq_model", "nb_filter": 200, "trainable": true, "b_regularizer": null, "subsample_length": 1, "filter_length": 6, "W_regularizer": null, "border_mode": "valid", "activity_regularizer": null, "input_dim": null, "b_constraint": null, "W_constraint": null, "init": "uniform"}, "class_name": "Convolution1D"}], "class_name": "Sequential"}, {"config": [{"config": {"input_dtype": "int32", "input_length": 140, "trainable": true, "name": "embedding_1_semeval_model", "output_dim": 52, "batch_input_shape": [null, 140], "dropout": 0.2, "activity_regularizer": null, "init": "uniform", "W_constraint": null, "W_regularizer": null, "mask_zero": false, "input_dim": 1576890}, "class_name": "Embedding"}, {"config": {"trainable": true, "name": "zeropadding1d_1_semeval_model", "padding": 5}, "class_name": "ZeroPadding1D"}, {"config": {"input_length": null, "activation": "relu", "bias": true, "name": "convolution1d_1_semeval_model", "nb_filter": 200, "trainable": true, "b_regularizer": null, "subsample_length": 1, "filter_length": 6, "W_regularizer": null, "border_mode": "valid", "activity_regularizer": null, "input_dim": null, "b_constraint": null, "W_constraint": null, "init": "uniform"}, "class_name": "Convolution1D"}, {"config": {"trainable": true, "border_mode": "valid", "name": "maxpooling1d_1_semeval_model", "pool_length": 4, "stride": 2}, "class_name": "MaxPooling1D"}, {"config": {"input_length": null, "activation": "relu", "bias": true, "name": "convolution1d_2_semeval_model", "nb_filter": 200, "trainable": true, "b_regularizer": null, "subsample_length": 1, "filter_length": 6, "W_regularizer": null, "border_mode": "valid", "activity_regularizer": null, "input_dim": null, "b_constraint": null, "W_constraint": null, "init": "uniform"}, "class_name": "Convolution1D"}], "class_name": "Sequential"}], "name": "merge_1", "output_shape_type": "raw", "output_shape": null}, "class_name": "Merge"}, {"config": {"trainable": true, "border_mode": "valid", "name": "maxpooling1d_1", "pool_length": 4, "stride": 2}, "class_name": "MaxPooling1D"}, {"config": {"input_length": null, "input_dim": null, "trainable": true, "name": "convolution1d_1", "nb_filter": 200, "bias": true, "b_regularizer": null, "subsample_length": 1, "filter_length": 6, "border_mode": "valid", "W_regularizer": null, "activity_regularizer": null, "activation": "relu", "b_constraint": null, "W_constraint": null, "init": "uniform"}, "class_name": "Convolution1D"}, {"config": {"trainable": true, "border_mode": "valid", "name": "maxpooling1d_2", "pool_length": 4, "stride": 2}, "class_name": "MaxPooling1D"}, {"config": {"trainable": true, "name": "flatten_1"}, "class_name": "Flatten"}, {"config": {"activation": "linear", "trainable": true, "name": "dense_1", "output_dim": 200, "bias": true, "b_regularizer": null, "activity_regularizer": null, "init": "glorot_uniform", "W_constraint": null, "W_regularizer": null, "b_constraint": null, "input_dim": null}, "class_name": "Dense"}, {"config": {"trainable": true, "name": "dropout_1", "p": 0.2}, "class_name": "Dropout"}, {"config": {"trainable": true, "name": "activation_1", "activation": "relu"}, "class_name": "Activation"}, {"config": {"activation": "softmax", "trainable": true, "name": "dense_2", "output_dim": 3, "bias": true, "b_regularizer": null, "activity_regularizer": null, "init": "glorot_uniform", "W_constraint": null, "W_regularizer": null, "b_constraint": null, "input_dim": null}, "class_name": "Dense"}], "class_name": "Sequential"}