{"class_name": "Sequential", "config": [{"class_name": "Merge", "config": {"output_shape": null, "mode_type": "raw", "output_shape_type": "raw", "name": "merge_1", "concat_axis": -1, "dot_axes": -1, "mode": "concat", "layers": [{"class_name": "Sequential", "config": [{"class_name": "Embedding", "config": {"output_dim": 52, "mask_zero": false, "init": "uniform", "W_constraint": null, "input_dim": 428669, "input_dtype": "int32", "input_length": 140, "trainable": true, "W_regularizer": null, "name": "embedding_1_semeval_model", "dropout": 0.2, "batch_input_shape": [null, 140], "activity_regularizer": null}}, {"class_name": "ZeroPadding1D", "config": {"trainable": true, "name": "zeropadding1d_1_semeval_model", "padding": 5}}, {"class_name": "Convolution1D", "config": {"nb_filter": 200, "init": "uniform", "activation": "relu", "W_constraint": null, "input_dim": null, "b_regularizer": null, "W_regularizer": null, "bias": true, "border_mode": "valid", "input_length": null, "trainable": true, "subsample_length": 1, "b_constraint": null, "name": "convolution1d_1_semeval_model", "filter_length": 6, "activity_regularizer": null}}, {"class_name": "MaxPooling1D", "config": {"stride": 2, "trainable": true, "name": "maxpooling1d_1_semeval_model", "pool_length": 4, "border_mode": "valid"}}, {"class_name": "Convolution1D", "config": {"nb_filter": 200, "init": "uniform", "activation": "relu", "W_constraint": null, "input_dim": null, "b_regularizer": null, "W_regularizer": null, "bias": true, "border_mode": "valid", "input_length": null, "trainable": true, "subsample_length": 1, "b_constraint": null, "name": "convolution1d_2_semeval_model", "filter_length": 6, "activity_regularizer": null}}]}, {"class_name": "Sequential", "config": [{"class_name": "Embedding", "config": {"output_dim": 52, "mask_zero": false, "init": "uniform", "W_constraint": null, "input_dim": 428669, "input_dtype": "int32", "input_length": 140, "trainable": true, "W_regularizer": null, "name": "embedding_17_mpq_model", "dropout": 0.2, "batch_input_shape": [null, 140], "activity_regularizer": null}}, {"class_name": "ZeroPadding1D", "config": {"trainable": true, "name": "zeropadding1d_17_mpq_model", "padding": 5}}, {"class_name": "Convolution1D", "config": {"nb_filter": 200, "init": "uniform", "activation": "relu", "W_constraint": null, "input_dim": null, "b_regularizer": null, "W_regularizer": null, "bias": true, "border_mode": "valid", "input_length": null, "trainable": true, "subsample_length": 1, "b_constraint": null, "name": "convolution1d_33_mpq_model", "filter_length": 6, "activity_regularizer": null}}, {"class_name": "MaxPooling1D", "config": {"stride": 2, "trainable": true, "name": "maxpooling1d_33_mpq_model", "pool_length": 4, "border_mode": "valid"}}, {"class_name": "Convolution1D", "config": {"nb_filter": 200, "init": "uniform", "activation": "relu", "W_constraint": null, "input_dim": null, "b_regularizer": null, "W_regularizer": null, "bias": true, "border_mode": "valid", "input_length": null, "trainable": true, "subsample_length": 1, "b_constraint": null, "name": "convolution1d_34_mpq_model", "filter_length": 6, "activity_regularizer": null}}]}, {"class_name": "Sequential", "config": [{"class_name": "Embedding", "config": {"output_dim": 52, "mask_zero": false, "init": "uniform", "W_constraint": null, "input_dim": 1062158, "input_dtype": "int32", "input_length": 140, "trainable": true, "W_regularizer": null, "name": "embedding_1_hul_model", "dropout": 0.2, "batch_input_shape": [null, 140], "activity_regularizer": null}}, {"class_name": "ZeroPadding1D", "config": {"trainable": true, "name": "zeropadding1d_1_hul_model", "padding": 5}}, {"class_name": "Convolution1D", "config": {"nb_filter": 200, "init": "uniform", "activation": "relu", "W_constraint": null, "input_dim": null, "b_regularizer": null, "W_regularizer": null, "bias": true, "border_mode": "valid", "input_length": null, "trainable": true, "subsample_length": 1, "b_constraint": null, "name": "convolution1d_1_hul_model", "filter_length": 6, "activity_regularizer": null}}, {"class_name": "MaxPooling1D", "config": {"stride": 2, "trainable": true, "name": "maxpooling1d_1_hul_model", "pool_length": 4, "border_mode": "valid"}}, {"class_name": "Convolution1D", "config": {"nb_filter": 200, "init": "uniform", "activation": "relu", "W_constraint": null, "input_dim": null, "b_regularizer": null, "W_regularizer": null, "bias": true, "border_mode": "valid", "input_length": null, "trainable": true, "subsample_length": 1, "b_constraint": null, "name": "convolution1d_2_hul_model", "filter_length": 6, "activity_regularizer": null}}]}, {"class_name": "Sequential", "config": [{"class_name": "Embedding", "config": {"output_dim": 52, "mask_zero": false, "init": "uniform", "W_constraint": null, "input_dim": 1576890, "input_dtype": "int32", "input_length": 140, "trainable": true, "W_regularizer": null, "name": "embedding_1_dil_model", "dropout": 0.2, "batch_input_shape": [null, 140], "activity_regularizer": null}}, {"class_name": "ZeroPadding1D", "config": {"trainable": true, "name": "zeropadding1d_1_dil_model", "padding": 5}}, {"class_name": "Convolution1D", "config": {"nb_filter": 200, "init": "uniform", "activation": "relu", "W_constraint": null, "input_dim": null, "b_regularizer": null, "W_regularizer": null, "bias": true, "border_mode": "valid", "input_length": null, "trainable": true, "subsample_length": 1, "b_constraint": null, "name": "convolution1d_1_dil_model", "filter_length": 6, "activity_regularizer": null}}, {"class_name": "MaxPooling1D", "config": {"stride": 2, "trainable": true, "name": "maxpooling1d_1_dil_model", "pool_length": 4, "border_mode": "valid"}}, {"class_name": "Convolution1D", "config": {"nb_filter": 200, "init": "uniform", "activation": "relu", "W_constraint": null, "input_dim": null, "b_regularizer": null, "W_regularizer": null, "bias": true, "border_mode": "valid", "input_length": null, "trainable": true, "subsample_length": 1, "b_constraint": null, "name": "convolution1d_2_dil_model", "filter_length": 6, "activity_regularizer": null}}]}, {"class_name": "Sequential", "config": [{"class_name": "Embedding", "config": {"output_dim": 52, "mask_zero": false, "init": "uniform", "W_constraint": null, "input_dim": 1576890, "input_dtype": "int32", "input_length": 140, "trainable": true, "W_regularizer": null, "name": "embedding_1_dai_model", "dropout": 0.2, "batch_input_shape": [null, 140], "activity_regularizer": null}}, {"class_name": "ZeroPadding1D", "config": {"trainable": true, "name": "zeropadding1d_1_dai_model", "padding": 5}}, {"class_name": "Convolution1D", "config": {"nb_filter": 200, "init": "uniform", "activation": "relu", "W_constraint": null, "input_dim": null, "b_regularizer": null, "W_regularizer": null, "bias": true, "border_mode": "valid", "input_length": null, "trainable": true, "subsample_length": 1, "b_constraint": null, "name": "convolution1d_1_dai_model", "filter_length": 6, "activity_regularizer": null}}, {"class_name": "MaxPooling1D", "config": {"stride": 2, "trainable": true, "name": "maxpooling1d_1_dai_model", "pool_length": 4, "border_mode": "valid"}}, {"class_name": "Convolution1D", "config": {"nb_filter": 200, "init": "uniform", "activation": "relu", "W_constraint": null, "input_dim": null, "b_regularizer": null, "W_regularizer": null, "bias": true, "border_mode": "valid", "input_length": null, "trainable": true, "subsample_length": 1, "b_constraint": null, "name": "convolution1d_2_dai_model", "filter_length": 6, "activity_regularizer": null}}]}, {"class_name": "Sequential", "config": [{"class_name": "Embedding", "config": {"output_dim": 52, "mask_zero": false, "init": "uniform", "W_constraint": null, "input_dim": 428669, "input_dtype": "int32", "input_length": 140, "trainable": true, "W_regularizer": null, "name": "embedding_1_tac_model", "dropout": 0.2, "batch_input_shape": [null, 140], "activity_regularizer": null}}, {"class_name": "ZeroPadding1D", "config": {"trainable": true, "name": "zeropadding1d_1_tac_model", "padding": 5}}, {"class_name": "Convolution1D", "config": {"nb_filter": 200, "init": "uniform", "activation": "relu", "W_constraint": null, "input_dim": null, "b_regularizer": null, "W_regularizer": null, "bias": true, "border_mode": "valid", "input_length": null, "trainable": true, "subsample_length": 1, "b_constraint": null, "name": "convolution1d_1_tac_model", "filter_length": 6, "activity_regularizer": null}}, {"class_name": "MaxPooling1D", "config": {"stride": 2, "trainable": true, "name": "maxpooling1d_1_tac_model", "pool_length": 4, "border_mode": "valid"}}, {"class_name": "Convolution1D", "config": {"nb_filter": 200, "init": "uniform", "activation": "relu", "W_constraint": null, "input_dim": null, "b_regularizer": null, "W_regularizer": null, "bias": true, "border_mode": "valid", "input_length": null, "trainable": true, "subsample_length": 1, "b_constraint": null, "name": "convolution1d_2_tac_model", "filter_length": 6, "activity_regularizer": null}}]}]}}, {"class_name": "Flatten", "config": {"trainable": true, "name": "flatten_1"}}, {"class_name": "Dense", "config": {"output_dim": 200, "init": "glorot_uniform", "activation": "linear", "W_constraint": null, "input_dim": null, "name": "dense_1", "b_regularizer": null, "bias": true, "trainable": true, "b_constraint": null, "W_regularizer": null, "activity_regularizer": null}}, {"class_name": "Dropout", "config": {"p": 0.2, "trainable": true, "name": "dropout_1"}}, {"class_name": "Activation", "config": {"trainable": true, "name": "activation_1", "activation": "relu"}}, {"class_name": "Dense", "config": {"output_dim": 3, "init": "glorot_uniform", "activation": "softmax", "W_constraint": null, "input_dim": null, "name": "dense_2", "b_regularizer": null, "bias": true, "trainable": true, "b_constraint": null, "W_regularizer": null, "activity_regularizer": null}}], "keras_version": "1.1.1"}