{"keras_version": "1.1.1", "config": [{"config": {"name": "merge_1", "dot_axes": -1, "concat_axis": -1, "mode_type": "raw", "output_shape_type": "raw", "mode": "concat", "layers": [{"config": [{"config": {"name": "embedding_17_mpq_model", "output_dim": 52, "activity_regularizer": null, "W_regularizer": null, "W_constraint": null, "init": "uniform", "dropout": 0.2, "input_dtype": "int32", "trainable": true, "input_dim": 428669, "mask_zero": false, "input_length": 140, "batch_input_shape": [null, 140]}, "class_name": "Embedding"}, {"config": {"name": "zeropadding1d_17_mpq_model", "trainable": true, "padding": 5}, "class_name": "ZeroPadding1D"}, {"config": {"name": "convolution1d_33_mpq_model", "activation": "relu", "activity_regularizer": null, "W_regularizer": null, "subsample_length": 1, "nb_filter": 200, "init": "uniform", "b_constraint": null, "trainable": true, "input_dim": null, "W_constraint": null, "filter_length": 6, "input_length": null, "b_regularizer": null, "border_mode": "valid", "bias": true}, "class_name": "Convolution1D"}, {"config": {"name": "maxpooling1d_33_mpq_model", "pool_length": 4, "trainable": true, "stride": 2, "border_mode": "valid"}, "class_name": "MaxPooling1D"}, {"config": {"name": "convolution1d_34_mpq_model", "activation": "relu", "activity_regularizer": null, "W_regularizer": null, "subsample_length": 1, "nb_filter": 200, "init": "uniform", "b_constraint": null, "trainable": true, "input_dim": null, "W_constraint": null, "filter_length": 6, "input_length": null, "b_regularizer": null, "border_mode": "valid", "bias": true}, "class_name": "Convolution1D"}], "class_name": "Sequential"}, {"config": [{"config": {"name": "embedding_1_semeval_model", "output_dim": 52, "activity_regularizer": null, "W_regularizer": null, "W_constraint": null, "init": "uniform", "dropout": 0.2, "input_dtype": "int32", "trainable": true, "input_dim": 1576890, "mask_zero": false, "input_length": 140, "batch_input_shape": [null, 140]}, "class_name": "Embedding"}, {"config": {"name": "zeropadding1d_1_semeval_model", "trainable": true, "padding": 5}, "class_name": "ZeroPadding1D"}, {"config": {"name": "convolution1d_1_semeval_model", "activation": "relu", "activity_regularizer": null, "W_regularizer": null, "subsample_length": 1, "nb_filter": 200, "init": "uniform", "b_constraint": null, "trainable": true, "input_dim": null, "W_constraint": null, "filter_length": 6, "input_length": null, "b_regularizer": null, "border_mode": "valid", "bias": true}, "class_name": "Convolution1D"}, {"config": {"name": "maxpooling1d_1_semeval_model", "pool_length": 4, "trainable": true, "stride": 2, "border_mode": "valid"}, "class_name": "MaxPooling1D"}, {"config": {"name": "convolution1d_2_semeval_model", "activation": "relu", "activity_regularizer": null, "W_regularizer": null, "subsample_length": 1, "nb_filter": 200, "init": "uniform", "b_constraint": null, "trainable": true, "input_dim": null, "W_constraint": null, "filter_length": 6, "input_length": null, "b_regularizer": null, "border_mode": "valid", "bias": true}, "class_name": "Convolution1D"}], "class_name": "Sequential"}], "output_shape": null}, "class_name": "Merge"}, {"config": {"name": "maxpooling1d_1", "pool_length": 4, "trainable": true, "stride": 2, "border_mode": "valid"}, "class_name": "MaxPooling1D"}, {"config": {"name": "convolution1d_1", "activation": "relu", "activity_regularizer": null, "W_regularizer": null, "subsample_length": 1, "nb_filter": 200, "init": "uniform", "b_constraint": null, "trainable": true, "input_dim": null, "W_constraint": null, "filter_length": 6, "input_length": null, "b_regularizer": null, "border_mode": "valid", "bias": true}, "class_name": "Convolution1D"}, {"config": {"name": "maxpooling1d_2", "pool_length": 4, "trainable": true, "stride": 2, "border_mode": "valid"}, "class_name": "MaxPooling1D"}, {"config": {"name": "flatten_1", "trainable": true}, "class_name": "Flatten"}, {"config": {"name": "dense_1", "activation": "linear", "activity_regularizer": null, "W_regularizer": null, "W_constraint": null, "init": "glorot_uniform", "b_constraint": null, "output_dim": 200, "trainable": true, "input_dim": null, "b_regularizer": null, "bias": true}, "class_name": "Dense"}, {"config": {"name": "dropout_1", "trainable": true, "p": 0.2}, "class_name": "Dropout"}, {"config": {"name": "activation_1", "activation": "relu", "trainable": true}, "class_name": "Activation"}, {"config": {"name": "dense_2", "activation": "softmax", "activity_regularizer": null, "W_regularizer": null, "W_constraint": null, "init": "glorot_uniform", "b_constraint": null, "output_dim": 3, "trainable": true, "input_dim": null, "b_regularizer": null, "bias": true}, "class_name": "Dense"}], "class_name": "Sequential"}