{"config": [{"config": {"input_length": 140, "mask_zero": false, "init": "uniform", "activity_regularizer": null, "output_dim": 52, "name": "embedding_1", "dropout": 0.2, "input_dtype": "int32", "W_regularizer": null, "trainable": true, "W_constraint": null, "input_dim": 1062158, "batch_input_shape": [null, 140]}, "class_name": "Embedding"}, {"config": {"trainable": true, "padding": 5, "name": "zeropadding1d_1"}, "class_name": "ZeroPadding1D"}, {"config": {"input_length": null, "activation": "relu", "border_mode": "valid", "init": "uniform", "activity_regularizer": null, "nb_filter": 200, "filter_length": 6, "b_constraint": null, "bias": true, "b_regularizer": null, "W_regularizer": null, "trainable": true, "name": "convolution1d_1", "W_constraint": null, "input_dim": null, "subsample_length": 1}, "class_name": "Convolution1D"}, {"config": {"trainable": true, "pool_length": 4, "stride": 2, "border_mode": "valid", "name": "maxpooling1d_1"}, "class_name": "MaxPooling1D"}, {"config": {"input_length": null, "activation": "relu", "border_mode": "valid", "init": "uniform", "activity_regularizer": null, "nb_filter": 200, "filter_length": 6, "b_constraint": null, "bias": true, "b_regularizer": null, "W_regularizer": null, "trainable": true, "name": "convolution1d_2", "W_constraint": null, "input_dim": null, "subsample_length": 1}, "class_name": "Convolution1D"}, {"config": {"trainable": true, "pool_length": 66, "stride": 66, "border_mode": "valid", "name": "maxpooling1d_2"}, "class_name": "MaxPooling1D"}, {"config": {"trainable": true, "name": "flatten_1"}, "class_name": "Flatten"}, {"config": {"activation": "linear", "init": "glorot_uniform", "activity_regularizer": null, "output_dim": 200, "name": "dense_1", "b_constraint": null, "bias": true, "b_regularizer": null, "W_regularizer": null, "trainable": true, "W_constraint": null, "input_dim": null}, "class_name": "Dense"}, {"config": {"trainable": true, "p": 0.2, "name": "dropout_1"}, "class_name": "Dropout"}, {"config": {"trainable": true, "activation": "relu", "name": "activation_1"}, "class_name": "Activation"}, {"config": {"activation": "softmax", "init": "glorot_uniform", "activity_regularizer": null, "output_dim": 3, "name": "dense_2", "b_constraint": null, "bias": true, "b_regularizer": null, "W_regularizer": null, "trainable": true, "W_constraint": null, "input_dim": null}, "class_name": "Dense"}], "keras_version": "1.1.1", "class_name": "Sequential"}